cnn_fighting_agent_starter/outputs/20251017_162629/model.pt (torch, 239835 bytes, 12 tensors)

state_cnn.0.0.weight f4 [16, 3, 3, 3]
0.13535959 0.11054351 0.15663928 0.062076513 -0.10208141 -0.15979904 0.08582227 0.020780645
-0.051113304 -0.103404924 0.1437302 -0.077401295 -0.14999597 0.02370944 0.037555516 0.13699293
-0.014131714 0.080246985 0.16578846 -0.13953823 0.1420286 -0.15168472 -0.13127273 -0.045344055
-0.14912061 0.090630054 -0.09591951 -0.13494502 0.16461197 0.064832166 0.039573535 -0.076962456
-0.15493932 0.10933427 0.18516335 0.049087245 0.019305121 -0.14464805 -0.1028215 -0.15614782
-0.1547115 -0.13615613 -0.046584044 -0.11587734 0.08571701 0.07719786 0.08723449 -0.13035662
0.06432006 0.16997458 -0.1459713 -0.14885034 -0.004229523 -0.17942828 0.058936417 0.15150073
0.055074386 -0.02734692 -0.16231826 -0.052133862 -0.19224918 -0.06378266 0.036060195 0.15408006
0.1208759 -0.026368951 0.09633061 -0.18122683 0.10909106 0.11209372 0.06167224 0.15842897
-0.023780236 0.08222666 0.032279246 0.10327936 0.023237415 0.074249096 0.07946774 -0.05423126
-0.12802537 0.10956883 -0.049327623 0.05460199 -0.0967744 0.17063174 -0.12038177 0.1593034
-0.16595584 0.18626302 -0.052909885 0.15581928 0.015174909 -0.11746535 -0.13381907 -0.013615491
0.04150115 -0.044768184 -0.17411901 0.10899846 0.06839658 -0.13466942 0.13687307 -0.073223695
-0.0733529 0.03567033 0.1218987 -0.047140073 -0.07344528 0.13533545 0.0859815 -0.15967976
0.16034071 0.17527564 -0.15772635 0.121559724 -0.10648552 0.17064103 -0.11130805 0.10841769
0.17897606 0.058473684 -0.15344445 0.012061284 0.1724019 0.18331526 -0.1963477 -0.015724694
-0.030543266 -0.07563005 -0.13676772 -0.13101172 0.15993242 -0.09805938 0.1248691 0.07356019
0.1490988 -0.07578415 0.13605101 0.11176125 0.1269546 -0.19616748 -0.043883964 -0.0030629246
-0.15322118 -0.19895291 0.03584791 0.113226674 0.16279697 0.05948297 -0.07212505 -0.18867968
-0.03299894 0.17686516 0.10287251 0.04358388 -0.040779263 0.1585347 -0.1614114 0.037488047
-0.19112763 0.13512085 -0.19401513 -0.03503285 0.1449359 -0.16847603 0.20592642 0.18074271
0.17337641 0.0020307314 -0.10504487 0.14567523 0.10737008 0.08928582 -0.05000964 0.063036695
-0.032868613 0.13607286 -0.13753983 -0.01644117 -0.039738927 -0.07237093 0.01321872 -0.14614731
-0.06537152 -0.008850506 -0.030057339 -0.12919156 -0.16542314 0.06697679 -0.12826262 0.17721127
0.11920089 -0.0065238196 0.07105294 0.17335643 0.09174982 0.06198545 -0.17439614 -0.0013246213
0.025152346 0.02383316 -0.060484093 -0.12478545 -0.012227357 -0.13536812 -0.15572767 0.17916726
0.12026387 -0.15891507 0.17681971 0.038591277 0.12896486 0.0780212 0.11930824 0.09465472
0.15872675 0.025609925 0.022154173 -0.14054751 0.18573876 0.086381964 -0.12885831 0.0022304708
-0.059649847 0.019703962 -0.058745123 -0.0998898 -0.04426552 0.052646223 -0.1975324 0.11430863
-0.1710751 -0.12808841 -0.009422815 0.14589883 0.05551483 0.107457414 -0.13492288 0.123668745
0.18942907 0.1298365 0.026262533 0.08225172 -0.10441025 0.15799953 0.083567016 -0.036911346
0.1153859 -0.014220905 -0.1676319 0.015126462 0.13766824 -0.13825738 0.029382136 0.08811164
00000000: b49b 0a3e a364 e23d 0c66 203e f143 7e3d
00000010: 0f10 d1bd 5ca2 23be 96c3 af3d 2c3c aa3c
00000020: 2f5c 51bd f6c5 d3bd 022e 133e 9284 9ebd
00000030: 8b98 19be 4d3a c23c d0d3 193d e047 0c3e
00000040: b488 67bc 8858 a43d 73c4 293e 1ce3 0ebe
00000050: f26f 113e 3d53 1bbe 5c6c 06be b0ba 39bd
00000060: 13b3 18be 409c b93d 7371 c4bd 072f 0abe
00000070: 0a90 283e bac6 843d dc17 223d 7e9e 9dbd
00000080: 6aa8 1ebe a5ea df3d 769b 3d3e b50f 493d
00000090: c625 9e3c 9e1e 14be 1494 d2bd 37e5 1fbe
000000a0: b16c 1ebe 836c 0bbe e9ce 3ebd 1951 edbd
000000b0: 668c af3d e919 9e3d ffa7 b23d 357c 05be
000000c0: 3cba 833d d10d 2e3e 8079 15be 396c 18be
000000d0: cf97 8abb 0cbc 37be 5067 713d 0223 1b3e
000000e0: ae95 613d a606 e0bc c236 26be 518a 55bd
000000f0: f8dc 44be 7ca0 82bd dbb3 133d 2ac7 1d3e
00000100: c98d f73d b303 d8bc fc48 c53d 8793 39be
00000110: 226b df3d 6491 e53d 089c 7c3d 343b 223e
00000120: c5ce c2bc 7366 a83d 3e37 043d 2184 d33d
00000130: 645c be3c e90f 983d fcbf a23d 9921 5ebd
00000140: 1519 03be 9f65 e03d c30b 4abd 56a6 5f3d
00000150: a831 c6bd 16ba 2e3e b88a f6bd 6e20 233e
00000160: 54f0 29be bcbb 3e3e 09b8 58bd 178f 1f3e
00000170: 2ea0 783c ac91 f0bd de07 09be 8213 5fbc
00000180: 1cfd 293d d85e 37bd 414c 32be 963a df3d
00000190: 8213 8c3d c8e6 09be 7428 0c3e 4ef6 95bd
000001a0: 0c3a 96bd 0d1b 123d 07a6 f93d f315 41bd
000001b0: 7b6a 96bd 6095 0a3e 1217 b03d 1783 23be
000001c0: 5b30 243e 757b 333e 0483 21be 4ef4 f83d
000001d0: 1515 dabd 86bc 2e3e 7af5 e3bd 180a de3d
000001e0: 8045 373e 1a82 6f3d 8b20 1dbe b19c 453c
000001f0: 208a 303e ffb6 3b3e 5f0f 49be 13d1 80bc
00000200: df35 fabc ede3 9abd d60c 0cbe f027 06be
00000210: 53c5 233e 5bd3 c8bd 5fbb ff3d baa6 963d
00000220: 5bad 183e b834 9bbd f550 0b3e 15e3 e43d
00000230: 6300 023e 21e0 48be acbf 33bd 59bb 48bb
00000240: 03e6 1cbe 50ba 4bbe 42d5 123d 63e3 e73d
00000250: 40b4 263e 6aa4 733d 4cb6 93bd 3f35 41be
00000260: e629 07bd 241c 353e d3ae d23d 0385 323d
00000270: 2808 27bd ec56 223e 0849 25be 118d 193d
00000280: f6b6 43be 1f5d 0a3e e7ab 46be 9b7e 0fbd
00000290: 146a 143e fb84 2cbe 60de 523e 9e14 393e
000002a0: 9689 313e 0516 053b c421 d7bd e32b 153e
000002b0: d8e4 db3d 7cdb b63d e9d6 4cbd 6219 813d
000002c0: 3da1 06bd af56 0b3e 3ed7 0cbe a2af 86bc
000002d0: 49c5 22bd 3637 94bd 5593 583c a4a7 15be
000002e0: 81e1 85bd b601 11bc cf3a f6bc cb4a 04be
000002f0: af64 29be 212b 893d 4757 03be df76 353e
00000300: 991f f43d c4c5 d5bb 3484 913d 5984 313e
00000310: 54e7 bb3d 75e4 7d3d e794 32be ea9e adba
00000320: 4b0c ce3c c23d c33c 2bbe 77bd 848f ffbd
00000330: 4155 48bc f19d 0abe 1377 1fbe 9f77 373e
00000340: e74c f63d a2ba 22be 3a10 353e e311 1e3d
00000350: 5d0f 043e 94c9 9f3d e157 f43d 55da c13d
00000360: 4489 223e e8cb d13c ab7c b53c b0eb 0fbe
00000370: 4d32 3e3e 07e9 b03d 6ff3 03be 172d 123b
00000380: 6653 74bd 346a a13c ba9e 70bd 0693 ccbd
00000390: c34f 35bd 91a3 573d ef45 4abe a51a ea3d
000003a0: 502e 2fbe 9c29 03be 2762 1abc 8166 153e
000003b0: 8563 633d a212 dc3d 3929 0abe 0a46 fd3d
000003c0: b2f9 413e dcf3 043e 8624 d73c 9773 a83d
000003d0: 0bd5 d5bd a1ca 213e 2f25 ab3d 5a30 17bd
000003e0: 714f ec3d ccfe 68bc b2a7 2bbe fbd4 773c
000003f0: e7f8 0c3e 5893 0dbe ceb2 f03c e073 b43d

state_cnn.0.0.bias f4 [16]
-0.00932697 -0.045644015 -0.03731247 0.0072690817 -0.17044683 0.12633386 0.01727884 -0.03972311
-0.073557906 -0.026398038 0.07211136 0.061953694 -0.090388134 -0.05946952 0.12303969 0.07165825
00000000: 26d0 18bc 38f5 3abd f6d4 18bd 7a31 ee3b
00000010: 9d89 2ebe aa5d 013e 5b8c 8d3c b3b4 22bd
00000020: 87a5 96bd b340 d8bc 1faf 933d 28c3 7d3d
00000030: 6a1d b9bd 5096 73bd 3cfc fb3d 90c1 923d

state_cnn.1.0.weight f4 [32, 16, 3, 3]
-0.067168295 0.032784536 -0.032632403 0.05213306 -0.003713336 0.07197959 0.016294867 -0.06680463
0.031282723 -0.01292653 -0.008352389 0.041531585 -0.03328028 -0.015575695 -0.023561515 0.02602487
-0.017320137 -0.010619555 0.068484634 -0.016250791 -0.017969005 -0.0712356 -0.05867419 0.04786672
0.042551342 0.066608496 -0.06810941 0.022532701 -0.015540114 0.015062139 -0.079942755 0.055498358
-0.032389224 0.044833075 -0.031531736 -0.06598285 0.051687215 -0.066603646 -0.08718271 -0.01872315
0.05536485 -0.06532662 0.00055859966 0.05714355 -0.077995 -0.018487465 0.022820257 -0.015047331
-0.05142525 0.0029151696 0.060929302 -0.002400081 -0.011971804 0.013192176 0.045333344 0.05897618
-0.024484847 -0.007526247 -0.08693615 0.013582264 0.07658395 -0.010280064 0.008225504 0.06485331
-0.059939466 0.06406424 0.048515465 -0.018643724 0.02660097 0.06722338 0.024817219 0.01881017
0.042327184 0.016498782 -0.025253654 0.011530361 -0.04388667 -0.0020625808 0.000112586975 -0.033361256
-0.03901591 -0.029452134 0.00948533 -0.034280833 0.01638273 -0.060571026 -0.004644725 -0.05217926
-0.08567046 0.062756814 -0.104174316 -0.027159799 0.07701517 0.023196679 -0.0674013 0.005571892
0.11315254 -0.017141249 -0.034202978 -0.006058501 -0.052313704 -0.0787674 -0.0014480755 -0.04259075
-0.009366325 0.06549794 0.009178472 0.013901367 0.036808945 0.07008383 0.0060309973 0.045402206
0.029173937 -0.042398553 -0.009824185 0.06912981 0.014689303 0.03617677 0.06737501 -0.04674701
-0.07022552 0.067410186 0.017633868 0.027862057 0.04608234 0.0004863932 -0.045050606 0.08578532
-0.06416972 -0.008355288 -0.0005863152 -0.06606873 0.08284455 -0.023407862 0.053458933 0.04646891
-0.070608005 0.026989425 -0.08895575 0.07605396 0.043299865 -0.055971816 0.0499373 0.05615451
0.01881442 0.03149799 0.012321225 -0.02270617 0.012934509 0.06406322 -0.008995484 0.020112576
-0.035142925 -0.06618225 -0.09694458 0.06702206 -0.01540994 -0.023797851 0.0662209 0.03832304
-0.022645798 0.05874608 0.07951023 -0.00788487 0.03837616 0.020712547 -0.04872586 0.0076443604
-0.02127255 0.055551104 0.07128418 0.046775997 0.046688985 -0.003353843 -0.08252391 -0.07873376
0.029021196 0.05537734 -0.07347899 -0.03452262 0.009146295 0.0387917 0.030027902 0.0722041
0.08468702 -0.017983617 -0.055785287 -0.0006654105 0.03377869 0.015924629 0.0006769509 -0.022749672
0.042444706 -0.039212976 0.03710666 -0.06404243 -0.021869108 0.07672997 0.018429356 0.0010786038
-0.055700965 -0.032265767 -0.046092942 0.085192405 0.016648006 -0.08857757 -0.07488267 -0.07800994
0.035140786 -0.07985768 -0.040187754 -0.05967776 0.01914417 0.0124344705 0.010994145 0.0052013276
-0.023263836 -0.017944748 0.07366195 0.01880623 -0.053937584 -0.0032515286 0.030913647 -0.06501313
0.040695414 0.05959869 0.06460232 -0.045033637 -0.033330154 0.048756402 0.044525165 -0.0570174
-0.06861891 0.018542528 0.08017261 0.021326296 0.029252877 -0.06904889 -0.027514072 0.007021949
0.058290683 0.023488276 0.053798523 0.020607976 0.080902 0.019001788 -0.085855745 -0.0433427
0.031389777 0.039278984 -0.097830534 -0.009042401 0.066335514 0.042496763 0.02291875 0.056669764
00000000: 888f 89bd 1449 063d 8ea9 05bd 7a89 553d
00000010: 715b 73bb 096a 933d d07c 853c ded0 88bd
00000020: 5022 003d ccc9 53bc 75d8 08bc 061d 2a3d
00000030: e750 08bd 3331 7fbc 1404 c1bc 1c32 d53c
00000040: f6e2 8dbc a4fd 2dbc ac41 8c3d 6120 85bc
00000050: bc33 93bc f8e3 91bd 5954 70bd e50f 443d
00000060: 514a 2e3d 096a 883d f27c 8bbd 8096 b83c
00000070: f69b 7ebc 31c7 763c 07b9 a3bd 3f52 633d
00000080: 90aa 04bd e3a2 373d 6c27 01bd 0422 87bd
00000090: f9b5 533d 7e67 88bd d98c b2bd 4b61 99bc
000000a0: 41c6 623d f7c9 85bd fd6e 123a 5b0f 6a3d
000000b0: d8bb 9fbd 0673 97bc 8cf1 ba3c 1589 76bc
000000c0: 48a3 52bd 6e0c 3f3b 0191 793d ad4a 1dbb
000000d0: 6325 44bc ff23 583c 75af 393d 0291 713d
000000e0: 7294 c8bc bc9e f6bb 950b b2bd 2588 5e3c
000000f0: 0cd8 9c3d b76d 28bc 44c4 063c d0d1 843d
00000100: 1683 75bd 1d34 833d 27b8 463d b9ba 98bc
00000110: 47ea d93c 69ac 893d 7b4d cb3c c917 9a3c
00000120: 455f 2d3d 7428 873c c0e0 cebc d7e9 3c3c
00000130: 82c2 33bd 5d2c 07bb ac1c ec38 d0a5 08bd
00000140: 26cf 1fbd 9a45 f1bc 5c68 1b3c 0f6a 0cbd
00000150: 1335 863c 5319 78bd c732 98bb ebb9 55bd
00000160: fe73 afbd a586 803d 5859 d5bd 3a7e debc
00000170: 21ba 9d3d f606 be3c b109 8abd 6b94 b63b
00000180: 85bc e73d ce6b 8cbc 6c18 0cbd 6486 c6bb
00000190: e546 56bd cd50 a1bd 5acd bdba a373 2ebd
000001a0: 3775 19bc c923 863d 4d61 163c 8fc2 633c
000001b0: fac4 163d 1c88 8f3d ac9f c53b aaf7 393d
000001c0: 2efe ee3c 1baa 2dbd 9ef5 20bc ee93 8d3d
000001d0: 67ab 703c 182e 143d e9fb 893d cb79 3fbd
000001e0: 66d2 8fbd 5a0e 8a3d e774 903c f83e e43c
000001f0: d6c0 3c3d 9702 ff39 fc86 38bd 37b0 af3d
00000200: 6a6b 83bd 9ee4 08bc f2b2 19ba 0b4f 87bd
00000210: 67aa a93d d8c1 bfbc c1f7 5a3d 2f56 3e3d
00000220: ee9a 90bd ed18 dd3c 6f2e b6bd 2ec2 9b3d
00000230: 335b 313d b442 65bd 0e8b 4c3d 4502 663d
00000240: b320 9a3c 0904 013d f7de 493c 4a02 babc
00000250: 43eb 533c 9433 833d cb61 13bc 21c3 a43c
00000260: 07f2 0fbd 8f8a 87bd e18a c6bd dd42 893d
00000270: f979 7cbc b6f3 c2bc d39e 873d 9ff8 1c3d
00000280: ae83 b9bc bb9f 703d 42d6 a23d 8b2f 01bc
00000290: 5230 1d3d 5cad a93c c494 47bd 8b7d fa3b
000002a0: c543 aebc 8e89 633d 71fd 913d 3098 3f3d
000002b0: f33c 3f3d 26cc 5bbb 4c02 a9bd 2a3f a1bd
000002c0: dcbd ed3c 5ad3 623d 277c 96bd 9767 0dbd
000002d0: 57da 153c 0ce4 1e3d 13fd f53c bedf 933d
000002e0: 6370 ad3d 6152 93bc 1d7f 64bd f16e 2eba
000002f0: 865b 0a3d 5e74 823c 6875 313a 855d babc
00000300: 80da 2d3d c99d 20bd 27fd 173d ad28 83bd
00000310: d826 b3bc 9a24 9d3d 29f9 963c f05f 8d3a
00000320: b226 64bd 1c29 04bd f4cb 3cbd 5b79 ae3d
00000330: 6661 883c 2868 b5bd 165c 99bd adc3 9fbd
00000340: c9ef 0f3d 6c8c a3bd ea9b 24bd ab70 74bd
00000350: 3cd4 9c3c f3b9 4b3c c920 343c e66f aa3b
00000360: cd93 bebc dd00 93bc 14dc 963d 860f 9a3c
00000370: a8ed 5cbd 9917 55bb 9e3e fd3c 9b25 85bd
00000380: 3cb0 263d c21d 743d 394e 843d 3175 38bd
00000390: 3385 08bd cbb4 473d 0560 363d 148b 69bd
000003a0: 1288 8cbd 80e6 973c 8a31 a43d 7cb4 ae3c
000003b0: bba3 ef3c 8169 8dbd 3165 e1bc 6118 e63b
000003c0: 36c2 6e3d 7c6a c03c d75b 5c3d 0fd2 a83c
000003d0: f3af a53d a3a9 9b3c 23d5 afbd 1d88 31bd
000003e0: 9192 003d 00e3 203d 605b c8bd 9426 14bc
000003f0: eada 873d 1611 2e3d 1ac0 bb3c 8e1e 683d

state_cnn.1.0.bias f4 [32]
0.0029544875 -0.0042756717 0.0012955589 -0.03776717 -0.014184217 0.013333119 0.044059303 -0.048929594
0.06476511 -0.021953514 0.020322736 -0.076828085 0.073405966 -0.020784914 0.016506808 0.04979401
-0.012770144 -0.05938334 0.00833384 -0.026716417 0.01704396 -0.051036324 0.013418229 0.0019428862
0.044915255 -0.090057656 -0.084066376 0.04328552 0.06287074 -0.050922036 -0.02608946 0.04554543
00000000: 13a0 413b ef1a 8cbb becf a93a c0b1 1abd
00000010: eb64 68bc 2873 5a3c 8777 343d 666a 48bd
00000020: 92a3 843d dbd7 b3bc de7b a63c 0b58 9dbd
00000030: de55 963d 2045 aabc 4939 873c cef4 4b3d
00000040: de39 51bc f23b 73bd a98a 083c 63dc dabc
00000050: c69f 8b3c 770b 51bd 22d8 5b3c 71a8 fe3a
00000060: 0ff9 373d 2670 b8bd fe2a acbd 284c 313d
00000070: 60c2 803d a093 50bd 90b9 d5bc d88d 3a3d

button_cnn.0.0.weight f4 [8, 1, 3, 3]
-0.15538539 -0.19114597 -0.1367028 -0.33316958 -0.09896352 0.2960294 -0.33085415 0.09056679
-0.14142098 -0.23100305 0.17325531 -0.22131088 0.022829078 -0.039439604 -0.20217009 -0.08559776
-0.24929905 -0.0045110737 -0.24701595 0.31548762 0.35732532 -0.105274744 -0.346005 0.22641748
-0.15892127 -0.027729845 0.02440179 0.22290249 -0.16708598 -0.08076894 0.1428447 0.08924636
-0.2565796 -0.08378969 -0.105520494 0.327621 -0.07253279 0.15115426 0.3077791 -0.24973063
0.116382845 -0.2015665 -0.22301596 0.30688527 -0.17048444 0.23468347 -0.18609565 -0.11494393
-0.15864184 -0.037885413 -0.025185332 0.23684369 0.124222584 -0.23541437 0.26359954 0.17222093
-0.31136936 -0.109041855 0.035301026 -0.008704037 -0.23830827 -0.08897888 0.25876832 0.35039657
0.010659458 0.0066875224 -0.09287431 -0.14421843 0.076301254 -0.15978868 -0.020456286 -0.11532713
00000000: 591d 1fbe c5bb 43be d2fb 0bbe 3495 aabe
00000010: 63ad cabd 2a91 973e b765 a9be 157b b93d
00000020: a9d0 10be 108c 6cbe d769 313e 529f 62be
00000030: 0c04 bb3c 6c8b 21bd ad05 4fbe e14d afbd
00000040: 4048 7fbe a1d1 93bb c0f1 7cbe 9887 a13e
00000050: 58f3 b63e 499a d7bd 9127 b1be fcd9 673e
00000060: 42bc 22be b329 e3bc 43e6 c73c 8d40 643e
00000070: 9618 2bbe 306a a5bd e245 123e ccc6 b63d
00000080: 675e 83be ee99 abbd 211b d8bd f1bd a73e
00000090: 128c 94bd 2fc8 1a3e 3995 9d3e 63b9 7fbe
000000a0: 215a ee3d 7367 4ebe 4c5e 64be 1120 9d3e
000000b0: 7993 2ebe dd50 703e dc8f 3ebe b967 ebbd
000000c0: 0273 22be bc2d 1bbd 7851 cebc 2787 723e
000000d0: 6968 fe3d 7710 71be 85f6 863e af5a 303e
000000e0: ce6b 9fbe 5651 dfbd cf97 103d 619b 0ebc
000000f0: 1507 74be 8f3a b6bd 487d 843e 2e67 b33e
00000100: 02a5 2e3c 0123 db3b e334 bebd ffad 13be
00000110: d543 9c3d a59f 23be f193 a7bc a130 ecbd

button_cnn.0.0.bias f4 [8]
-0.2589925 -0.22525895 -0.1902169 0.061645336 -0.14470829 -0.195836 -0.033080168 0.24409749
00000000: aa9a 84be 48aa 66be 38c8 42be d27f 7c3d
00000010: 692e 14be 3b89 48be 127f 07bd b1f4 793e

button_cnn.1.0.weight f4 [16, 8, 3, 3]
-0.066213496 -0.041196067 0.094996706 0.036740582 0.123983875 -0.08953948 0.11543564 0.13109125
0.11409755 0.10089422 0.11017592 0.111915834 -0.10702882 0.07680667 -0.00227425 -0.11396105
-0.02558357 -0.113966174 -0.08897812 0.09476276 0.08779137 -0.14078577 0.11707009 -0.004089974
-0.11307478 0.042824548 0.036532607 0.040994667 0.108752154 -0.117160335 -0.0020648558 0.078326374
0.0131404605 0.0727818 0.037018858 0.048214782 -0.027699428 0.028860088 0.078262575 -0.0037039835
0.12500761 -0.016405983 -0.027433494 0.037758995 0.06510585 0.031113906 -0.038849723 0.063929
-0.06924588 0.09643922 0.074232034 0.07352476 0.016898623 -0.078062005 -0.04962319 0.14415269
0.019310039 0.1073663 -0.023695778 0.032973547 -0.023862688 -0.065756135 0.039309528 -0.048874598
0.10940891 0.058686763 -0.09038437 0.01883929 -0.07191011 0.009848752 -0.104636595 -0.070494846
0.08690293 0.0321251 -0.112781115 0.024757411 -0.08266959 -0.054569963 0.045903265 -0.05461789
-0.010594651 0.008914645 0.062161315 -0.11052007 0.10365793 0.08093282 -0.033064593 -0.053198308
-0.057693314 -0.0755731 0.11552739 -0.0827451 -0.12245539 0.026457055 -0.017612038 -0.06421588
-0.02518725 -0.005094524 0.018890575 -0.01608383 -0.023092132 -0.08725926 0.008810663 0.022610176
-0.085790284 0.11714699 0.07960081 0.1145167 -0.026078008 -0.06981506 -0.109917015 -0.009180823
0.03239355 -0.064326756 0.026058182 -0.055422653 -0.011167769 0.016407013 -0.032490168 0.00084756437
-0.137691 -0.090916306 0.051192544 0.07370305 -0.02094093 0.017255781 0.09702207 -0.048230164
-0.09373608 -0.065270975 0.07780451 -0.13777319 0.015182417 -0.023254352 -0.031065624 -0.10875678
0.06389875 0.0016861024 -0.07137315 -0.000906583 -0.028951997 -0.07443866 -0.12125113 0.124528915
0.0026472423 -0.10893119 -0.101211965 0.10345948 -0.05226797 -0.037843257 0.085323386 0.091978304
0.054570723 0.08623836 0.06332735 -0.055878878 -0.00043764734 -0.08493504 -0.014559719 0.039159745
-0.09252046 -0.07285293 -0.11816326 -0.0967239 0.019673083 -0.0826589 0.10369563 0.03598708
0.008648927 0.035429116 0.025527855 -0.03410839 0.1032255 -0.09610989 0.10569163 -0.08927906
0.06433257 -0.049815144 0.01770178 0.0875112 -0.10635557 0.051701967 0.037387468 -0.07096591
-0.11562857 0.021313926 0.005012234 -0.053156644 -0.022015685 0.064425886 0.053468082 -0.019095784
-0.06378803 -0.032157093 0.012790067 0.027556954 -0.00439944 -0.091115475 0.07887026 0.045715757
0.10739506 -0.05946731 -0.08382675 0.06606709 0.059852667 0.099305965 -0.1006706 0.06404721
-0.07460156 -0.035503507 0.09809204 0.068355836 0.0237832 0.0882623 -0.025571654 0.10650175
-0.011217417 0.059978064 0.047776114 -0.09360089 0.15833402 0.028314285 -0.085396215 -0.014445399
0.10638466 0.10362153 0.110843375 -0.021568725 0.05035136 0.07271858 0.05587254 -0.035988532
0.0690998 -0.026366504 -0.011570201 0.027174713 -0.067722544 0.062198993 -0.021750923 -0.10128922
-0.030346565 0.10387244 0.044995964 -0.022698997 -0.12498794 -0.093624264 0.112913236 0.02127343
0.064186715 0.02260518 -0.015329496 -0.027563171 -0.077327736 -0.12622286 -0.05583167 -0.07824342
00000000: f19a 87bd 35bd 28bd a28d c23d 4b7d 163d
00000010: 42eb fd3d 7a60 b7bd 8569 ec3d c93c 063e
00000020: faab e93d a1a1 ce3d eaa3 e13d 2134 e53d
00000030: ed31 dbbd d14c 9d3d 950b 15bb 6964 e9bd
00000040: a394 d1bc 1967 e9bd 293a b6bd fa12 c23d
00000050: f6cb b33d 252a 10be 71c2 ef3d 3005 86bb
00000060: c093 e7bd cb68 2f3d 37a3 153d 06ea 273d
00000070: 73b9 de3d c2f1 efbd 8852 07bb 9469 a03d
00000080: 164b 573c a00e 953d 16a1 173d dd7c 453d
00000090: e9e9 e2bc fe6b ec3c 2148 a03d 88be 72bb
000000a0: ff01 003e d765 86bc 35bc e0bc 2da9 1a3d
000000b0: 3756 853d 97e2 fe3c e320 1fbd 35ed 823d
000000c0: c9d0 8dbd ed81 c53d f706 983d 2694 963d
000000d0: fb6e 8a3c f9de 9fbd b041 4bbd c39c 133e
000000e0: 1630 9e3c dde2 db3d a61d c2bc 450f 073d
000000f0: af7b c3bc 27ab 86bd 0703 213d bb30 48bd
00000100: c711 e03d 8861 703d 711b b9bd db54 9a3c
00000110: 9c45 93bd a95c 213c b64b d6bd 9a5f 90bd
00000120: 2afa b13d 9c95 033d c9f9 e6bd 0ed0 ca3c
00000130: ad4e a9bd c184 5fbd 1005 3c3d 02b7 5fbd
00000140: 3095 2dbc bb0e 123c dd9c 7e3d 5958 e2bd
00000150: 9c4a d43d 1bc0 a53d bd6e 07bd 78e6 59bd
00000160: d34f 6cbd 12c6 9abd a099 ec3d 4376 a9bd
00000170: e4c9 fabd 77bc d83c 1f47 90bc 9e83 83bd
00000180: 7e55 cebc f7ef a6bb 68c0 9a3c 3cc2 83bc
00000190: b62b bdbc fcb4 b2bd 995a 103c fa38 b93c
000001a0: d1b2 afbd c3ea ef3d c005 a33d bb87 ea3d
000001b0: 8ca1 d5bc 33fb 8ebd 2c1c e1bd 2a6b 16bc
000001c0: 19af 043d bfbd 83bd f877 d53c dd02 63bd
000001d0: 05f9 36bc 0068 863c 6914 05bd 152f 5e3a
000001e0: dffe 0cbe 5432 babd 46af 513d a0f1 963d
000001f0: 508c abbc ff5b 8d3c 82b3 c63d fe8c 45bd
00000200: b4f8 bfbd caac 85bd f957 9f3d 6a14 0dbe
00000210: acbf 783c e97f bebc 567d febc e0bb debd
00000220: 59dd 823d 3500 dd3a 162c 92bd c1a7 6dba
00000230: bd2c edbc 4c73 98bd 8352 f8bd 0409 ff3d
00000240: 5b7d 2d3b 5117 dfbd 3848 cfbd 90e2 d33d
00000250: f016 56bd 8801 1bbd 07be ae3d 1f5f bc3d
00000260: 8d85 5f3d bd9d b03d c5b1 813d 40e1 64bd
00000270: 0874 e5b9 6cf2 adbd e38b 6ebc f865 203d
00000280: 5e7b bdbd eb33 95bd 94ff f1bd 2e17 c6bd
00000290: 7229 a13c 1249 a9bd 605e d43d 3067 133d
000002a0: 3bb4 0d3c 1f1e 113d cb1f d13c 3db5 0bbd
000002b0: e467 d33d 43d5 c4bd da74 d83d f1d7 b6bd
000002c0: cbc0 833d f70a 4cbd 5303 913c 1239 b33d
000002d0: f3d0 d9bd 71c5 533d 9a23 193d 9356 91bd
000002e0: acce ecbd 8b9a ae3c ab3d a43b c8ba 59bd
000002f0: 3d5a b4bc b8f1 833d 5901 5b3d c36e 9cbc
00000300: 4ca3 82bd 28b7 03bd 6e8d 513c 1fbf e13c
00000310: 2d29 90bb c09a babd bb86 a13d 7240 3b3d
00000320: f1f1 db3d fe93 73bd 5cad abbd 2f4e 873d
00000330: 1228 753d ed60 cb3d 632c cebd 2f2b 833d
00000340: b4c8 98bd 206c 11bd 7be4 c83d 25fe 8b3d
00000350: fcd4 c23c ddc2 b43d a57b d1bc 971d da3d
00000360: 42c9 37bc 8fab 753d e3b0 433d d3b1 bfbd
00000370: 5022 223e 5cf3 e73c 36e4 aebd 65ac 6cbc
00000380: 33e0 d93d 8637 d43d da01 e33d e5b0 b0bc
00000390: 3a3d 4e3d 7bed 943d 9bda 643d b668 13bd
000003a0: 3284 8d3d 91fe d7bc f190 3dbc 819d de3c
000003b0: 1eb2 8abd 5fc4 7e3d fe2e b2bc b970 cfbd
000003c0: 5c99 f8bc 13bb d43d b04d 383d 3ff3 b9bc
000003d0: adf9 ffbd 14be bfbd 0e3f e73d 9e45 ae3c
000003e0: 5374 833d 802e b93c 9128 7bbc 29cc e1bc
000003f0: 015e 9ebd 9140 01be c0af 64bd 163e a0bd

button_cnn.1.0.bias f4 [16]
-0.05634506 0.08336771 0.06382931 -0.0065097725 -0.044015434 -0.09754904 0.07928538 0.02847705
0.018554565 -0.0119146 -0.023524424 -0.07294798 0.06570292 -0.09690197 -0.056981087 -0.03202007
00000000: 14ca 66bd b1bc aa3d f1b8 823d ee4f d5bb
00000010: 8749 34bd cbc7 c7bd 6060 a23d b448 e93c
00000020: beff 973c 7435 43bc 4bb6 c0bc c065 95bd
00000030: 418f 863d 8a74 c6bd 0065 69bd 7a27 03bd

fc.0.weight f4 [256, 192]
-0.0022877913 -0.052443396 -0.013592265 -0.06657883 0.0137378955 -0.02049446 -0.017010143 -0.04788011
0.04418271 -0.057502896 -0.026230378 0.014353287 0.06501129 -0.05239496 -0.056956783 -0.044735067
0.055875093 -0.021841725 0.0032000805 -0.02245147 0.06577074 -0.009406543 -0.030461203 -0.04094687
0.06804066 -0.03659549 -0.028965414 0.05303562 -0.018293897 -0.0050574085 0.039866604 -0.07668173
0.06979975 0.034182485 -0.009628206 0.051152933 0.065410875 -0.00062970293 -0.030817632 0.04866795
-0.06401432 -0.020740515 0.022117209 0.049406514 0.047460817 0.06916112 -0.035995208 -0.04056309
0.033929456 -0.038581524 0.06102925 -0.024100637 0.026116107 0.0091504445 -0.043641493 -0.032086685
0.022601288 -0.030682055 0.02424685 -0.0379702 0.028542854 0.035128493 -0.06711937 -0.04941714
-0.038651966 0.033266243 0.035683118 0.038370226 0.040983826 -0.042055886 0.029424587 0.027882481
0.004183031 -0.0035855693 -0.047568437 -0.053130466 0.011067969 -0.029268978 0.02062954 -0.016152991
0.0014311367 -0.0049523544 0.068687804 -0.013772868 0.055743866 0.013519409 -0.039866567 -0.01751542
0.04570606 -0.04190542 0.039920386 -0.057898678 -0.054850362 0.05844317 -0.015151879 0.025503406
0.018251272 -0.064493515 0.016867882 -0.03592591 -0.049394958 -0.06469064 -0.051295083 0.072845295
-0.056132477 -0.035454184 0.03201552 -0.020489223 -0.008507761 -0.01869609 -0.01698253 -0.064231426
0.0066909706 -0.0052439845 0.066837735 0.033239074 0.021186424 0.038124863 -0.07598074 -0.042444754
-0.0046221735 0.03170705 0.058760658 0.06210466 -0.040480096 -0.013039537 0.016005684 -0.07115222
0.023922158 -0.057379518 0.032891423 0.013336174 -0.019058008 0.060507666 0.011661673 -0.06633856
-0.034206264 -0.06081885 0.0017860848 0.068392105 -0.04889549 0.06171972 -0.013039288 -0.061791345
-0.07840978 0.030479364 0.038121782 0.0072713383 0.072022915 0.025792293 0.021368133 -0.019094676
-0.024037275 0.053009156 -0.019280482 -0.0019954343 0.022352362 -0.05639878 0.05537591 -0.06576003
-0.023633376 -0.01722972 0.06191161 0.025968507 0.040524054 0.012587315 0.05768587 0.045505654
0.02625374 -0.06055112 0.07193078 -0.0052123773 0.026003253 0.0388787 -0.005376468 0.038173907
0.0662963 0.05255124 -0.01652159 0.056596264 0.049668092 0.004885003 0.0043359413 0.0010629954
0.06966341 -0.042744815 0.035487004 0.0463287 0.077835426 -0.050176363 0.035057705 0.0017377253
0.05260132 -0.055329874 0.012919598 0.040494457 0.038083132 -0.047843996 0.03551039 -0.043755077
0.01834368 -0.025780302 -0.03621006 0.07453886 -0.0057862727 -0.045402255 -0.045787368 -0.072641894
-0.047662955 0.018378705 0.06423791 -0.044444464 -0.07568301 0.00081342336 0.00899085 -0.009367817
0.05381766 -0.041131243 -0.06422414 0.07818067 0.012618782 0.025513414 -0.040129974 -0.059768587
-0.057668608 0.030633852 -0.021687128 0.009392931 -0.024382165 -0.0064976537 0.008270664 -0.04268643
0.049169566 0.058788817 -0.052848462 0.009820271 0.060580272 0.0461947 -0.0227739 0.044778198
-0.040795065 0.0030679153 -0.03363273 -0.07473678 0.05558351 0.04252481 0.0026194828 0.07368142
0.06298576 0.021116361 -0.040694553 0.007945929 -0.056480784 0.007445479 0.020340769 0.043661725
00000000: c5ee 15bb e3ce 56bd 17b2 5ebc 7b5a 88bd
00000010: e914 613c ffe3 a7bc db58 8bbc ef1d 44bd
00000020: eef8 343d 2888 6bbd 17e1 d6bc 0d2a 6b3c
00000030: a424 853d 199c 56bd 844b 69bd 1e3c 37bd
00000040: 48dd 643d 6bed b2bc 71b8 513b 25ec b7bc
00000050: cfb2 863d e71d 1abc c689 f9bc e8b7 27bd
00000060: e758 8b3d 27e5 15bd e048 edbc e13b 593d
00000070: 15dd 95bc 9eb8 a5bb 2a4b 233d 500b 9dbd
00000080: 2cf3 8e3d ef02 0c3d 9fbf 1dbc bd85 513d
00000090: 23f6 853d a612 25ba 4275 fcbc 0b58 473d
000000a0: f119 83bd 03e8 a9bc 262f b53c 7c5e 4a3d
000000b0: 4666 423d 58a4 8d3d b66f 13bd 7c25 26bd
000000c0: 9df9 0a3d a907 1ebd cff9 793d b36e c5bc
000000d0: 72f1 d53c bfeb 153c 6cc1 32bd 546d 03bd
000000e0: 5626 b93c ef58 fbbc 54a1 c63c a486 1bbd
000000f0: b4d2 e93c e5e2 0f3d e175 89bd a169 4abd
00000100: 8651 1ebd 2f42 083d 7628 123d 192a 1d3d
00000110: a8de 273d cb42 2cbd d50b f13c cd69 e43c
00000120: cf11 893b dffb 6abb 1fd7 42bd 559f 59bd
00000130: 6d56 353c 7fc5 efbc 48ff a83c 4753 84bc
00000140: fb94 bb3a 5c47 a2bb 31ac 8c3d 98a7 61bc
00000150: ae53 643d 8380 5d3c 204b 23bd 807c 8fbc
00000160: 4736 3b3d 05a5 2bbd 8f83 233d 2a27 6dbd
00000170: c6aa 60bd 1b62 6f3d 963f 78bc 85ec d03c
00000180: b183 953c 2d15 84bd 832e 8a3c 0c27 13bd
00000190: 5e52 4abd 877c 84bd cb1a 52bd ea2f 953d
000001a0: 2beb 65bd 6838 11bd b522 033d 04d9 a7bc
000001b0: 2364 0bbc 8b28 99bc f21e 8bbc c48b 83bd
000001c0: ee3f db3b bbd5 abbb 39e2 883d b225 083d
000001d0: 278f ad3c d128 1c3d ca9b 9bbd 8dda 2dbd
000001e0: 9a75 97bb 40df 013d 04af 703d 7561 7e3d
000001f0: 75ce 25bd c8a3 55bc 5a1e 833c 41b8 91bd
00000200: 67f8 c33c c906 6bbd 28b9 063d f87f 5a3c
00000210: 8a1f 9cbc e3d6 773d 9a10 3f3c 83dc 87bd
00000220: de1b 0cbd 301d 79bd 101b ea3a 2911 8c3d
00000230: a346 48bd d1cd 7c3d bda2 55bc ec18 7dbd
00000240: 4f95 a0bd dcaf f93c 9625 1c3d 6844 ee3b
00000250: c080 933d 5c4a d33c 390c af3c 706c 9cbc
00000260: d2e9 c4bc 2120 593d 1af2 9dbc d5c5 02bb
00000270: 4d1c b73c 6802 67bd dad1 623d 32ad 86bd
00000280: c89a c1bc 5725 8dbc 0797 7d3d e8bb d43c
00000290: 8dfc 253d 073b 4e3c 0548 6c3d 2364 3a3d
000002a0: 1512 d73c 7404 78bd 7250 933d 97cc aabb
000002b0: c604 d53c 463f 1f3d 152d b0bb 3e5c 1c3d
000002c0: 5bc6 873d f83f 573d 4958 87bc 7cd1 673d
000002d0: c570 4b3d 6012 a03b 8314 8e3b 3554 8b3a
000002e0: b1ab 8e3d 3015 2fbd d25a 113d 2ac3 3d3d
000002f0: 2e68 9f3d bb85 4dbd ab98 0f3d 63c4 e33a
00000300: 7b74 573d 94a1 62bd b9ac 533c 84dd 253d
00000310: 0ffd 1b3d 11f8 43bd 5873 113d 8638 33bd
00000320: 7c45 963c 3631 d3bc 0051 14bd d4a7 983d
00000330: c69a bdbb b7f7 39bd 898b 3bbd 46c5 94bd
00000340: 3b3a 43bd f08e 963c 2a8f 833d 660b 36bd
00000350: b2ff 9abd eb3b 553a 5c4e 133c 797b 19bc
00000360: e86f 5c3d 3c79 28bd f287 83bd 301d a03d
00000370: 02bf 4e3c 8201 d13c 545f 24bd e8cf 74bd
00000380: eb35 6cbd d8f3 fa3c 34a9 b1bc cfe4 193c
00000390: 1bbd c7bc 45ea d4bb ae81 073c f7d7 2ebd
000003a0: 0766 493d 8bcc 703d a177 58bd 34e5 203c
000003b0: 0523 783d a736 3d3d 5490 babc 5869 373d
000003c0: ba18 27bd 140f 493b 79c2 09bd 990f 99bd
000003d0: 89ab 633d 7f2e 2e3d a1ab 2b3b 49e6 963d
000003e0: aefe 803d 38fc ac3c 55af 26bd a42f 023c
000003f0: 6558 67bd 34f9 f33b afa1 a63c a3d6 323d

fc.0.bias f4 [256]
-0.035986148 0.010262882 0.055074453 -0.021563102 -0.030392159 -0.0017809827 0.041547805 -0.061545376
0.060420122 0.031999428 -0.041836377 0.019225815 0.056812707 -0.053743962 -0.03969263 0.0059971698
-0.02258327 -0.029413575 0.0647706 0.047332305 0.06859901 -0.0236885 -0.025324829 -0.033957053
-0.046892304 -0.03525953 0.03115902 -0.025554275 -0.06427619 0.037558865 -0.06883945 -0.033401355
-0.011534433 0.028899986 -0.028440183 0.06141768 -0.05062029 -0.012010061 -0.01846457 -0.025935642
-0.037909485 -0.0011192263 0.054693736 -0.040925905 0.051751353 -0.047451332 -0.03140722 -0.008217382
0.00830653 -0.03558855 0.03554679 -0.017593307 0.042654764 0.042002298 -0.07457904 0.047925282
-0.058644574 0.014575147 -0.042650826 0.01357222 -0.0008655275 0.023818657 -0.020286603 0.03460589
-0.021492075 -0.022219334 -0.06433 -0.027686613 0.05187224 0.06356715 -0.07115395 0.028974244
-0.01620641 0.018833948 0.072494105 -0.040519256 0.0061699073 -0.0196094 -0.04508641 0.064944156
0.011868737 0.05464599 -0.05484465 0.0031429604 0.06657118 -0.007773308 0.03532281 -0.037038617
-0.059053786 -0.009004188 -0.0036544702 -0.002886105 0.038851473 0.021132376 -0.040209804 -0.016346838
0.036377527 -0.055601235 0.04772594 -0.0535674 -0.070028774 -0.011869821 -0.06781188 0.0027845607
0.07295981 -0.037401114 -0.037419587 0.026388142 0.03707383 0.023956578 0.04331161 0.02445485
-0.056464646 0.061950162 -0.036459018 -0.0011480517 -0.051397964 -0.082782865 -0.07624093 0.001389232
-0.05934007 0.027537443 -0.048926413 0.048425723 -0.03639607 -0.03705669 -0.030781716 -0.04441336
0.025521448 0.0539324 0.058122743 0.008373826 0.056519337 0.058120184 0.007896225 -0.045159534
0.029321536 0.030701222 0.016208198 0.014812415 0.0056723775 -0.025521962 -0.06997662 0.026082953
0.0011527595 0.0015349676 0.012558958 0.03354302 -0.053532604 -0.042665355 -0.06760001 -0.012801612
0.022558907 -0.039002407 0.00693265 -0.07648703 -0.025612494 0.010541514 -0.00450148 -0.0111057
-0.029627113 0.049307212 0.0012139124 0.0033023767 -0.018866865 -0.06868198 0.060248908 0.016774556
-0.052395888 -0.071606606 0.008457304 -0.050266907 -0.06910067 -0.007548353 -0.024073672 0.055879846
0.05953191 0.02787782 -0.07595138 0.06271261 0.04131481 0.041151553 -0.052106183 0.041231968
-0.06510461 0.046221837 0.007938892 0.05118045 0.05056775 0.051934373 -0.027429236 0.045031197
0.048699334 -0.04400357 -0.0019717081 -0.04377219 -0.039433014 0.030903615 0.06705232 0.025330774
-0.04408365 -0.038281273 0.006791513 -0.057396706 -0.043147232 0.05589052 -0.0683127 -0.06381509
-0.04330428 0.060841754 0.042522073 -0.024284106 -0.05854363 0.035115805 -0.014592808 0.014441058
0.026186 -0.07064805 -0.06413181 0.035173114 0.039406143 -0.059681777 0.06020076 0.061235007
0.019627439 -0.013245234 -0.049531206 0.02414834 0.015344786 -0.06372989 -0.0024238823 -0.022803377
0.033836115 -0.012874733 -0.046719186 -0.05760311 -0.07151096 0.01101533 0.041051526 -0.06526414
-0.054263573 0.025927708 -0.039073218 0.056947522 0.040313818 -0.0048518484 0.05786823 -0.030241137
-0.07423829 -0.036297344 -0.0072684237 -0.040803954 0.03261977 0.03577406 -0.039222743 -0.03262909
00000000: 3666 13bd a625 283c c095 613d 1aa5 b0bc
00000010: faf8 f8bc dd6f e9ba 082e 2a3d 0117 7cbd
00000020: 177b 773d d511 033d 9f5c 2bbd 757f 9d3c
00000030: 71b4 683d a122 5cbd bd94 22bd e883 c43b
00000040: 8d00 b9bc bdf4 f0bc 73a6 843d 85df 413d
00000050: a37d 8c3d 630e c2bc 0476 cfbc 8d16 0bbd
00000060: 2512 40bd 4c6c 10bd 3341 ff3c 3357 d1bc
00000070: 3ca3 83bd 53d7 193d b3fb 8cbd dccf 08bd
00000080: ebfa 3cbc aabf ec3c 63fb e8bc 1b91 7b3d
00000090: 3957 4fbd d9c5 44bc 0343 97bc fc76 d4bc
000000a0: fa46 1bbd 01b3 92ba 8a06 603d eca1 27bd
000000b0: 3af9 533d 545c 42bd dba4 00bd 33a2 06bc
000000c0: 1d18 083c 4dc5 11bd 8399 113d d71f 90bc
000000d0: c3b6 2e3d 9a0a 2c3d e5bc 98bd 4d4d 443d
000000e0: 4b35 70bd 99cc 6e3c a2b2 2ebd 045e 5e3c
000000f0: 91e4 62ba 581f c33c 1730 a6bc e8be 0d3d
00000100: 2610 b0bc 5205 b6bc 72bf 83bd 09cf e2bc
00000110: fc77 543d 7e2f 823d 2ab9 91bd 655b ed3c
00000120: 4ec3 84bc a749 9a3c ca77 943d 85f7 25bd
00000130: ef2c ca3b e4a3 a0bc 87ac 38bd 7101 853d
00000140: 1775 423c 79d4 5f3d c9a4 60bd 20fa 4d3b
00000150: 7956 883d 3cb7 febb a7ae 103d ceb5 17bd
00000160: 62e2 71bd 4d86 13bc d67f 6fbb cf24 3dbb
00000170: b922 1f3d ce1d ad3c 09b3 24bd cee9 85bc
00000180: 9a00 153d 1fbe 63bd 467c 433d 7d69 5bbd
00000190: 3f6b 8fbd a379 42bc f4e0 8abd 2d7d 363b
000001a0: f46b 953d e931 19bd 4845 19bd f22b d83c
000001b0: bada 173d 9640 c43c 8467 313d 8a55 c83c
000001c0: 7947 67bd 74bf 7d3d 0d56 15bd 397a 96ba
000001d0: ac86 52bd 108a a9bd 3424 9cbd e416 b63a
000001e0: 930e 73bd 3496 e13c 1067 48bd 0d5a 463d
000001f0: 0c14 15bd c1c8 17bd f029 fcbc c9ea 35bd
00000200: 5b12 d13c 38e8 5c3d 1d12 6e3d 5f32 093c
00000210: d280 673d 6e0f 6e3d 2b5f 013c 34f9 38bd
00000220: b833 f03c 2181 fb3c 0ec7 843c c5af 723c
00000230: 5adf b93b 6f13 d1bc e74f 8fbd ebab d53c
00000240: 3118 973a f730 c93a 16c4 4d3c 6864 093d
00000250: 0145 5bbd dec1 2ebd e071 8abd dabd 51bc
00000260: 75cd b83c fdc0 1fbd 492b e33b 3ba5 9cbd
00000270: 4bd1 d1bc 50b6 2c3c 2781 93bb aff4 35bc
00000280: 8fb4 f2bc 5cf6 493d 241c 9f3a b06c 583b
00000290: af8e 9abc 23a9 8cbd 8fc7 763d cb6a 893c
000002a0: 129d 56bd 7ca6 92bd 8190 0a3c ace4 4dbd
000002b0: a784 8dbd 2d58 f7bb 2636 c5bc 44e2 643d
000002c0: bbd7 733d 0760 e43c 668c 9bbd 786f 803d
000002d0: b839 293d 888e 283d 4b6d 55bd dae2 283d
000002e0: 9155 85bd 1c53 3d3d 2012 023c 97a2 513d
000002f0: 2120 4f3d 23b9 543d 47b3 e0bc a272 383d
00000300: f478 473d 163d 34bd c637 01bb 784a 33bd
00000310: 8384 21bd 9429 fd3c ba52 893d 7c82 cf3c
00000320: 0f91 34bd d3cc 1cbd 578b de3b cf18 6bbd
00000330: 27bb 30bd 75ed 643d 87e7 8bbd 7cb1 82bd
00000340: d45f 31bd 3435 793d a02b 2e3d 76ef c6bc
00000350: 72cb 6fbd 97d5 0f3d ac16 6fbc 309a 6c3c
00000360: 0684 d63c edaf 90bd 8a57 83bd af11 103d
00000370: 5668 213d e174 74bd 1295 763d 8fd1 7a3d
00000380: b9c9 a03c 8a02 59bc 3ce1 4abd bdd2 c53c
00000390: b368 7b3c d184 82bd ffd9 1ebb 26ce babc
000003a0: bd97 0a3d 8bf0 52bc 9e5c 3fbd 3df1 6bbd
000003b0: 5774 92bd a579 343c a525 283d 35a9 85bd
000003c0: 7b43 5ebd 5866 d43c 3d0b 20bd ce41 693d
000003d0: 1a20 253d 41fc 9ebb 3d07 6d3d 43bc f7bc
000003e0: 3f0a 98bd 86ac 14bd f52b eebb 0c22 27bd
000003f0: 4f9c 053d d287 123d 07a8 20bd 15a6 05bd

fc.3.weight f4 [12, 256]
0.026752507 0.040219642 0.008799671 -0.004817824 0.03303269 -0.0651092 -0.014397986 -0.002616678
-0.04220246 0.014473085 -0.03098161 -0.05098009 -0.04976262 -0.03178407 0.013763479 0.043646656
0.019090869 -0.005863375 -0.022187341 0.015315128 -0.008453539 0.06344176 0.0042964 -0.058409356
0.06087641 -0.017374363 0.056166094 0.03324982 0.060145218 0.013305106 -0.025506007 0.019664885
0.0009955162 -0.0211414 0.0715337 -0.007356776 0.0357654 0.043029666 0.0086293975 -0.009625706
-0.016002204 0.021710776 0.00071660674 -0.04184856 -0.031332653 -0.041427083 -0.01763044 0.011717817
-0.02310045 -0.07666227 0.0018156964 -0.0052274563 -0.011980303 -0.059082568 0.060978472 -0.03533326
-0.03562403 0.032262906 0.06249594 -0.009019651 -0.032621432 -0.053228796 -0.0040643695 0.041473668
0.012060822 -0.033097632 0.054244876 0.026811346 0.026521873 -0.013126551 -0.04225257 -0.019183092
0.042847496 -0.034306444 -0.03932622 -0.05923651 0.0046945494 -0.042967003 0.038366932 0.02748157
0.03933655 0.013294316 -0.022744935 -0.0018500471 -0.022432126 0.03439199 0.0532268 -0.010415031
0.019775786 0.03904294 -0.02939314 -0.028128717 0.014369914 -0.07251612 -0.050942983 -0.030872088
0.031245971 0.016856205 -0.035245772 -0.021263003 0.028394725 0.043641847 -0.058815684 0.059598792
0.040405296 0.044902034 0.059766628 0.0365222 0.029518902 0.038657133 -0.0037574584 0.014644089
0.011840415 -0.052011486 -0.003429391 -0.025126327 -0.009531425 0.032382984 0.0060297432 0.020460749
-0.036777943 -0.0059213336 0.02294011 0.004291 0.03551896 0.05786534 0.010331137 -0.01884989
0.036251385 -0.023220653 0.045070164 0.019635135 -0.032555617 0.07973674 -0.023357704 0.0145963095
-0.024554662 -0.041407697 -0.022805942 -0.07915296 0.021234678 -0.05660485 -0.02700734 0.055875733
0.03528028 -0.00988038 -0.020272104 0.047805443 0.057690963 0.026776485 -0.053154565 0.03643141
-0.039609786 -0.0436144 0.041810818 0.042146802 0.012451526 -0.0332182 -0.03634054 -0.015825413
0.012030734 0.038167078 -0.009202555 0.04226854 0.011231543 0.01450179 0.03452261 0.030635722
-0.021262057 0.033056978 -0.018331382 0.0402734 0.042581778 -0.020781599 0.014171215 -0.032061845
-0.05338298 0.019995496 -0.010502894 -0.021268046 -0.04347331 -0.045650706 -0.009418412 -0.011326249
-0.016939824 -0.034801275 -0.05062175 0.005229832 0.041615695 0.03266421 -0.010358092 0.03670739
0.0060452805 -0.011798756 -0.048921477 0.047232736 -0.05298568 0.05867416 0.032924823 -0.049192246
0.037989825 -0.00835782 0.005477167 0.052801784 0.008933546 -0.019346284 0.052374292 -0.041332297
0.0037442101 -0.039107822 -0.044805516 0.024143074 -0.022796666 -0.05282688 -0.02193939 0.051617496
0.020335931 -0.04987712 0.019338261 0.043082286 0.028447878 0.024537053 -0.0052318294 -0.037971143
-0.026975697 -0.05251573 -0.022432838 -0.016488785 -0.03534643 0.032590184 0.057621866 -0.019899214
-0.029201506 -0.040939882 0.050314117 -0.003237629 -0.0389488 -0.007694955 -0.043918774 -0.068093166
-0.003045917 -0.04852686 0.042805184 0.015345098 0.013515826 0.042643525 -0.047826193 0.047305603
-0.011641051 -0.010261347 -0.02093767 0.04060973 -0.025161246 -0.022986649 0.010990204 -0.008791328
00000000: 1328 db3c 5abd 243d 7f2c 103c d6de 9dbb
00000010: 494d 073d f957 85bd 88e5 6bbc 927c 2bbb
00000020: 7ddc 2cbd 8520 6d3c 25cd fdbc 80d0 50bd
00000030: e4d3 4bbd 0330 02bd 3780 613c d6c6 323d
00000040: 7464 9c3c 8e21 c0bb 3ac2 b5bc 4dec 7a3c
00000050: b680 0abc c1ed 813d d1c8 8c3b a63e 6fbd
00000060: 8b59 793d ae54 8ebc 6b0e 663d f730 083d
00000070: d55a 763d a9fd 593c f9f1 d0bc 4118 a13c
00000080: fb7b 823a bb30 adbc 4380 923d 1c11 f1bb
00000090: bd7e 123d e03f 303d 5162 0d3c 23b5 1dbc
000000a0: 0e17 83bc ccda b13c aada 3b3a 6569 2bbd
000000b0: ab56 00bd 72af 29bd b66d 90bc 16fc 3f3c
000000c0: 283d bdbc 1c01 9dbd a9fc ed3a 154b abbb
000000d0: 0849 44bc 9000 72bd 90c4 793d 9cb9 10bd
000000e0: 81ea 11bd 1c26 043d befb 7f3d 29c7 13bc
000000f0: 0d9e 05bd 7006 5abd 672e 85bb 4be0 293d
00000100: c19a 453c 6291 07bd e02f 5e3d 78a3 db3c
00000110: 6644 d93c bf10 57bc 0811 2dbd dc25 9dbc
00000120: db80 2f3d ea84 0cbd 8814 21bd fca1 72bd
00000130: bcd4 993b 2bfe 2fbd a526 1d3d 0821 e13c
00000140: 5d1f 213d 67d0 593c 9653 babc 487d f2ba
00000150: 94c3 b7bc 9ede 0c3d 5804 5a3d cea3 2abc
00000160: d400 a23c 7deb 1f3d e2c9 f0bc 326e e6bc
00000170: ca6f 6b3c 5583 94bd 97a9 50bd 76e7 fcbc
00000180: 8df7 ff3c 0616 8a3c df5d 10bd c02f aebc
00000190: 0e9c e83c cbc1 323d b7e8 70bd dd1d 743d
000001a0: 0680 253d 32eb 373d dacd 743d 4d98 153d
000001b0: a0d1 f13c f156 1e3d b13f 76bb c3ed 6f3c
000001c0: 4dfe 413c ff09 55bd a2bf 60bb bad5 cdbc
000001d0: b229 1cbc 05a4 043d 2795 c53b 4d9d a73c
000001e0: 78a4 16bd bf07 c2bb e6ec bb3c 849b 8c3b
000001f0: 547c 113d 3504 6d3d ee43 293c 166b 9abc
00000200: 557c 143d 3d39 bebc 7e9b 383d ddd9 a03c
00000210: 0a59 05bd 044d a33d a858 bfbc 5c25 6f3c
00000220: dc26 c9bc 1e9b 29bd 87d3 babc f21a a2bd
00000230: 59f4 ad3c 7dda 67bd 7f3e ddbc f4dd 643d
00000240: 0e82 103d 51e1 21bc af11 a6bc a4cf 433d
00000250: 5c4d 6c3d 5c5a db3c 9ab8 59bd 1a39 153d
00000260: df3d 22bd 03a5 32bd d241 2b3d 20a2 2c3d
00000270: 7c01 4c3c cf0f 08bd d1d9 14bd 4ca4 81bc
00000280: 8e1c 453c 1555 1c3d 50c6 16bc c721 2d3d
00000290: 8104 383c ea98 6d3c 9567 0d3d c4f7 fa3c
000002a0: c42d aebc c166 073d b22b 96bc b8f5 243d
000002b0: 3b6a 2e3d 2c3e aabc 622e 683c 4853 03bd
000002c0: 1da8 5abd 98cd a33c 5514 2cbc 533a aebc
000002d0: 1211 32bd 3cfc 3abd af4f 1abc bb91 39bc
000002e0: 63c5 8abc c88b 0ebd c158 4fbd 035f ab3b
000002f0: 3875 2a3d e8ca 053d fdb4 29bc 7d5a 163d
00000300: 7d17 c63b 924f 41bc e361 48bd 1d77 413d
00000310: 8307 59bd 5154 703d 2edc 063d cf7d 49bd
00000320: 389b 1b3d 3def 08bc cf79 b33b af46 583d
00000330: 025e 123c 197c 9ebc 6d86 563d 0e4c 29bd
00000340: 6c61 753b 862f 20bd fd85 37bd b2c7 c53c
00000350: 13c0 babc 0061 58bd 3cba b3bc de6c 533d
00000360: 8a97 a63c f34b 4cbd 466b 9e3c 0d77 303d
00000370: 860b e93c ee01 c93c c46f abbb a187 1bbd
00000380: 23fc dcbc bc1a 57bd 12c5 b7bc 7d13 87bc
00000390: 6bc7 10bd 497d 053d e804 6c3d ad03 a3bc
000003a0: ff37 efbc 94b0 27bd 2d16 4e3d 672e 54bb
000003b0: c788 1fbd f625 fcbb 2ce4 33bd 6e74 8bbd
000003c0: 029e 47bb 1ac4 46bd 7d54 2f3d 026a 7b3c
000003d0: 7c71 5d3c faaa 2e3d 66e5 43bd 85c3 413d
000003e0: 1bba 3ebc 351f 28bc 7a85 abbc 6356 263d
000003f0: f51e cebc 7f4e bcbc 4210 343c 8109 10bc

fc.3.bias f4 [12]
-0.012440814 0.049069744 0.01577172 -0.03005914 -0.015817236 -0.0006363467 -0.022854129 0.014237722
-0.05025207 0.040545613 -0.04061448 -0.013341562
00000000: 8ed4 4bbc 5bfd 483d b233 813c 963e f6bc
00000010: 2693 81bc 81d0 26ba 9538 bbbc 5645 693c
00000020: 1dd5 4dbd 2813 263d 5e5b 26bd 9196 5abc
