cnn_fighting_agent_starter/outputs/20251017_185521/model.pt (torch, 286811 bytes, 12 tensors)

state_cnn.0.0.weight f4 [16, 1, 3, 3]
0.34207246 -0.11977337 -0.24427298 0.28165638 -0.23075627 -0.28866467 -0.18184271 0.020372415
-0.060975157 -0.3244724 -0.098184 0.3182152 -0.18440846 0.110242866 0.076532 0.27072293
0.27599347 -0.32224977 -0.043602914 0.29188892 -0.053302936 -0.18224272 0.32885617 -0.3042854
0.33410582 0.31077924 0.1985926 0.003262555 -0.020168923 -0.15508574 0.13716806 -0.23089197
-0.1868479 -0.20642585 -0.24700187 -0.12684971 -0.27175727 0.25893587 -0.3159895 -0.13190016
0.029070858 -0.16038164 0.30763012 -0.13086349 0.16530146 0.33636367 -0.2303727 -0.08354021
-0.027346758 -0.03125907 0.0062604332 -0.29076767 -0.20293552 0.17672671 -0.23184215 -0.11583451
-0.17781438 -0.32781327 -0.121895164 0.18729554 0.18365735 0.2607043 0.27845326 0.25538293
0.18376127 -0.033651426 -0.03696712 0.04782849 0.18586648 -0.10927945 0.2331112 0.31233943
0.26625824 0.13694848 0.31066617 -0.13942163 -0.18570268 -0.30425406 -0.2720657 0.05452987
0.2743313 0.2738356 0.3055178 -0.23044136 0.066001736 -0.15559435 -0.28056225 0.055087816
-0.10309793 -0.21664718 0.02577596 0.027245758 0.31990764 -0.108443074 -0.18853968 -0.07324059
-0.19691949 -0.101731345 -0.17114198 0.24707502 -0.21572496 0.3117803 -0.26357085 0.3061571
-0.009484506 0.121153496 0.19593519 0.2850086 0.30824468 -0.09282894 0.002772611 -0.09609261
0.27779925 -0.2945187 -0.2138001 -0.14194176 -0.24108635 -0.014328526 0.11944205 0.009341193
-0.24108689 0.07033752 0.022061182 0.13680518 -0.10067179 0.32042152 -0.18249968 0.3026145
0.20111348 -0.15903339 0.031754434 0.2499919 0.11635772 -0.11141961 -0.0318597 0.11425968
0.064876616 -0.32831377 -0.07494946 0.17851599 0.09428726 -0.12169579 -0.0020752507 -0.22575589
00000000: 1f24 af3e be4b f5bd b222 7abe 4435 903e
00000010: 5f4b 6cbe dbcb 93be fa34 3abe 0de4 a63c
00000020: 16c1 79bd 3f21 a6be b114 c9bd 1aed a23e
00000030: 92d5 3cbe 03c7 e13d cfbc 9c3d 329c 8a3e
00000040: 044f 8d3e ecfd a4be f898 32bd 7772 953e
00000050: 2e54 5abd d69d 3abe d65f a83e 4ccb 9bbe
00000060: eb0f ab3e 751e 9f3e dc5b 4b3e 97d0 553b
00000070: 4c39 a5bc ccce 1ebe c975 0c3e f26e 6cbe
00000080: 0e55 3fbe 4c61 53be 0fee 7cbe e4e4 01be
00000090: c523 8bbe 3e93 843e 60c9 a1be d610 07be
000000a0: 0226 ee3c 163b 24be b281 9d3e 1401 06be
000000b0: c944 293e dc37 ac3e d2e6 6bbe 2117 abbd
000000c0: 4f06 e0bc 8309 00bd 5224 cd3b 80df 94be
000000d0: 54ce 4fbe d9f7 343e 0768 6dbe a53a edbd
000000e0: f914 36be 24d7 a7be 2ca4 f9bd 67ca 3f3e
000000f0: ac10 3c3e 097b 853e 6d91 8e3e 8dc1 823e
00000100: ea2b 3c3e 14d6 09bd d66a 17bd cfe7 433d
00000110: c853 3e3e e7cd dfbd b4b4 6e3e f4ea 9f3e
00000120: 0053 883e 393c 0c3e a30f 9f3e 8bc4 0ebe
00000130: d828 3ebe 30c7 9bbe 324c 8bbe b75a 5f3d
00000140: 2775 8c3e 2e34 8c3e d46c 9c3e d2f8 6bbe
00000150: eb2b 873d 2054 1fbe dba5 8fbe c3a3 613d
00000160: 0225 d3bd c2d8 5dbe 1b28 d33c 7f32 df3c
00000170: efca a33e 6717 debd 8c10 41be 2aff 95bd
00000180: 43a5 49be 8658 d0bd d83f 2fbe 3c01 7d3e
00000190: 01e7 5cbe aba1 9f3e c2f2 86be a0c0 9c3e
000001a0: e764 1bbc 531f f83d 3ca3 483e a6ec 913e
000001b0: 3fd2 9d3e 191d bebd b2b4 353b 34cc c4bd
000001c0: b43b 8e3e 28cb 96be 6aee 5abe 2e59 11be
000001d0: 57df 76be 32c2 6abc 099e f43d ce0b 193c
000001e0: 7bdf 76be 1e0d 903d a7b9 b43c a816 0c3e
000001f0: 032d cebd 4a0e a43e 32e1 3abe 4af0 9a3e
00000200: b1f0 4d3e a6d9 22be f010 023d e0fd 7f3e
00000210: f54c ee3d f72f e4bd 517f 02bd fb00 ea3d
00000220: 08de 843d be18 a8be 1a7f 99bd e5cc 363e
00000230: ae19 c13d a43b f9bd ee00 08bb 8d2c 67be

state_cnn.0.0.bias f4 [16]
-0.047615852 0.3000011 -0.12750305 -0.20678797 -0.2795083 -0.12668818 0.022149073 -0.31596974
-0.06243837 0.06050819 0.22866654 0.020177055 -0.19986448 -0.02643024 0.32912722 0.13154294
00000000: d708 43bd bf99 993e 2990 02be 3ac0 53be
00000010: b61b 8fbe 8cba 01be f971 b53c c9c6 a1be
00000020: 60bf 7fbd 70d7 773d 9027 6a3e 5a4a a53c
00000030: 46a9 4cbe 3b84 d8bc 5d83 a83e 31b3 063e

state_cnn.1.0.weight f4 [32, 16, 3, 3]
0.0823108 0.052827533 -0.026128644 -0.018990897 0.01650105 -0.06006149 -0.00015135593 0.01709736
-0.03999068 0.032352827 0.042627 0.018501218 0.0059961285 0.046000373 -0.04507819 0.06694357
-0.0029329895 0.069819406 -0.024692468 0.014745648 -0.056083 -0.008490265 0.082050785 -0.06987041
-0.061613515 0.0012314823 0.08181239 0.026058994 0.039654337 -0.010711194 -0.06429832 -0.021029942
0.07978089 -0.08296538 -0.04531975 0.015052887 -0.048946805 0.07914844 -0.051451422 -0.070682056
-0.04444243 -0.031271145 -0.021556728 0.047059044 0.014173429 -0.016082834 -0.019237043 -0.055207357
0.012069485 0.07714266 0.07802499 0.07819916 -0.06818033 0.056332875 0.06362666 0.002380855
-0.0110963425 0.041786484 0.016336868 -0.017687421 -0.046571657 0.06361022 -0.06319284 -0.076177485
-0.007482132 0.008706809 -0.06318417 0.0141197555 -0.056012757 -0.05066929 0.040916886 -0.011672398
-0.06657154 -0.0067095365 -0.0049681817 0.08226015 0.058632314 -9.360895e-05 -0.007160575 0.06477471
-0.07015827 -0.03311865 0.04494479 0.064205274 0.0077696647 -0.061439972 0.011016641 -0.020403437
0.038657993 0.08562982 -0.05826859 0.05379246 0.0060097715 -0.033430867 0.040798094 -0.074251495
0.06835149 0.0032924493 -0.06746194 0.02427156 0.018775277 0.069175646 0.031851593 0.07054597
-0.026448086 -0.039804265 -0.0049308604 -0.01373283 -0.021482728 0.025810484 -0.06466047 -0.042885944
-0.05248426 -0.053520516 0.04532546 -0.0077972915 -0.06585729 -0.06056831 -0.07722063 0.08110873
-0.02715594 0.028491532 0.06653129 -0.058434214 0.062089324 -0.078030854 0.021856837 0.023024611
0.010724169 0.038403932 0.07611078 0.024652641 -0.019872628 0.018737875 -0.061388936 0.08240009
0.01380144 -0.049082562 7.767472e-05 0.031080747 -0.02089365 -0.013132176 0.0089372825 0.055433966
-0.07351558 0.044150993 0.030054225 -0.059760924 0.090123855 0.06961873 0.034227654 0.036235243
0.069085315 -0.028232438 0.013886194 0.011071216 0.07244663 -0.03887013 0.021293592 0.03320818
0.086211346 0.012554588 0.037226323 0.04537071 -0.038611017 0.049192984 -0.00095935166 0.029552214
0.04644073 -0.036731686 -0.009576958 0.056177624 -0.05603621 0.073614486 0.04799761 -0.083160706
0.0070350477 -0.07929793 -0.015885852 -0.07451753 0.05027891 -0.05126433 -0.041540407 0.020889621
-0.0665942 -0.07366825 0.02094728 0.030138953 -0.029160036 0.02578686 0.051192995 -0.03129004
-0.010803502 -0.03349387 0.04535093 0.058111474 -0.022458844 0.07063718 0.014300744 0.062147353
-0.067374445 -0.008738992 0.018532693 0.060712304 0.0128730815 -0.04055105 0.04079521 -0.01325989
-0.02099716 0.052449413 -0.0140526015 0.042050377 -0.07319893 0.020748956 0.008482259 -0.020619096
0.012934332 0.08237602 0.045959286 0.048097435 -0.026060535 0.05184988 -0.027970402 0.06456509
0.00062905694 0.0045885933 0.016300522 0.027134202 -0.02798501 -0.050325148 0.0333414 0.012965582
-0.045986872 -0.043573204 -0.024438256 -0.059348833 -0.048404112 0.06094383 -0.044738088 -0.013836018
0.026434418 -0.03494447 0.032451324 0.029679697 0.030857125 0.018318506 -0.007991962 -0.014340837
-0.027059637 0.029526196 -0.02386296 0.080077924 0.06307097 0.036143575 -0.034298614 -0.06586467
00000000: 9192 a83d af61 583d bd0b d6bc cc92 9bbc
00000010: 362d 873c 0903 76bd 4cb5 1eb9 c30f 8c3c
00000020: 44cd 23bd 6684 043d a699 2e3d de8f 973c
00000030: 2c7b c43b e36a 3c3d e8a3 38bd b619 893d
00000040: 6637 40bb 7afd 8e3d dc47 cabc bb97 713c
00000050: 4ab7 65bd c11a 0bbc 3e0a a83d 3818 8fbd
00000060: 745e 7cbd b069 a13a 418d a73d ac79 d53c
00000070: 966c 223d 017e 2fbc d6ae 83bd fc46 acbc
00000080: 2a64 a33d c1e9 a9bd 34a1 39bd 62a0 763c
00000090: 727c 48bd 9418 a23d babe 52bd c1c1 90bd
000000a0: 4409 36bd 2c16 00bd bc97 b0bc fcc0 403d
000000b0: ac37 683c 26c0 83bc 0197 9dbc 1c21 62bd
000000c0: 17bf 453c f9fc 9d3d 91cb 9f3d e226 a03d
000000d0: 21a2 8bbd 4dbd 663d b24e 823d 1e08 1c3b
000000e0: 6fcd 35bc 4e28 2b3d e5d4 853c 36e5 90bc
000000f0: ecc1 3ebd 1346 823d 3f6b 81bd f102 9cbd
00000100: ac2c f5bb 01a7 0e3c b466 81bd 8c56 673c
00000110: a26d 65bd 9a8a 4fbd 7798 273d 963d 3fbc
00000120: a956 88bd acdb dbbb 21cc a2bb 0278 a83d
00000130: 7028 703d ec4f c4b8 42a3 eabb 9aa8 843d
00000140: 24af 8fbd 6ca7 07bd 0718 383d 0e7e 833d
00000150: ac98 fe3b 7ba8 7bbd 247f 343c 1c25 a7bc
00000160: d857 1e3d b05e af3d 0cab 6ebd 7c55 5c3d
00000170: 9eed c43b ceee 08bd e71b 273d 2b11 98bd
00000180: defb 8b3d 22c6 573b 7c29 8abd 27d5 c63c
00000190: 9cce 993c f6ab 8d3d d176 023d 687a 903d
000001a0: a8a9 d8bc cc09 23bd 0e93 a1bb aaff 60bc
000001b0: 8cfc afbc 8270 d33c b56c 84bd 2ca9 2fbd
000001c0: bcf9 56bd 5438 5bbd 31a7 393d 6c80 ffbb
000001d0: 30e0 86bd 7a16 78bd da25 9ebd 551c a63d
000001e0: 2276 debc 1367 e93c 8f41 883d b758 6fbd
000001f0: 6051 7e3d a4ce 9fbd 1c0d b33c 1c9e bc3c
00000200: 6db4 2f3c 714d 1d3d f8df 9b3d 56f4 c93c
00000210: eccb a2bc 2c80 993c f772 7bbd 61c1 a83d
00000220: 6f1f 623c cc0a 49bd 4ce5 a238 0d9d fe3c
00000230: 2929 abbc 5728 57bc ae6d 123c ba0e 633d
00000240: 568f 96bd acd7 343d 4734 f63c dfc7 74bd
00000250: db92 b83d 4494 8e3d 4c32 0c3d 686b 143d
00000260: 9a7c 8d3d b747 e7bc eb82 633c 0c64 353c
00000270: e65e 943d 4936 1fbd e66f ae3c 4d05 083d
00000280: 938f b03d c2b1 4d3c a17a 183d a3d6 393d
00000290: 9626 1ebd 957e 493d 007d 7bba 7c17 f23c
000002a0: a338 3e3d f773 16bd ace8 1cbc 821a 663d
000002b0: 3a86 65bd 31c3 963d 2499 443d 2950 aabd
000002c0: 4286 e63b f466 a2bd 0c23 82bc a69c 98bd
000002d0: 42f1 4d3d 8cfa 51bd 4626 2abd b620 ab3c
000002e0: 8a62 88bd 61df 96bd a199 ab3c f7e5 f63c
000002f0: 07e1 eebc f73e d33c bfaf 513d fc29 00bd
00000300: 2c01 31bc de30 09bd e6c1 393d 4c06 6e3d
00000310: 9cfb b7bc 3aaa 903d ab4d 6a3c 398e 7e3d
00000320: 9dfb 89bd fd2d 0fbc e0d1 973c 77ad 783d
00000330: 9ee9 523c dc18 26bd e118 273d 0240 59bc
00000340: 3c02 acbc 32d5 563d e23c 66bc 043d 2c3d
00000350: 52e9 95bd b7f9 a93c 2cf9 0a3c 61e9 a8bc
00000360: 85ea 533c c2b4 a83d ce3f 3c3d d101 453d
00000370: e77c d5bc 8a60 543d 2f22 e5bc b43a 843d
00000380: 4ce7 243a e95b 963b ac88 853c 8c48 de3c
00000390: d240 e5bc be21 4ebd fe90 083d 986d 543c
000003a0: bb5c 3cbd d179 32bd bd32 c8bc c317 73bd
000003b0: 6443 46bd 3da0 793d 493f 37bd 77b0 62bc
000003c0: fe8c d83c ef21 0fbd aeeb 043d d622 f33c
000003d0: 15c8 fc3c b110 963c b8f0 02bc d4f5 6abc
000003e0: 2cac ddbc ece0 f13c 417c c3bc e5ff a33d
000003f0: 5a2b 813d 490b 143d b47c 0cbd 0ee4 86bd

state_cnn.1.0.bias f4 [32]
0.030921813 -0.00517555 0.023533478 -0.024066968 0.010781258 -0.054514453 -0.06758319 0.024035517
0.075343825 0.01682139 0.057180457 0.052965358 -0.058788724 -0.071056105 -0.014961519 -0.06317949
0.028938543 -0.016627496 -0.039102532 0.012949617 -0.055974547 -0.02175854 0.02305614 -0.014071106
0.023615927 -0.011712157 0.009152455 0.03435061 0.050216995 0.07638507 0.057587124 0.028544016
00000000: be4f fd3c a997 a9bb 48c9 c03c 1728 c5bc
00000010: e0a3 303c 8c4a 5fbd 0e69 8abd 22e6 c43c
00000020: dd4d 9a3d 03cd 893c 0e36 6a3d 34f2 583d
00000030: 72cc 70bd dd85 91bd 2921 75bc 4064 81bd
00000040: 8610 ed3c 6336 88bc fa29 20bd a12a 543c
00000050: 9145 65bd f73e b2bc 3be0 bc3c 7f8a 66bc
00000060: 3076 c13c 59e4 3fbc 2ef4 153c 3ab3 0c3d
00000070: 56b0 4d3d c76f 9c3d 7ae0 6b3d 24d5 e93c

button_cnn.0.0.weight f4 [8, 1, 3, 3]
-0.30498496 0.21359055 0.3394622 -0.048828088 0.10273384 -0.07811224 0.17433144 0.093832046
0.15239863 0.26370192 0.11029535 -0.2208902 -0.32794064 0.15408793 0.11875455 -0.21082668
-0.23643255 -0.1822767 -0.16857491 0.18882027 -0.2472374 0.26866996 -0.12546918 0.1315953
0.16116032 -0.16611785 0.20723861 0.11687862 -0.038687155 -0.21743876 0.23503119 -0.15781285
0.23607156 -0.2521696 -0.16990484 -0.19879964 -0.007297561 0.20920756 0.1106362 0.23588021
-0.026632829 0.12684827 -0.28832453 -0.031976406 0.29655394 0.13780172 -0.2573124 -0.24133359
-0.05123899 -0.27221704 0.15400887 -0.19870709 0.2892385 0.22816387 -0.13787912 0.12918232
0.16855325 -0.023195764 0.2411167 0.12925045 -0.012261818 0.17808066 -0.020658456 0.03777226
0.27027133 -0.2905102 -0.045956496 -0.10125348 -0.07411008 -0.053295538 -0.13365938 -0.29254824
00000000: fd26 9cbe 7bb7 5a3e fdcd ad3e f6ff 47bd
00000010: 1f66 d23d 4ff9 9fbd f183 323e 042b c03d
00000020: 630e 1c3e f003 873e 87e2 e13d 0a31 62be
00000030: d6e7 a7be 3ac9 1d3e 9635 f33d f3e2 57be
00000040: 601b 72be bea6 3abe e79e 2cbe 1a5a 413e
00000050: cd2b 7dbe 1c8f 893e fe7a 00be ebc0 063e
00000060: 3607 253e cc1a 2abe 5c36 543e 0f5e ef3d
00000070: 6c76 1ebd 44a8 5ebe 04ac 703e b199 21be
00000080: bebc 713e 601c 81be 89fb 2dbe 2292 4bbe
00000090: 6120 efbb 823a 563e 3b95 e23d 958a 713e
000000a0: 172d dabc 83e4 013e 469f 93be b1f9 02bd
000000b0: ebd5 973e e51b 0d3e 73be 83be 2720 77be
000000c0: fadf 51bd 0860 8bbe 80b4 1d3e df79 4bbe
000000d0: 1217 943e caa3 693e 2f30 0dbe 5f48 043e
000000e0: 3999 2c3e 0b05 bebc 4ce7 763e 3b5a 043e
000000f0: cbe5 48bc c75a 363e ec3b a9bc 16b7 1a3d
00000100: 0161 8a3e c1bd 94be e13c 3cbd fc5d cfbd
00000110: 07c7 97bd 6c4c 5abd 01de 08be e2c8 95be

button_cnn.0.0.bias f4 [8]
0.26436672 0.2700388 -0.098048165 -0.21121651 0.24543421 0.024989216 0.005333805 -0.1874199
00000000: 135b 873e 8742 8a3e 7acd c8bd 2449 58be
00000010: 1b53 7b3e 2fb6 cc3c 33c7 ae3b 01eb 3fbe

button_cnn.1.0.weight f4 [16, 8, 3, 3]
0.06804965 -0.023934072 0.05450952 0.013118824 0.10653631 0.031174624 -0.006625024 0.12107207
-0.08766221 -0.07916726 0.046552792 0.008342795 0.00078192283 0.029918095 0.08751452 0.013911658
-0.033101406 0.10668948 -0.027075166 -0.013004091 -0.018206893 -0.06151501 0.04641214 0.10433179
0.040532216 -0.034618896 -0.0058522313 0.05073466 0.035549395 -0.06755969 0.10180591 -0.07350318
-0.053976066 0.10894857 0.093142286 0.0993011 -0.10314575 -0.047362313 0.10402619 -0.053282216
-0.06737644 0.04763661 -0.04276354 -0.07063134 -0.081065945 -0.038511667 -0.09320875 -0.035826866
0.056808118 0.022468459 -0.081084795 0.0057342527 0.08654532 -0.0689522 0.054353252 0.08568698
-0.038327556 -0.008015367 -0.079301834 -0.027210565 -0.005548337 -0.019873235 -0.09592942 -0.0355448
0.0112303095 0.0027050078 -0.0063190013 -0.018240215 0.11936842 0.10054214 0.019837046 -0.06503535
0.08221597 0.102490425 0.11239514 -0.046339482 0.12358094 0.034987774 -0.0021522366 0.06377895
0.01311161 -0.06134296 0.07985104 0.008694638 -0.08983111 -0.003196715 0.076546796 -0.035637815
0.10489513 0.12339486 -0.03910463 -0.006151774 0.098718 0.03621939 0.039225433 0.01069856
0.016456407 0.00398649 0.029044935 -0.043561712 0.10136453 0.11885474 -0.025101429 0.094558164
-0.057772648 0.012920662 -0.08346356 0.0786406 -0.010975933 0.019721447 0.10236043 -0.024670519
0.04696896 -0.09342313 0.09210005 0.013459567 0.12088491 0.09150908 0.02475594 -0.01420828
0.120887436 -0.099496275 0.083647504 0.055551987 0.12293784 0.09793165 0.10034235 0.1021475
0.10017201 0.124506935 0.029756958 0.044110786 -0.05509121 0.0070785773 -0.05813748 0.07295821
-0.007968416 -0.07654861 -0.030204887 0.054573357 -0.017527817 -0.0052845622 0.008985414 0.115153514
-0.022395674 -0.09689976 -0.026594348 0.04597436 0.09889095 0.108107306 -0.021870755 0.10527375
-0.013766886 -0.07571713 -0.02081122 0.006535674 0.08313664 0.011014403 0.017780557 -0.08007235
0.08383886 -0.084803686 -0.0660481 0.0432856 0.034832172 -0.06916118 0.10250875 0.021312663
-0.093099445 -0.011953601 -0.103128 0.104168914 0.046665005 0.0029339779 0.10823635 0.089443065
0.06447881 -0.05515224 -0.060044564 -0.022309327 0.010359137 -0.09974415 -0.055235773 0.0153092835
-0.029946815 0.007454681 -0.10363633 0.05151117 0.10355819 -0.09766618 0.077912286 0.07398359
0.055340014 0.015080155 -0.05013351 0.035306618 -0.07424055 0.014438484 -0.011527851 0.016740808
-0.049951117 -0.06151006 -0.029083438 0.12597951 -0.055645704 -0.006134526 -0.09719988 0.020624602
0.019830514 -0.017345067 -0.006795977 -0.050476924 0.021737764 -0.050225332 0.017016744 0.07618231
0.07468295 0.058991194 0.12023626 0.03577567 0.082052074 0.0029033567 -0.10030576 0.06340385
-0.027336985 -0.052490663 0.11995648 0.0031459876 0.058017556 -0.010008839 0.04556939 0.12386855
0.01761072 0.12212682 -0.10191217 -0.053116515 0.028218305 -0.10325488 0.009102019 0.09724892
-0.106401764 0.11294419 -0.07100236 0.012957106 0.0059809233 0.03663898 -0.06472428 0.061355542
0.08067095 -0.09919557 -0.024558619 0.1195429 -0.07995236 0.09916561 -0.034372266 -0.106484056
00000000: 9d5d 8b3d 6311 c4bc 6045 5f3d 56f0 563c
00000010: b52f da3d ed61 ff3c bb16 d9bb a2f4 f73d
00000020: 3f88 b3bd 7222 a2bd 24ae 3e3d 38b0 083c
00000030: f4f9 4c3a cb16 f53c d03a b33d b9ed 633c
00000040: 5795 07bd 0480 da3d bdcc ddbc 1c0f 55bc
00000050: 9f26 95bc 2af7 7bbd a81a 3e3d e8ab d53d
00000060: 1c05 263d 8bcc 0dbd 13c4 bfbb 26cf 4f3d
00000070: 3e9c 113d bc5c 8abd 9e7f d03d d688 96bd
00000080: 0216 5dbd 6e20 df3d 62c1 be3d 605e cb3d
00000090: 143e d3bd fcfe 41bd af0b d53d 743e 5abd
000000a0: a9fc 89bd 9b1e 433d d228 2fbd 2aa7 90bd
000000b0: e705 a6bd 69be 1dbd 3be4 bebd 31bf 12bd
000000c0: a1af 683d c60f b83c c90f a6bd 66e6 bb3b
000000d0: ac3e b13d d036 8dbd 84a1 5e3d a87c af3d
000000e0: 5bfd 1cbd e352 03bc 0069 a2bd b1e8 debc
000000f0: d3ce b5bb 32cd a2bc a576 c4bd 6d97 11bd
00000100: 55ff 373c 8046 313b a00f cfbb 816c 95bc
00000110: 6e77 f43d 0ae9 cd3d 4d81 a23c 4131 85bd
00000120: d960 a83d 80e6 d13d 6c2f e63d 78ce 3dbd
00000130: 0118 fd3d 574f 0f3d 8a0c 0dbb 8a9e 823d
00000140: 14d2 563c c142 7bbd f188 a33d f473 0e3c
00000150: 5ff9 b7bd fa7f 51bb 91c4 9c3d f5f8 11bd
00000160: 42d3 d63d 72b6 fc3d 2d2c 20bd d294 c9bb
00000170: aa2c ca3d c85a 143d d9aa 203d 0349 2f3c
00000180: 96cf 863c 1aa1 823b a5ef ed3c c46d 32bd
00000190: 3598 cf3d 1d6a f33d 83a1 cdbc b6a7 c13d
000001a0: 03a3 6cbd 2fb1 533c f1ee aabd 530e a13d
000001b0: 66d4 33bc df8e a13c 58a2 d13d d419 cabc
000001c0: 8662 403d a054 bfbd f39e bc3d 8485 5c3c
000001d0: 8292 f73d 1d69 bb3d f8cc ca3c d8c9 68bc
000001e0: d593 f73d b4c4 cbbd 624f ab3d 7b8a 633d
000001f0: d6c6 fb3d 6490 c83d 4a80 cd3d b532 d13d
00000200: fc26 cd3d 7efd fe3d ddc4 f33c 83ad 343d
00000210: 52a7 61bd 69f3 e73b 9121 6ebd 1d6b 953d
00000220: f68d 02bc 85c5 9cbd 3d70 f7bc 5088 5f3d
00000230: 7f96 8fbc 1f2a adbb 8f37 133c 9bd5 eb3d
00000240: 2277 b7bc 6273 c6bd 64dc d9bc 9c4f 3c3d
00000250: 5787 ca3d 5d67 dd3d 4c2a b3bc c499 d73d
00000260: 818e 61bc 9511 9bbd 4b7c aabc 3529 d63b
00000270: 8b43 aa3d c175 343c 88a8 913c f9fc a3bd
00000280: b5b3 ab3d 8ead adbd 3a44 87bd 3e4c 313d
00000290: 2eac 0e3d 60a4 8dbd 1cf0 d13d e597 ae3c
000002a0: ecaa bebd 09d9 43bc c634 d3bd 8356 d53d
000002b0: ce23 3f3d fb47 403b 05ab dd3d ed2d b73d
000002c0: 770d 843d 51e7 61bd 4af1 75bd 0dc2 b6bc
000002d0: 5fb9 293c a946 ccbd e83e 62bd cad3 7a3c
000002e0: 0653 f5bc 6646 f43b 493f d4bd 60fd 523d
000002f0: 5116 d43d 3505 c8bd 7a90 9f3d b584 973d
00000300: 36ac 623d c112 773c cc58 4dbd ac9d 103d
00000310: 6e0b 98bd 648f 6c3c 50df 3cbc 0524 893c
00000320: 8b99 4cbd f9f1 7bbd 6440 eebc c600 013e
00000330: c0ec 63bd 2204 c9bb bb10 c7bd edf4 a83c
00000340: 9a73 a23c 3e17 8ebc c9b0 debb e4c0 4ebd
00000350: 6513 b23c 14b9 4dbd b366 8b3c 7905 9c3d
00000360: 60f3 983d c0a0 713d 6e3e f63d 8289 123d
00000370: eb0a a83d 3e46 3e3b 1b6d cdbd e1d9 813d
00000380: d0f1 dfbc 7300 57bd beab f53d ea2c 4e3b
00000390: d1a3 6d3d 1dfc 23bc f8a6 3a3d cbae fd3d
000003a0: 5b44 903c a01d fa3d 54b7 d0bd b490 59bd
000003b0: 132a e73c 4b77 d3bd a220 153c 712a c73d
000003c0: 2be9 d9bd 494f e73d af69 91bd 0b4a 543c
000003d0: 9ffb c33b c112 163d 2a8e 84bd f34f 7b3d
000003e0: d036 a53d 0c27 cbbd 282f c9bc e8d2 f43d
000003f0: 10be a3bd 5717 cb3d efc9 0cbd 5014 dabd

button_cnn.1.0.bias f4 [16]
0.014815052 -0.054899998 0.12177969 0.07517153 -0.029482977 0.11708835 0.08330672 -0.0019369022
0.0697139 0.08563559 0.07770142 -0.09152683 -0.08470118 0.087976255 -0.024231981 0.093253635
00000000: d5ba 723c d2de 60bd a167 f93d 88f3 993d
00000010: 4986 f1bc 04cc ef3d b79c aa3d a7df fdba
00000020: 29c6 8e3d b661 af3d ec21 9f3d 6b72 bbbd
00000030: d077 adbd e52c b43d 2682 c6bc c3fb be3d

fc.0.weight f4 [256, 240]
-0.05300217 -0.007876987 0.047476098 -0.054849986 -0.018261658 -0.046430003 0.045721985 0.03724636
-0.056149665 -0.059580855 0.019513283 0.04378402 0.0563674 0.026096152 -0.023610583 0.009918828
0.02737064 -0.039105993 -0.03776643 0.008288126 -0.027823962 -0.052271716 -0.025529852 0.05562902
-0.06449779 -0.027702197 -0.029715315 0.042060293 -0.012847754 -0.06404119 0.058414612 -0.032277692
0.040528532 0.019057753 0.05092074 -0.049683604 0.013739257 -0.018697983 0.053087294 -0.014316484
-0.05355285 -0.048126966 0.007968388 0.0019496304 -0.052056294 0.003102428 -0.039138976 0.040754754
-0.028266968 0.027257454 0.039812014 -0.025130592 0.06389251 0.018024446 -0.06299223 -0.03088615
-0.029877476 0.03710977 0.02489936 -0.024536867 -0.045079537 -0.018858338 -0.025542933 -0.058321774
-0.053729482 -0.028705254 0.007351685 0.026033368 -0.06192026 0.055665348 0.051967833 0.052012358
0.030378617 0.015055859 0.037701257 -0.038278237 0.013572146 -0.054273766 -0.050056607 -0.039407358
0.04643576 0.05560477 -0.007687607 -0.05226179 0.024417719 0.047568947 -0.054721378 -0.01731315
0.04323967 -0.022994954 0.059566066 -0.047746073 -0.016461823 -0.014177175 -0.042331316 0.025833324
0.046346035 0.048002508 0.03899181 -0.025095511 -0.047689788 -0.042274643 -0.047171403 0.037274793
0.018644035 -0.061733034 -0.060450874 -0.04087332 0.010284529 -0.04811063 -0.0153302215 0.019464305
-0.032029092 0.062100183 -0.015593681 -0.022579042 -0.0299012 0.025258513 -0.0029165132 -0.00982555
-0.013962741 0.004284992 0.050748304 0.011401009 -0.02480983 -0.040410362 -0.057696637 -0.05677744
-0.013337074 0.03317012 0.044133335 0.002781506 0.05367705 -0.014043453 0.04275326 -0.015608009
-0.049325034 -0.0416769 0.02329224 -0.057205908 0.059463985 -0.026030561 0.058366388 -0.0037883616
0.035812404 -0.0028905198 -0.017604096 0.018058682 0.027337158 0.007986601 0.026777737 0.01929881
-0.020038402 0.016022481 0.0515933 -0.04009397 -0.052867193 -0.014780388 -0.03792545 0.0562724
-0.008690525 0.0009981231 -0.0031384097 -0.060032632 0.053161602 -0.036901776 0.02418046 0.0029894128
-0.063559964 -0.051758654 0.0058353813 0.049934074 0.03668196 -0.017292289 0.053897068 0.0028699052
0.035049323 -0.04141755 0.0230179 -0.05489343 0.034629025 0.06309329 -0.035488933 0.05760843
-0.04093457 0.056286827 -0.03656702 -0.04463335 -0.048649743 -0.06436963 -0.015687412 0.064005345
0.05726996 0.03948253 0.034762256 -0.015858363 -0.024966475 -0.008150642 0.0041080397 0.029300142
-0.03314796 -0.0059475377 -0.03820765 -0.015599652 -0.008060665 -0.0036233824 -0.027956577 0.02175764
-0.029116249 0.0077192793 0.03869981 -0.0318997 -0.018843018 -0.037676122 -0.027937133 0.05687442
-0.011514841 0.034137897 0.00074557564 -0.023296433 0.010038522 -0.06363211 0.0011439882 0.033716407
-0.030051544 -0.0372058 -0.039170817 -0.06389972 -0.0275483 -0.020569889 0.06448004 -0.011640775
0.023010466 0.031225713 0.019109 0.053816818 -0.05420291 -0.042682495 -0.0034855816 0.027824678
-0.020957291 -0.054308932 -0.0010257557 0.041942474 0.06175485 -0.026507 -0.038438123 -0.038626418
-0.05725852 -0.027154565 -0.00031461447 0.012080608 -0.039058857 0.008864077 -0.05614565 0.03262215
00000000: ce18 59bd 7a0e 01bc 4c76 423d 61aa 60bd
00000010: 7999 95bc 632d 3ebd fa46 3b3d a48f 183d
00000020: 31fd 65bd 0e0b 74bd 52da 9f3c df56 333d
00000030: 81e1 663d 99c7 d53c fb6a c1bc 9482 223c
00000040: 6438 e03c 9b2d 20bd f9b0 1abd ecca 073c
00000050: 14ef e3bc de1a 56bd fb23 d1bc 41db 633d
00000060: 6b17 84bd b8ef e2bc 886d f3bc 6a47 2c3d
00000070: 637f 52bc 0728 83bd 2944 6f3d 9d35 04bd
00000080: 3f01 263d 011f 9c3c 4492 503d 0981 4bbd
00000090: 9f1a 613c 832c 99bc 1072 593d b08f 6abc
000000a0: 3c5a 5bbd c820 45bd d78d 023c be8a ff3a
000000b0: fb38 55bd 1b52 4b3b 3150 20bd 75ee 263d
000000c0: 2190 e7bc 064b df3c ec11 233d acde cdbc
000000d0: 14da 823d 01a8 933c 1202 81bd f404 fdbc
000000e0: 9cc1 f4bc 6a00 183d bef9 cb3c 8a01 c9bc
000000f0: 52a5 38bd cd7c 9abc 6a3f d1bc d0e2 6ebd
00000100: 7213 5cbd 4827 ebbc 67e6 f03b ee43 d53c
00000110: 19a0 7dbd 5901 643d 39dc 543d e90a 553d
00000120: 94dc f83c daac 763c a26c 1a3d a4c9 1cbd
00000130: b55d 5e3c 2b4e 5ebd 2808 4dbd 9c69 21bd
00000140: 6c33 3e3d d4c1 633d 52e8 fbbb 7510 56bd
00000150: ab07 c83c a8d7 423d 8623 60bd 4fd4 8dbc
00000160: 151c 313d ea5f bcbc 8cfb 733d 6391 43bd
00000170: f2da 86bc 6247 68bc 9a63 2dbd 68a0 d33c
00000180: 57d5 3d3d 479e 443d e0b5 1f3d 1a95 cdbc
00000190: 5e56 43bd 2d28 2dbd cd36 41bd 74ad 183d
000001a0: 60bb 983c c7db 7cbd 569b 77bd c86a 27bd
000001b0: 7180 283c a70f 45bd 9c2b 7bbc 9b73 9f3c
000001c0: f030 03bd c35c 7e3d a37c 7fbc aff7 b8bc
000001d0: 5df3 f4bc f1ea ce3c f922 3fbb 58fb 20bc
000001e0: fbc3 64bc 1e69 8c3b 74dd 4f3d 4ccb 3a3c
000001f0: fc3d cbbc 5685 25bd 4f53 6cbd 768f 68bd
00000200: be83 5abc 64dd 073d 28c5 343d ed49 363b
00000210: 77dc 5b3d 8316 66bc 0b1e 2f3d bcb8 7fbc
00000220: 0c09 4abd 66b5 2abd 5ecf be3c be50 6abd
00000230: 8290 733d 0b3e d5bc 9811 6f3d 2946 78bb
00000240: 07b0 123d e06e 3dbb 7736 90bc cdef 933c
00000250: 2df2 df3c 3cda 023c fc5c db3c 8a18 9e3c
00000260: 9327 a4bc 9441 833c 7f53 533d 9339 24bd
00000270: 458b 58bd 7129 72bc b757 1bbd e37d 663d
00000280: b462 0ebc 74d3 823a c7ad 4dbb c7e4 75bd
00000290: fbbf 593d 5126 17bd 1a16 c63c 06ea 433b
000002a0: ba2b 82bd e200 54bd ba36 bf3b ac87 4c3d
000002b0: d33f 163d 8fa8 8dbc 2cc3 5c3d 0515 3c3b
000002c0: e18f 0f3d 73a5 29bd 0990 bc3c efd7 60bd
000002d0: 2ad7 0d3d 0e37 813d d85c 11bd d1f6 6b3d
000002e0: 02ab 27bd 048d 663d 4dc7 15bd 76d1 36bd
000002f0: f444 47bd 39d4 83bd e382 80bc 3c15 833d
00000300: e893 6a3d 6fb8 213d de62 0e3d 66e9 81bc
00000310: 7e86 ccbc 458a 05bc bc9c 863b da06 f03c
00000320: 28c6 07bd 90e3 c2bb a07f 1cbd af95 7fbc
00000330: e110 04bc 4576 6dbb 3105 e5bc 143d b23c
00000340: 3385 eebc 02f2 fc3b b183 1e3d 43a9 02bd
00000350: ac5c 9abc 4752 1abd 6adc e4bc 27f5 683d
00000360: bea8 3cbc 2ed4 0b3d bc72 433a 29d8 bebc
00000370: 9d78 243c 8d51 82bd e0f1 953a 371a 0a3d
00000380: a82e f6bc 1c65 18bd 9471 20bd dbdd 82bd
00000390: f9ac e1bc 2f82 a8bc 1c0e 843d f3b8 3ebc
000003a0: 7280 bc3c 11cd ff3c 7a8a 9c3c 066f 5c3d
000003b0: df03 5ebd d7d3 2ebd 5b6e 64bb 94f0 e33c
000003c0: a0ae abbc 0b73 5ebd a672 86ba dfcb 2b3d
000003d0: a7f2 7c3d 3525 d9bc 4b71 1dbd bc36 1ebd
000003e0: e987 6abd 4073 debc d7f2 a4b9 beed 453c
000003f0: 2efc 1fbd a23a 113c fbf8 65bd ce9e 053d

fc.0.bias f4 [256]
0.046672862 0.02121454 -0.04655935 -0.014078718 0.006557226 0.060247637 -0.03906374 -0.02170438
0.021830859 0.02484238 0.021377126 0.01680715 0.028864248 -0.040355943 -0.037178937 -0.028086737
-0.057046685 -0.02324931 0.005342356 -0.06073834 -0.048784584 -0.045056842 -0.024756195 0.06344147
-0.007920178 -0.019637646 0.047232296 -0.013580619 -0.0017928305 0.05628871 -0.023941303 -0.055438124
0.063492 -0.045739647 0.027076794 0.030990634 -0.03390298 -0.016283695 -0.023330921 0.06305414
0.025641749 -0.015582184 -0.01814415 -0.026040146 -0.04308781 0.018665655 0.036943294 0.027846815
0.063189246 0.026760157 -0.036598668 -0.044646487 -0.041502975 0.041941218 -0.026915798 0.049812697
-0.045294248 -0.04548074 -0.026588904 0.05329381 -0.026298303 0.013945068 -0.021136137 -0.0004193422
-0.05852451 -0.0357271 0.005595514 -0.052419078 0.06866939 0.032138623 -0.03482446 -0.04689063
0.06406231 0.030894928 0.0024774408 0.04193862 -0.063224524 0.048905447 0.013482543 0.059176028
-0.052600943 -0.005812284 0.031802077 -0.025861988 0.044331525 0.042631727 -0.03257515 -0.022789733
0.028002577 -0.02446595 -0.050673347 -0.021337438 -0.030465405 0.017531568 0.028392797 0.01593532
0.064140156 -0.027640477 0.052107695 0.029795809 0.007683906 -0.055502493 -0.008629761 -0.04094299
0.045467094 0.04706948 0.024987806 0.011836314 0.009267898 -0.0019071171 0.048979342 -0.04624058
0.05854141 0.003006303 0.052491426 -0.016318046 -0.066969715 0.0047364305 0.0475533 -0.030870177
0.0021275163 -0.011380225 -0.00039676015 -0.024289683 -0.044254765 -0.05988968 -0.051990073 0.049826723
0.04991114 0.014498778 0.03298078 0.037181515 0.0048945327 -0.0069932016 0.037713487 0.034090202
-0.036890555 0.036919363 0.024260817 -0.015129443 -0.038767748 -0.025536507 0.058044195 0.03693349
0.036544237 0.004812089 -0.0016799992 0.025096139 0.01748906 -0.03902647 -0.014397612 0.0049476023
-0.012483522 -0.036640447 0.065386266 0.024157424 -0.026924703 0.05773673 0.07283911 0.024132956
-0.002359729 0.037446067 0.039766267 -0.042852636 -0.029240089 0.003495267 -0.053659126 0.0111426525
0.012271332 -0.01874692 0.06383383 -0.035868563 0.041154735 -0.0069417916 -0.03301333 0.015190605
0.058723103 0.026726723 -0.052481424 -0.032416347 0.029412994 -0.040661216 -0.02715395 0.028856881
-0.03140713 -0.010072734 0.039750047 0.067436084 -0.050900403 -0.010117095 -0.04049824 -0.00035026507
0.007826455 0.06373129 0.032008484 0.045054365 0.01863513 0.03443172 0.016458722 -0.04237208
-0.029574102 0.020281915 -0.0334481 0.039178286 0.03552904 -0.06360945 -0.057190698 0.04312549
-0.024099903 -0.003779308 0.010916468 0.044123787 -0.008457993 -0.015676687 0.022257378 -0.02146431
0.0063583744 0.018775193 -0.013898003 -0.04409478 -0.011291749 0.047666416 -0.047021367 -0.016717177
-0.0126850605 -0.0046535945 0.04180728 0.0017776567 -0.021113366 -0.032401096 0.052356318 0.020733053
-0.008969504 -0.036530007 -0.025823982 -0.005879837 -0.061010387 -0.052183498 0.05678675 0.013065425
0.038161594 0.07113506 -0.011190476 0.022122117 0.026557501 0.02418533 0.051524997 -0.042664446
0.00038916076 0.040675603 -0.05069722 0.023472054 0.03452797 0.06514563 0.001347553 -0.0031216424
00000000: 0b2c 3f3d 1dca ad3c 04b5 3ebd 6caa 66bc
00000010: 00de d63b 3ac6 763d 4d01 20bd 62cd b1bc
00000020: a1d6 b23c 3f82 cb3c 151f af3c 26af 893c
00000030: b774 ec3c 464c 25bd f148 18bd 2816 e6bc
00000040: c9a9 69bd 5675 bebc ee0e af3b c4c8 78bd
00000050: 58d2 47bd 868d 38bd 81cd cabc 9aed 813d
00000060: a2c3 01bc 21df a0bc a776 413d 3f81 5ebc
00000070: 69fd eaba fe8e 663d 8d20 c4bc 1613 63bd
00000080: 1808 823d 7f59 3bbd 27d0 dd3c 12e0 fd3c
00000090: dadd 0abd 6265 85bc 7d20 bfbc 8722 813d
000000a0: a50e d23c 6b4c 7fbc 0aa3 94bc 2552 d5bc
000000b0: d87c 30bd b7e8 983c da51 173d 011f e43c
000000c0: 5d69 813d 1e38 db3c 7ce8 15bd 3cdf 36bd
000000d0: 06ff 29bd 8eca 2b3d 857e dcbc 6608 4c3d
000000e0: 7686 39bd 034a 3abd f9d0 d9bc 9c4a 5a3d
000000f0: 8a6f d7bc db79 643c b125 adbc 28db dbb9
00000100: 66b7 6fbd 9456 12bd 935a b73b 63b5 56bd
00000110: 8aa2 8c3d caa3 033d 18a4 0ebd 6410 40bd
00000120: 1a33 833d 5c17 fd3c 8f5c 223b d5c7 2b3d
00000130: dc7b 81bd 1451 483d e2e5 5c3c 9062 723d
00000140: 1674 57bd f974 bebb e542 023d 85dc d3bc
00000150: f994 353d 9b9e 2e3d 856d 05bd 89b1 babc
00000160: a965 e53c d16c c8bc db8e 4fbd dacb aebc
00000170: 9692 f9bc 5d9e 8f3c 0398 e83c ca8a 823c
00000180: ea5b 833d 486e e2bc e16e 553d 5716 f43c
00000190: 46c9 fb3b 9556 63bd d763 0dbc d6b3 27bd
000001a0: b43b 3a3d edcb 403d 3ab3 cc3c 19ed 413c
000001b0: 62d8 173c 3bf8 f9ba 909e 483d c366 3dbd
000001c0: 1ec9 6f3d 6505 453b 4001 573d 6cad 85bc
000001d0: 6b27 89bd 0f34 9b3b 40c7 423d 74e3 fcbc
000001e0: cd6d 0b3b 2074 3abc 3f04 d0b9 28fb c6bc
000001f0: 7c44 35bd e24e 75bd 8bf3 54bd 1b17 4c3d
00000200: a06f 4c3d 488c 6d3c db16 073d a54b 183d
00000210: 5162 a03b 3a27 e5bb 7579 1a3d 2ba2 0b3d
00000220: 8d1a 17bd c238 173d 9fbe c63c 7ce1 77bc
00000230: eeca 1ebd f031 d1bc c0bf 6d3d 9247 173d
00000240: 69af 153d baae 9d3b 6b33 dcba 6b96 cd3c
00000250: 3845 8f3c 38da 1fbd f6e3 6bbc 7f1f a23b
00000260: b087 4cbc 4b14 16bd 3ce9 853d cae5 c53c
00000270: 3291 dcbc 597d 6c3d ac2c 953d 7ab2 c53c
00000280: afa5 1abb 0c61 193d f4e1 223d 3f86 2fbd
00000290: e988 efbc d910 653b acc9 5bbd ac8f 363c
000002a0: b20d 493c 2493 99bc 50bb 823d eaea 12bd
000002b0: de91 283d f877 e3bb fc38 07bd 04e2 783c
000002c0: a387 703d 00f2 da3c c3f6 56bd 01c7 04bd
000002d0: 85f3 f03c 608c 26bd f671 debc 4465 ec3c
000002e0: c3a4 00bd 1c08 25bc f2d0 223d ee1b 8a3d
000002f0: f17c 50bd 2cc2 25bc 7ce1 25bd c8a3 b7b9
00000300: 883a 003c 8d85 823d 541b 033d ed8a 383d
00000310: b3a8 983c 4608 0d3d 71d4 863c 598e 2dbd
00000320: 6345 f2bc 4226 a63c e000 09bd 6979 203d
00000330: e686 113d ac45 82bd cb40 6abd 5ba4 303d
00000340: 296d c5bc 44ae 77bb fcda 323c 25bb 343d
00000350: 6593 0abc 656c 80bc 1b55 b63c ecd5 afbc
00000360: e959 d03b 6fce 993c 73b4 63bc ba9c 34bd
00000370: 0701 39bc dc3d 433d 7a99 40bd 76f2 88bc
00000380: 00d5 4fbc 2e7d 98bb 1c3e 2b3d 4300 e93a
00000390: f0f5 acbc 03b7 04bd 9473 563d 5dd8 a93c
000003a0: d4f4 12bc 7da0 15bd d18c d3bc a6ab c0bb
000003b0: 07e6 79bd 5dbe 55bd 3999 683d 5d10 563c
000003c0: 554f 1c3d 42af 913d 4258 37bc 7139 b53c
000003d0: 1e8f d93c 5020 c63c e00b 533d eac0 2ebd
000003e0: 4608 cc39 769b 263d e3a7 4fbd 7748 c03c
000003f0: 336d 0d3d 126b 853d 60a0 b03a 7894 4cbb

fc.3.weight f4 [11, 256]
0.024762474 0.049695052 0.05643901 -0.026341207 0.039062012 -0.026775112 0.039415613 -0.008904769
-0.04215994 0.018960325 0.042446963 0.029268628 0.057717893 -0.032324083 0.008944174 -0.06147615
0.05965525 0.0520088 -0.03989482 -0.061986588 -0.052666955 -0.010717345 0.02880878 -0.06040946
-0.06788657 0.051943388 0.052722964 -0.06422531 -0.03477234 -0.024482047 0.056266714 0.052054852
-0.018570784 0.04827504 -0.055250727 -0.049291372 -0.0032930581 0.002904467 0.054689247 -0.053332884
0.040302657 -0.013958525 -0.056113333 -0.05209008 -0.0045836447 -0.01569991 -0.026993021 0.026893672
0.05564031 -0.07188518 0.044536654 -0.02044329 0.027485456 0.0034705857 0.023307532 -0.02694937
0.043869313 0.05457793 0.03077373 0.011264152 -0.003365465 0.00434384 0.01842383 -0.03690883
0.024967507 0.040692843 -0.07001145 0.04289176 -0.0017929939 -0.030118678 -0.038102895 -0.024030896
0.03950216 0.014490681 0.030522972 -0.02058177 0.040001463 0.0021765386 0.018086521 0.0063647623
-0.036831107 -0.004710785 -0.03590575 -0.031317934 0.0018185383 -0.0059926044 0.016949717 0.026555307
0.043524027 -0.0031750156 0.010508759 -0.019777637 0.011046885 -0.049189802 0.03475978 -0.053680502
0.04718563 -0.048677593 -0.05764407 -0.03337187 -0.009223653 0.013006624 -0.009458501 0.044478014
-0.018548084 -0.064918935 0.018050585 -0.05404922 -0.011757109 0.015658453 0.035016544 0.0023384234
0.024811525 -0.0045239623 0.004385066 0.036481105 0.04464271 -0.06047801 0.041506965 -0.023670461
0.024979321 -0.0075021368 0.016890079 -0.006006075 -0.0056828195 0.019513708 0.03438346 -0.019844472
-0.009673781 0.030040268 0.045865387 0.011645144 -0.061513785 0.0396816 -0.039154906 -0.01858173
0.052176863 0.04533776 0.01898014 -0.036078867 -0.031277362 0.057257697 0.026942745 -0.021794697
-0.006554674 -0.020837914 -0.05247439 -0.007983422 0.04827706 -0.014744949 -0.028860323 -0.03563819
-0.030662715 -0.004710543 -0.029674334 -0.04087331 0.0004739383 -0.0010141719 -0.02345422 0.050079916
0.006200274 -0.032044433 -0.013346266 0.04052071 -0.028481131 -0.021356799 0.0018886602 -0.06709522
-0.010675629 -0.05466136 0.0023918054 -0.040011182 0.02553704 0.028193587 -0.03955047 -0.048166744
-0.051933967 0.034489073 0.02531974 0.026119925 0.022933139 0.0457073 0.01578191 0.010396326
-0.036128454 0.05681307 0.04937574 -0.02172721 -0.061180487 -0.045136712 0.041677002 -0.046298206
-0.05952545 -0.07081964 -0.06727723 -0.058999836 -0.030790929 -0.04550752 0.014493074 0.057364784
0.011890453 -0.03842014 0.0036587073 -0.015492454 -0.0038307963 -0.00019215763 0.051982336 -0.019143831
-0.013302151 0.0036563994 0.02826029 -0.04547483 0.04592811 0.035927117 -0.019940916 0.056974616
-0.015393842 0.049054146 -0.023917133 -0.05658102 -0.020476367 0.011317011 0.019606996 -0.046518836
-0.0008177684 -0.031584486 -0.035398345 -0.008521934 -0.037598312 0.0083980765 -0.052137468 0.046757597
0.00023032696 -0.06133531 0.005495864 -0.016216917 -0.04286413 -0.012676017 -0.04770255 0.03927358
0.004464906 -0.042966552 -0.033064567 -0.007933273 0.027896706 -0.05649534 -0.023550145 0.016397577
0.026593847 0.024479909 0.045131095 -0.0058581056 0.039024144 -0.029303102 0.017681954 -0.0069013294
00000000: acda ca3c 0a8d 4b3d 972c 673d 84c9 d7bc
00000010: 7dff 1f3d 7b57 dbbc 4472 213d 4fe5 11bc
00000020: e7af 2cbd af52 9b3c dedc 2d3d c3c4 ef3c
00000030: 9969 6c3d 4266 04bd 968a 123c 6ace 7bbd
00000040: 1059 743d 2e07 553d c068 23bd a6e5 7dbd
00000050: 4eb9 57bd ce97 2fbc 6400 ec3c e96f 77bd
00000060: 1d08 8bbd 97c2 543d 09f4 573d 8f88 83bd
00000070: 716d 0ebd 938e c8bc ed77 663d 7837 553d
00000080: c221 98bc 0cbc 453d 964e 62bd c0e5 49bd
00000090: 59d0 57bb df58 3e3b d501 603d 9573 5abd
000000a0: 6614 253d 4cb2 64bc 18d7 65bd 685c 55bd
000000b0: 6632 96bb 199d 80bc 7820 ddbc 1e50 dc3c
000000c0: 18e7 633d 8a38 93bd 116c 363d b078 a7bc
000000d0: 2e29 e13c c472 633b 70ef be3c edc4 dcbc
000000e0: 4fb0 333d 1c8d 5f3d 3019 fc3c 478d 383c
000000f0: 228f 5cbb c556 8e3b 92ed 963c b72d 17bd
00000100: a888 cc3c 8aad 263d 2a62 8fbd 45af 2f3d
00000110: e402 ebba 72bb f6bc c811 1cbd 71dc c4bc
00000120: 04cd 213d 526a 6d3c 500b fa3c 1a9b a8bc
00000130: 93d8 233d 42a4 0e3b 2f2a 943c 7f8f d03b
00000140: 37dc 16bd ee5c 9abb e811 13bd 3c47 00bd
00000150: 055c ee3a 9c5d c4bb 22da 8a3c 848a d93c
00000160: 4046 323d ec13 50bb ee2c 2c3c b604 a2bc
00000170: fefd 343c 3f7b 49bd 4560 0e3d 16e0 5bbd
00000180: b845 413d 2862 47bd 301c 6cbd f1b0 08bd
00000190: ce1e 17bc bc19 553c d4f7 1abc 942e 363d
000001a0: 27f2 97bc 38f4 84bd d2de 933c b762 5dbd
000001b0: e4a0 40bc 2846 803c 826d 0f3d 3c40 193b
000001c0: 8a41 cb3c bf3d 94bb 9ab0 8f3b 366d 153d
000001d0: 46db 363d cab7 77bd 3503 2a3d 8ee8 c1bc
000001e0: 6fa1 cc3c 7cd4 f5bb 105d 8a3c 9cce c4bb
000001f0: f236 babb 36db 9f3c acd5 0c3d e090 a2bc
00000200: c77e 1ebc 0217 f63c 58dd 3b3d 46cb 3e3c
00000210: e1f5 7bbd 2c89 223d e560 20bd b638 98bc
00000220: 68b7 553d 16b4 393d 3d7c 9b3c 6fc7 13bd
00000230: b11c 00bd 0c87 6a3d 08b7 dc3c cb8a b2bc
00000240: 97c8 d6bb 46b4 aabc 63ef 56bd e6cc 02bc
00000250: 2bbe 453d cc94 71bc 7c6c ecbc 5af9 11bd
00000260: 6030 fbbc e65a 9abb 9717 f3bc c66a 27bd
00000270: ec7a f839 f6ed 84ba 1023 c0bc 9920 4d3d
00000280: ab2b cb3b 0641 03bd 4caa 5abc 0bf9 253d
00000290: 4351 e9bc 74f4 aebc ec8c f73a 3869 89bd
000002a0: d5e8 2ebc 97e4 5fbd d6bf 1c3b c4e2 23bd
000002b0: 0e33 d13c 3df6 e63c acff 21bd 7e4a 45bd
000002c0: b6b8 54bd 6a44 0d3d 586b cf3c 74f9 d53c
000002d0: 47de bb3c 9437 3b3d 1049 813c 5a55 2a3c
000002e0: 6efb 13bd d2b4 683d 373e 4a3d 43fd b1bc
000002f0: 6498 7abd 46e1 38bd 81b5 2a3d 30a3 3dbd
00000300: f5d0 73bd e309 91bd a5c8 89bd d0a9 71bd
00000310: 423d fcbc 1866 3abd 5c74 6d3c 56f7 6a3d
00000320: 2dd0 423c 705e 1dbd ecc6 6f3b 10d4 7dbc
00000330: 190e 7bbb ec7d 49b9 6eeb 543d 86d3 9cbc
00000340: 44f1 59bc 34a0 6f3b 2082 e73c d143 3abd
00000350: 1d1f 3c3d 5028 133d 225b a3bc 375e 693d
00000360: 7436 7cbc 00ed 483d dded c3bc 80c1 67bd
00000370: 0ebe a7bc fc6a 393c da9e a03c 898a 3ebd
00000380: 825f 56ba bc5e 01bd dbfd 10bd 959f 0bbc
00000390: b000 1abd 1698 093c 198e 55bd e584 3f3d
000003a0: ec83 7139 bc3a 7bbd a616 b43b 57d9 84bc
000003b0: 4c92 2fbd 12af 4fbc c063 43bd 55dd 203d
000003c0: 594e 923b b2fd 2fbd b66e 07bd 8ffa 01bc
000003d0: a287 e43c a867 67bd 3cec c0bc 3654 863c
000003e0: 57db d93c 178a c83c 62db 383d 5af5 bfbb
000003f0: c8d7 1f3d 0f0d f0bc bfd9 903c 8c24 e2bb

fc.3.bias f4 [11]
-0.05764521 -0.0048669213 0.049107373 -0.067849256 0.0024659175 -0.071076155 0.01072594 0.00077716535
0.044045508 0.013634262 0.044641163
00000000: 621d 6cbd b27a 9fbb d024 493d 8df4 8abd
00000010: 3b9b 213b 6090 91bd dabb 2f3c afba 4b3a
00000020: 1069 343d 3d62 5f3c a7d9 363d
