cnn_fighting_agent_starter/outputs/20251017_190654/model.pt (torch, 287835 bytes, 12 tensors)

state_cnn.0.0.weight f4 [16, 1, 3, 3]
0	0x3c7cd468	0.015431501
1	0xbd85245a	-0.06501074
2	0xbea8b936	-0.32953805
3	0xbc34dddf	-0.011039226
4	0xbe2b08df	-0.16702603
5	0xbe9cdab2	-0.306356
6	0xbe01cf2f	-0.1267669
7	0x3c6ee193	0.014580148
8	0xbe3d1922	-0.18466619
9	0xbeb55af5	-0.35420957
10	0x3cd3bf02	0.025847916
11	0xbd0db158	-0.034592956
12	0x3ea6a280	0.32545853
13	0x3de0bfaa	0.10974057
14	0x3d9dbd18	0.077020824
15	0xbe5ab39d	-0.2135758
16	0x3e550502	0.20802692
17	0xbd8f6f89	-0.070036955
18	0x3d55dc26	0.052211903
19	0x3e69653e	0.22792527
20	0xbeb65a7d	-0.35615912
21	0xbb8057f1	-0.0039167334
22	0x3e035942	0.12827018
23	0x3e411f8c	0.1885969
24	0xbe49ac8d	-0.19694729
25	0xbe206409	-0.1566316
26	0x3e78b20d	0.24286671
27	0x3cd5743b	0.0260564
28	0xbe25e7e1	-0.16201736
29	0x3e359075	0.17730887
30	0xbe6f070d	-0.23342533
31	0x3e974879	0.2954748
32	0x3db9ed4c	0.09078464
33	0xbe0e1dd0	-0.1387856
34	0xbd71cbd5	-0.05903228
35	0xbe90dbd7	-0.28292724
36	0x3e773bf6	0.24143967
37	0x3d9288b8	0.07154983
38	0x3e898cd0	0.26865244
39	0x3bc8e2fd	0.0061305747
40	0xbe7ddf93	-0.24792318
41	0xbd7d59ab	-0.061853092
42	0xbc8f33e0	-0.01748079
43	0x3e4ab4c4	0.19795519
44	0x3e0b7e87	0.13622485
45	0xbe7b07a7	-0.24514638
46	0x3eaab5c1	0.33341792
47	0x3e312788	0.17300236
48	0x3ed44a09	0.41462734
49	0xbe97bb7f	-0.29635236
50	0xbd9c12ed	-0.07620797
51	0xbe4fdbaf	-0.20298646
52	0x3df18bb9	0.11794228
53	0xbe4a0408	-0.197281
54	0xbe04c38b	-0.12965219
55	0xbeaa090d	-0.3321003
56	0x3ce51ff8	0.027969345
57	0xbeaa8550	-0.33304834
58	0xbea73bef	-0.32662913
59	0x3e07cb3e	0.13261124
60	0x3e42363e	0.18966004
61	0x3e62758c	0.22115153
62	0x3e328c9d	0.17436452
63	0xbdf424d5	-0.11921088
64	0x3dd32533	0.103098296
65	0x3e3d553b	0.18489544
66	0xbee53ff1	-0.44775346
67	0x3d73a756	0.059485756
68	0x3da461c0	0.08026457
69	0x3d8cc7b8	0.06874031
70	0xbe0d2396	-0.13783106
71	0xbe02c8e5	-0.12771948
72	0xbda12daa	-0.07870038
73	0xbe77e41b	-0.24208109
74	0xbeaf6714	-0.3425833
75	0x3dea8012	0.11450209
76	0x3c08d107	0.008350617
77	0xbed55432	-0.41665798
78	0x3ea174eb	0.31534514
79	0x3e72fb8f	0.23728774
80	0xbe97d7eb	-0.2965692
81	0xbcaa375d	-0.020778352
82	0xbd19ee4c	-0.037580773
83	0x3e59c5e6	0.21266899
84	0xbe4d68a9	-0.20059456
85	0xbe5f1e00	-0.21788788
86	0xbe158ea0	-0.14605188
87	0x3db7bb2e	0.089712486
88	0xbe85dc17	-0.26144478
89	0x3ec69017	0.38781807
90	0x3e546a61	0.20743705
91	0xbce5c132	-0.028046224
92	0x3e6cff38	0.23144233
93	0x3ea335d8	0.31877017
94	0xbeb92315	-0.36159578
95	0x3e6f37d0	0.23361135
96	0xbdb0ef2e	-0.0863937
97	0xbee0a0a0	-0.43872547
98	0xbea24b5e	-0.31698126
99	0xbe206705	-0.15664299
100	0xbe82e225	-0.2556316
101	0xbd5f6607	-0.05454066
102	0xbdc3eb2e	-0.09566341
103	0x3e9a542e	0.3014235
104	0x3e124c83	0.14287
105	0xbd733ef4	-0.05938621
106	0x3d6afc33	0.057369422
107	0x3e40988e	0.18808195
108	0xbe820ba1	-0.25399497
109	0xbe1fc2a8	-0.15601599
110	0xbe62ab4f	-0.22135662
111	0x3e4616ff	0.1934471
112	0x3e40ebb8	0.1883992
113	0xbea08872	-0.313541
114	0x3ec8ad17	0.39194557
115	0xbc7924d2	-0.015206533
116	0xbcccc185	-0.024994621
117	0xbe9269ea	-0.2859643
118	0xbecbf49f	-0.3983507
119	0xbdfd1fca	-0.12359579
120	0xbf27cab4	-0.65543675
121	0x3e161047	0.14654647
122	0x3ddd24ee	0.107980594
123	0xbe667d08	-0.22508633
124	0xbe8ac77d	-0.27105322
125	0xbe170096	-0.14746317
126	0x3e06ff07	0.13183223
127	0xbebccdeb	-0.36875853
128	0x3e2c7ef7	0.16845308
129	0x3dcc4732	0.09974517
130	0xbe113bf3	-0.14183025
131	0xbd38ac27	-0.045086052
132	0x3db8ccdb	0.09023448
133	0xbe5e06c7	-0.21682273
134	0x3ed39797	0.4132659
135	0x3e4323d6	0.19056639
136	0x3e46640c	0.19374102
137	0x3e491062	0.19635156
138	0x3e085934	0.13315278
139	0xbe048558	-0.12941492
140	0x3ce3e264	0.027817912
141	0xbe071f04	-0.13195425
142	0xbea0e47d	-0.31424323
143	0x3d6a887e	0.057259075

state_cnn.0.0.bias f4 [16]
0	0xbe85ed88	-0.26157784
1	0xb9d642d4	-0.00040867052
2	0xbea179dd	-0.31538287
3	0xbcff6ae0	-0.031178892
4	0xbe1c9e19	-0.15294684
5	0xbdaeb8f2	-0.08531369
6	0x3e84d7ac	0.25945795
7	0x3e3da53b	0.18520062
8	0x3e95a4f5	0.29227415
9	0x3da139af	0.078723304
10	0xbdf35609	-0.11881644
11	0x3d2bac63	0.041912448
12	0xbe283305	-0.16425712
13	0x3e60157c	0.21883196
14	0x3d675249	0.056474958
15	0xbe54d60f	-0.20784782

state_cnn.1.0.weight f4 [32, 16, 3, 3]
0	0x3d22eee2	0.039778598
1	0x3d95d017	0.073150806
2	0xbd3c3a0c	-0.045953795
3	0xbd966873	-0.07344141
4	0xbc8db334	-0.017297365
5	0xbd4b5853	-0.04964478
6	0x3d926cd2	0.07149662
7	0xb735265f	-1.0797375e-05
8	0x3d041942	0.03225065
9	0xbcc77caa	-0.024351437
10	0x3d8bc7a0	0.06825185
11	0xbde1d95c	-0.11027786
12	0x3de22bde	0.11043523
13	0xba9da789	-0.0012028079
14	0x3d80fdc1	0.062984
15	0x3d69c2e6	0.057070635
16	0x3d2a28c3	0.04154278
17	0xbce1ad63	-0.027548498
18	0x3df874d7	0.121316604
19	0x3dbc168a	0.091839865
20	0x3d9ba2db	0.075994216
21	0xbcec60a3	-0.028854674
22	0x3da4d2d8	0.08048028
23	0xbc9396e2	-0.018016282
24	0x3db14a7b	0.08656784
25	0x3ce4b7b1	0.027919622
26	0x3bec37a5	0.007208782
27	0xbd3cd17a	-0.04609821
28	0xbdb40cb6	-0.08791487
29	0xbcd95803	-0.026531225
30	0x3e02b314	0.12763625
31	0x3e37a117	0.17932545
32	0xbdef4278	-0.116826
33	0x3b86c1fe	0.004112481
34	0x3d92a9db	0.071613036
35	0x3e53e97a	0.20694533
36	0xbc936b02	-0.017995361
37	0xbc5e0310	-0.013550535
38	0x3d7429e9	0.05961028
39	0x3c592dac	0.013255518
40	0x3da4de0b	0.08050164
41	0x3d49b3b4	0.049243644
42	0x3c07ac08	0.008280762
43	0xbd02d2e3	-0.0319394
44	0x3dadf9f1	0.08494938
45	0x3e62b32c	0.22138661
46	0xbe6f99f8	-0.23398578
47	0x3d6c720e	0.05772596
48	0x3e0eb6cc	0.13936919
49	0x3e89e4f5	0.26932493
50	0xbde57e86	-0.11205773
51	0x3e055f67	0.13024674
52	0x3ceef183	0.029167896
53	0xbeebc9a8	-0.4605229
54	0xbda433e9	-0.080177136
55	0xbb86353f	-0.004095703
56	0x3c9b57e9	0.018962817
57	0x3daf7c7f	0.085686676
58	0x3d654db5	0.05598231
59	0xbd86b7f6	-0.065780565
60	0x3cdb1e79	0.026747929
61	0xbd4167f0	-0.047218263
62	0x3d08029a	0.033205606
63	0x3d16834d	0.036746312
64	0x3c290b45	0.010317628
65	0xbdc93def	-0.09826266
66	0xbaa805e8	-0.0012819143
67	0x3d45b925	0.04827227
68	0x3c9cd933	0.019146537
69	0xbd8367e7	-0.06416302
70	0xbb88336f	-0.004156522
71	0x3c17a133	0.0092547415
72	0x3e165b73	0.14683323
73	0xbdc4b87c	-0.096055
74	0x3cea5b54	0.028608002
75	0x3e05bd85	0.13060577
76	0xbe0daf18	-0.13836324
77	0xbdf44f46	-0.11929183
78	0x3e02f895	0.12790139
79	0xbe6e511c	-0.23273128
80	0xbbb5aecf	-0.0055445204
81	0x3d0dd223	0.03462423
82	0x3e11c1cd	0.14234085
83	0xbd2a362f	-0.04155558
84	0x3d81aa36	0.06331293
85	0x3e3a0c77	0.18168817
86	0x3deb7f4b	0.114988886
87	0xbe102952	-0.14078262
88	0x3dc98cd8	0.09841317
89	0x3e8a39dc	0.26997268
90	0x3b8c3ba3	0.00427957
91	0x3e15dd2b	0.1463515
92	0xbd2271a2	-0.03965915
93	0xbe155661	-0.14583732
94	0x3e1531a1	0.14569713
95	0xbe0215e0	-0.12703657
96	0x3d988198	0.07446593
97	0x3d9228f4	0.071367174
98	0x3dc14281	0.09436513
99	0x3d971a7d	0.07378099
100	0xbc0b4258	-0.008499704
101	0xbd891f4b	-0.06695422
102	0x3d34f5ea	0.044179834
103	0x3df12288	0.117741644
104	0xbd374d72	-0.044751592
105	0x3d1badd9	0.03800759
106	0x3da14b56	0.07875697
107	0x3aca25f0	0.0015422683
108	0x3e374247	0.17896377
109	0x3d95e810	0.07319653
110	0xbdb01d40	-0.08599329
111	0x3dcbe360	0.09955478
112	0x3b052e8a	0.002032193
113	0xbe08e2fb	-0.13367836
114	0x3dbbadc8	0.091640055
115	0x3dc6d51d	0.09708617
116	0xbce50dc9	-0.027960675
117	0xbd212600	-0.03934288
118	0xbd9e74f9	-0.077371545
119	0xbd969ea1	-0.07354475
120	0x3d876192	0.06610407
121	0x3db9fadd	0.090810515
122	0xbd83347d	-0.06406496
123	0xb97ac8b6	-0.00023916629
124	0xbd82d7c0	-0.06388807
125	0x3f0a9bc3	0.54143924
126	0xbda64e40	-0.08120394
127	0x3d2d5dec	0.0423259
128	0x3d417bd8	0.047237247
129	0xbda317f2	-0.079635516
130	0x3d116b9b	0.03550301
131	0x3ce2f858	0.02770631
132	0x3bf403e3	0.0074467524
133	0x3dc041c8	0.09387547
134	0x3d94c76a	0.07264598
135	0xbc2d84a2	-0.010590704
136	0x3da65c5d	0.08123086
137	0xbd6d768a	-0.057974376
138	0xbe04f625	-0.12984522
139	0x3d3f68b7	0.046730723
140	0xbd842fbb	-0.06454416
141	0x3cd9ff23	0.026610916
142	0x3d3aff23	0.045653474
143	0x399f31cb	0.00030363942
144	0x3d38b8bf	0.045098063
145	0xbba98b8a	-0.005174105
146	0x3d9437e3	0.07237222
147	0xbd19b83a	-0.037529208
148	0x3d7f8d1b	0.062390428
149	0x3c6c33a8	0.014416613
150	0x3d2c0daf	0.042005237
151	0x3d364f47	0.0445092
152	0x3c49ecfe	0.01232457
153	0x3cc71bc8	0.02430524
154	0xbce7e69b	-0.028308203
155	0x3de2ab88	0.11067873
156	0xbd33f21c	-0.043932065
157	0xbd020a22	-0.031747945
158	0x3e391fb7	0.18078505
159	0xbd1f853f	-0.038945433
160	0xbdb0a927	-0.08626013
161	0xbdc0a43d	-0.09406326
162	0x3d3510a7	0.044205334
163	0x3e5f19b9	0.21787156
164	0x3d89e95d	0.06733964
165	0x3d4446cb	0.047919076
166	0xba4231ef	-0.00074079534
167	0x3e561745	0.20907314
168	0x3c1ac0f4	0.009445418
169	0xba95e4c8	-0.001143598
170	0xbbcd2ef6	-0.0062617017
171	0x3da46966	0.08027916
172	0xbe148506	-0.1450387
173	0xbda17a8f	-0.07884704
174	0x3d62cc30	0.05537051
175	0x3dcf0eab	0.101102196
176	0x3e8aec16	0.27133244
177	0xbd861863	-0.0654762
178	0xbe0b7361	-0.13618232
179	0xbd778820	-0.060432553
180	0x3c77bcbe	0.015120683
181	0xbda5e7b6	-0.08100836
182	0x3d6426e8	0.055701166
183	0xbd306184	-0.04306175
184	0xbd845a4b	-0.064625345
185	0x3dcaf36b	0.099097095
186	0xbd98fc84	-0.074700385
187	0xbdd84d75	-0.10561649
188	0x3bf9cc87	0.0076232585
189	0xbcd8f7ce	-0.02648535
190	0x3ecb7a90	0.39741945
191	0xbe2528a2	-0.16128781
192	0x3ba57bb4	0.005050147
193	0x3e37c276	0.17945275
194	0x3dea543f	0.1144185
195	0x3d77b283	0.060472976
196	0xbd9d83e8	-0.07691175
197	0x3c4f0d32	0.012637423
198	0xbcb7632f	-0.022386162
199	0xbdb71167	-0.08938866
200	0x3dbe8403	0.09302523
201	0x3c884154	0.016632713
202	0xbd2d13f6	-0.042255364
203	0x3dfb5d2b	0.1227363
204	0x3c94f9f4	0.018185593
205	0xbd8facfa	-0.070154145
206	0xbdd7af82	-0.10531522
207	0xbd92fcd2	-0.07177128
208	0xbc06790b	-0.00820757
209	0x3c083f99	0.008315944
210	0xbc9575ba	-0.018244613
211	0x3d30b000	0.043136597
212	0x3e19cbf4	0.15019208
213	0x3c9814c4	0.01856459
214	0xbe05717e	-0.13031575
215	0xbde51d52	-0.11187233
216	0x3c50a908	0.012735613
217	0x3b7bd0f8	0.0038424116
218	0xbe4d9a4d	-0.20078392
219	0xbd9d3082	-0.07675268
220	0x3e190051	0.14941527
221	0xbe5388b8	-0.20657623
222	0x3c9dfb4f	0.019284872
223	0xbdf0192b	-0.117235504
224	0xbe88735a	-0.26650506
225	0x3ca5bd6f	0.02023193
226	0x3db98309	0.09058196
227	0x3e63cb77	0.22245584
228	0xbd134ee2	-0.0359639
229	0x3c9506da	0.018191744
230	0x3f164119	0.5869308
231	0xbca4d63a	-0.020121682
232	0xbe07dec8	-0.13268578
233	0x3dec6994	0.11543575
234	0xbcd5ef23	-0.026115006
235	0x3e0d9b7c	0.13828844
236	0x3e2a7a1e	0.16648147
237	0x3da75df8	0.0817222
238	0xbdc42ae8	-0.09578496
239	0x3dd6a960	0.104815245
240	0x3d9ccc04	0.076561004
241	0xbe01bc1e	-0.12669417
242	0xbcbca66f	-0.02302858
243	0xbd2c244c	-0.042026803
244	0xbc58aa10	-0.01322414
245	0x3da9e79b	0.08296128
246	0xbd9171c4	-0.07101777
247	0x3d7bfebc	0.06152223
248	0x3e481970	0.19540954
249	0xbda140bc	-0.07873675
250	0xbe0dfaf4	-0.13865262
251	0x3d656378	0.056003064
252	0x3c9d4f6a	0.019202907
253	0x3dd50e7d	0.10403154
254	0xbd3bf396	-0.0458866
255	0xbc4637fe	-0.0120983105

state_cnn.1.0.bias f4 [32]
0	0xbdb916f4	-0.09037581
1	0xbd4e6650	-0.05039054
2	0x3cedb0d9	0.029014992
3	0xbd79de37	-0.061002936
4	0xbce4d3b5	-0.027932981
5	0xbd5c1c0f	-0.053737696
6	0x3db0376e	0.086043224
7	0x3ca80b30	0.020513147
8	0x3b8301c3	0.0039980127
9	0x3a32bb41	0.0006818064
10	0xbd685867	-0.056724932
11	0x3a4f11e6	0.00078990904
12	0x3d574f9a	0.05256615
13	0xbdb1503a	-0.0865788
14	0xbd350222	-0.044191487
15	0xbd60e8af	-0.054909404
16	0x3d4fc06c	0.050720617
17	0x3d809ec8	0.06280285
18	0x3d6d50cf	0.057938393
19	0xbc7584a8	-0.014985241
20	0x3d066a74	0.032816365
21	0xbd837cfa	-0.06420322
22	0xbd8d5d6a	-0.06902583
23	0xbd89e3fa	-0.06732936
24	0x3c0f69bb	0.008753235
25	0x3d24fb51	0.040278737
26	0xbd17192b	-0.036889236
27	0x3c04e3a2	0.0081109125
28	0x3c173266	0.0092283245
29	0xbbee1fa6	-0.0072669564
30	0xbd5cf661	-0.053945903
31	0x3d7c0ebd	0.061537493

button_cnn.0.0.weight f4 [8, 1, 3, 3]
0	0xbdccb785	-0.09995941
1	0xbbe39c98	-0.0069461577
2	0x3e45d710	0.19320321
3	0x3e6fae15	0.23406251
4	0x3ec59a72	0.38594395
5	0xbdf3c237	-0.11902278
6	0xbbf63a6b	-0.007514288
7	0xbe1919bd	-0.14951225
8	0xbe081a6a	-0.13291326
9	0x3efd2b18	0.4944694
10	0xbe45cf50	-0.19317365
11	0xbcdb279c	-0.026752286
12	0x3df1a901	0.11799813
13	0xbe814401	-0.25247195
14	0x3d27d3b6	0.040973388
15	0xbeb973ea	-0.36221248
16	0xbd53cce0	-0.051709056
17	0xbebdfbfa	-0.37106305
18	0xbda9d5b1	-0.082927115
19	0x3e4cf3b3	0.20014839
20	0xbd7cddce	-0.061734967
21	0xbde34348	-0.11096817
22	0xbdf70e27	-0.12063246
23	0xbe0080e5	-0.1254917
24	0x3eede69b	0.46465
25	0xbde7839b	-0.113043986
26	0xbdf97fe6	-0.12182598
27	0x3e923427	0.28555414
28	0x3e55d23e	0.20880982
29	0xbe59c81d	-0.21267743
30	0x3cb9058f	0.022585658
31	0x3ddaca7c	0.10683152
32	0x3eaaa290	0.3332715
33	0xbeb1aec5	-0.3470365
34	0x3e877abb	0.26460823
35	0x3e7df22c	0.24799412
36	0xbd0dfa5a	-0.034662582
37	0xbe812366	-0.2522232
38	0x3e4b9d22	0.1988416
39	0xbec4290f	-0.38312575
40	0xbcad1c06	-0.021131527
41	0x3ec44158	0.38331103
42	0xbe36d48a	-0.17854515
43	0x3eac3d58	0.33640552
44	0x3e6fe41e	0.23426864
45	0xbbba8b5e	-0.0056928834
46	0x3e615787	0.22006045
47	0x3e61176a	0.21981588
48	0x3ef0eda0	0.47056293
49	0x3e897b26	0.26851767
50	0x3dfb8c38	0.12282604
51	0x3ecee2a2	0.40407282
52	0x3d3a9055	0.045547802
53	0xbe542a77	-0.20719324
54	0x3b05d3a0	0.0020420328
55	0xbe014651	-0.1262448
56	0xbea19ab8	-0.31563354
57	0xbdf4a89e	-0.11946224
58	0x3e89aff5	0.26892057
59	0x3ede039d	0.43362132
60	0xbb85f640	-0.004088193
61	0xbe187eac	-0.14892071
62	0x3da91fbe	0.082580075
63	0xbd40c110	-0.04705912
64	0x3db0b9bd	0.08629177
65	0xbe6d753a	-0.2318925
66	0xbd2e415f	-0.04254281
67	0x3ef3a956	0.4759013
68	0xbe207af7	-0.15671907
69	0xbd8b675b	-0.06806823
70	0x3ec45d28	0.38352323
71	0x3d6ff6ee	0.0585851

button_cnn.0.0.bias f4 [8]
0	0x3d1842ec	0.037173197
1	0xbd86b1a6	-0.065768525
2	0x3de6d218	0.11270541
3	0xbe007f12	-0.12548473
4	0x3d479a75	0.048731286
5	0x3e8e2888	0.27765298
6	0xbcf58be2	-0.029973928
7	0x3d5af74b	0.053458493

button_cnn.1.0.weight f4 [16, 8, 3, 3]
0	0xbcefd00e	-0.029274013
1	0x3e170649	0.14748491
2	0x3bb981b7	0.005661215
3	0xbde2010b	-0.11035355
4	0x3e531abc	0.20615667
5	0x3da1c934	0.078997046
6	0xbe098eb6	-0.13433346
7	0x3d6a4480	0.057194233
8	0xbe9217e9	-0.28533867
9	0xbe866a5a	-0.26253015
10	0xbce49c58	-0.027906582
11	0x3d9737f6	0.073837206
12	0x3caf5bec	0.021406136
13	0x3e98a17f	0.29810712
14	0xbd456351	-0.04819042
15	0x3e5cb652	0.21553925
16	0x3dee466e	0.11634527
17	0x3e1be940	0.15225697
18	0xbc13e56a	-0.009026865
19	0x3dbdbf1e	0.09264968
20	0x3c69b96b	0.0142653985
21	0xbd1d2c6d	-0.038372446
22	0xbab2f5e5	-0.0013653605
23	0xbe839dea	-0.25706416
24	0xbc8cd52f	-0.017191498
25	0x3d8f8e99	0.0700962
26	0xbe2189e0	-0.15775251
27	0xbd679c50	-0.056545556
28	0xbd26a041	-0.040680174
29	0xbd8a2253	-0.06744828
30	0xbdc59030	-0.09646642
31	0x3d3feff2	0.04685969
32	0xbcbbd9e4	-0.022931047
33	0xbd60d427	-0.054889824
34	0x3cbb0824	0.02283103
35	0x3cd2d998	0.025738522
36	0x3c30b0b3	0.010784316
37	0xbcbe67d0	-0.023242861
38	0x3c173843	0.009229722
39	0x3cad035e	0.02111977
40	0xbdaa7a93	-0.083241604
41	0x3d987409	0.07444007
42	0xbcb074fa	-0.021540154
43	0x3e0c2b7a	0.1368846
44	0xbd945b96	-0.07244031
45	0x3daa0019	0.083008
46	0x3d95f8d2	0.07322849
47	0xbdb4a524	-0.088205606
48	0x3d7c9caa	0.061672844
49	0x3d252c4a	0.04032544
50	0xbe00a20a	-0.12561813
51	0x3c0a6382	0.008446576
52	0x3e2d6acd	0.16935273
53	0xbe125480	-0.14290047
54	0x3dc8944e	0.09793912
55	0xbe12ad84	-0.14324003
56	0xbe485093	-0.19561987
57	0xbcf22a30	-0.029561132
58	0x3c810534	0.015749551
59	0xbac8edb1	-0.0015329627
60	0xbd9fb053	-0.07797303
61	0x3c1aa5eb	0.009438972
62	0xbe00fa01	-0.12595369
63	0xbdd6184c	-0.10453853
64	0x3d2051ef	0.039140638
65	0xbe01ba65	-0.1266876
66	0xbd8f60e1	-0.070009
67	0xbd400999	-0.046884153
68	0x3db704a5	0.08936433
69	0xbde116de	-0.1099069
70	0x3d9c8e5e	0.07644342
71	0xbe9001f1	-0.2812648
72	0xbc2a7ca7	-0.010405696
73	0xbd44f38a	-0.04808382
74	0x3b91805a	0.0044403495
75	0x3cbe6703	0.02324248
76	0x3e0bdf2b	0.1365935
77	0x3d6fa402	0.05850602
78	0xbcf9b021	-0.030479493
79	0x3db93ef4	0.090452105
80	0xbd803c35	-0.062614836
81	0x3e706e98	0.23479688
82	0x3dbf1e06	0.093318984
83	0x3db7b8ce	0.089707956
84	0x3d6aa382	0.05728484
85	0xbddad4c0	-0.1068511
86	0xbe06e064	-0.13171536
87	0xbdd62f1d	-0.10458205
88	0xbecd0f2d	-0.4005064
89	0x3dff21c4	0.12457612
90	0xbd518ee3	-0.051161658
91	0xbdb8622d	-0.090031005
92	0xbda16d50	-0.07882178
93	0x3d1717d9	0.036887977
94	0xbe56b741	-0.20968343
95	0x3e59f40b	0.21284501
96	0xbd7121cb	-0.058870118
97	0x3dab14ea	0.083535984
98	0xbda00e65	-0.078152455
99	0xbda19a22	-0.078907266
100	0x3da8ed7b	0.08248421
101	0x3ddfe1cd	0.1093174
102	0xbdf7c055	-0.12097231
103	0x3cca90ca	0.024727244
104	0xbe2c6313	-0.16834669
105	0xbd933dc8	-0.07189518
106	0x3e34d6b5	0.17660029
107	0xbdc34018	-0.09533709
108	0x3cb172b9	0.02166115
109	0xbd8a138b	-0.06742009
110	0x3e0eb9bb	0.13938038
111	0xbd32844b	-0.043583196
112	0x3d050fa8	0.032485634
113	0x3e2ca2fd	0.1685905
114	0xbdfc3bfc	-0.123161286
115	0x3d70bf5c	0.058776245
116	0xbc2e68f7	-0.010645143
117	0x3da55ca9	0.08074314
118	0xbb82ec5e	-0.0039954623
119	0xbe10901f	-0.14117478
120	0xbdd49a4a	-0.10380991
121	0x3d985425	0.07437924
122	0x3dae7594	0.0851852
123	0x3cc3c7fa	0.023899067
124	0x3d73f2df	0.05955779
125	0xbdb5e886	-0.08882241
126	0xbb931b27	-0.004489321
127	0xbda22f21	-0.079191454
128	0x3d00c8a0	0.03144133
129	0xbe053d78	-0.1301173
130	0x3e068131	0.1313522
131	0x3ddd4192	0.10803522
132	0xbdcd536e	-0.100256786
133	0x3d84e497	0.064889126
134	0xbd38d17f	-0.045121666
135	0xbca7b652	-0.02047268
136	0x3ccc0024	0.02490241
137	0xbe22f279	-0.15912808
138	0xbda01187	-0.07815843
139	0x3d280c20	0.04102719
140	0xbe72b549	-0.23701967
141	0xbc00d164	-0.007862423
142	0x3d733b3b	0.05938266
143	0xbe3ad7c3	-0.18246369
144	0xbd46a7af	-0.04849976
145	0x3d1957f4	0.037437394
146	0x3d718833	0.05896778
147	0x3d26986f	0.040672716
148	0xbdd8b684	-0.10581687
149	0xbd1afa69	-0.037836466
150	0x3dab2b68	0.083578885
151	0x3dd92641	0.106029995
152	0x3dad9e02	0.08477403
153	0x3ddb10f7	0.10696595
154	0xbe4b9534	-0.19881135
155	0xbc97471d	-0.018466527
156	0xbe0d5b92	-0.13804463
157	0x3dca932d	0.09891353
158	0x3d7008b0	0.058602035
159	0xbcfe7268	-0.031060413
160	0xbe727076	-0.23675713
161	0x3e0cd655	0.13753636
162	0xbd84ae75	-0.064785875
163	0x3d2f67f2	0.04282374
164	0xbd0a310d	-0.033738185
165	0x3d878f54	0.066191345
166	0x3d7ee2d2	0.06222803
167	0x3dae7364	0.08518103
168	0xbccd466d	-0.025057996
169	0xbd7b4fd1	-0.061355416
170	0x3e17ffce	0.14843675
171	0x3d8e9205	0.06961445
172	0xbdd6540f	-0.10465252
173	0xbc9b692b	-0.018971046
174	0xbc084419	-0.008317017
175	0xbcb7c533	-0.0224329
176	0xbbafd880	-0.005366385
177	0xbe01bbfc	-0.12669367
178	0x3da62acd	0.08113632
179	0xbd9839f6	-0.0743293
180	0x3d2a0143	0.04150511
181	0xbdea1f71	-0.11431778
182	0x3d1c1fb3	0.03811617
183	0x3cf16a60	0.029469669
184	0xbe1146ef	-0.14187215
185	0xbdd37672	-0.10325326
186	0xbd84cbbc	-0.06484172
187	0x3d8cb1d8	0.068698585
188	0xbe41d0d7	-0.18927322
189	0x3d30cdd0	0.043165028
190	0x3d8978d1	0.06712497
191	0xbde15bfb	-0.11003872
192	0x3bd99d79	0.0066410867
193	0x3d438ba7	0.047740605
194	0x3d097eda	0.03356824
195	0x3e041e72	0.12902239
196	0x3c3de8b8	0.011591129
197	0x3ded5b82	0.11589719
198	0xbdfcfd5f	-0.12353014
199	0xbe668937	-0.22513281
200	0x3e4cb823	0.19992118
201	0x3da93cc7	0.082635455
202	0xbdde234d	-0.10846577
203	0xbdee1dbe	-0.116267666
204	0x3d2f4078	0.04278609
205	0x3e4ec4e8	0.20192301
206	0xbe0ff554	-0.14058429
207	0xbbdc1768	-0.0067166574
208	0xbc0ed4c5	-0.00871772
209	0xbc6c7e35	-0.014434387
210	0xbd5d3c89	-0.05401281
211	0xbd8dcb11	-0.069234975
212	0xbd1f8436	-0.038944446
213	0x3b723e59	0.0036963432
214	0x3cfaafc2	0.030601386
215	0xbd33178c	-0.043723628
216	0x3cca61dd	0.024704868
217	0x3d499198	0.049211115
218	0xbe1ee0f6	-0.15515503
219	0x3b3ba7c4	0.0028633932
220	0xbb0892d4	-0.002083947
221	0x3b15b6a0	0.0022844449
222	0x3d97fbc2	0.07421066
223	0x3d628373	0.05530114
224	0x3dca7171	0.098849185
225	0xbc857bc2	-0.016294364
226	0xbc92c89e	-0.017917927
227	0xbe7612e8	-0.2403065
228	0xbe66d7c1	-0.22543241
229	0x3c46fd33	0.012145328
230	0xbdc5a44c	-0.09650478
231	0xbcfee590	-0.031115323
232	0x3d636bfb	0.0555229
233	0xbe9adc72	-0.3024631
234	0x3e08a79d	0.1334519
235	0xbe177249	-0.1478969
236	0x3d4ecb18	0.050486654
237	0x3dcf5ee4	0.10125521
238	0x3cee9091	0.029121669
239	0xbd3d26a8	-0.046179444
240	0xbd9e71f7	-0.07736581
241	0xbcad83c5	-0.021180997
242	0x3cefad5d	0.02925747
243	0xbcba9e28	-0.022780493
244	0x3dd1b001	0.10238648
245	0x3d43c337	0.047793593
246	0x3da41c16	0.080131695
247	0x3dde50ab	0.1085523
248	0xbd85c25c	-0.06531212
249	0xbce9810d	-0.028503919
250	0x3e25fb30	0.16209102
251	0x3e058e46	0.13042554
252	0x3dba1a16	0.09087007
253	0xbd4a5494	-0.049397066
254	0xbe040dcb	-0.12895887
255	0xbd513edd	-0.05108534

button_cnn.1.0.bias f4 [16]
0	0x3daef948	0.085436404
1	0x3c8bde38	0.017073736
2	0x3dbc680b	0.09199532
3	0x3d42b5df	0.047536727
4	0xbdc081d8	-0.09399766
5	0x3dd1a3fd	0.102363564
6	0x3def30c7	0.116792254
7	0x3d8c94d6	0.06864326
8	0xbcd04732	-0.025424574
9	0x3c82040b	0.015871068
10	0x3d2cd639	0.042196486
11	0xbdbd6b72	-0.09249009
12	0x3cf81e5d	0.030287916
13	0xbc22fe04	-0.009948257
14	0xbda6b353	-0.08139672
15	0xbdb7960e	-0.089641675

fc.0.weight f4 [256, 240]
0	0xbd19d2fb	-0.037554722
1	0xba5e6af2	-0.0008484564
2	0xbc840371	-0.016114922
3	0x3c902494	0.017595567
4	0x3dd44944	0.10365537
5	0x3df4b378	0.119482934
6	0x3ccd648e	0.025072362
7	0x3db30d2c	0.08742747
8	0x3dd0c599	0.10193939
9	0xbc1d4775	-0.009599556
10	0x3d0b849b	0.03406201
11	0x3d942407	0.07233434
12	0xbc02ba9d	-0.007979062
13	0x3d7f8eec	0.06239216
14	0x3c494d1d	0.012286452
15	0x3c47188e	0.01215185
16	0x3d5c42be	0.053774588
17	0x3d86bdab	0.06579145
18	0x3cf0a2ed	0.029374564
19	0xbd8a1d52	-0.06743874
20	0xbc924eb9	-0.017859804
21	0x3cd1639a	0.025560189
22	0xbcffe4b4	-0.031236984
23	0x3d90fa1a	0.07078953
24	0x3d717319	0.058947656
25	0x3de6ea72	0.11275186
26	0x3dfab26d	0.12241063
27	0x3ce29cb5	0.027662614
28	0x3d5895ab	0.05287711
29	0x3db5d271	0.08878029
30	0x3d76c920	0.0602504
31	0x3d53e49a	0.051731683
32	0x3cd7a510	0.026323825
33	0x3d2ef158	0.042710632
34	0x3b2bb169	0.0026198274
35	0x3c387d62	0.011260362
36	0x3d6781ee	0.056520395
37	0xbd647f85	-0.055785675
38	0x3c6ea063	0.014564606
39	0xbcd2547f	-0.025675057
40	0x3c7d67b0	0.015466616
41	0xbc6c5f0f	-0.014426961
42	0xbb5b4f9d	-0.0033464201
43	0xbc7fc9f1	-0.015612111
44	0x39c0710d	0.00036705323
45	0x3c03de77	0.008048645
46	0x3d00c8fa	0.031441666
47	0xbc6f102f	-0.014591261
48	0x3d8bd77e	0.06828211
49	0x3d8f7c73	0.07006159
50	0x3d8bdcb4	0.06829205
51	0x3c641b2f	0.013922497
52	0x3c5728f3	0.013132322
53	0x3dd613e8	0.104530156
54	0x3bd24428	0.0064168163
55	0x3c8cd23a	0.017190088
56	0x3db2c4da	0.08728953
57	0xbc65170c	-0.013982546
58	0x3c0fa4aa	0.008767286
59	0x3d801858	0.06254643
60	0x3b3f1645	0.002915756
61	0x3d9602ae	0.0732473
62	0xbd0458f5	-0.0323114
63	0x3d971e62	0.07378842
64	0x3d4a43a5	0.049380917
65	0x3cab4fa2	0.020911995
66	0xbce4ee50	-0.027945668
67	0x3ceb42b0	0.028718323
68	0x3cfda0cc	0.030960463
69	0xbd80e0fc	-0.06292912
70	0x3d26255f	0.040562984
71	0xbc1c0035	-0.009521534
72	0x3d469ffc	0.048492417
73	0xba9a400f	-0.0011768359
74	0x3dc2f586	0.09519486
75	0x3a96bd95	0.0011500592
76	0x3dc1b9be	0.09459256
77	0x3dd1066c	0.10206303
78	0xbd0fca66	-0.03510513
79	0xbd0ba84c	-0.034096047
80	0x3d1cde97	0.038298216
81	0x3caaabed	0.020833934
82	0x3c774c63	0.015093896
83	0x3da7b18d	0.08188162
84	0xbd3b402e	-0.045715503
85	0xbcd930ed	-0.026512587
86	0x3c22cd45	0.009936635
87	0x3d666ea8	0.056257874
88	0x3e011490	0.126055
89	0xbc09e8ed	-0.00841735
90	0x3caaad93	0.02083472
91	0xbc80d235	-0.015725235
92	0x3dc56a76	0.096394464
93	0x3caead75	0.021322945
94	0x3db4a25e	0.088200316
95	0x3dc49e3f	0.096004955
96	0xbcdf9e48	-0.027297154
97	0x3dc6407a	0.09680267
98	0xbc8c4b78	-0.01712583
99	0xbd2a3385	-0.04155304
100	0xbdcb933a	-0.099401906
101	0xbd86f011	-0.06588758
102	0xbdb26fd1	-0.087127335
103	0xbdc7b46b	-0.09751209
104	0x3bae47a4	0.005318599
105	0x3d94366f	0.07236945
106	0x3d8fdffd	0.07025144
107	0xbb1547b1	-0.0022778327
108	0x3d51bf39	0.051207755
109	0xbc8565c5	-0.016283879
110	0x3bab919f	0.0052358652
111	0x3ca9eff3	0.0207443
112	0x3c06b62d	0.008222145
113	0xbdd5e8a1	-0.10444761
114	0x3bbe0269	0.005798627
115	0x3b4e1196	0.0031443588
116	0x3c2c6544	0.0105221905
117	0xbcb974d2	-0.022638712
118	0x3caea614	0.021319427
119	0xbd239d35	-0.039944846
120	0x3d52afe5	0.051437277
121	0xba424271	-0.0007410413
122	0x3d30dd18	0.0431796
123	0x3c7d775e	0.015470354
124	0xbd4939b9	-0.049127314
125	0xbcce66dc	-0.025195532
126	0xbcd86fbb	-0.026420465
127	0xbd3dc4ab	-0.046330135
128	0x3cf3e3e7	0.029771758
129	0x3db996ea	0.09061988
130	0x3ca51ebe	0.02015626
131	0xbd85881d	-0.06520102
132	0xbcf61912	-0.030041251
133	0x3d2e683a	0.042579867
134	0xbc272a05	-0.010202889
135	0xbda94479	-0.08265013
136	0x3d68939f	0.056781407
137	0xbc690f07	-0.014224774
138	0x3c34315c	0.010998096
139	0x3d93004a	0.071777895
140	0x3c958f14	0.018256702
141	0x3d7fb2b9	0.062426303
142	0xbcb5438a	-0.022126932
143	0x3c962737	0.018329246
144	0x3d529391	0.05141026
145	0xbdc7bce5	-0.09752826
146	0xbd219797	-0.039451208
147	0x3dc6b634	0.09702721
148	0xbc968dba	-0.018378127
149	0xbd51c2c3	-0.05121113
150	0xbc09149a	-0.008366728
151	0x386ec6dc	5.6928824e-05
152	0x3d040e7c	0.032240376
153	0xbcde62e7	-0.02714677
154	0xbd36a08d	-0.044586707
155	0xbd1fc58f	-0.039006766
156	0x3ce3520e	0.027749088
157	0xbccc16e7	-0.024913264
158	0xbce2d759	-0.027690576
159	0xbd0963c1	-0.0335424
160	0xbd40f2ee	-0.047106676
161	0x3d43db29	0.04781643
162	0x3da7b7fb	0.08189388
163	0xbdca8072	-0.0988778
164	0xbd465d85	-0.04842903
165	0x3c2fc212	0.010727422
166	0xbc0c64f2	-0.008568989
167	0xbd2c6ca7	-0.042095806
168	0x3cf1f3be	0.02953517
169	0x3cb87675	0.022517422
170	0x3d06ab49	0.032878194
171	0xbb40f932	-0.0029445407
172	0xbc0e3899	-0.008680486
173	0xbd55c3b9	-0.05218861
174	0xbc48fd96	-0.012267491
175	0x3ce6400b	0.02810671
176	0xbd40b82c	-0.04705064
177	0xbdf50d38	-0.11965412
178	0xbdeae806	-0.11470036
179	0xbc5075ef	-0.01272343
180	0x3c06cf7d	0.00822818
181	0xbdcc3981	-0.099719055
182	0x3c3d1db8	0.01154273
183	0xbdf6ccb3	-0.12050762
184	0x3b56c611	0.0032771865
185	0x3bfbf3ab	0.0076889596
186	0x3d8e0b65	0.06935767
187	0xbc21786c	-0.009855371
188	0x3c5c2581	0.013436676
189	0x3c62fbc1	0.013853968
190	0x3b468677	0.003029255
191	0xbc8e3a68	-0.017361835
192	0x3c4c1694	0.012456555
193	0x3c9ec8dc	0.019382887
194	0xbca99a97	-0.020703597
195	0xbd80b31b	-0.06284162
196	0xbd7f5034	-0.062332347
197	0xbba12bbf	-0.004918545
198	0xbd8c28d6	-0.06843726
199	0x3c5d891e	0.013521461
200	0x3b84ee23	0.0040567084
201	0x3bca146d	0.0061669857
202	0xbd69f355	-0.057116825
203	0xbd0039be	-0.031305067
204	0xbd9dcf69	-0.07705576
205	0x3d4d0224	0.05005087
206	0x3da6ad1f	0.08138489
207	0xbc809fe9	-0.015701251
208	0xbcf555eb	-0.029948195
209	0x3d9620b7	0.073304586
210	0x3d2133e4	0.039356127
211	0xbc78a37f	-0.015175699
212	0xbd61e7f9	-0.055152867
213	0xbbac35e7	-0.005255449
214	0x3d2c79ce	0.04210835
215	0xbd0e8724	-0.03479685
216	0x3d3bea32	0.045877643
217	0xbca1f3c9	-0.019769566
218	0xbdfded99	-0.12398834
219	0x3c7e34a7	0.015515483
220	0xbbd63e85	-0.0065382146
221	0x3d902bba	0.0703959
222	0xbc69492a	-0.014238635
223	0x3c99ef60	0.0187909
224	0x3d8196fc	0.06327626
225	0xbccb79c1	-0.02483833
226	0xbd7842c5	-0.06061055
227	0xbcfdcfc0	-0.030982852
228	0x3b895903	0.004191519
229	0xbda0a8b0	-0.078446746
230	0xbcbd6f2f	-0.023124306
231	0xbc325694	-0.0108849
232	0x3d4f59ce	0.050622754
233	0xbd1c3b95	-0.03814276
234	0xbc8425e2	-0.016131345
235	0x3cd1564d	0.025553847
236	0xbd810263	-0.06299283
237	0xbbce6ce4	-0.006299602
238	0x3d119df0	0.03555101
239	0x3b0b7773	0.0021280914
240	0x3c9f02ce	0.019410517
241	0xbd640254	-0.055666283
242	0x3d5fb46c	0.054615423
243	0xbccbb8f7	-0.024868472
244	0xbc18c886	-0.009325152
245	0x3d20b5c5	0.03923585
246	0x3bb28d7a	0.005448994
247	0x3bf9a1f5	0.0076181837
248	0x3d1bab4c	0.03800516
249	0x3d4b641e	0.049656026
250	0x3b4c110d	0.0031138093
251	0xbd088687	-0.03333142
252	0x3d5fb205	0.054613132
253	0x3d687e40	0.056761026
254	0xbd27ab8d	-0.040935088
255	0x3d6fce22	0.058546193

fc.0.bias f4 [256]
0	0x3d7ec1a8	0.062196404
1	0xbd32f1f2	-0.04368777
2	0x3af3d086	0.0018601574
3	0xbd2c91cd	-0.042131234
4	0x3c3ff65c	0.0117164515
5	0xbcc1e448	-0.023668423
6	0x3d0a1da5	0.033719677
7	0x3d8632ae	0.06552635
8	0xbcd1253a	-0.025530446
9	0x3d2055fd	0.039144505
10	0xbca7f6ae	-0.020503368
11	0x3d814038	0.06311077
12	0xbcc1c78f	-0.023654727
13	0xbc7b1ab4	-0.015326191
14	0xbcae6e1c	-0.021292739
15	0x3da92be3	0.08260324
16	0x3cf505de	0.029910024
17	0xbd408a4a	-0.047006883
18	0x3ce16d11	0.027517827
19	0xbcba2f73	-0.022727704
20	0xbd8d1d8b	-0.068904005
21	0x3d472bba	0.048625685
22	0xbd706a29	-0.058694992
23	0x3d0c0663	0.03418578
24	0x3d444821	0.04792035
25	0xbd40e28e	-0.04709106
26	0x3d70d94a	0.058800973
27	0x3b4004c8	0.0029299725
28	0xbbe6ba8a	-0.00704128
29	0x3d783cbd	0.0606048
30	0xbc298b9f	-0.01034823
31	0x3c6b1211	0.014347569
32	0x3ce9d9a4	0.028546162
33	0xbca7a632	-0.02046499
34	0x3ce01041	0.0273515
35	0xbd7606c5	-0.06006505
36	0x3c20b9e6	0.009809947
37	0x3d349b59	0.044093464
38	0x3d83ce1c	0.064357966
39	0xbd9a71d6	-0.07541244
40	0xbc543c6a	-0.012953857
41	0xbcc73a73	-0.024319863
42	0x3d9b3f6d	0.07580457
43	0xbd115177	-0.03547808
44	0x3c924ed1	0.017859848
45	0xbd930d94	-0.07180324
46	0xbd047514	-0.032338217
47	0xbd546ce2	-0.05186165
48	0xbc214f56	-0.009845575
49	0xbd6704a4	-0.05640091
50	0x3cb1ecaa	0.021719296
51	0x3c569600	0.013097286
52	0xbcc2f10c	-0.02379658
53	0x3c4fb8f7	0.012678376
54	0x3d4d4388	0.05011323
55	0x3c9f747b	0.019464722
56	0x3ca2d498	0.019876763
57	0x3b9ebdb0	0.00484439
58	0xbd8273b0	-0.06369722
59	0xbc87897f	-0.016545055
60	0xbc930e13	-0.017951047
61	0x3d85a368	0.06525308
62	0xbd261596	-0.04054793
63	0x3d7591f1	0.059953634
64	0xbd3e6798	-0.046485513
65	0xbd7931f4	-0.060838655
66	0x3a5e63a0	0.0008483473
67	0xbd296850	-0.041359246
68	0x3be64236	0.007026936
69	0x3ca88b6d	0.020574296
70	0x3d7b4b41	0.061351065
71	0xbcfdd264	-0.030984111
72	0x3caac915	0.020847837
73	0x3d5b21aa	0.0534989
74	0x3b8ae9a0	0.004239276
75	0x3ca33949	0.019924777
76	0x3cce34a7	0.025171591
77	0xbd45e306	-0.04831221
78	0x3bbc55cb	0.005747532
79	0xbd224b19	-0.0396224
80	0x3d498103	0.0491953
81	0xb9e4bf61	-0.00043630137
82	0x3b5ecd6b	0.003399695
83	0x3c9c50a5	0.019081423
84	0x37b1fbd6	2.1217314e-05
85	0xbc3e51d7	-0.011616192
86	0xbc454476	-0.012040248
87	0xbd6e2b63	-0.058146846
88	0x3d9134a4	0.070901185
89	0xbd54c332	-0.051943965
90	0x3d13e8fb	0.03611086
91	0x3d941a83	0.07231619
92	0xbc666aa3	-0.01406351
93	0x3d78a511	0.060704295
94	0x3d41bf22	0.04730142
95	0xbd7da628	-0.061926037
96	0x3dd643d2	0.104621544
97	0xbd0c8f28	-0.034316212
98	0x3ccee806	0.025257122
99	0xbd5dc58e	-0.05414348
100	0xbd7dbe1e	-0.061948888
101	0xbc94a491	-0.018144878
102	0x3cb99bd1	0.022657307
103	0xbc82f3c5	-0.015985379
104	0x3d7d4c76	0.061840497
105	0xba4af190	-0.0007741684
106	0xbcf57dcc	-0.029967211
107	0x3c9e25f2	0.019305203
108	0x3d063040	0.03276086
109	0x3d40f03d	0.04710411
110	0x3bb05020	0.0053806454
111	0xbd1875db	-0.03722177
112	0xbd6c661b	-0.057714563
113	0xbc752b88	-0.014963992
114	0x3bdf7339	0.0068191555
115	0xbd91cb4a	-0.071188524
116	0x3d0677a2	0.032828934
117	0x3c48f9db	0.012266601
118	0xbca2002a	-0.019775469
119	0xbca70f35	-0.020392993
120	0xbc33fe0a	-0.010985861
121	0x3cebb231	0.028771492
122	0xbcb675f8	-0.022273049
123	0xbc6d2987	-0.014475233
124	0x3d16f8d5	0.0368584
125	0x3d6988aa	0.0570151
126	0xba875ed8	-0.0010327948
127	0x3d0fbb37	0.03509065
128	0x3b8d4e79	0.004312333
129	0xbd6ea29e	-0.058260553
130	0x3c794060	0.015213102
131	0xbbdea045	-0.006794008
132	0x3c2586b0	0.010102913
133	0xbd815068	-0.063141644
134	0x3cfe627f	0.031052826
135	0xbbf61f5d	-0.007511063
136	0x3c08b700	0.008344412
137	0x3d6fd228	0.05855003
138	0xba31a414	-0.00067764637
139	0x3c0ea69d	0.008706716
140	0xbaad91aa	-0.0013242264
141	0xbcfa2f42	-0.030540112
142	0x3d663518	0.056202978
143	0xbcd1867a	-0.025576819
144	0x3cc3d46d	0.023905003
145	0xbd2060af	-0.039154705
146	0xba17c33f	-0.0005789287
147	0xbd4f8ee1	-0.05067337
148	0x3d5404b0	0.051762283
149	0x3c83a45d	0.016069585
150	0x3bcb33f5	0.006201262
151	0x3d841bb9	0.064506
152	0x3d66826d	0.056276727
153	0x3d05445c	0.032535896
154	0xbc0ec6dc	-0.008714404
155	0x3cde2330	0.027116388
156	0xbcf1f48e	-0.029535558
157	0xbb979733	-0.0046261786
158	0x3adbe543	0.0016776699
159	0xbdb0d761	-0.0863483
160	0x3d7249a8	0.059152275
161	0x3b9718ba	0.004611102
162	0xbb3b7b20	-0.0028607324
163	0x3d920fc3	0.071319126
164	0x3bee272e	0.007267854
165	0xbbb5374e	-0.0055302745
166	0xbbc937bf	-0.0061406787
167	0x3d0dbe0b	0.034605067
168	0xbd55d7f7	-0.052207913
169	0xbd8cfb58	-0.068838775
170	0xbcf5d5f9	-0.030009257
171	0x3ce851f2	0.028359387
172	0x3caf414e	0.021393444
173	0xbb9d06a5	-0.004792052
174	0xbc2472ff	-0.010037183
175	0xbd91192c	-0.07084879
176	0x3d3012c4	0.042986646
177	0x3d9ce0c9	0.07660062
178	0xbca9a651	-0.020709189
179	0x3d43420e	0.047670417
180	0x3d008dc7	0.03138521
181	0x3b93f2a3	0.0045150085
182	0x3d070dd4	0.032972172
183	0xbd4a3194	-0.049363688
184	0xbd27a169	-0.040925417
185	0xbbd393d2	-0.0064568305
186	0x3c997005	0.018730173
187	0x3c7aa304	0.015297655
188	0xbcf3e542	-0.029772405
189	0x3d25a0aa	0.040436424
190	0x3d6381e3	0.05554379
191	0xbda3ed0f	-0.080042
192	0x3c93eb1b	0.018056443
193	0xbd669e21	-0.056303147
194	0x3d6f9af4	0.058497384
195	0x3d7448e3	0.059639823
196	0xbd651e16	-0.055936895
197	0x3d7275a8	0.059194237
198	0x3d0208dd	0.031746734
199	0xbd6cf89a	-0.057854272
200	0x3d118287	0.03552487
201	0x3d33316b	0.0437483
202	0xbb3bd668	-0.0028661732
203	0xbc6891ed	-0.014194948
204	0xbd7d0315	-0.061770517
205	0x3ccb6a86	0.024831068
206	0x3d8a2b87	0.067465834
207	0x3c8866d7	0.0166506
208	0xbd06d4aa	-0.032917656
209	0x3aef4410	0.0018254537
210	0xbcf74b98	-0.030187413
211	0x3c754fa2	0.014972599
212	0xbd8f3111	-0.069917805
213	0x3d201075	0.039078195
214	0x3c48ccc1	0.012255848
215	0x3bbbb696	0.005728553
216	0xbd40c0b2	-0.04705877
217	0xbd08a7a0	-0.033362985
218	0xbc9e3d18	-0.019316241
219	0xbce61d28	-0.028090075
220	0xbceef6b5	-0.029170373
221	0x3ce29d16	0.027662795
222	0x3cb60df3	0.022223448
223	0xbd4fb3a8	-0.050708443
224	0x3d363d74	0.0444922
225	0xbb7cdc7c	-0.0038583567
226	0xbd60bd64	-0.054868117
227	0x3d68a07e	0.056793682
228	0x3cad2cb0	0.021139473
229	0xbce4a4d2	-0.027910624
230	0xbd397343	-0.045275938
231	0xbd41d279	-0.047319863
232	0xbc415c26	-0.011801755
233	0xbcc34054	-0.023834385
234	0x3d0d52f2	0.03450293
235	0xbb5054c9	-0.0031788817
236	0x3cd4c7ec	0.025974236
237	0xbd815208	-0.06314474
238	0xbd11b15c	-0.035569534
239	0xbd1de413	-0.038547587
240	0x3c1f5e01	0.009727002
241	0xbcf01e86	-0.02931143
242	0x3cb81c27	0.022474362
243	0x3d826751	0.06367362
244	0xbb2bcd02	-0.0026214723
245	0x3d6dad60	0.05802667
246	0x3c3a7dc8	0.011382528
247	0x3d931993	0.07182612
248	0x3ae5885b	0.001751195
249	0x3d7909b2	0.06080026
250	0xbc28140e	-0.010258688
251	0xbd895d81	-0.067072876
252	0x3d2a4151	0.041566197
253	0xbd1f38e2	-0.038872607
254	0x3c2a04f7	0.01037716
255	0xbd2bd888	-0.041954547

fc.3.weight f4 [12, 256]
0	0xbd254c98	-0.04035625
1	0x3d3fcdac	0.046827003
2	0xbc9c93da	-0.01911347
3	0x3d40ce7f	0.04707193
4	0xbc8b1b7b	-0.016980877
5	0xbb2b48d3	-0.0026135936
6	0x3d37da59	0.044885967
7	0xbd70e4df	-0.05881202
8	0xbe5652f5	-0.20930083
9	0x3c6b8b0d	0.014376414
10	0x3c21eade	0.009882657
11	0xbd61c690	-0.055121005
12	0x3cc63915	0.02419714
13	0xbcdc54c4	-0.026895888
14	0xbd4aa1e2	-0.04947079
15	0xbe582b7b	-0.21110336
16	0x3bf57794	0.0074910615
17	0x3cc4a87e	0.024006125
18	0x3ceecba6	0.029149842
19	0xbca7a10f	-0.02046254
20	0x3cc3d0b3	0.023903226
21	0x3d03e38a	0.03219942
22	0xbd722091	-0.05911309
23	0xbd09b123	-0.033616196
24	0xbdbcec6b	-0.09224781
25	0xbd439146	-0.047745965
26	0xbbee4e55	-0.0072725215
27	0xbdc241f4	-0.09485236
28	0xbdc0ad35	-0.094080366
29	0xbdf19ed3	-0.117978714
30	0xbcc922c4	-0.02455271
31	0x3b60f80c	0.0034327535
32	0x3d5e7da1	0.054319028
33	0x3d48841c	0.048954114
34	0xbd3e3386	-0.046435855
35	0xbb735aa8	-0.0037132893
36	0xbe248e94	-0.16070014
37	0xbdc66d70	-0.09688842
38	0xbe0bdd18	-0.1365856
39	0x3c927749	0.017879145
40	0xbdc7cd61	-0.0975597
41	0xbdfee14a	-0.12445314
42	0xbe1f0eac	-0.1553294
43	0x3a131e6d	0.0005612139
44	0x3cba2f27	0.022727562
45	0xbe0a8f73	-0.13531284
46	0xbcf06468	-0.029344752
47	0x3d30491d	0.043038476
48	0x3d2e1da9	0.042508755
49	0x3d12f664	0.035879508
50	0xbde0c57e	-0.10975169
51	0x3c6e13cc	0.014531087
52	0x3d5755ef	0.052572187
53	0x3cd955dd	0.0265302
54	0xbcd9caac	-0.0265859
55	0x3d2d449b	0.042301755
56	0x3c655d5c	0.013999309
57	0xbdc6d4b5	-0.097085394
58	0xbb7c17d3	-0.0038466349
59	0xbc6b6574	-0.01436745
60	0xbdd5de8a	-0.104428366
61	0xbee854b7	-0.45377132
62	0x3c270ab6	0.010195425
63	0xbd92d7fd	-0.07170103
64	0xbd3f7f11	-0.04675204
65	0x3aaa37f6	0.0012986648
66	0xbdbc2d50	-0.0918833
67	0xbe3018b1	-0.17196919
68	0x3d3e8073	0.046509217
69	0x3d122b04	0.035685554
70	0xbcf8a4f0	-0.030352086
71	0xbd0cfb11	-0.034419123
72	0xbdc3a02f	-0.09552037
73	0x3d24798a	0.04015497
74	0x3bab63b8	0.0052303933
75	0xbdcb3dd3	-0.099239014
76	0xbe76b2ad	-0.24091597
77	0x3d330216	0.04370316
78	0x3ca6c52a	0.020357687
79	0xbccf1313	-0.02527765
80	0x3d220571	0.03955597
81	0x3d42776b	0.047477167
82	0xbd14ccf8	-0.036328286
83	0xbde92974	-0.1138486
84	0xbbb1d044	-0.0054264385
85	0x3c34885c	0.011018839
86	0xbe3b6b55	-0.18302663
87	0xbd30d7b0	-0.043174446
88	0xbdeb3d42	-0.114862934
89	0xbd7aac8e	-0.061199717
90	0xbc98345e	-0.018579658
91	0xbd161308	-0.036639243
92	0xbe618a8a	-0.22025505
93	0xbda77ac6	-0.08177714
94	0xbd123781	-0.035697464
95	0x3d416cf0	0.04722303
96	0xbe270088	-0.16308796
97	0x3c47c59e	0.012193112
98	0xbd4e1481	-0.050312523
99	0xbcaf2687	-0.021380676
100	0xbd404845	-0.04694392
101	0xbe03f803	-0.12887578
102	0xbd54a0a0	-0.051910996
103	0xbeb5e0c3	-0.35523042
104	0xbd2ccd49	-0.042187963
105	0xbdb74b20	-0.08949876
106	0xbd4a4943	-0.049386274
107	0x3d270b1c	0.04078208
108	0x3d66f0a9	0.056381855
109	0xbd2d9eae	-0.042387657
110	0x3d0f1554	0.03493245
111	0xbe29c2fa	-0.16578284
112	0xbc5523c9	-0.01300902
113	0xbf20ad80	-0.6276474
114	0x3be19273	0.006883913
115	0x3c6effb8	0.014587335
116	0xbd2f79e4	-0.042840853
117	0x3cd3f968	0.025875762
118	0xbf3229d3	-0.6959507
119	0x3d1a449e	0.037663095
120	0xbda5c3cb	-0.08093985
121	0x3c25dc13	0.010123271
122	0xbcebaaf3	-0.028768038
123	0xbbaad99c	-0.0052139293
124	0xbd8d75e6	-0.06907253
125	0xbd41c08a	-0.04730276
126	0x3d3310b9	0.04371712
127	0xbcc6f774	-0.024287917
128	0x3c476764	0.012170646
129	0xbad7f0ec	-0.0016474999
130	0x3d59ddcd	0.05319004
131	0xbda5ca6c	-0.080952495
132	0x3d079de6	0.033109568
133	0x3cc45a14	0.023968734
134	0x3d10d4cd	0.035359193
135	0xbc01fb44	-0.007933442
136	0xbe0d02e7	-0.13770638
137	0xbd820460	-0.06348491
138	0xbd9bd6b4	-0.07609311
139	0x3c8d348d	0.017236972
140	0xbd33e676	-0.043920957
141	0xbd6d2711	-0.057898585
142	0xbe3106ee	-0.172878
143	0x3cb01785	0.02149559
144	0x3bf4ab25	0.007466691
145	0xbd1d2f25	-0.03837504
146	0xbf0d8ffd	-0.55297834
147	0x3975df7f	0.0002344828
148	0xbd16fe54	-0.03686364
149	0xbd8a2c0c	-0.067466825
150	0xbde4c396	-0.111701176
151	0xbdfd9047	-0.12381034
152	0xbd249b2f	-0.040187057
153	0xbdb1b911	-0.08677877
154	0xbdea825a	-0.11450644
155	0xbf21e2cb	-0.63236684
156	0xbe659dd2	-0.22423485
157	0xbd39bf86	-0.045348667
158	0xbe5ce0ba	-0.21570101
159	0xbdf9bfd7	-0.12194794
160	0xbe17c0cb	-0.14819638
161	0x3cfc76a9	0.0308183
162	0xbe9584b8	-0.2920282
163	0xbd3e116b	-0.04640333
164	0xbd07970f	-0.033103045
165	0x3bee938a	0.0072807716
166	0x3a4a546a	0.0007718267
167	0xbd37761d	-0.044790376
168	0xbb792b42	-0.0038020168
169	0xbc8b36a4	-0.016993828
170	0xbd5b0a2d	-0.0534765
171	0xbce2276f	-0.027606694
172	0xbd202a48	-0.039102823
173	0xbeb94af9	-0.36190012
174	0x3cc1c553	0.023653662
175	0x3d4c6d1a	0.049908735
176	0xbd33a1ff	-0.043855663
177	0xbd3662e3	-0.0445279
178	0x3c0a4ab7	0.008440665
179	0xbdc011d1	-0.09378398
180	0xbdf707d2	-0.120620385
181	0x3bfca24f	0.0077097784
182	0xbdec4566	-0.11536674
183	0xbd0ccb3a	-0.0343735
184	0xbca35b7d	-0.019941086
185	0xbe124cd5	-0.14287122
186	0xbd0909bd	-0.033456553
187	0x3d3ff8d5	0.046868164
188	0xbe0025ae	-0.12514374
189	0x3cf69f76	0.030105334
190	0xbcfd291e	-0.030903395
191	0xbd7b5dec	-0.061368868
192	0xbca81a1d	-0.020520264
193	0x3c4abfce	0.012374831
194	0xbd571d75	-0.052518327
195	0xbda667c4	-0.081252605
196	0xbd64dfcc	-0.05587749
197	0xbdcb609f	-0.099305384
198	0xbc8cd050	-0.017189175
199	0x3d0eefe4	0.034896746
200	0x3b8d34ea	0.0043092864
201	0x3d028ec7	0.031874444
202	0xbd0612d2	-0.032732792
203	0x3ced40f6	0.02896164
204	0x3d038c88	0.032116443
205	0x3c6c4e26	0.014422929
206	0xbdab1f56	-0.08355586
207	0xbd8e8eeb	-0.06960853
208	0x3d55a7be	0.052161925
209	0xbd7eb287	-0.062181976
210	0x3d574b3d	0.052561987
211	0xbd89c14c	-0.067263216
212	0x3c518d6f	0.012790068
213	0xbd396e6b	-0.04527132
214	0x3d4bf482	0.049793728
215	0x3bcf60e0	0.006328687
216	0xbca0a3e8	-0.019609407
217	0x3c0b72b1	0.008511231
218	0xbad735e7	-0.0016419262
219	0x3d5acfe8	0.05342093
220	0x3c8ba0b7	0.017044408
221	0x3cc882e2	0.024476472
222	0x3ce2699f	0.027638255
223	0xbc4a19b1	-0.012335227
224	0xbe37f3f9	-0.17964162
225	0x3ca6421a	0.020295192
226	0xbb420be8	-0.0029609147
227	0xbc0db08c	-0.008648049
228	0xbd4ce505	-0.050023098
229	0xbd86e4a2	-0.06586577
230	0xbd31458c	-0.043279216
231	0x3b6b6b4b	0.0035922106
232	0xbe905c23	-0.28195295
233	0xbb40550b	-0.0029347565
234	0x3c3765ce	0.011193706
235	0x3cdefd4d	0.027220393
236	0x3bf2107b	0.0073872185
237	0xbc8c43bf	-0.017122148
238	0x3c3d57c6	0.011556571
239	0xbd1d1581	-0.038350586
240	0xbd4b2195	-0.049592573
241	0xbdda9fc6	-0.106750056
242	0xbd2eec28	-0.042705685
243	0xbd87f8fa	-0.066392854
244	0xbcea1e68	-0.028578952
245	0xbd3a758d	-0.04552226
246	0xbdb76695	-0.08955113
247	0x3aa74bcf	0.0012763682
248	0xbe163a3c	-0.14670652
249	0xbdfd269d	-0.123608805
250	0xbd8ecb1f	-0.06972336
251	0xbcce9ea2	-0.025222126
252	0x3c8f88c3	0.017521268
253	0xbdf96152	-0.121767655
254	0x3d03f0e3	0.03221215
255	0xbd3cb556	-0.046071373

fc.3.bias f4 [12]
0	0x3c5e5142	0.013569178
1	0xbda52808	-0.08064276
2	0xbbd97749	-0.0066365344
3	0xbc0b951f	-0.00851944
4	0xbc1fdeb1	-0.009757684
5	0x3d38be0d	0.04510312
6	0x3db27d17	0.08715265
7	0x3d73047c	0.05933045
8	0x3dae1262	0.084996
9	0x3c355050	0.011066511
10	0xbdbb4905	-0.09144787
11	0x3db68a92	0.08913149
