cnn_fighting_agent_starter/outputs/20251017_190302/model.pt (torch, 287835 bytes, 12 tensors)

state_cnn.0.0.weight f4 [16, 1, 3, 3]
000000 d2 d7 22 be b3 4b 85 3e e4 30 b0 bd 16 e4 32 3d
       -0.15902641 0.26034316 -0.08603075 0.04367455
000010 ae 22 39 be 0c a7 4b be f0 35 a1 3e f7 51 47 3e
       -0.18079636 -0.19887942 0.31486464 0.19464861
000020 87 f6 82 be 9d 80 59 be 5f 09 a7 3e d0 46 14 be
       -0.2557871 -0.21240468 0.32624337 -0.14480138
000030 46 7c 4b be 7d e1 ea 3c 83 14 44 be 45 2b 89 3d
       -0.19871625 0.028671974 -0.1914845 0.06697706
000040 b4 95 76 be 04 9b f1 bd c9 2b 7f 3d c5 08 4f 3e
       -0.24080545 -0.11797145 0.062297616 0.20218189
000050 71 9d 9f be 8e 3b 0d 3e 4a 8b 18 be e8 61 56 be
       -0.31174806 0.1379225 -0.14896885 -0.20935786
000060 70 3a 9f be e4 95 42 be 0a e4 eb bb e2 ae 04 3e
       -0.31099272 -0.19002491 -0.0071988152 0.12957337
000070 ac f8 69 3e 7f 7a b1 3d cb da 1d be 8b 2a 11 3e
       0.22848767 0.086659424 -0.15415494 0.14176385
000080 0e 60 94 3e 39 98 88 be bb 20 7a 3e 0f 5d 27 be
       0.28979534 -0.26678637 0.24426548 -0.16344093
000090 07 77 83 3e 15 2c 87 3d 08 63 9a be 5c 07 aa 3e
       0.25676748 0.06600205 -0.3015368 0.3320874
0000a0 2e 4d ae be 3c e7 5e 3e 52 d6 9e be 25 85 c9 be
       -0.34043258 0.21767896 -0.31022888 -0.39359394
0000b0 3e 05 7f 3e 20 8c 6e 3e 80 73 17 3e 24 1e 96 3d
       0.24904343 0.23295641 0.14790154 0.073299676
0000c0 b7 f3 2f 3e 1f 23 6c 3d 67 9e 5c bd 72 72 8b be
       0.17182814 0.05765068 -0.053862 -0.27235752
0000d0 71 3d 29 be a1 7e 19 be c6 fb 33 3e 46 bd 32 3d
       -0.16527344 -0.14989711 0.17576513 0.043637536
0000e0 8c 05 80 3c 70 b7 41 be b9 61 7b be 66 ca f4 3d
       0.015627645 -0.18917632 -0.24548997 0.11952667
0000f0 c6 e0 0f be 6c 1c 78 3e 87 2c 28 be 59 59 40 bd
       -0.14050588 0.24229592 -0.16423236 -0.04696021
000100 e1 7e 5f 3e 37 a0 4c be 78 48 f5 3d d4 36 91 3e
       0.21825744 -0.19982992 0.11976713 0.28362143
000110 41 cd 98 3e bc 5a 21 be ac 5c 07 3e 50 37 e0 3c
       0.29844096 -0.15757269 0.13218945 0.027370125
000120 7a 0f 9f bd 48 77 9e be 17 18 8f 3c ca 92 7c be
       -0.07766624 -0.3095038 0.017467542 -0.2466537
000130 26 73 af be 15 f4 ba 3e 24 66 99 3e 16 39 85 3e
       -0.3426754 0.36514345 0.2996074 0.26020116
000140 9e eb 3c 3e bb 03 2d bd 0e 0d b6 be 5e 38 1a be
       0.18449256 -0.042239886 -0.35556835 -0.15060565
000150 76 2a 62 be 44 ac e4 bd db 8c a4 3e da 4e 7f be
       -0.2208651 -0.111656696 0.32138714 -0.24932423
000160 37 b8 27 3e cb a8 01 3d a6 db aa be 5b 64 fc 3d
       0.16378866 0.031655114 -0.33370703 0.12323829
000170 24 f8 24 3d 56 79 2c 3e d9 96 36 3e eb 87 fd 3b
       0.040275708 0.16843161 0.17830981 0.00773715
000180 4b 3f 84 be 05 ec 34 3e 1f 52 9d 3e 18 8b 7c be
       -0.2582954 0.1766816 0.30726716 -0.24662435
000190 56 df f3 3d 07 ef bf 3e f4 19 a4 3e f0 a3 43 be
       0.11907832 0.3748705 0.3205105 -0.19105506
0001a0 91 96 08 3c 19 f1 08 bd 0b 43 8d bd d2 24 c9 3c
       0.008336679 -0.033433054 -0.06897553 0.02455369
0001b0 02 e4 e1 bd 80 80 68 be 61 5d 85 be af 08 8c 3e
       -0.11029817 -0.22705269 -0.26047805 0.27350375
0001c0 cc e8 21 3e 60 56 f2 be 6f 9f 18 3d 93 b8 9e 3d
       0.15811461 -0.47331524 0.037261423 0.077500485
0001d0 1f df 11 3e 92 3e 80 3e 78 64 02 3e cd 2b f3 bb
       0.1424527 0.25047737 0.12733638 -0.007420993
0001e0 4b c9 bf bd 0e cb e3 3c dc 1d 35 3e 9c 36 85 3e
       -0.093645655 0.027806785 0.17687172 0.26018226
0001f0 38 aa 18 bd 9d f2 15 be 7d fa 10 3e 6c b0 1b 3e
       -0.03727171 -0.14643331 0.14158054 0.15204018
000200 f1 8e 47 be 49 c4 59 be 4a a0 22 3e 65 b4 9a be
       -0.19488122 -0.21266283 0.15881458 -0.30215755
000210 8f 6e ea be a4 f2 12 be fc 9b 9d 3e da 7d b3 38
       -0.45787475 -0.14350373 0.3078307 8.558827e-05
000220 f5 e8 92 3d f8 75 29 be 00 00 32 be b1 c6 95 3d
       0.07173339 -0.16548908 -0.17382812 0.07313288
000230 36 b4 5c 3d 4a 32 44 3d dd ae 21 be 29 7b 89 be
       0.0538828 0.047899522 -0.15789361 -0.26851776

state_cnn.0.0.bias f4 [16]
000000 b5 ca 0c bd c6 f0 ed bc bc 0e 33 be c2 4e 63 be
       -0.034373004 -0.029045474 -0.1748609 -0.22198012
000010 cf 6a 82 bd da f4 36 3e cb 24 8b 3e e8 73 a3 3d
       -0.06368028 0.17866841 0.27176508 0.07981092
000020 32 80 06 be a1 6a bb 3d 7a c4 3b 3e 2d f9 4f be
       -0.1313484 0.09151197 0.18336669 -0.20309897
000030 2d 83 19 3e 96 c3 80 3e 7b 7a 2b bd ed 9c 63 be
       0.14991446 0.2514922 -0.041864853 -0.22227831

state_cnn.1.0.weight f4 [32, 16, 3, 3]
000000 d5 57 82 3c 4b b3 ea bc 4d cc 9a bd 32 cd 54 bd
       0.015911022 -0.028649947 -0.075584985 -0.051953502
000010 d1 0b 96 3d 83 b4 ea 3c e6 80 96 bd 48 3a fc 3c
       0.073264726 0.028650528 -0.07348804 0.03078951
000020 cd 45 48 3b 80 dd 95 bc da 73 1a 3b 35 a2 92 bc
       0.0030559183 -0.018294096 0.0023567588 -0.017899612
000030 0e d8 97 bd 1a 95 85 bc fa d0 09 bc 25 54 8e bd
       -0.07414256 -0.016306449 -0.00841164 -0.06949643
000040 0a 11 57 38 25 46 2d 3d 8d 46 a0 bd 8a b8 8c 3d
       5.1275863e-05 0.042303223 -0.078259565 0.068711355
000050 d5 f6 a1 bd 3a 04 85 3c df d5 5f bb ca 71 8c 3d
       -0.079084076 0.016237367 -0.0034154577 0.06857641
000060 cf eb d3 3c 0a 9e 03 bd f9 9f 93 bd 58 3a 88 bd
       0.025869278 -0.03213314 -0.07208247 -0.06651753
000070 18 c3 37 3d 7f 54 96 3d 90 45 04 bd 8a f3 82 3d
       0.04486379 0.07340335 -0.032292902 0.06394108
000080 01 1e fa 3c 70 47 b9 bb 67 8c a7 bd a2 fe 48 3c
       0.030531885 -0.005654268 -0.081810765 0.01226774
000090 c4 89 a3 bd 07 a9 a8 3d 70 72 3b bd ca 7c 93 3d
       -0.07985261 0.082353644 -0.045763433 0.07201536
0000a0 bf cc f0 3b 6e a0 87 3c a4 e8 67 bd 99 e8 e8 bc
       0.0073486264 0.016555991 -0.056618348 -0.028431224
0000b0 2f 13 d4 3c 99 7e 9c bd 84 26 85 bd 7f 57 bf 3c
       0.025888054 -0.07641334 -0.06501487 0.023357151
0000c0 20 80 a0 3d 8b e2 13 3d 2a 36 14 3d b0 b3 2a bd
       0.07836938 0.03610472 0.036184467 -0.04167527
0000d0 21 d4 0d bc da d9 54 bd 8a 7b 2d bd b6 2f 9b bd
       -0.0086565325 -0.051965572 -0.042354144 -0.075774595
0000e0 7c c2 80 bd 59 6b a0 3d 6c d7 22 3d 35 67 8b bd
       -0.06287095 0.07832975 0.039756224 -0.068067946
0000f0 2a 33 a1 bd d6 c6 5b 3d bc 3f 03 bd f4 07 e7 3b
       -0.07871087 0.05365642 -0.032043204 0.0070505086
000100 de c5 f3 3c 99 c5 f2 3b b4 cd fd ba f7 4f 83 bd
       0.029757436 0.0074088094 -0.0019363672 -0.064117365
000110 41 af 8d bd da 2f a1 3a ea 4c 0c 3c e3 3a a2 bb
       -0.06918193 0.0012297586 0.00856326 -0.0049508675
000120 b0 cd 87 3d d0 1d 16 3d 71 91 b7 3d 52 93 5c bd
       0.06631029 0.036649525 0.089632876 -0.053851433
000130 33 56 87 3d fa 63 d2 3c c5 f6 b6 3c 4e 9b 15 3c
       0.06608238 0.025682438 0.022334466 0.009131266
000140 d3 94 88 bd 88 d6 33 bd 9f a0 b7 bc 39 79 d4 bb
       -0.06669011 -0.043905765 -0.022415457 -0.0064841774
000150 ba 07 1b bc ca 62 45 bd ad d6 2b 3d 1a 40 92 bc
       -0.009462291 -0.048189916 0.041952778 -0.017852832
000160 d4 41 61 3d 87 44 6d bd 90 07 aa bc 63 96 99 3d
       0.05499442 -0.05792668 -0.02075556 0.07499387
000170 31 03 87 bd ed 59 90 bd 61 87 91 bd f4 bb 8b bd
       -0.065924056 -0.07048402 -0.071058996 -0.068229586
000180 4a f0 65 bc 48 76 c9 3b f0 7a 77 3d 05 dd 23 bc
       -0.01403434 0.0061481334 0.060419977 -0.010001426
000190 24 4d 38 bc 64 99 89 bc b4 fd 63 3c ec 8d 8a 3d
       -0.0112488605 -0.016796775 0.013915468 0.06765351
0001a0 28 0a 4d 3d a4 f0 83 bd 9d 25 57 3b 31 1d 99 3d
       0.050058514 -0.06442383 0.0032828816 0.07476271
0001b0 bf 8f 6a 3c bc c2 a4 bd c9 c4 08 bd 8e 0a 92 3d
       0.014316498 -0.08044955 -0.033390794 0.071309194
0001c0 ae c7 a6 bd 98 b4 2a 3d 62 6e 59 3d cd 8b 28 bc
       -0.08143555 0.041676134 0.053083785 -0.010287237
0001d0 85 10 de bb 49 12 88 bd ab 92 47 3d 3e ab 79 3c
       -0.0067768716 -0.066441126 0.048723858 0.015238581
0001e0 09 1e 8f bd 95 76 76 bc 6a dd 89 bd dd 93 07 bd
       -0.069881506 -0.015042921 -0.067316845 -0.033099998
0001f0 ef 2d 98 3d c5 70 81 3d 59 0a 83 bd b0 30 90 3d
       0.07430636 0.06320337 -0.06398458 0.070405364
000200 6a 94 80 bc 0c 48 7a bd 3f 12 2f bd e8 bd a3 3d
       -0.01569577 -0.061103866 -0.04274201 0.07995206
000210 74 4f eb 3b c5 ff a3 bc 02 80 85 3b 5a 3c 98 bd
       0.0071811024 -0.020019421 0.0040740976 -0.07433386
000220 15 37 97 3d 52 96 4a 3d 85 33 29 bb 7a 06 d0 3c
       0.07383553 0.049459763 -0.0025818062 0.025393713
000230 a1 90 a4 3d 1d 4e 1d bd ca 4f 4b bc c1 6b 90 bd
       0.08035398 -0.038404573 -0.01240916 -0.070518024
000240 6c 6d 73 3b 1c a3 72 bd 65 14 4f 3d 6f 51 b4 3d
       0.0037144078 -0.059237584 0.05055656 0.08804595
000250 28 b0 c8 bd b6 ac ae bc 49 60 c8 3d 4b 9c 31 be
       -0.09799224 -0.02132259 0.0978399 -0.17344777
000260 e3 05 ef bc 4c 52 13 bd f2 8c 9b 3d f1 c2 9c bd
       -0.029177612 -0.035967156 0.075952426 -0.076543696
000270 ad c8 d3 3d 19 84 99 bd 28 04 9b 3d 7a c5 c4 bc
       0.1034101 -0.07495899 0.07569152 -0.024019945
000280 60 f9 56 bc f8 f3 86 3d 0a 97 20 bd 05 c7 b0 bc
       -0.013120979 0.06589502 -0.039206542 -0.021579275
000290 30 65 36 bb 80 59 96 bc b4 f3 6a 39 da db 77 3d
       -0.0027831309 -0.018353224 0.00022406765 0.0605124
0002a0 98 ab 4f 3d 5c 5e 5a bd ce 64 90 3d 0e 75 2c 3d
       0.050700754 -0.053312644 0.07050477 0.04210382
0002b0 2f 07 af 3d 72 4d 43 3c d0 67 0e bd 47 91 f7 3d
       0.08546292 0.01192032 -0.034766972 0.12088256
0002c0 b5 6c f9 bd a1 29 60 bd 90 00 9b 3c 8f 8f 22 be
       -0.12178937 -0.0547272 0.018921167 -0.15875076
0002d0 c8 12 c9 ba e0 96 8e 3d 7f 00 78 bc 21 bf a6 bd
       -0.001534068 0.06962371 -0.015136837 -0.08141924
0002e0 32 dd 8a 3d 71 0f 99 bd be dd 2a 3d ae b7 f2 bc
       0.06780471 -0.07473648 0.041715376 -0.0296286
0002f0 bf 28 c7 bd 92 6e a5 3d 77 e3 50 3d eb 78 8a bd
       -0.097245686 0.0807773 0.050998177 -0.067613445
000300 3a 73 6a bd 04 e1 3c bd bd 35 c8 bd b0 27 39 3d
       -0.057238795 -0.04611303 -0.09775875 0.045203865
000310 24 86 9d bd 12 d9 3d bd 4c 58 b5 bc a5 5b 4e bd
       -0.07691601 -0.046349593 -0.02213683 -0.050380368
000320 b0 71 51 bd 2e 4b 42 3d 96 cc ab 3d fb 76 e5 bd
       -0.05113381 0.04743498 0.08388631 -0.11204334
000330 e4 c6 e9 bc 07 6d ea 3c 8c 22 2f bd a5 d5 8a bd
       -0.028537221 0.028616441 -0.042757556 -0.06779031
000340 1b 0d 4b bc ec 20 a5 bd 1b 8d 9d 3d 17 ea 81 3d
       -0.012393261 -0.0806292 0.07692929 0.06343477
000350 ed dc 1c 3b bf 30 70 bc 10 34 1c bb 47 98 8f 3c
       0.0023935393 -0.0146600595 -0.0023834743 0.017528666
000360 37 cc 99 3c 90 61 e4 3d e7 28 64 bd b8 10 0b bc
       0.018774135 0.11151421 -0.05570307 -0.008487873
000370 bc ed 02 3e ff b4 47 bd 43 8f a1 3d ec 82 8d 3e
       0.12786001 -0.048756596 0.07888653 0.27638948
000380 5c 42 a6 bd db 45 26 bb 47 93 24 3c 9f ac fa 3b
       -0.08118126 -0.0025371227 0.010044879 0.0076499726
000390 3c db 37 3d c2 cc 54 3d 29 ef 5d 3d 7b 01 41 3e
       0.044886813 0.051953085 0.05418316 0.18848221
0003a0 02 be da 3d 10 3a 6b bd 31 66 4e 3c 3d 35 63 bc
       0.10680772 -0.05742842 0.0125976065 -0.013867673
0003b0 43 c4 6c 3c fe 95 13 3d 8c 54 0e 3d 06 c7 2b 3d
       0.014451089 0.036031716 0.0347486 0.04193785
0003c0 eb 63 c0 3d 19 0f ee 3d ad c9 c6 3c e7 b9 df 3a
       0.09394058 0.116239734 0.024266088 0.0017068953
0003d0 a6 3c 23 3e a0 a2 af bc 71 af 8a 3d 1e ac 18 3e
       0.15941104 -0.02143985 0.06771744 0.14909407
0003e0 fc 80 b9 bd 25 49 75 bb 69 3a 99 3e ea dc 58 bd
       -0.09057805 -0.003742763 0.29927376 -0.052945055
0003f0 3b f0 33 3d 09 97 2e bd 6c 46 eb bc f4 c6 1b 3d
       0.043930274 -0.042624507 -0.028720103 0.038031533

state_cnn.1.0.bias f4 [32]
000000 ee 6f a0 bd 7c 8f 6d bd 1a 1f 66 bd 31 3c 5e bd
       -0.07833849 -0.057998165 -0.056182005 -0.05425662
000010 1b 82 bf bd 0f 3b 88 bd b0 ca 9e bd 04 02 9e 3d
       -0.093509875 -0.066518895 -0.07753503 0.07715228
000020 73 5a d8 bb b8 d7 e8 ba e0 d2 6c bd e6 0d d8 3c
       -0.0066025793 -0.0017764485 -0.057818294 0.026373815
000030 df 4c 46 bd 11 93 2c 3d d0 b1 d8 bb 78 7e d8 bd
       -0.048413154 0.04213244 -0.006612994 -0.10570997
000040 ef 54 53 bd 24 30 80 3d 4b 96 3e 3b d6 4c 8e 3d
       -0.05159467 0.06259182 0.002908128 0.06948249
000050 68 11 45 bd 07 59 7e 3c 99 28 7c 3c 7b 1e f7 bc
       -0.048112303 0.015524155 0.015390539 -0.030165901
000060 d8 c7 89 3d 18 17 16 3d ae e1 aa bd 9c 90 6e bd
       0.0672757 0.036643118 -0.08343826 -0.05824338
000070 06 f6 59 bc 82 81 04 3d ad a6 4a bb 63 11 91 3d
       -0.013303285 0.03235007 -0.00309221 0.070833944

button_cnn.0.0.weight f4 [8, 1, 3, 3]
000000 01 c7 0c be 9f ac 67 be ff 54 cb be 1e cd c1 3c
       -0.13747789 -0.22624443 -0.39713284 0.023657378
000010 ea 7a 05 be 1d 15 94 be 15 93 aa 3e c2 d7 54 3e
       -0.13035169 -0.28922358 0.3331534 0.2078543
000020 7c 21 e1 bd bc 51 91 be aa 62 09 bd ec a4 72 bd
       -0.10992715 -0.2838267 -0.03354136 -0.059239313
000030 15 42 9a 3c ae 10 a2 3d a4 02 73 be e1 9b 8f be
       0.018830338 0.07913338 -0.23731476 -0.28048614
000040 59 df eb 3e 09 61 aa be 20 b5 7f 3e 7d ff 5d bd
       0.46068838 -0.33277157 0.24971437 -0.05419873
000050 a1 ad 81 be e3 95 20 3e c8 f5 c0 bd 98 f0 4d bb
       -0.2532778 0.15682177 -0.09421879 -0.0031423923
000060 dd b9 d8 3e 72 6d 83 be b1 fc d2 3d aa fb 1b be
       0.42329302 -0.25669438 0.10302103 -0.15232721
000070 02 ef 78 be 7b ad 54 3c d6 b3 5b be e6 0a 7e be
       -0.24309924 0.012980814 -0.2145532 -0.24808845
000080 83 ed 88 3e 76 55 60 3e 35 a3 cb 3e 8b b7 8a be
       0.26743707 0.21907601 0.39772955 -0.27093157
000090 6f 09 b6 3c 0f a6 34 3e cf 15 c8 bd c1 1d 8c 3e
       0.022221295 0.17641471 -0.09769785 0.2736645
0000a0 ed ba 87 be 4d a9 06 bc e5 bb 01 3b 21 5c 87 3e
       -0.265098 -0.008219075 0.0019795832 0.26437476
0000b0 79 ba 1d 3e b8 97 84 3e 5a 87 94 3e f1 7d 64 3e
       0.15403165 0.25897002 0.29009515 0.22313668
0000c0 6f 71 48 3e 24 fa 7b 3e 38 65 bc 3c fc 62 6b be
       0.19574521 0.2460714 0.022997484 -0.22986978
0000d0 b6 40 83 be c8 18 6a 3e dd 01 44 be 0b c7 35 bd
       -0.25635308 0.22861016 -0.19141336 -0.044379275
0000e0 69 6c 9f bb a8 5b 89 bd 7c 43 54 3d df 1b b5 bd
       -0.0048652184 -0.06706935 0.05182217 -0.088432066
0000f0 cf 6b ab 3e 7b 26 eb 3d ca 03 82 be 33 0f a5 3c
       0.3348069 0.11481949 -0.25393516 0.02014885
000100 de 59 0d bd 69 ff 80 3e 5f da a4 3c 7d de fc 3d
       -0.034509532 0.25194862 0.020123659 0.12347124
000110 c0 9b 42 3e 1f 8f ab 3e a6 a6 04 3f 3d 7b 8b 3e
       0.19004726 0.3350763 0.51816785 0.2724246

button_cnn.0.0.bias f4 [8]
000000 2f 81 cf 3d e1 de 45 bc c3 e0 0b 3e 47 a0 d9 bc
       0.10132062 -0.012077064 0.13659959 -0.026565684
000010 43 85 94 3a a6 aa 8f 3e ae e4 81 3e fe da af bd
       0.0011331219 0.28059882 0.2536978 -0.08586691

button_cnn.1.0.weight f4 [16, 8, 3, 3]
000000 85 fa 8f bd ea 3c 68 3d bd 6f b7 bd 5b 22 48 bb
       -0.07030205 0.056698717 -0.08956859 -0.0030538056
000010 d4 89 16 3c 38 85 04 bc 3b ef bc bd 28 cc 60 bd
       0.009188134 -0.008088402 -0.09225317 -0.0548822
000020 c6 08 05 3e 2e d4 9d bd a0 0f 14 bd 89 e7 2d bd
       0.12991628 -0.07706486 -0.036147714 -0.042457137
000030 f4 17 4c bd 4d 0e 6b 3e fd 6a 95 bd 2a 38 3b be
       -0.04982753 0.22954674 -0.07295797 -0.18283144
000040 42 41 84 3e ae ae c3 3d 6c b7 f5 3d a8 dc b9 ba
       0.25831038 0.09554802 0.119978756 -0.001418014
000050 25 44 ee 3c 62 16 8a bd 49 55 02 be 5a eb 86 3d
       0.029085228 -0.067425504 -0.12727846 0.065878585
000060 87 72 5b 3d 45 de 89 bd 10 0e 33 3e 37 c5 16 3d
       0.05357602 -0.06731848 0.17485833 0.036809172
000070 cc 9b bd 3b 82 e3 a2 ba 3f e3 9e bc 21 ce 5c 3c
       0.0057863947 -0.0012427422 -0.019395469 0.013476879
000080 67 9a e7 bd 31 7e 9b bd 71 c1 05 3e 0a 65 f1 3d
       -0.11308747 -0.075924285 0.13062073 0.1178685
000090 be 8c 06 be ab 7c 91 bd e0 e5 49 be 4d 66 af bd
       -0.13139626 -0.07103857 -0.19716597 -0.08564434
0000a0 95 06 0a bd e8 7f ad bd 52 b1 22 be 86 ec f2 3d
       -0.033697683 -0.08471662 -0.15887955 0.118615195
0000b0 c6 3f 04 3e 34 c9 75 3d 8f 5e bb bc ae be 76 bc
       0.12914953 0.060006335 -0.022872237 -0.01506011
0000c0 59 a8 e7 bc 39 82 fc bd ad 49 0f be bb 77 3f bd
       -0.028278517 -0.123295255 -0.13992949 -0.046745043
0000d0 06 61 03 3d 24 69 11 3e df 1f 4e 3d 2a f9 ed bd
       0.03207495 0.14200264 0.050323363 -0.1161979
0000e0 b8 15 0f be 68 7e e0 3d c2 08 88 3d 10 f7 f1 bd
       -0.13973129 0.1096161 0.066422954 -0.118147016
0000f0 66 73 11 3d fb 39 0d 3e 28 d7 d9 3d 14 e0 10 3d
       0.035510443 0.13791649 0.10636741 0.035369948
000100 cb 11 98 3d dc e1 32 be 1d fc a5 bd 5b f9 89 bc
       0.07425269 -0.17468971 -0.081047274 -0.016842535
000110 9c 21 4d 3a 1c c9 1a be 7d e4 41 3e d6 65 0b 3d
       0.00078251376 -0.1511578 0.18934818 0.034032665
000120 f4 b4 85 bd b5 f3 19 3c e3 68 8b bc 6d 03 23 be
       -0.06528655 0.009396483 -0.017017787 -0.15919276
000130 89 73 22 3c 62 e7 07 3e 90 87 47 be ad 42 1b be
       0.009915241 0.1327186 -0.19485307 -0.15162154
000140 c4 23 09 bb 0d 0b 8c 3d ca 85 ae 3d ea e9 71 3d
       -0.002092586 0.06838045 0.08521612 0.05906097
000150 e1 b3 44 bc f7 e1 cf 3c 71 97 d9 3c 92 f5 91 3c
       -0.012005777 0.025376303 0.02656147 0.017817292
000160 fd a6 ce 3d d6 69 c1 3d fc 98 13 3d 63 4c 74 bd
       0.10090444 0.09444015 0.03603457 -0.05964316
000170 20 a9 0b 3e f3 11 1d 3d 29 22 cf bd e9 4c 69 3d
       0.13638735 0.038347196 -0.101139374 0.056958113
000180 62 d3 32 bc 53 49 1b be dc c9 35 bd db 08 d2 bd
       -0.010914655 -0.1516469 -0.04438196 -0.10255595
000190 d2 b6 a8 3d a2 15 3a bc 2c 58 4a be 01 33 1e 3e
       0.08237995 -0.011357697 -0.19760197 0.15449144
0001a0 ea 2d 18 bb 26 dd 85 be f1 f6 2d 3e 62 f8 82 3d
       -0.0023220726 -0.26145285 0.16988732 0.063950315
0001b0 2c 84 00 bd 98 de b1 3d e5 24 28 3d 3c 63 e3 bd
       -0.03137605 0.086850345 0.04105081 -0.11102912
0001c0 30 d9 b6 bd a2 ea 36 3e f7 d3 f1 bd 31 30 7a bd
       -0.08928144 0.17862943 -0.11808007 -0.061081115
0001d0 d0 7b 99 3d 78 06 0b bc c1 0a 37 3d a2 1f da 3d
       0.074943185 -0.008485429 0.04468799 0.10650565
0001e0 92 f3 fb 3c bf 65 ae 3d 9e 09 23 3e ba 97 0c bd
       0.030755792 0.085155 0.15921637 -0.034324385
0001f0 cf 0a a2 3c 6a 44 78 3d 1e 4e 95 3d 4e 93 9c 3d
       0.019780545 0.06061212 0.0729029 0.07645284
000200 92 9d b0 3d 52 53 dc bd f5 f5 03 bd 23 3c eb 3d
       0.08623804 -0.107580796 -0.032216985 0.114860795
000210 7f 71 2c 3c 10 dd 0d be 8b 8e 79 3c a2 a0 89 3d
       0.010525106 -0.1385386 0.015231739 0.067200914
000220 63 91 13 3e 0f 34 12 bd 37 e0 5d be 6a 3f 23 3c
       0.1441093 -0.03569418 -0.21667562 0.00996385
000230 1d 8a a2 3d c8 58 9e bd 5c 2c 13 bd eb a4 1d 3c
       0.07936499 -0.077317774 -0.035930976 0.009621839
000240 fa 0f 02 3c 29 ee e3 3c e9 32 92 3d 92 a6 96 bd
       0.007938379 0.027823525 0.071386166 -0.073559895
000250 52 76 97 3d 7e 1e 43 3d a9 f2 b0 bd e9 ec 9f bd
       0.07395615 0.0476365 -0.08640034 -0.07808859
000260 96 22 2d 3e 96 da e5 bd a9 1e f4 3d 90 a3 4a bd
       0.16907725 -0.112233326 0.119199105 -0.04947239
000270 dd 35 52 3d 7d 0d 6c 3d af b6 ca 3c 62 d7 fe bd
       0.0513209 0.05763005 0.024745313 -0.12443425
000280 f1 48 91 3e 9b c2 11 be 10 40 64 3d 61 58 a4 bd
       0.28375962 -0.14234392 0.055725157 -0.080246694
000290 7e b1 95 bd 62 bf a9 bb 41 e5 b0 3c d2 de 01 bd
       -0.073092446 -0.0051802853 0.021593692 -0.03170664
0002a0 3d 4a 9b 3c 2f 3b 4a bb 93 6c 7c 3d 82 14 1b bb
       0.018956298 -0.003085803 0.061626982 -0.0023663347
0002b0 aa 41 af bd 66 b2 82 bb a2 3f 10 be fc 45 dd bc
       -0.08557446 -0.003988552 -0.14086774 -0.02701091
0002c0 78 b8 ac 3c e3 b4 7f bd c7 4b 9f 3e 7c 38 04 3e
       0.021084055 -0.062428366 0.311125 0.12912172
0002d0 da ee f0 bd e8 44 81 3b 52 d7 2e bc c7 a9 cd bd
       -0.11764307 0.003944982 -0.010671454 -0.10042148
0002e0 a9 46 18 bd 3e a5 b1 bd f5 b2 d9 bd b6 d0 98 3d
       -0.03717676 -0.086740956 -0.106298365 0.074616835
0002f0 af d7 c6 3d 0d 82 74 bc 50 33 50 3d a5 e6 ab bd
       0.09709107 -0.014923585 0.050830185 -0.08393601
000300 a1 0e 91 bd fa 30 ad 3d 03 05 06 bd 8b 36 e0 3c
       -0.07082868 0.08456607 -0.032719623 0.027369758
000310 35 4c 32 bd 04 dd 6b bd 77 b6 09 bd 46 d2 a4 bc
       -0.043529708 -0.057583824 -0.033621278 -0.020119797
000320 29 19 59 bd f7 54 6b bd e0 0a be bd a7 c3 a2 bd
       -0.05300251 -0.057454076 -0.09279418 -0.07947474
000330 6a c9 04 3e a0 0c 87 3d b7 fc 4a 3e df 3b a2 3d
       0.12967458 0.06594205 0.19822966 0.07921576
000340 ea 3a 03 be 01 8e 04 bd b1 5d ba 3c 9e 6b 31 bd
       -0.12815443 -0.032361988 0.022749754 -0.043315522
000350 f5 83 d1 bc 14 43 1e bd 40 69 65 3e ab 93 1d 3e
       -0.025575617 -0.03863819 0.22403431 0.15388362
000360 ec 94 2f 3a 57 18 60 bd d7 cb 0e 3c dd 3f 9b 3d
       0.00066979113 -0.054710712 0.008715591 0.0758054
000370 06 92 89 bd a4 70 aa bd 7b 3a 0f 3c e8 f6 7a bb
       -0.06717305 -0.08322266 0.00874197 -0.003829414
000380 c5 03 20 bd fd 9b 85 3d cc 3f 67 bd c7 6c 80 bc
       -0.039066095 0.06523893 -0.056457326 -0.01567687
000390 d3 30 b8 bd 44 6c 49 3d 20 5e 07 be e5 a1 2e 3e
       -0.089936875 0.049175516 -0.132195 0.17053945
0003a0 dd 15 0e be 9e 1c eb bd 8f c1 aa 3d b9 43 18 3d
       -0.13875528 -0.11480068 0.083376996 0.03717396
0003b0 ab 97 30 bd 52 df a7 bd 76 38 a3 3d a5 51 a0 3d
       -0.04311339 -0.08196892 0.079697534 0.078280725
0003c0 cd 94 9c 3d 39 93 cd bd 31 4e a2 3d 1b 7a db bd
       0.07645569 -0.10037846 0.0792507 -0.10716649
0003d0 6f 6b 28 bc 10 21 0f 3e 55 a9 18 bd 7c 2b 25 3d
       -0.01027952 0.13977456 -0.037270863 0.040324673
0003e0 5f c5 09 bc a3 90 ed 3d 41 22 06 be 2d 5b 76 be
       -0.008408873 0.11599853 -0.13099004 -0.24058218
0003f0 c7 ae da 3c 5b 28 8e 3d 76 8f 69 3c 79 bc 13 bc
       0.026694668 0.06941291 0.014255395 -0.009017103

button_cnn.1.0.bias f4 [16]
000000 74 8c f9 3c 87 44 b9 bd 41 98 d5 3c 0a fa f7 3c
       0.030462481 -0.09046274 0.026073577 0.030270595
000010 6a d9 e2 bd 64 43 db 3d 5c 95 38 3d 5d 63 c2 bd
       -0.11076625 0.10706213 0.045064315 -0.09491608
000020 d5 01 8b 3d 9b 06 87 bd 05 e8 9f bd ab 29 f2 bd
       0.06787459 -0.06593057 -0.07807926 -0.11824354
000030 95 c1 9b bc a3 be d7 bd 41 96 90 bd 12 0b b8 3d
       -0.019013206 -0.10534408 -0.07059909 0.089864865

fc.0.weight f4 [256, 240]
000000 ff 14 aa 3c e9 38 47 bd d5 00 6e bc 2e c0 37 bd
       0.020761965 -0.048638258 -0.014526566 -0.04486101
000010 10 e9 1f bd 40 dc 64 3d 6b 1e a9 3c c0 e3 7c bd
       -0.039040625 0.05587411 0.020644387 -0.061740637
000020 79 c5 5c bd 96 27 43 3d 54 28 43 bb a7 7e 43 3d
       -0.053899262 0.047645174 -0.0029778676 0.047728207
000030 77 0c 51 3d 41 23 fe 3c 5e 89 3c 3d e3 d2 01 bd
       0.051037278 0.03102267 0.04602944 -0.031695258
000040 96 29 c3 3c 32 ab 9f bc 83 eb 82 bb 35 8c 50 bd
       0.02382354 -0.019490812 -0.0039953603 -0.05091496
000050 8c 46 87 3c 6a 82 50 bd 3f 67 4a 3b d7 91 18 bd
       0.016513132 -0.050905623 0.0030884293 -0.03724846
000060 2f 0f 00 3d fe 34 f8 bc 86 ee 15 bd e8 83 48 3d
       0.03126448 -0.030298706 -0.036604427 0.04895392
000070 ef 0d 47 3d 7e fa 38 3d 3a 9e 6f bd bf 34 3c bd
       0.048597272 0.045160763 -0.058500506 -0.04594874
000080 ce 4b 56 3d 92 be d9 3c 1d 56 70 bd 8d 54 c7 3c
       0.052318387 0.026580129 -0.058675874 0.02433231
000090 50 37 64 3d ae 43 5e bd 19 49 94 3c f4 ed d7 bc
       0.055716813 -0.054263763 0.018101262 -0.026358582
0000a0 fd 96 63 3d 8c 48 52 bb 2f 6c 58 3c bc cc 64 bc
       0.055563916 -0.0032086698 0.013209387 -0.013964828
0000b0 d3 c9 36 3d 59 95 1f bb 26 ff d0 bc 5b 01 6e bc
       0.04462607 -0.0024350493 -0.02551229 -0.01452669
0000c0 a2 1a 84 bd 64 27 96 3c 50 b5 13 bd c9 06 31 bd
       -0.06450392 0.01832933 -0.036061585 -0.04321936
0000d0 72 25 25 3b 56 01 53 3a 33 b6 20 bc 9d 03 79 3d
       0.002519932 0.00080492103 -0.009809065 0.06079446
0000e0 3f d3 ab 3c 0c 84 91 3c a9 81 96 3c 77 c8 2d 3d
       0.020974753 0.01776316 0.018372374 0.042427506
0000f0 fe e3 19 3d 78 8a 1c 3d 1e 96 79 bd 19 39 02 bc
       0.037570946 0.03821799 -0.06093418 -0.007948183
000100 bf c6 a1 bc 53 e9 0a ba 48 6b 8e bd 41 37 ec bc
       -0.01974809 -0.000529905 -0.06954056 -0.02883494
000110 94 09 09 bd f6 86 51 bd 50 62 48 bc fd af 16 bc
       -0.0334564 -0.0511541 -0.012230471 -0.009197232
000120 26 9f 34 3c 7f 82 67 3d 8b f4 66 3d ff 8a 35 bd
       0.011024272 0.056520935 0.056385558 -0.04432201
000130 89 b1 e3 bc 32 55 a2 3c 90 16 9c 3a 11 a9 a9 bb
       -0.027794616 0.019816015 0.001190858 -0.005177625
000140 47 ea 2b bc 86 ce 49 3d 16 a1 48 bd 38 c1 74 bc
       -0.010492868 0.04926922 -0.04898175 -0.014938645
000150 27 70 a2 3c 79 d8 ee 3c 59 12 8a 3c 78 1a cf bb
       0.019828869 0.029155957 0.016854452 -0.006320294
000160 73 f9 de 3c ac 01 48 3d b2 99 ed 3c cb 08 54 b8
       0.027218556 0.04882972 0.029003952 -5.0552928e-05
000170 29 25 09 bd 06 20 8a bb 9a 4e 19 3d 56 e1 09 bd
       -0.033482704 -0.0042152433 0.037428476 -0.033662163
000180 c5 35 32 3d de c6 04 bd b0 d6 82 bd 56 73 58 3b
       0.04350831 -0.032416217 -0.06388605 0.003302773
000190 25 de 20 3d bb b8 b7 bc 1a eb a6 3b 68 a1 0f 3d
       0.039274354 -0.022426954 0.0050939443 0.03506604
0001a0 65 13 4d bd f7 0a 2d 3d 76 cb 10 bd 09 88 66 bd
       -0.050067324 0.042246785 -0.035350285 -0.056282077
0001b0 ab da 87 bd 41 e4 2f 3d ed 04 7c bd 15 9b ef bb
       -0.066335045 0.04294229 -0.061528135 -0.0073121884
0001c0 0f 5c 20 3d ae c6 2a 3d 4c da 44 bc 8f 70 35 3d
       0.039150294 0.041693382 -0.012014937 0.044296797
0001d0 b5 a3 18 bc 61 d4 94 bc 8c cd 06 3d b5 ca aa bc
       -0.009316375 -0.018167676 0.03291087 -0.020848611
0001e0 9d e2 45 bd 34 b2 66 bc d9 10 8d bc 5c a5 47 bc
       -0.04831182 -0.014080573 -0.017219948 -0.012185421
0001f0 0d 41 8d bd 1b cb 32 3d d2 8c 87 bd 55 40 2b 3d
       -0.06897173 0.043650728 -0.06618656 0.0418094
000200 7f 24 0d 3d 90 dd 0d 3d 72 7b 35 3d a4 cf 58 bd
       0.034458634 0.034635127 0.04430718 -0.052932397
000210 da 83 90 bd b8 e5 8a bd 4a db a4 bc dc 1a 32 3c
       -0.07056399 -0.067820966 -0.020124096 0.010870662
000220 a1 6a a5 3a bc f2 7e bd 0b f7 06 3c e6 55 24 3d
       0.0012620279 -0.06224321 0.008237611 0.04012098
000230 e3 55 df 3c 58 ab d5 bc 0d 7b 2a bc 04 8f 1a bd
       0.027262634 -0.02608268 -0.010405314 -0.037734047
000240 6a a1 f1 3c eb 36 27 3d d4 c3 47 bd ca 49 81 bc
       0.029495914 0.04082386 -0.04877074 -0.015782256
000250 08 cb 61 bd af d9 13 bd 78 2f ce 3c 40 3a 86 bd
       -0.055125266 -0.03609627 0.02516912 -0.06554079
000260 d0 2f ab bc 66 b2 d7 bc da a6 4d 3d bd 7a 01 3c
       -0.020896822 -0.026330184 0.05020795 0.007902798
000270 87 0a 7a bd c0 ac 18 3b 45 cf 6f bb 74 ef ed 3b
       -0.061045196 0.0023296326 -0.0036592048 0.007261211
000280 60 7b 33 bd 13 c4 30 bd 0f d8 93 3c 25 6b 17 bd
       -0.04381883 -0.04315574 0.01804736 -0.036967415
000290 69 73 6d bd dc 1a 17 bd a3 3f 6e bd dd a1 ad bc
       -0.05797139 -0.03689085 -0.058166157 -0.021195346
0002a0 56 38 2a 3d 90 f5 23 bc 56 0a 47 bc ae e8 b1 3b
       0.041557632 -0.010007277 -0.01214846 0.005429349
0002b0 b0 46 1c 3c 14 7f 2d bd 0c 27 80 bd 5a 68 c5 bc
       0.009538338 -0.04235752 -0.062574476 -0.02409761
0002c0 41 bb 06 3c 1e ef 5b bd d7 7c 44 3c d0 41 7f 39
       0.008223356 -0.053694837 0.011992655 0.00024343212
0002d0 87 96 95 bb c5 ab e2 3c 6d c6 e4 3b 7b bf b9 bc
       -0.0045650634 0.027669797 0.006981662 -0.022674313
0002e0 da db 69 3d e4 d8 8a bd 40 3c 6b bd c9 40 b8 3c
       0.057094432 -0.0677965 -0.057430506 0.02249183
0002f0 ad ab 24 3d 72 bb 30 3d 34 06 15 bc c1 47 ec 3b
       0.040202785 0.04314751 -0.009095717 0.007210702
000300 35 d4 47 3d 09 ef 7d bc 41 e9 39 3d b4 08 5f bd
       0.04878636 -0.015498885 0.045388464 -0.05445166
000310 90 ec 8b bd ae 79 04 3d 3c 3b 46 bd b2 6e 32 bd
       -0.0683223 0.032342605 -0.048396334 -0.0435626
000320 13 72 d4 bb d9 77 51 bd 99 7b 45 bc 88 87 e6 3c
       -0.0064833253 -0.051139686 -0.012053394 0.028140798
000330 bc 9e d4 bc d8 55 49 bd d6 ec 88 bd d0 a7 86 bb
       -0.025954597 -0.049154133 -0.06685798 -0.0041093603
000340 74 c8 98 bc f4 5e 3c 3d 1f 7a 04 3d 2e d9 6d bd
       -0.018650271 0.04598899 0.032343026 -0.058068447
000350 9a 4c 93 bd 34 61 5c bd 80 af 88 3b 29 53 37 3d
       -0.07192345 -0.053803638 0.004171312 0.044757042
000360 81 0f af 3c ef ab dc bc bf 8a 11 bd e1 d0 8f bc
       0.021369698 -0.026937453 -0.03553271 -0.017555656
000370 a2 4e 24 bd 6a b7 09 bd 2f ae 4e bd 49 62 29 3d
       -0.040114053 -0.033622183 -0.050459083 0.041353498
000380 64 ce 49 3b ea 3b 49 3c 07 9d 66 bd 6b be af 3b
       0.0030793184 0.012282351 -0.056302097 0.0053632758
000390 74 f5 c7 bc e9 a3 1f 3d 51 6d ae bc 02 3d 8f bd
       -0.024409033 0.038974676 -0.02129236 -0.06994058
0003a0 77 3b 63 3d d0 11 09 bd 8d cc 85 bd de 2c ba bc
       0.055476632 -0.033464253 -0.065331556 -0.022726472
0003b0 10 85 d7 bb 28 2d 6e bd a5 e3 1b 3d 2f bb 77 bd
       -0.0065771416 -0.058148533 0.038058896 -0.060481247
0003c0 4a f2 84 3a 72 12 91 3c 8e 38 f5 bc 1f b8 2b bd
       0.0010143009 0.01770899 -0.029934194 -0.04192364
0003d0 99 5d ce 3b 69 9f 54 3d 0a 50 5f bd 73 fc 6e 3d
       0.006297779 0.051909838 -0.05451969 0.058346223
0003e0 e0 22 d5 bb e4 34 85 bd d2 29 48 bd ab ec d2 bc
       -0.0065044016 -0.06504229 -0.048868008 -0.025747618
0003f0 0f c0 f5 3c 7f 23 99 bd 44 32 ab ba 2d 25 0d 3d
       0.029998807 -0.074774735 -0.0013061245 0.03445928

fc.0.bias f4 [256]
000000 c0 a3 2e 3d f2 cf 19 bc be 29 ae bc bb d0 35 3d
       0.042636633 -0.009387957 -0.021260139 0.044388514
000010 e0 45 f7 bb 99 8f 2c bb e0 f4 27 bd 50 8c 4f 3d
       -0.0075461715 -0.0026330708 -0.041005015 0.05067092
000020 0c 0c 9b 3c 8f b0 5c bd 11 db 8f 3d 87 1d a2 3b
       0.018926643 -0.053879317 0.070242055 0.0049473676
000030 6c 26 f5 bc b6 92 42 3d 39 9f 48 bd 86 1c 4d bd
       -0.029925548 0.047503196 -0.04897997 -0.05007603
000040 7b 41 8a 3d b0 4f 6f 3d aa 77 39 3d 7d 74 e1 3b
       0.06750771 0.058425605 0.045280136 0.0068803416
000050 1d c7 20 3d cf d4 07 bd 30 a8 06 3d 85 8f 83 3d
       0.03925239 -0.033161934 0.03287524 0.064238586
000060 1c 55 e6 bc bf c5 c2 3c 90 81 33 3d 8c 4d 82 bd
       -0.028116755 0.023775933 0.043824732 -0.06362447
000070 89 c2 3a 3d 5f 5c 80 bd b0 b9 d3 bb 27 bb 08 bd
       0.04559568 -0.062676184 -0.0064613447 -0.033381607
000080 07 3e dc 3c 06 0e 45 bd 3d 65 79 3d 85 18 3c 3d
       0.026885046 -0.048109077 0.060887564 0.04592182
000090 ce 7b f4 bc 1d 2c 09 3d 36 8a 79 bb ba 20 c5 bc
       -0.02984419 0.033489335 -0.0038076765 -0.024063457
0000a0 72 51 7b 3c b5 81 24 bc 18 6a 7e 3d c6 bd d2 bc
       0.015339242 -0.01004069 0.062112898 -0.025725257
0000b0 08 d6 62 bd 3c 79 e1 bc 95 b6 56 bb 9b dc c3 3c
       -0.055379897 -0.02752363 -0.0032762636 0.023908904
0000c0 fb ac 4e 3d 5a 14 b8 bc d3 df 4d bd 25 4d 7a bd
       0.050457936 -0.022470642 -0.050262284 -0.061108727
0000d0 7e 4d be bc c3 1e a9 3c 10 5b b4 3c 8f 19 57 3d
       -0.02323031 0.020644551 0.022016078 0.05251461
0000e0 76 05 4a bd de 02 70 bd ab 51 d8 3c 51 94 01 bd
       -0.049321614 -0.058596484 0.02640613 -0.031635586
0000f0 f4 d6 ce 3c 9a 45 ec 3b ac 9e 4d 3c 63 5f d1 3c
       0.025248982 0.0072104456 0.012550037 0.02555818
000100 1a 3e 8d 3d 36 cb 91 bd 6b 7c 4d 3d c5 c6 ed 3c
       0.068966106 -0.071188375 0.050167482 0.029025445
000110 40 0f 1b 3d 54 e0 41 3d 46 ed ed 3c 58 db 59 3c
       0.03785634 0.047333077 0.029043805 0.0132969245
000120 25 4a 42 bd a8 8f 44 3d f8 3d c2 ba 9d 9c 28 bd
       -0.04743399 0.047988564 -0.0014819494 -0.041164983
000130 5b 86 0c 3c ae 0e 6d bc 27 15 89 3c 44 f4 94 3d
       0.008576955 -0.014468832 0.016733719 0.072731525
000140 88 5e 78 bc 6b 7b 7f 3c fa d2 22 3d f9 27 35 bc
       -0.015159257 0.01559339 0.039751984 -0.0110568935
000150 e4 7d fa bc 69 05 0e 3a 73 ac 1e 3d 54 1f ec bb
       -0.030577607 0.00054176763 0.03873868 -0.007205883
000160 77 b9 bf bc c4 98 05 3c 62 94 a0 bc 16 61 15 bd
       -0.023403866 0.008154098 -0.019602004 -0.03646954
000170 40 96 b1 bc b1 c0 5d bd 1a 5b 69 3d 02 74 d7 3b
       -0.02167809 -0.054138843 0.056971647 0.0065751085
000180 b1 f5 cf 3c 5c 2d 50 bd c5 1f 89 3d 25 22 dc 3c
       0.02538571 -0.050824508 0.06695513 0.02687175
000190 30 2a 22 ba ed eb f4 bc 0b aa cf 3c 12 99 03 3d
       -0.0006186096 -0.029897654 0.025349637 0.0321284
0001a0 2d 1c 20 3d 5b c3 44 3d 79 47 93 3d 33 70 de bc
       0.03908937 0.048037868 0.07191367 -0.02715311
0001b0 27 d2 a8 3d f7 a1 b0 3b db 88 9b 3c 49 06 63 3c
       0.082432084 0.0053904015 0.018986156 0.013856479
0001c0 a3 70 ec bc 17 ed 0b 3d 98 1c 3b 3d f7 77 14 3c
       -0.028862303 0.034161653 0.045681566 0.009061805
0001d0 fc 03 c1 bc 32 fa 8d 3c 30 3a 05 bb d1 e5 2b 3d
       -0.02356147 0.017331216 -0.0020328872 0.041967217
0001e0 f1 c0 4f 3d 9f 66 26 3d 6f 70 ba bc 5f b4 40 3d
       0.050721113 0.04062521 -0.02275869 0.047047015
0001f0 e7 29 ac 3b 72 8b 56 3d 96 f9 99 3c dd 33 38 3c
       0.0052540186 0.05237908 0.01879577 0.011242834
000200 1b 72 25 3d e4 30 2e 3d 25 51 57 3d 9b 42 e9 bc
       0.040392023 0.042527094 0.05256762 -0.028474143
000210 26 c4 e8 3c 8f 9c 07 bd 2a 74 d9 ba 43 fc 92 3d
       0.028413843 -0.03310829 -0.0016590406 0.07177021
000220 c2 ec e3 3a 24 b1 64 bd 9d 1a be 3c 8b 9e 2f 3d
       0.0017389285 -0.055832997 0.02320605 0.042875808
000230 3e 08 6f 3d 54 f5 68 3d 2f bf f0 bb 0b 9d 27 3d
       0.05835747 0.056874588 -0.0073470096 0.040921252
000240 e0 fd 67 3c 73 6b 3d ba a9 52 3f bd 14 9c 56 bd
       0.01415965 -0.0007225789 -0.04670969 -0.05239494
000250 b5 30 6b 3c 08 ae bd 3c 8e 47 f7 bb 98 e9 8a bc
       0.014354874 0.023154274 -0.007546372 -0.01695709
000260 0b ae 95 bc ef 9a d2 3b 64 a4 48 3d 22 85 b9 bc
       -0.018271467 0.006427161 0.0489849 -0.02264649
000270 76 10 47 3c 3f b8 5c bc ea c0 0c 3d 61 fc 07 3d
       0.012149921 -0.013471662 0.034363665 0.03319967
000280 03 44 62 bd 9d 55 95 bc 41 e2 75 bd c6 24 0b 3d
       -0.055240642 -0.0182293 -0.060030226 0.033970617
000290 e6 f0 8a bd fe 30 da bc 3d 86 2c 3d be ad 51 3c
       -0.06784229 -0.02663469 0.042120207 0.012797771
0002a0 e6 41 cb bc 53 e7 b7 3c 2e b0 03 3d 37 32 f2 bc
       -0.024811696 0.022449171 0.03215044 -0.02956496
0002b0 3b f7 ce 3c 81 51 8e bd 02 d1 4a bd f8 2d 40 3d
       0.025264373 -0.069491394 -0.04951573 0.04691884
0002c0 d4 9a 18 bd 44 34 0d 3d 7f dd 02 bc 87 d6 ce bc
       -0.03725703 0.034473673 -0.007987379 -0.025248779
0002d0 aa e7 e7 bc f3 0a 0b bd 6a fd a0 3c 45 d5 3a 3d
       -0.028308708 -0.03394599 0.019652087 0.045613546
0002e0 6d e9 b1 3c fa 6b 37 3d 88 69 55 bc fc c4 9d bc
       0.021717751 0.04478071 -0.013025649 -0.019258969
0002f0 bc af 43 bb 9d d1 3a 3d 62 e4 fa bc c0 9b 40 3d
       -0.0029859385 0.04561006 -0.03062648 0.047023535
000300 1b e0 98 3d fd c3 92 3d 75 f7 07 bd 43 e5 15 3d
       0.0746462 0.07166288 -0.033194978 0.036595594
000310 eb db b5 bb 34 9c 67 3c 94 23 39 3d 0a 96 2e 3d
       -0.005549898 0.014136363 0.045199946 0.042623557
000320 be fa 82 bd 70 43 3d bd 12 49 73 bb 27 c2 4d 3d
       -0.063954815 -0.04620689 -0.003712241 0.050233986
000330 1d 9c 56 bd e8 cb 67 3d 72 37 8a bd ac 1c de bb
       -0.052394975 0.056590945 -0.067488566 -0.0067783203
000340 17 88 07 bd e1 5e f2 bc d1 43 b7 bc 5a 8d 44 3d
       -0.03308877 -0.029586257 -0.022371205 0.047986366
000350 27 52 24 3d 5b 12 1d 3d 8b 39 5e bd 2a 4e 40 bc
       0.04011741 0.038347583 -0.054254096 -0.011737386
000360 dc 91 be bb 35 b8 ec 3c 3b 12 34 3d 7b b0 50 3d
       -0.0058157276 0.02889643 0.0439627 0.050949555
000370 ac e5 51 bd 6d 72 1c 3d 2e 7b 2a 3d e4 cb 41 bd
       -0.051244423 0.038195062 0.04162138 -0.047313586
000380 bd b0 22 bc 98 53 40 3d 15 7c 8d 3a 7d 85 0e b9
       -0.009929833 0.04695472 0.0010794426 -0.00013591904
000390 7c 2d 5c bb 9a 31 3d 3b f8 cb 38 3d 1f 2a 64 3d
       -0.0033596447 0.0028868676 0.045116395 0.055704232
0003a0 4a d8 3d bd 7f 2f 8f bb d7 1b 6f 3b bd a9 7b 3c
       -0.046348847 -0.0043696756 0.00364851 0.015360293
0003b0 cf 81 36 bd 78 55 21 bd a0 62 f8 3c a8 e9 a1 bc
       -0.04455739 -0.03938815 0.030320466 -0.019764736
0003c0 86 93 21 bd 01 21 89 bd 5e 09 7b bd 87 4e 97 3c
       -0.03944733 -0.06695748 -0.06128823 0.018470062
0003d0 34 f2 e4 bc 88 8e b8 3b dd 10 36 bd b4 50 f5 3c
       -0.027947523 0.0056322254 -0.044449676 0.029945709
0003e0 72 bd 8f bc 2a ee 2c 3d 18 6a 0a 3d b4 3f 2e bd
       -0.01754639 0.04221932 0.033792585 -0.04254122
0003f0 a5 d3 50 3d 17 54 63 bd 13 1b 82 3d 25 7f 6e bd
       0.05098309 -0.055500116 0.0635282 -0.058226723

fc.3.weight f4 [12, 256]
000000 8d ef 27 bc 7e 10 b8 bc ef 6b 18 bf 77 40 ff 3c
       -0.010249984 -0.022468802 -0.59539694 0.031158669
000010 df 77 7e bd f6 06 f6 3c dd 7b b8 be 25 99 ef 3c
       -0.062126037 0.030032616 -0.36032 0.02924783
000020 0a aa 64 bc d2 11 4f bd a6 f2 5a bd b9 6d 3c bd
       -0.013956556 -0.050554104 -0.053454064 -0.046003077
000030 12 43 d1 be 90 4a 74 bd 9c 0b ab bd dd 67 5a bd
       -0.40871483 -0.05964142 -0.08351824 -0.053321708
000040 14 c3 f7 bd a8 97 cb 3b 31 50 d6 3a 9e 73 6f bd
       -0.12097755 0.006213147 0.0016350803 -0.05845987
000050 f5 0a d8 3a 01 c3 d9 3c 1c ad 62 be 9b b2 a8 bd
       0.0016482758 0.026582243 -0.22136348 -0.08237191
000060 ef b3 3e bd 41 8e 8b bc b2 36 58 bd 54 e7 6c bb
       -0.046558317 -0.017035605 -0.052786537 -0.0036148624
000070 47 05 b5 3b 28 3f 76 3c a1 f9 35 bd b7 0a 88 bb
       0.0055243107 0.015029706 -0.044427518 -0.004151668
000080 ed d7 ba bd 5d 25 87 be dd ae c8 bd 97 a6 3f 3c
       -0.09123216 -0.26395693 -0.097989775 0.011697433
000090 f4 46 14 3d 37 eb 68 bd 95 28 9f bc ab c6 a9 bd
       0.03620048 -0.056864943 -0.01942853 -0.08289846
0000a0 a1 cc 5c 3c 7a 83 42 be 93 df 8b bc 4c 3d 7f bc
       0.013476522 -0.18995467 -0.017074382 -0.015578579
0000b0 5f f5 3b bd 36 fc 20 3c e0 cb 6a bc 53 07 cb bd
       -0.0458883 0.009825757 -0.014330834 -0.09913506
0000c0 3c 8c 8b bd a0 18 11 bd 29 1c 71 bd 22 54 cc 3c
       -0.06813857 -0.035423875 -0.058864746 0.024942461
0000d0 82 c7 95 bd c0 c0 e1 3c 51 c3 0d 3c 7c 45 5b bc
       -0.07313444 0.02755773 0.008652524 -0.013383266
0000e0 91 13 28 3d b6 41 86 bd 52 f7 31 bd fb f3 96 bd
       0.041034285 -0.06555502 -0.043448754 -0.07370754
0000f0 08 c9 7c bd 10 a4 b6 bd 21 5e e7 bc a6 95 73 bd
       -0.061715156 -0.08918011 -0.028243126 -0.059468888
000100 40 bd bb be 5b fe 73 bd 8a dc 2a bd bf 00 51 3d
       -0.36667824 -0.059568744 -0.04171423 0.051026102
000110 6a f3 fd bc 85 3e a9 bc 48 28 85 3c 0a d7 8e 3c
       -0.030999858 -0.020659694 0.01625456 0.017436523
000120 a8 ce dd 39 65 d1 29 bd 83 d8 bd bd 49 c6 6b 3c
       0.00042306376 -0.04145946 -0.09269812 0.014390537
000130 5d e8 a7 bd 86 94 ad bc d8 92 de 3c 59 78 c8 bd
       -0.08198617 -0.021188986 0.02716963 -0.097885795
000140 82 26 89 be 8b 23 85 3c 47 3e 43 3d 44 a7 b9 3c
       -0.26787192 0.0162523 0.047666814 0.022662766
000150 f1 93 4d 3c 1f 8a f5 3b 46 4b 2d 3c 19 c6 d2 bd
       0.012547479 0.007493272 0.010577029 -0.102916904
000160 7c d6 ca bd 76 e0 67 bd dc 6f ab bb 5d 55 94 be
       -0.09904191 -0.056610547 -0.0052318405 -0.28971377
000170 bb 5d 30 be c0 06 46 3d 51 9d e5 bd 53 a6 70 3b
       -0.17223255 0.04834628 -0.11211646 0.003672023
000180 1b 4e 9f bd 66 87 e3 3c 46 ac 70 bc 12 d3 c4 bd
       -0.07778569 0.027774524 -0.014689511 -0.09610571
000190 44 39 84 bd be 57 44 3d 8f 11 1b bd 5a 29 36 bd
       -0.06456235 0.04793524 -0.037858542 -0.04447303
0001a0 1e 78 41 bc fc 23 70 bd 05 5e da bd 25 6a be bd
       -0.011808423 -0.058628067 -0.10662464 -0.09297589
0001b0 9e 7c 82 bd 94 2b 16 3d 24 13 dd be 12 5a ae ba
       -0.06371425 0.036662653 -0.43178666 -0.001330199
0001c0 1b 5d ab 3c 7e 26 36 3d b6 75 9f bd c5 3d e8 bc
       0.02091842 0.044470303 -0.077861235 -0.028349767
0001d0 bf 0b 1c 3d 8a f7 cc bd f0 f7 86 bd 2c 62 23 bd
       0.03809714 -0.10008152 -0.06590259 -0.039888546
0001e0 c3 8d 43 bd 25 a5 a6 bd c6 83 1c 3d ad f7 53 bc
       -0.047742616 -0.081369676 0.038211606 -0.0129374685
0001f0 3a 7d 8e bd c1 e5 6b 3c fc 5b 00 be 5a 72 a9 bc
       -0.06957479 0.014398039 -0.12535089 -0.02068441
000200 6f 4e 5c 3d a5 b4 a4 bc 0b d1 75 bd 62 19 92 bd
       0.053785738 -0.02010567 -0.060013812 -0.07133748
000210 1c cb be bd 8a c8 10 bd 11 e2 df bd 2d 86 9f bd
       -0.09316084 -0.0353475 -0.109317906 -0.07789264
000220 2b 25 62 be da 2f 10 3d c3 37 d1 bd 76 43 15 3c
       -0.22084491 0.035201885 -0.10215714 0.009110322
000230 52 59 13 3b e2 cf 14 3b c2 65 6c bd 54 62 dc bd
       0.002248366 0.0022706916 -0.05771423 -0.10760942
000240 b2 7d 2e bd a6 09 be 3b cd 07 00 3d cf c1 e7 bc
       -0.04260034 0.00579949 0.03125744 -0.028290657
000250 f3 a8 ea bc 09 45 26 bd ee 21 ce bc d6 ad e1 bc
       -0.028645014 -0.04059318 -0.025162663 -0.027548712
000260 75 de b9 bb af b2 11 bf d6 55 f1 bd da e6 c2 3c
       -0.005672271 -0.56913275 -0.1178395 0.02379172
000270 d4 15 98 bc fe b6 ce bd 98 24 36 3d 81 a7 a0 bd
       -0.018565096 -0.10093497 0.044468492 -0.07844449
000280 fb 42 21 bd 1c 2c 67 3d 58 8b 36 3d 79 17 04 3d
       -0.03937052 0.05643855 0.044566482 0.032248948
000290 cc 8f 16 3d 32 b3 9d bd f2 42 a1 bd 73 08 16 bd
       0.03675823 -0.077001944 -0.07874097 -0.03662915
0002a0 88 a5 21 bd 11 41 9e 3c 86 62 95 bd 8a 40 0b bd
       -0.039464504 0.019318135 -0.072941825 -0.033997096
0002b0 28 fb da bd 78 ee 7b 3c 88 2a 9b be 20 70 8e bd
       -0.106924355 0.01537668 -0.30305886 -0.0695498
0002c0 fc ed bf bd 7f ea 43 bd ae 7a d5 be 31 50 c4 bb
       -0.09371564 -0.047831055 -0.4169516 -0.005991005
0002d0 da 2b 96 ba 2f c9 d5 3b cb 7c bc bc a5 a1 ea 3b
       -0.001145716 0.006524227 -0.023008725 0.007160383
0002e0 67 4e d2 bd 0d f3 0b 3c 2e a5 9b bd b4 3e 4a 3c
       -0.1026886 0.008541835 -0.07599865 0.012344051
0002f0 71 05 3e be 2c 48 c0 bd aa a4 4d be eb 84 f3 3c
       -0.18556763 -0.09388766 -0.20082346 0.029726466
000300 47 47 b4 bd fe b2 09 3c e6 fa 97 3c 0b d5 4f bc
       -0.088026576 0.0084044915 0.018552255 -0.012685071
000310 25 2d a6 bc 02 4b f4 bc 71 14 ae 3b ff 07 42 bd
       -0.020285198 -0.029820923 0.0053124954 -0.047370907
000320 70 3f 04 3d e2 04 4d 3d 17 bd 11 3d d2 b5 a4 be
       0.03228706 0.050053485 0.03558072 -0.32169968
000330 4d 2f c7 bd 94 f3 b3 bc d2 63 40 bd 71 34 7a bc
       -0.09725819 -0.021966733 -0.046970196 -0.015271292
000340 67 fa 25 3d dc 36 6d bd c9 72 00 bd 96 bc 8f bc
       0.040522005 -0.057913646 -0.031359468 -0.01754598
000350 62 8e 6f 3b 7c db 0a 3d 9d 2f 2b bd f6 71 7e be
       0.0036553373 0.033900723 -0.041793454 -0.2484816
000360 d7 39 64 be a7 2f 8e bd ae 67 c1 3a 4b 92 ae bc
       -0.22287689 -0.06942683 0.001475563 -0.021309992
000370 7c a3 66 3d 80 56 d0 be fe 0c 35 3d c8 80 93 bc
       0.056308255 -0.40690994 0.044201843 -0.018005744
000380 23 d0 56 bd bb 90 aa 3b dd 44 c5 bc 45 22 92 bb
       -0.05244459 0.0052052415 -0.024080688 -0.0044596517
000390 3c 78 5e 3d 97 45 55 bd 73 46 13 bc 78 f9 57 be
       0.054313883 -0.05206832 -0.008988964 -0.21091259
0003a0 b3 57 c7 bc 17 13 8a bd 9f d1 06 3c dd db 85 bc
       -0.02433381 -0.06741922 0.0082286885 -0.01634019
0003b0 28 4c 60 bc 20 20 f5 3c 34 3b a7 bd 16 a4 4d bd
       -0.013690032 0.029922545 -0.08165589 -0.050205313
0003c0 53 23 97 3c 95 5e c5 3c d0 49 e0 bc 4e f7 12 bc
       0.018449461 0.024092952 -0.027378947 -0.008970095
0003d0 3a b9 c9 bd 21 84 a6 bc 45 65 f5 3c 6f 45 7e bd
       -0.09849782 -0.020326676 0.029955516 -0.062077936
0003e0 29 54 c0 3c 72 84 cb 3c 67 2c 86 bc 28 f9 42 bd
       0.02347763 0.024843428 -0.016378595 -0.047600895
0003f0 d9 42 08 bd 2e 5e 13 bc 2f fb 4a bd 5b 77 b9 bc
       -0.033266876 -0.008994622 -0.049555954 -0.022639921

fc.3.bias f4 [12]
000000 fa bc c7 3c 2c 48 11 bc 6d d8 2a bd 01 73 83 3c
       0.024382103 -0.008867305 -0.041710306 0.01604605
000010 37 bc 3e bd 30 b8 de 3c 68 87 9c 3c 04 b2 0e bc
       -0.046566214 0.027187437 0.019107535 -0.008709434
000020 70 73 d5 3b da 06 a9 3c 4c a7 4d bd 4f b2 fd ba
       0.0065140054 0.02063315 -0.050208375 -0.0019355508
