cnn_fighting_agent_starter/outputs/20251017_201950/model.pt (torch, 287835 bytes, 12 tensors)

state_cnn.0.0.weight f4 [16, 1, 3, 3]
0	0xbcbc55f9	-0.022990214
1	0x3e239cdd	0.15977807
2	0x3f1347be	0.57531345
3	0x3dd9b594	0.106303364
4	0x3ecfbf9a	0.40575868
5	0xbd860d1b	-0.065454684
6	0xbd6465e2	-0.055761226
7	0xbd6888ca	-0.056771077
8	0x3efff427	0.4999096
9	0x3df71166	0.12063865
10	0x3e1b1916	0.15146288
11	0xbe9d3995	-0.30707994
12	0x3e425915	0.18979295
13	0x3e4f488a	0.20242515
14	0x3e6e18ae	0.23251602
15	0x3e1e2e71	0.15447403
16	0x3e365e93	0.17809515
17	0xbe67ecfd	-0.22648998
18	0xbd001baa	-0.031276383
19	0x3d8e8e5f	0.06960749
20	0x3d0152df	0.031573173
21	0x3d0242f4	0.031802133
22	0x3dfb71ce	0.12277566
23	0x3d41dae8	0.047327906
24	0xbe4816a8	-0.19539893
25	0xbe8a018a	-0.269543
26	0xbe0835a4	-0.13301712
27	0x3dba7b00	0.09105492
28	0xbd91e62b	-0.07123979
29	0x3e2457bf	0.16049097
30	0x3c86eb9c	0.01646977
31	0x3d411b6b	0.04714529
32	0xbce6e180	-0.028183699
33	0x3e60ad69	0.2194115
34	0xbe078bab	-0.13236873
35	0x3e50dde6	0.20397148
36	0xbe1646db	-0.14675467
37	0xbe749f11	-0.23888804
38	0xbe28c4dc	-0.16481346
39	0x3db5ae44	0.08871129
40	0xbe97826b	-0.2959169
41	0xbb2a1169	-0.0025950319
42	0xbe068d0a	-0.1313974
43	0xbe8f33d0	-0.27969217
44	0xbd7a079c	-0.061042413
45	0xbe9392d1	-0.2882295
46	0xbe6423aa	-0.2227923
47	0x3db9ff42	0.0908189
48	0xbe3c266a	-0.18374029
49	0x3d34c40b	0.044132274
50	0xbdf9e305	-0.12201504
51	0x3e93328f	0.2874951
52	0xbc1769f4	-0.00924157
53	0x3dafcb3d	0.085836865
54	0x3e61f76b	0.22067039
55	0x3db8bfc7	0.090209536
56	0x3e6fe5f7	0.23427568
57	0xbe932936	-0.2874238
58	0x3e5470cd	0.20746155
59	0xbdd39541	-0.10331202
60	0xbd7511e7	-0.059831526
61	0x3de74896	0.112931415
62	0x3e224a6e	0.15848705
63	0x3cb68b80	0.022283316
64	0xbc3f9874	-0.0116940625
65	0x3db2389f	0.08702206
66	0x3e953984	0.29145443
67	0xbe8a31ac	-0.26991022
68	0xbe440b46	-0.19144925
69	0xbe1ae26a	-0.15125433
70	0xbe15941a	-0.14607278
71	0xbea72b50	-0.32650232
72	0xbe29f883	-0.16598706
73	0xbe9706a1	-0.29497245
74	0xbe8ea96a	-0.27863628
75	0x3e94520a	0.2896884
76	0x3e0bea0e	0.13663504
77	0xbdda5b3f	-0.10661935
78	0xbd0fc80d	-0.035102893
79	0xbe4893a1	-0.19587566
80	0xbd9b27fb	-0.07575985
81	0xbe806180	-0.25074387
82	0xbd8a5739	-0.06754918
83	0x3e8a1be2	0.26974398
84	0x3e9524c7	0.2912962
85	0xbe392173	-0.18079166
86	0xbe08cd0c	-0.13359469
87	0xbd557df8	-0.052122086
88	0x3e66a166	0.22522506
89	0x3e90c0d9	0.2827213
90	0xbe126d41	-0.1429949
91	0xbdd656de	-0.10465787
92	0xbea13558	-0.3148601
93	0x3dd315f2	0.1030692
94	0x3e939893	0.28827342
95	0x3e8195ec	0.25309694
96	0x3e8648f4	0.26227534
97	0xbd2f6374	-0.042819455
98	0xbd4cb9f5	-0.04998203
99	0xbe97070a	-0.29497558
100	0x3ac397fc	0.0014922614
101	0x3ea4c919	0.32184675
102	0xbd0b0a64	-0.033945456
103	0x3e2606d5	0.16213544
104	0x3d5ebced	0.054379392
105	0xbe79a514	-0.24379379
106	0x3eac8401	0.3369446
107	0xbe145056	-0.1448377
108	0x3d80333e	0.06259774
109	0x3e3c13c1	0.1836691
110	0xbe1b0339	-0.15137948
111	0xbe73f27d	-0.2382297
112	0xbe207820	-0.15670824
113	0x3e2189b9	0.15775193
114	0x3e1e88bb	0.15481846
115	0x3e5d1f43	0.21593957
116	0x3dc73254	0.09726396
117	0x3e16d352	0.1472905
118	0xbea2ba86	-0.3178293
119	0xbe05cab3	-0.13065605
120	0x3e692adb	0.22770254
121	0xbe83ec1a	-0.2576607
122	0x3e809c88	0.25119424
123	0xbde73c91	-0.11290849
124	0xbe977cf7	-0.29587528
125	0x3e3bbf40	0.18334675
126	0x3e21164a	0.15731159
127	0xbe90037f	-0.28127667
128	0xbe66e7bf	-0.22549342
129	0xbeb70acb	-0.35750422
130	0x3e6f99c0	0.23398495
131	0xbe553da5	-0.20824297
132	0x3e13e2d6	0.14442
133	0xbd975e56	-0.0739104
134	0x3e8f426a	0.27980357
135	0xbe0be62a	-0.1366202
136	0xbe397756	-0.1811193
137	0xbe252b06	-0.16129693
138	0xbe85d3be	-0.2613811
139	0x3dbf3635	0.09336511
140	0xbd8e3400	-0.06943512
141	0x3e709184	0.2349301
142	0xbdd0d46f	-0.101967685
143	0x3c907f4b	0.017638823

state_cnn.0.0.bias f4 [16]
0	0x3e1087bd	0.1411428
1	0x3e186357	0.14881645
2	0xbea16d3c	-0.31528652
3	0x3db8b50c	0.09018907
4	0x3e9ef8aa	0.3104909
5	0xbe32429b	-0.1740822
6	0x3dcd94ce	0.10038148
7	0x3ea49133	0.32142028
8	0xbda287bd	-0.07936046
9	0x3d508bf0	0.050914705
10	0x3eb310a0	0.3497362
11	0x3ea8dac9	0.3297942
12	0x3ea300fd	0.31836691
13	0xbe3ada0c	-0.18247241
14	0xbdb08ffe	-0.08621214
15	0x3d250b54	0.040294006

state_cnn.1.0.weight f4 [32, 16, 3, 3]
0	0xbd07f364	-0.0331911
1	0x3cd489d4	0.025944628
2	0x3e06dc1e	0.13169906
3	0x3d693014	0.056930616
4	0x3da8e753	0.082472466
5	0x3d4e0c9d	0.050304998
6	0xbceb3178	-0.028710112
7	0xbdd8ec37	-0.105919294
8	0x3e59092d	0.21194907
9	0xbd2de9ab	-0.04245917
10	0x3d0ef2e5	0.03489961
11	0x3da8f38f	0.0824958
12	0x3d2b07a6	0.04175534
13	0x3cb1a6bf	0.021685956
14	0x3d25aec9	0.04044989
15	0x3d8623cb	0.06549796
16	0x3db22654	0.08698717
17	0x3d92c274	0.07165995
18	0x3d28bb97	0.041194525
19	0xbd8045cc	-0.06263313
20	0x3da9408b	0.08264264
21	0xbd3b430f	-0.04571825
22	0xbd28515f	-0.041093227
23	0xbd9da5b0	-0.07697618
24	0x3d4c7d48	0.049924165
25	0x3d729783	0.059226524
26	0x3d62d4e3	0.055378806
27	0xbd5c7754	-0.053824738
28	0xbd5874b7	-0.052845683
29	0xbd80d28e	-0.0629016
30	0xbb98dbe9	-0.004664887
31	0xbd0d53ee	-0.03450387
32	0xbd551ce3	-0.0520295
33	0xbc2f6a2a	-0.010706464
34	0xbd574984	-0.052560344
35	0x3ce07aa5	0.027402231
36	0xbcf5f204	-0.030022629
37	0xbd69436a	-0.056949057
38	0x3d437ada	0.047724582
39	0xbd4b8d76	-0.049695455
40	0xbc82bd20	-0.015959322
41	0x3c93ca76	0.018040877
42	0x3c4dab93	0.0125531135
43	0x3bee8aea	0.0072797434
44	0x3d8d893c	0.06910941
45	0xbd5086f0	-0.050909936
46	0xbdb49c31	-0.08818854
47	0x3d9796c9	0.07401807
48	0x3c9d7f7a	0.019225825
49	0x3d7d0b3d	0.061778296
50	0x3d777c3f	0.060421225
51	0xbc7a197e	-0.015264867
52	0xbb65fc15	-0.003509288
53	0x3d69d43b	0.057087164
54	0x3c641a58	0.013922296
55	0x3d83f64d	0.064434625
56	0xbd167044	-0.03672816
57	0x3d973808	0.07383734
58	0x3c5191fa	0.012791151
59	0x3d1e1725	0.03859629
60	0x3baf56ea	0.005350937
61	0xbcce4d06	-0.025183212
62	0x3db013c9	0.08597524
63	0xbd666453	-0.05624802
64	0xbbea7c71	-0.007155948
65	0xbd8c1e76	-0.068417475
66	0xbd18eed3	-0.037337136
67	0xbcd464a2	-0.025926892
68	0xbd0295f1	-0.031881277
69	0xbb04ee14	-0.0020283507
70	0xbd086d46	-0.033307336
71	0xbd6665ea	-0.056249537
72	0xbd970c8f	-0.07375442
73	0x3d95f51b	0.07322141
74	0xbd536b1e	-0.051615827
75	0x3da925fb	0.08259197
76	0x3a8c8a75	0.0010722416
77	0xbd3dc276	-0.04632803
78	0x3da9c3d8	0.08289307
79	0xbc3a5568	-0.0113729015
80	0x3d11f5af	0.035634693
81	0xbd3fde19	-0.04684267
82	0xbd45595e	-0.04818093
83	0xbd608591	-0.05481488
84	0x3d7efaea	0.06225101
85	0xbcc14d88	-0.02359654
86	0x3d02a839	0.03189871
87	0xbd751d7e	-0.05984258
88	0xbcbe154b	-0.023203513
89	0x392f4cd1	0.00016717917
90	0xbd59e252	-0.05319435
91	0x3d8b236c	0.067938656
92	0xbc34f294	-0.011044163
93	0xbce0965b	-0.027415445
94	0x3db601e3	0.088870786
95	0x3dd16b7d	0.1022558
96	0x3ce9bb0e	0.028531577
97	0xbd296e23	-0.0413648
98	0x3d2a6d87	0.04160836
99	0x3d87d0c3	0.06631615
100	0xbd2a0306	-0.04150679
101	0x3dc56164	0.096377164
102	0xbd960322	-0.07324816
103	0xbcdc91df	-0.026925026
104	0x3d6cfbb2	0.057857223
105	0xbcbf908f	-0.02338436
106	0x3c8fcfc0	0.017555118
107	0x3d9de3bd	0.07709453
108	0x3ce900ae	0.028442707
109	0x3d6df449	0.058094297
110	0xbd006c5c	-0.03135334
111	0x3d6a0b04	0.05713941
112	0xbc5b2515	-0.01337554
113	0x3d62abb2	0.055339523
114	0xbc578b68	-0.013155796
115	0x3d7a02ba	0.061037757
116	0x3ced94ce	0.02900162
117	0xbc598bcd	-0.01327796
118	0xbd2cc79f	-0.04218256
119	0x3d086036	0.03329488
120	0x3d9d3924	0.07676914
121	0xbc99cfcb	-0.018775841
122	0xbd709638	-0.05873701
123	0xbd3d085f	-0.04615056
124	0xbd47a37b	-0.04873989
125	0xbcb3d968	-0.021954253
126	0x3cd67148	0.026177064
127	0x3d837382	0.06418516
128	0x3c8368a9	0.016041117
129	0xbd5df8c6	-0.054192327
130	0xbc753772	-0.0149668325
131	0xbd1ed366	-0.038775824
132	0xbca5280a	-0.020160694
133	0x3d76ba0c	0.060236022
134	0x39f025f9	0.0004580466
135	0x3cb762ff	0.022386072
136	0x3d2ec078	0.04266402
137	0xbcaa96c1	-0.020823838
138	0xbcf494f2	-0.029856179
139	0x3d660d42	0.056164987
140	0x3d3eb24d	0.04655676
141	0x3cda92e8	0.026681378
142	0xbc249f01	-0.010047675
143	0x3d156de9	0.03648177
144	0x3ab91b92	0.0014122596
145	0x3e41508a	0.1887838
146	0xbd86d14a	-0.065828875
147	0x3d48c28d	0.049013663
148	0x3e6e0be7	0.23246728
149	0xbd8e4d4c	-0.06948337
150	0x3d123d83	0.035703193
151	0x3e4a7892	0.19772556
152	0xbd8c9dd7	-0.06866043
153	0xbbf86b3d	-0.007581143
154	0x3db4bed5	0.08825461
155	0xbd080319	-0.03320608
156	0xbcbd3940	-0.023098588
157	0xbca4bd41	-0.020109775
158	0x3d14ec24	0.036358014
159	0xbc745d07	-0.014914758
160	0xbd799d8a	-0.060941257
161	0x3ccbd1c8	0.024880305
162	0xbd5337bb	-0.05156682
163	0xbda39750	-0.07987845
164	0xbb9d93ea	-0.0048088925
165	0x3ce938e3	0.028469509
166	0x3ca25c7f	0.019819496
167	0x3d11dd64	0.035611525
168	0xbba8aa2a	-0.0051472383
169	0xbce7aa08	-0.02827932
170	0xbc4f747e	-0.012662051
171	0x3da81ad6	0.082082435
172	0xbc5053fd	-0.012715337
173	0x3d9a2c3d	0.07527969
174	0x3cd73875	0.026272038
175	0x3d9884b0	0.07447183
176	0xbd83a494	-0.06427875
177	0xbbea1e57	-0.00714473
178	0xbd7ed37a	-0.0622134
179	0x3c8c4fbf	0.01712787
180	0x3d596851	0.053078
181	0x3d328f1d	0.043593515
182	0x3d9b5f18	0.07586497
183	0xbc303db5	-0.0107569
184	0x3c391e52	0.011298733
185	0x3da05ab8	0.07829803
186	0x3d84c820	0.06483483
187	0x3bcd4c48	0.006265197
188	0x3d21a5fc	0.039464936
189	0x3da7ada1	0.08187414
190	0xbcd22ccc	-0.025656126
191	0xbc62cb53	-0.013842422
192	0xbd8c2cee	-0.06844507
193	0xbcba5ca5	-0.022749254
194	0xbd7281fe	-0.059206
195	0x3d7b8866	0.061409377
196	0xbd5b03a8	-0.053470284
197	0xbb207814	-0.0024485635
198	0x3d3eca3d	0.04657959
199	0xbcc201da	-0.023682524
200	0x3d3d5db5	0.046231944
201	0x3d9da5d2	0.07697643
202	0x3d955cf9	0.07293124
203	0x3da67228	0.08127242
204	0xbaa7928a	-0.0012784761
205	0x39b6fbd3	0.0003490137
206	0x3d552c20	0.052044034
207	0x3d2c3233	0.04204006
208	0xbd4e7b96	-0.05041083
209	0x3c1cf87a	0.009580726
210	0xbc21ef08	-0.00988365
211	0x3d955668	0.07291871
212	0xbd95531a	-0.07291241
213	0x3c7b888d	0.01535238
214	0x3d00917a	0.031388737
215	0x3c3f1a74	0.011664022
216	0xbd2763eb	-0.040866774
217	0xbdc01671	-0.0937928
218	0x3d89ab58	0.06722134
219	0xbbe56b58	-0.0070013218
220	0xbcd01736	-0.025401693
221	0x3bf05ca8	0.0073352642
222	0xbc766ca7	-0.015040553
223	0x3d90a332	0.07062377
224	0xbd5908e0	-0.05298698
225	0xbd60dcdd	-0.05489813
226	0xbd1def45	-0.038558263
227	0xbc692bd7	-0.014231644
228	0xbd1908fa	-0.037362076
229	0x3d5923fe	0.05301284
230	0xbd7fa5af	-0.062413868
231	0x3db25c63	0.087090276
232	0x3d357da7	0.044309285
233	0xbd8f83d4	-0.07007566
234	0x3ccf1324	0.025277682
235	0x3d9e8548	0.07740265
236	0x3d7d7f7a	0.06188915
237	0x3db5f443	0.0888448
238	0x3d8aaf34	0.067716986
239	0x3c9891bd	0.01862418
240	0xbac63a0e	-0.0015123503
241	0x3d4d5a6f	0.050135072
242	0xbd59a1ae	-0.053132705
243	0xbd53b1d7	-0.051683273
244	0x3d8a9b32	0.067678824
245	0x3da2a789	0.07942111
246	0x3d507a83	0.050898086
247	0x3be08f09	0.0068529886
248	0x3bfc0ec5	0.0076921904
249	0x3dcd1056	0.100128815
250	0x3db53ac6	0.08849101
251	0xbce87453	-0.02837578
252	0x3db89a94	0.090138584
253	0xbd5ca46f	-0.053867754
254	0x3c1aad07	0.009440667
255	0x3d9de170	0.077090144

state_cnn.1.0.bias f4 [32]
0	0x3da1bfb6	0.07897894
1	0x3dc81f83	0.097716354
2	0x3db01083	0.08596899
3	0xbd41552e	-0.047200374
4	0xbd0c48dc	-0.03424917
5	0x3d907a67	0.070545964
6	0x3ce1364f	0.027491717
7	0x3d98c29a	0.07458992
8	0xbd425eec	-0.047453806
9	0xbc479d81	-0.012183548
10	0x3c21e3c0	0.00988096
11	0xbd0446f2	-0.03229422
12	0xbd684c5a	-0.05671344
13	0xbdaafcc6	-0.08348994
14	0x3cd986ed	0.026553595
15	0x3cb9034a	0.022584576
16	0xbcfeb10c	-0.031090282
17	0xbd50859a	-0.050908662
18	0xbd869772	-0.06571855
19	0xba51c9fb	-0.0008002815
20	0xbd00f082	-0.031479366
21	0xbd3a9f8c	-0.045562312
22	0xbca90fb0	-0.020637363
23	0x3dc0ed93	0.09420314
24	0x3d807a89	0.06273372
25	0xbcc636f0	-0.024196118
26	0x3bcde631	0.0062835445
27	0x3d0b566a	0.034017958
28	0xbc9a126a	-0.018807609
29	0xbc2b4e3d	-0.010455665
30	0x3c381f9c	0.011238005
31	0xbc649ff4	-0.013954151

button_cnn.0.0.weight f4 [8, 1, 3, 3]
0	0x3e386b8e	0.18009779
1	0x3e595c73	0.21226673
2	0xbe8a2e76	-0.26988572
3	0x3e4e764f	0.20162319
4	0xbb3096bf	-0.002694532
5	0x3e987493	0.2977644
6	0x3da0149a	0.078164294
7	0xbe4ff821	-0.20309497
8	0x3dd7a491	0.105294354
9	0xbe264d94	-0.16240531
10	0x3e0c35be	0.13692376
11	0xbd0c72ea	-0.034289278
12	0x3d7a0b7e	0.061046116
13	0x3db1be81	0.08678914
14	0xbe3962b2	-0.18104056
15	0xbdf79d23	-0.12090518
16	0x3ce30493	0.027712142
17	0x3da43aa3	0.080189966
18	0x3d869a8d	0.06572447
19	0xbd0467a3	-0.0323254
20	0xbe1f9a9a	-0.1558632
21	0x3e867d64	0.2626754
22	0x3ea2276e	0.31670707
23	0x3df3c11c	0.11902067
24	0x3e33889c	0.17532581
25	0x3e30ddfb	0.17272179
26	0x3da6defb	0.08147999
27	0x3da22b53	0.0791842
28	0x3de6883d	0.11256454
29	0x3df78912	0.12086691
30	0xbe9ed6bc	-0.31023204
31	0x3e767812	0.2406924
32	0xbe5cd563	-0.21565776
33	0xbc356dc5	-0.011073534
34	0x3e4a138c	0.19734019
35	0x3df56309	0.1198178
36	0x3dc16943	0.09443905
37	0x3e94c8b1	0.29059365
38	0x3eb247d6	0.3482043
39	0xbe1b1954	-0.1514638
40	0xbeb7423d	-0.35792723
41	0x3d03a397	0.032138433
42	0xbe9ca72f	-0.305963
43	0x3d66e8a2	0.0563742
44	0xbdcab479	-0.09897704
45	0xbe515c2e	-0.2044532
46	0xbe43d51b	-0.19124262
47	0xbe618cc6	-0.22026357
48	0xbdb1276a	-0.08650096
49	0xbc64b653	-0.013959485
50	0xbe8a0333	-0.26955566
51	0x3e917f08	0.2841723
52	0xbe308e47	-0.17241774
53	0x3e87a14b	0.26490244
54	0xbd930574	-0.071787745
55	0x3c1cc1ff	0.009567737
56	0x3ea3c7be	0.3198833
57	0xbe9ec966	-0.3101303
58	0xbd7d59e6	-0.061853312
59	0xbe98fd27	-0.2988064
60	0x3ea358bc	0.31903636
61	0xbe7a523e	-0.24445435
62	0xbddda16c	-0.108218044
63	0x3e459662	0.19295648
64	0x3e9baf08	0.30406976
65	0xbe8a168a	-0.2697032
66	0x3ce03a42	0.02737153
67	0xbe6e9689	-0.23299612
68	0x3e502070	0.20324874
69	0xbda25f56	-0.0792834
70	0x3d8003c1	0.06250716
71	0xbe526db7	-0.20549665

button_cnn.0.0.bias f4 [8]
0	0xbdafc9b8	-0.08583397
1	0xbeb0921a	-0.34486467
2	0xbe2ee67d	-0.17080112
3	0xbe0e7b6b	-0.13914268
4	0x3e192bdc	0.14958137
5	0xbea72ff6	-0.3265378
6	0xbcee495e	-0.029087719
7	0xbe24bb4a	-0.1608707

button_cnn.1.0.weight f4 [16, 8, 3, 3]
0	0xbca7932b	-0.020455917
1	0xbd12c14e	-0.03582888
2	0xbceff2cb	-0.029290577
3	0xbdc86ba2	-0.09786154
4	0x3d1b0c44	0.037853494
5	0xbcad41e2	-0.02114958
6	0x3cdfeacb	0.027333638
7	0xbd218e7f	-0.039442535
8	0xbdc04d73	-0.09389772
9	0xbcb8a29c	-0.022538476
10	0xbdb426d2	-0.08796467
11	0x3ddd5ad6	0.10808341
12	0x3db47fb5	0.08813421
13	0x3cc92955	0.024555841
14	0x3babbd38	0.0052410625
15	0xbd5811da	-0.0527514
16	0x3cae9abe	0.021314021
17	0x3df90b55	0.121603645
18	0x3d452a55	0.048136074
19	0x3d3094cd	0.043110657
20	0xbda82498	-0.08210105
21	0x3da10695	0.078625835
22	0x3dd52184	0.10406783
23	0xb9e1ecda	-0.00043091812
24	0x3db7ebb1	0.089805014
25	0xbc725f5b	-0.014793242
26	0xbd162a35	-0.036661346
27	0xbc871fbb	-0.016494622
28	0x3debc76d	0.11512647
29	0x3cd88b08	0.026433483
30	0xbdd16e37	-0.102261
31	0xbd345d12	-0.04403407
32	0x3d919a6f	0.07109534
33	0xbdc20b78	-0.09474844
34	0x3da6f0b9	0.08151383
35	0x3c028122	0.007965358
36	0x3dcc16d5	0.09965292
37	0xbcfa5c27	-0.03056152
38	0x3c6dd8f1	0.014517055
39	0xbc8f7d05	-0.017515669
40	0x3d9e0a60	0.077168226
41	0xbd8418f3	-0.06450071
42	0x3ddcda3b	0.10783812
43	0x3d22f23e	0.0397818
44	0xbdad1c54	-0.08452669
45	0xbd108ddf	-0.03529155
46	0xbc84008b	-0.01611354
47	0xbd33dc8e	-0.04391151
48	0x3d814111	0.063112386
49	0xbde07461	-0.109596975
50	0x3cccaff8	0.024986252
51	0x3b30378e	0.0026888582
52	0xbdd1bd22	-0.10241152
53	0x3dca394d	0.098742105
54	0x3db07aae	0.08617149
55	0x3cffdb61	0.031232538
56	0x3d94a495	0.07257954
57	0x3d21514d	0.039384175
58	0x3da3f2cb	0.080052935
59	0x3c94dc48	0.018171445
60	0x3e039d61	0.12853004
61	0x3dedb83b	0.11607405
62	0xbdbfecd3	-0.093713425
63	0x3dc08422	0.09400202
64	0x3c4775f6	0.01217412
65	0x3dea4511	0.114389546
66	0x3cccb110	0.024986774
67	0xbcbfb747	-0.023402823
68	0xbd9f4bd6	-0.077781364
69	0xbdccb402	-0.09995271
70	0xbd7ce998	-0.06174621
71	0xbd1a5775	-0.03768106
72	0x3d2c80a5	0.042114872
73	0x3dc8fd36	0.09813921
74	0xbadffcb2	-0.0017088859
75	0x3bee3807	0.0072698626
76	0x3dec7826	0.11546354
77	0xbc467163	-0.012111994
78	0x3d06182f	0.032737907
79	0x3d5aae5b	0.053388935
80	0x3d27eb65	0.040995974
81	0xbda344f7	-0.079721384
82	0xbcfa204c	-0.030532978
83	0x3b7855f2	0.0037893024
84	0x3e056122	0.13025334
85	0xbdc36444	-0.095406085
86	0x3d9fb328	0.07797843
87	0xbdc6e881	-0.09712315
88	0x3c4f5de5	0.012656664
89	0x3c7f6af0	0.015589461
90	0xbdc837e4	-0.09776285
91	0x3df0e534	0.11762467
92	0x3d380a05	0.04493143
93	0xbd606a17	-0.054788675
94	0x3daf1517	0.085489444
95	0xbd54e2f4	-0.051974252
96	0x3e02c6dc	0.12771171
97	0xbd9dfd97	-0.07714384
98	0x3de8ca74	0.1136674
99	0x3d4932b7	0.04912063
100	0xbd7669f4	-0.06015964
101	0x3dbdefba	0.0927424
102	0x3c5da2cc	0.013527583
103	0xbd3ad072	-0.045608945
104	0xbda6c52f	-0.081430785
105	0xbdc0b0de	-0.09408735
106	0xbd44ac96	-0.048016153
107	0xbc7a2518	-0.015267633
108	0xbbc2a7f7	-0.005940433
109	0xbd38a124	-0.04507555
110	0xbdc62844	-0.09675649
111	0x3d50b809	0.05095676
112	0xbd054d6e	-0.032544546
113	0xbd91a307	-0.07111173
114	0x3daa8494	0.083260685
115	0xbd86458a	-0.06556232
116	0x3d848168	0.06469995
117	0x3d148d12	0.036267348
118	0x3dda9e14	0.10674682
119	0x3d96b1c1	0.073581226
120	0xbcb2d893	-0.021831786
121	0x3dc04bac	0.09389433
122	0x3d8d26e8	0.068921864
123	0x3d247e63	0.040159594
124	0x3d4dded1	0.050261322
125	0x3dc301cb	0.09521826
126	0x3dd95ced	0.10613427
127	0x3d6fe2e1	0.058565978
128	0x3d8a12fb	0.067419015
129	0x3dce41c2	0.10071136
130	0x3cd51661	0.026011648
131	0x3c15d6d3	0.009145456
132	0x3dd29f71	0.10284317
133	0xbcbc8977	-0.023014767
134	0xbd7c964e	-0.06166678
135	0x3e01418d	0.12622662
136	0xbd12fccc	-0.035885617
137	0x3d3a62fc	0.045504555
138	0xbda6b7fa	-0.081405595
139	0x3debcca0	0.115136385
140	0x3d8b7b7c	0.06810662
141	0xbd3ab271	-0.04558033
142	0x3dcff627	0.10154372
143	0xbd67159c	-0.056417093
144	0x3d8e53c5	0.069495715
145	0xbcb6e476	-0.022325736
146	0xbc3dfc90	-0.01159586
147	0xbddac6c4	-0.10682443
148	0xbd571218	-0.05250749
149	0x3b24a13b	0.0025120515
150	0x3c30cee8	0.010791518
151	0x3cd8e8a5	0.026478121
152	0xbc75bad6	-0.014998158
153	0x3d5072ca	0.05089072
154	0xbdc28aff	-0.09499168
155	0xbdccc056	-0.09997623
156	0xbd6c696a	-0.05771772
157	0xbdb51972	-0.08842744
158	0x3df2145f	0.11820292
159	0x3d4704d7	0.0485886
160	0xbbbd04a4	-0.0057683755
161	0x3dd1b517	0.10239618
162	0x3d10f8dc	0.03539358
163	0xbd17bf5f	-0.03704774
164	0xbcd7e1f4	-0.02635286
165	0x3daf841a	0.08570118
166	0xbcb3787c	-0.021908037
167	0x3d617b82	0.055049427
168	0x3d7edf19	0.06222448
169	0x3da5937d	0.08084772
170	0x3da46459	0.08026952
171	0x3d44be3b	0.04803298
172	0x3ccbe434	0.02488909
173	0x3c9d3bed	0.019193614
174	0x3d3cbb1e	0.046076886
175	0x3da4ab73	0.08040514
176	0xbd9e66bb	-0.07734438
177	0x3d70c1da	0.05877862
178	0x3d8664c3	0.065621875
179	0xbcdbdb3f	-0.026837943
180	0xbce434f2	-0.027857278
181	0x3a4cda81	0.0007814542
182	0xbd85c669	-0.06531984
183	0x3d373ddb	0.044736724
184	0x3d798f17	0.060927477
185	0xbd60ba38	-0.054865092
186	0xbdabe2da	-0.08392878
187	0xbd4d31f7	-0.05009648
188	0x3d43d7d3	0.047813248
189	0x3db6096a	0.08888514
190	0x3cba28d8	0.022724554
191	0x3ce2f970	0.027706832
192	0xbd2cca49	-0.0421851
193	0xbc4d840b	-0.0125436885
194	0xbd77ad56	-0.06046804
195	0x3d99a549	0.07502229
196	0x3d895d0a	0.06707199
197	0x3d12dbd2	0.03585417
198	0x3d5bd86b	0.05367319
199	0xbc96a8ee	-0.018391099
200	0x3db3b2d3	0.087743424
201	0xbd8f1d40	-0.06988001
202	0x3dd4337f	0.103613846
203	0xbb6c61f9	-0.0036069138
204	0x3d044cd8	0.032299846
205	0xbdbdc1a9	-0.09265453
206	0x3d8ea822	0.069656625
207	0x3de88e48	0.11355263
208	0xbddb8057	-0.10717838
209	0xbda9112c	-0.082552284
210	0x3c893cf0	0.01675269
211	0xbddc110a	-0.107454374
212	0xbcfc1775	-0.030772904
213	0xbdb95e40	-0.0905118
214	0x3cd59e5c	0.026076488
215	0xbd34b213	-0.044115137
216	0xbd708073	-0.05871625
217	0x3c7d380e	0.015455259
218	0x3d221a9d	0.03957616
219	0xbce3229e	-0.027726468
220	0xbd5721b5	-0.05252238
221	0xbdc1231f	-0.09430527
222	0x3d6b4868	0.0574421
223	0x3dca7db7	0.098872595
224	0x3e0490c0	0.12945843
225	0xbdc5e607	-0.09663015
226	0xbca9c384	-0.020723112
227	0x3d01f7f5	0.03173061
228	0xba9a65fc	-0.0011779661
229	0x3dd9b87c	0.10630891
230	0x3def7f2d	0.11694179
231	0x3d5680b4	0.052368835
232	0x3dc2418a	0.09485157
233	0x3df43609	0.11924369
234	0x3dc6398a	0.096789435
235	0x3ca9d163	0.020729726
236	0xbd9e081a	-0.07716389
237	0x3dec884e	0.115494356
238	0x3d8bf9b4	0.068347365
239	0xbdc7ad91	-0.09749902
240	0x3d80b79c	0.06285021
241	0xbae9df18	-0.0017842976
242	0xbdb536f7	-0.08848374
243	0x3d861b58	0.06548184
244	0x3d620c09	0.05518726
245	0xbda78f73	-0.08181658
246	0xbda2def7	-0.079526834
247	0x3c27d713	0.010244149
248	0xbdd5bd7a	-0.104365304
249	0x3ded650b	0.11591538
250	0xbdada7fd	-0.08479307
251	0x3cc5f7e8	0.024166062
252	0x3ace5a86	0.0015743531
253	0xbcb984ac	-0.02264627
254	0x3daeb045	0.085297145
255	0x3de15430	0.110023856

button_cnn.1.0.bias f4 [16]
0	0x3cd56713	0.026050126
1	0x3e05a2b3	0.13050346
2	0x3db3fbd5	0.087882675
3	0xbd9b7589	-0.075907774
4	0x3e03099e	0.12796637
5	0xbd36ecb8	-0.044659346
6	0x3de64dca	0.11245306
7	0xbb8baa1a	-0.004262221
8	0xbdaf211a	-0.085512355
9	0x3da63c08	0.08116919
10	0xbd867915	-0.06566063
11	0xbddbbeb4	-0.10729733
12	0xbc627f9c	-0.01382437
13	0x3c976ebb	0.018485418
14	0x3d4f969d	0.050680745
15	0x3da4b24b	0.08041819

fc.0.weight f4 [256, 240]
0	0xbc8e551a	-0.017374564
1	0x3cdc5b78	0.026899084
2	0xbd77d59c	-0.06050645
3	0xbd9e1095	-0.077180065
4	0x3a0f3f18	0.0005464419
5	0xbd980625	-0.07423047
6	0xbc07fba5	-0.008299743
7	0x3ca00016	0.019531291
8	0xbd19f743	-0.037589323
9	0x3d566414	0.052341536
10	0xbc223df4	-0.009902466
11	0x3d177a87	0.036982086
12	0x3c27a7a4	0.01023284
13	0xbca579c0	-0.020199656
14	0xbaa013b7	-0.0012212907
15	0xbca16128	-0.019699648
16	0xbd87e578	-0.066355646
17	0xbd0e6f4d	-0.034774113
18	0x3d02255f	0.03177392
19	0x3c40c96b	0.011766772
20	0xbd7fbfc1	-0.06243873
21	0xbd997a49	-0.07494027
22	0xbd6eb692	-0.05827958
23	0x3caf8f46	0.021430623
24	0x3d17c932	0.03705711
25	0xbc075507	-0.008260018
26	0xbda46331	-0.08026732
27	0x3c969e80	0.018386126
28	0x3d029052	0.031875916
29	0xbbeed3c5	-0.0072884285
30	0x3ca0635c	0.019578628
31	0xbce35230	-0.027749151
32	0xbd8c02a2	-0.0683644
33	0xbda615f7	-0.08109658
34	0xbc4e4bb9	-0.012591296
35	0xbd8bc925	-0.06825475
36	0x3d05d3ba	0.03267262
37	0xbb8b1e89	-0.0042455834
38	0xbc309517	-0.010777733
39	0xbd1e36a1	-0.038626317
40	0xbcd5944d	-0.026071692
41	0x3ce41f6a	0.02784701
42	0x3d411593	0.047139715
43	0x3d3971d6	0.045274578
44	0xbda36480	-0.07978153
45	0xbc784ecc	-0.015155505
46	0xbd8304dd	-0.06397412
47	0x3d1777aa	0.036979355
48	0x3c912053	0.017715609
49	0x3cce4795	0.025180617
50	0xbd137377	-0.035998788
51	0x3d4d383b	0.050102454
52	0x3d34f713	0.04418094
53	0x3d13d9dd	0.036096442
54	0xbd3be672	-0.045874067
55	0x3cb4634b	0.022020003
56	0xbc3cc38c	-0.011521231
57	0xbcd884e2	-0.026430551
58	0xbd7823bf	-0.060580965
59	0xbb9df13b	-0.0048200167
60	0xbc88d671	-0.016703816
61	0x3d19d96c	0.037560865
62	0x3d37ebac	0.04490249
63	0x3c025c85	0.007956629
64	0xbd9d643d	-0.076851346
65	0x3c674aba	0.014116937
66	0x3c011d48	0.007880516
67	0x3d518574	0.05115266
68	0x3ccc3034	0.024925329
69	0xbd9c4368	-0.07630044
70	0x3d2d565f	0.042318698
71	0x3d1d2619	0.03836641
72	0xbc7ee02b	-0.0155563755
73	0x3cef473c	0.029208772
74	0x3d2f5d7e	0.04281377
75	0x3cedd1fa	0.029030789
76	0x3d055a50	0.03255683
77	0x3bb0d512	0.0053964937
78	0x3c00c74a	0.007860014
79	0x3caca982	0.021076921
80	0xbd77d46f	-0.060505327
81	0x3d1daf1e	0.038497083
82	0xbccbcc31	-0.02487764
83	0x3d1b160d	0.037862826
84	0x3d428cb9	0.047497485
85	0x3beaffc7	0.0071716043
86	0x3cc70680	0.024295092
87	0xbd509efc	-0.05093287
88	0x3d17ad31	0.037030403
89	0x3b1ab642	0.002360717
90	0xbcf3e301	-0.02977133
91	0xbd1764f0	-0.036961496
92	0xbcbfe9ca	-0.023426909
93	0xbd203c4f	-0.039120015
94	0xbd729232	-0.059221454
95	0xbc9709b4	-0.018437244
96	0x3a6f1ab8	0.0009121108
97	0x3b65a1cb	0.0035039063
98	0xbd8e40a1	-0.06945921
99	0xbd5c7ffc	-0.053832993
100	0xbd8eb8c0	-0.06968832
101	0xbd3ebc51	-0.04656631
102	0xbd41f2ed	-0.047350813
103	0x3b87ef2d	0.004148385
104	0x3cb2e156	0.021835964
105	0xbc3d6a6a	-0.011561016
106	0x3c79b83a	0.015241677
107	0x3d070570	0.03296417
108	0x3cf4ba93	0.029874122
109	0xbd16185a	-0.036644317
110	0xbb7fa636	-0.0039008982
111	0xbd7bd37c	-0.061480984
112	0xbd595903	-0.053063404
113	0xbd72f8a1	-0.059319142
114	0x3d28cf4e	0.041213326
115	0x3d471913	0.048607897
116	0xba03e38c	-0.00050311605
117	0xbc3ca430	-0.011513755
118	0xbc391d50	-0.011298493
119	0xbbdc3533	-0.006720209
120	0xbda26e59	-0.079312034
121	0x3c8632fe	0.016381737
122	0x3d2122de	0.039339893
123	0xbc3bcd21	-0.011462481
124	0x3d421f83	0.047393333
125	0xbc8c87bc	-0.017154567
126	0xbbd5600f	-0.006511695
127	0xbd8b00f2	-0.0678729
128	0x3cdd521a	0.027016688
129	0x3c77e346	0.01512987
130	0xbd378693	-0.044806074
131	0xbca9182d	-0.02064141
132	0xbc00df88	-0.007865794
133	0x3b67e4e2	0.0035384228
134	0x3cd98280	0.026551485
135	0x3c1c3ff9	0.009536737
136	0xbd578dbf	-0.052625414
137	0xbd3c1bcf	-0.045924958
138	0xbc33e334	-0.010979462
139	0x3c36abf0	0.0111493915
140	0x3cc2fe72	0.02380297
141	0xbd2b953b	-0.041890364
142	0xbcf0fee6	-0.02941842
143	0x3cd199fe	0.025586125
144	0xbc454c83	-0.012042168
145	0xbd9aa063	-0.075501226
146	0xbd5f77e5	-0.0545577
147	0x3d334a30	0.043771923
148	0x397e2b7a	0.00024239524
149	0x3cbfd95b	0.023419073
150	0xbd6c83ce	-0.057742886
151	0xbcfc8bd6	-0.030828398
152	0x3c110f58	0.008853756
153	0xbcdbd229	-0.02683361
154	0x3bf065c4	0.00733635
155	0x3d3dad23	0.046307694
156	0xbb3ec9a1	-0.002911188
157	0xbc88c8c7	-0.0166973
158	0x3cf9b0af	0.030479757
159	0xbd93fe60	-0.072262526
160	0xbcce7e85	-0.025206814
161	0xbd406202	-0.046968468
162	0x3bd519d8	0.006503325
163	0x3c1e0b6f	0.009646281
164	0xbcfaf68d	-0.030635143
165	0x3cccaae7	0.024983836
166	0x3cc8bd3a	0.024504293
167	0xbcd01526	-0.02540071
168	0xbd166544	-0.03671767
169	0xbc656095	-0.014000078
170	0xbd787903	-0.06066228
171	0xbd4d6c1d	-0.050151933
172	0xbd22ae4c	-0.039717004
173	0xbd1fa679	-0.03897712
174	0x3d1d0c59	0.038341854
175	0xbcd8beeb	-0.026458224
176	0xbd6862bf	-0.056734797
177	0x3d28f591	0.041249815
178	0xbd8684d4	-0.06568304
179	0x3d0e5f69	0.03475896
180	0x3b2435ec	0.0025056554
181	0xbcf29f8a	-0.02961709
182	0x3bf74726	0.0075463234
183	0xbd06b648	-0.03288868
184	0xbcde965c	-0.027171306
185	0xbc9ba622	-0.019000117
186	0x3bade183	0.005306424
187	0x3ce3dc57	0.027815027
188	0x3c2af0b1	0.010433362
189	0x3c5c2a09	0.013437756
190	0xbd2c249a	-0.042027093
191	0xbaf82dbd	-0.001893453
192	0xbda3af8a	-0.07992466
193	0xbd2b7a94	-0.041864946
194	0xbd7cb621	-0.06169713
195	0xbd5b78a2	-0.05358184
196	0x3cb78d85	0.022406349
197	0x3b9a9ee8	0.00471865
198	0x3cfce908	0.030872837
199	0x3bbdbf85	0.005790653
200	0x3c3292c6	0.010899251
201	0x3d5c08e9	0.053719435
202	0xbc308bdc	-0.010775533
203	0xbc7ac7f6	-0.015306463
204	0x3bdcb923	0.006735937
205	0xbcf16a18	-0.029469535
206	0xbd3e5217	-0.046465006
207	0xbd3aecd7	-0.045636024
208	0xb6ff5e9d	-7.6106066e-06
209	0xbd26f655	-0.040762264
210	0x3c0ac564	0.008469913
211	0x3d525bc0	0.05135703
212	0xbd23e2b6	-0.04001113
213	0x3d073b6d	0.033015657
214	0x3d31cf2e	0.043410473
215	0x3d0cf9f5	0.034418065
216	0xbda56be6	-0.080772206
217	0x3cf604b6	0.030031543
218	0x3b41d668	0.002957726
219	0x3beb97a7	0.007189709
220	0x3ce0007f	0.027343987
221	0xbcbf19a6	-0.02332766
222	0xbb668e61	-0.003518008
223	0xbd158cfb	-0.036511403
224	0xbd5b825b	-0.053591114
225	0xbcabf795	-0.02099208
226	0xba2615c3	-0.000633564
227	0x3b338172	0.0027390388
228	0xbcbc4b27	-0.022985054
229	0xbd8cc09d	-0.068726756
230	0x3ce86da4	0.028372593
231	0xbd99cd1c	-0.07509825
232	0x3c9d39b2	0.01919255
233	0xbd6ca6da	-0.05777631
234	0xbc499df9	-0.01230573
235	0xbd97faf5	-0.07420913
236	0xbc526ddd	-0.012843576
237	0x3c95437b	0.018220654
238	0xbc9fc172	-0.019501422
239	0xbcdcfb3b	-0.026975265
240	0xbd72daab	-0.05929057
241	0x3cc310dc	0.02381175
242	0x3cd86cff	0.02641916
243	0xbd58df5e	-0.052947395
244	0x3cba417a	0.0227363
245	0x3a998e82	0.0011715444
246	0xbce358a5	-0.02775223
247	0xbc92d646	-0.01792444
248	0x3cb263fe	0.021776196
249	0xbc6635d5	-0.0140509205
250	0xbc64c6ac	-0.013963383
251	0xbd64d16e	-0.05586379
252	0xbcaa9c33	-0.020826435
253	0xbd5825b1	-0.05277032
254	0xbc0e0595	-0.008668323
255	0xbd1413f2	-0.036151834

fc.0.bias f4 [256]
0	0xbcf6e947	-0.030140532
1	0xbb5578ed	-0.0032573298
2	0xbd8eed7f	-0.069788925
3	0x3c3a03c1	0.011353434
4	0xbd675237	-0.05647489
5	0x3d00528a	0.031328715
6	0xbc88d843	-0.016704684
7	0x3d34df7a	0.044158436
8	0xbd4a0c6d	-0.049328256
9	0xbc6c04e9	-0.014405468
10	0x3d83d733	0.0643753
11	0x3ab20d7e	0.0013584343
12	0x3b883698	0.0041568987
13	0xbd3ad293	-0.045610975
14	0xba88e75d	-0.0010444928
15	0x3d81610e	0.0631734
16	0x3da43a67	0.08018952
17	0x3cb6822e	0.022278871
18	0x3cf65d76	0.030073863
19	0xbbfa19a7	-0.0076324525
20	0x3d5373b6	0.051624022
21	0x3c759c11	0.014990822
22	0xbd0d03db	-0.034427505
23	0x3b809624	0.003924148
24	0xbd294dd6	-0.041333996
25	0xbb764995	-0.003758048
26	0xbd5c605a	-0.053802826
27	0xbcb1298a	-0.021626253
28	0xbd604096	-0.054749094
29	0x3d2c0bff	0.042003628
30	0xbd2933ed	-0.041309286
31	0x3d75d22d	0.060014892
32	0x3b88afb4	0.004171336
33	0xbd636c88	-0.055523425
34	0x3d70bc46	0.0587733
35	0x3d4a635e	0.04941117
36	0x3c08fc14	0.008360881
37	0x3a3ca2af	0.00071958726
38	0x3a7063fc	0.0009170172
39	0x3db8f1cf	0.09030496
40	0x3d148b72	0.036265798
41	0xbd70a3c2	-0.05874992
42	0x3d41698b	0.047219794
43	0x3d6bef83	0.057601463
44	0x3d6aafbe	0.057296507
45	0xbd6ff08d	-0.058579016
46	0x3d3e6c00	0.046489716
47	0xbd4c5c09	-0.04989246
48	0x3db0aee5	0.086271085
49	0x3d2eff34	0.04272385
50	0x3d581021	0.052749757
51	0x3ce4bb4a	0.027921338
52	0x3d51fe21	0.051267747
53	0xbc63ef2a	-0.013912002
54	0x3b788a80	0.003792435
55	0xbd33a51d	-0.043858636
56	0xbd1e7e12	-0.03869445
57	0xbc2a2473	-0.010384667
58	0x3c2e8ce5	0.010653709
59	0x3b802033	0.0039100884
60	0xbc0fe89a	-0.008783484
61	0xbba3d2ea	-0.004999508
62	0x3d648138	0.055787295
63	0x3d84243d	0.064522244
64	0xbd7b3e9c	-0.061339006
65	0x3c8b0ecb	0.016974827
66	0xbccd3c09	-0.025053041
67	0x3c15d667	0.009145356
68	0xbd4289e4	-0.047494784
69	0xbcf687d4	-0.030094065
70	0xbab462a4	-0.0013762307
71	0x3d0e277f	0.034705635
72	0x3c97efc0	0.018546939
73	0x3b7fb1ab	0.003901581
74	0x3daf68f1	0.08564938
75	0x3cda827f	0.026673554
76	0x3cc9e64d	0.024645949
77	0x3d8bada0	0.06820226
78	0x3d5e86c3	0.054327738
79	0xbcc73567	-0.024317456
80	0x3d212572	0.03934235
81	0xbd543563	-0.051808726
82	0xbd02b528	-0.031911045
83	0xbd778634	-0.06043072
84	0x3c4c5bc6	0.012473052
85	0x3c23f658	0.010007463
86	0x3ca4c58a	0.020113725
87	0x3d64ffdc	0.05590807
88	0x3d20632a	0.03915707
89	0xbbd7376a	-0.006567885
90	0x3d27583a	0.040855624
91	0xbd55328a	-0.05205015
92	0x3c95e47a	0.018297423
93	0x3d95cda9	0.07314617
94	0xbbc9db5b	-0.0061601824
95	0xbd8e6a80	-0.06953907
96	0xbd49f64a	-0.049307145
97	0x3d846bcc	0.06465873
98	0xbd12b60a	-0.035818137
99	0xbd34fc86	-0.044186138
100	0x3d671d73	0.05642457
101	0x3c632a1a	0.013865018
102	0xbcb0a70d	-0.021564031
103	0x3d18d157	0.037309017
104	0xbd9a6027	-0.07537871
105	0x3d0fffcb	0.035156053
106	0x3bc49694	0.0059993956
107	0xbd2ea728	-0.04263988
108	0x3d968c41	0.0735097
109	0x3cb5d816	0.022197764
110	0x3ca38e36	0.019965272
111	0xbd368277	-0.044558015
112	0xbcc7c7a2	-0.024387185
113	0x3d127e77	0.035765138
114	0x3d234f1b	0.039870363
115	0x3cc3c2b9	0.023896562
116	0x3cb6c564	0.02231092
117	0xbce2add7	-0.027670784
118	0x3da5ae4e	0.080898866
119	0x3d3c15dc	0.045919284
120	0x3bd5e02f	0.006526969
121	0x3c4d9276	0.012547126
122	0x3d179f9e	0.037017457
123	0x3c2bd4ea	0.010487774
124	0x3c7eddd2	0.015555816
125	0xbc64bcb3	-0.013961005
126	0x3d82005e	0.06347726
127	0x3d3a716c	0.045518324
128	0xbce802fe	-0.02832174
129	0x3d3ab9f8	0.04558751
130	0xbc6c7cb9	-0.014434033
131	0xbd886e2f	-0.06661641
132	0xbd6dfcb3	-0.05810232
133	0xbd3aa27e	-0.04556512
134	0xbd5c4ff7	-0.053787198
135	0xbca9dd48	-0.020735398
136	0xbd567fae	-0.05236786
137	0x3d586a32	0.05283565
138	0x3c3b520c	0.011433136
139	0x3c9a7102	0.018852714
140	0xbd9ad711	-0.07560552
141	0xbd5569a1	-0.05210269
142	0x3d8ea6a7	0.0696538
143	0xbd82aecb	-0.06380995
144	0xbd3971d7	-0.04527458
145	0xbd5a5e9c	-0.053312883
146	0xbced2c46	-0.028951775
147	0x3d5a9378	0.053363293
148	0x3cb43c2b	0.022001347
149	0xbda9d840	-0.082931995
150	0x3d25d599	0.040486906
151	0x3da2d92f	0.07951581
152	0x3d599c10	0.05312735
153	0xbcac8133	-0.0210577
154	0xbd8655f0	-0.0655936
155	0x3d49882a	0.04920212
156	0x3d47129c	0.04860173
157	0xbcb66d90	-0.02226904
158	0x3bace529	0.0052763415
159	0x3cc4407c	0.02395653
160	0x3d2c59dc	0.042077884
161	0x3c00a7bd	0.007852492
162	0xbd51401b	-0.051086526
163	0xbcc14237	-0.023591144
164	0xbc15006f	-0.009094342
165	0xbc0537e2	-0.008130999
166	0xbc71629c	-0.014732983
167	0xbc26bff9	-0.010177606
168	0x3d87303a	0.06600995
169	0xbc02edc8	-0.007991262
170	0x3cbf96f9	0.023387419
171	0x3d955400	0.07291412
172	0x3d9c2059	0.07623357
173	0x3ce57616	0.02801041
174	0x3d91435d	0.07092927
175	0xbd1067ef	-0.03525537
176	0xbc61e471	-0.013787375
177	0xbd28dcfa	-0.041226365
178	0xbd26146e	-0.040546827
179	0x3b64184b	0.0034804519
180	0xbcd881ee	-0.026429143
181	0x3acf260b	0.0015804184
182	0xbd4f636e	-0.050631933
183	0xbd5b97b7	-0.053611483
184	0xbd34926a	-0.044084944
185	0x3cfc137f	0.030771015
186	0x3c9538f5	0.018215636
187	0xbd3c0a44	-0.045908228
188	0x3c8d5cb0	0.01725611
189	0xb747da1b	-1.1912106e-05
190	0xbd8d648a	-0.06903942
191	0xba72d34b	-0.00092630525
192	0x3c20b862	0.009809585
193	0x3d99770d	0.0749341
194	0x3d24ff19	0.040282343
195	0xbd781b68	-0.06057301
196	0xbd37f278	-0.04490897
197	0xbd3b6ee6	-0.045760058
198	0x3d3099e5	0.043115515
199	0xbcae58a1	-0.021282496
200	0x3d2f0034	0.042724803
201	0xbd64673c	-0.055762514
202	0x3cbfb2a5	0.023400614
203	0xbc541a4b	-0.012945722
204	0xbd7eda45	-0.062219877
205	0x3d07bfc7	0.033141878
206	0x3ce7ace6	0.028280687
207	0x3cc5262d	0.024066055
208	0x3d943962	0.072375074
209	0x3d8acb4b	0.06777056
210	0xbc3e69e3	-0.011621925
211	0x3ba9380d	0.0051641525
212	0xbcbacbb4	-0.022802211
213	0x3da2bd41	0.079462536
214	0x3c69273d	0.014230547
215	0x3d949022	0.07254054
216	0x3d3d9c29	0.046291504
217	0xbd8a2dc2	-0.06747009
218	0xbd6ef019	-0.058334444
219	0x3cf7e3fa	0.030260075
220	0x3ca9a17d	0.020706886
221	0x3d91e6f4	0.07124129
222	0xbd04f6b7	-0.032461848
223	0xbd39d0f2	-0.04536528
224	0x3cff5b83	0.031171566
225	0x3c95a912	0.018269096
226	0xba4dbbbc	-0.0007848104
227	0xbc2a95ce	-0.010411693
228	0xba662309	-0.00087790244
229	0x3d510183	0.051026832
230	0x3d8b4ff9	0.06802363
231	0xbd85cde0	-0.06533408
232	0xbca6ad49	-0.0203463
233	0x3afaf588	0.001914666
234	0xbd169fd8	-0.036773533
235	0xbce68f01	-0.028144361
236	0x3c2e48d0	0.010637477
237	0x3dab97a8	0.083785355
238	0x3d2e878c	0.042609736
239	0xbc90fbf6	-0.01769827
240	0xbc156edf	-0.009120672
241	0x3d077f71	0.033080522
242	0x3bc1cb1d	0.0059141056
243	0xbd02afbd	-0.03190588
244	0x3c9b32d6	0.018945139
245	0x3d014d16	0.031567656
246	0xbc933d4f	-0.01797357
247	0x3da54b9c	0.08071062
248	0x3d51ec8f	0.05125099
249	0x3b803c0f	0.0039134095
250	0x3d12c13f	0.035828825
251	0xbcd705ad	-0.026247824
252	0x3d35df20	0.04440224
253	0x3d2975ea	0.041372217
254	0xbbf6d13b	-0.0075322664
255	0xbd508dce	-0.050916485

fc.3.weight f4 [12, 256]
0	0xbd0aaecf	-0.033858117
1	0xbd1741fa	-0.036928155
2	0xbc57131d	-0.013127116
3	0xbc283171	-0.010265694
4	0xbc036e0c	-0.008021843
5	0x3c37131c	0.01117399
6	0x3beb7a4e	0.0071862107
7	0x3d41ca8e	0.04731231
8	0x3cedf5a8	0.029047802
9	0xbcefe587	-0.029284252
10	0x3c8d72e4	0.017266698
11	0x3d47a952	0.04874546
12	0xbd4e3ca4	-0.0503508
13	0x3d0009ca	0.031259336
14	0x3cadf68e	0.02123573
15	0x3d4ae63e	0.049535982
16	0x3d4f368e	0.050589137
17	0x3d1de608	0.038549453
18	0xbc0366fc	-0.008020159
19	0xbc24e13f	-0.0100634685
20	0x3d6ca2f1	0.05777258
21	0x3d5230f8	0.05131623
22	0xbc9e3234	-0.019311048
23	0xbc98e871	-0.018665524
24	0xbc4be05f	-0.012443631
25	0x3d276bd7	0.04087433
26	0x3d40ff15	0.047118265
27	0xbd7d52de	-0.061846606
28	0xbd7648da	-0.06012807
29	0x3cbe3387	0.02321793
30	0x3d24adef	0.04020494
31	0x3d2041cf	0.03912526
32	0x3d5e3911	0.05425364
33	0x3d28b9de	0.04119288
34	0x3c640e1e	0.013919381
35	0x3d39002c	0.04516618
36	0x3bed6a07	0.0072453055
37	0x3d7d6e80	0.06187296
38	0x3d0d92fe	0.03456401
39	0x3cb3f9f5	0.021969775
40	0x3d83c06e	0.064331874
41	0x3ce39cd4	0.027784742
42	0xbd367d5d	-0.04455315
43	0x3d26fba7	0.040767338
44	0x3cd86d8f	0.02641943
45	0xbd4b9165	-0.049699206
46	0x3d1791ba	0.03700421
47	0x3d5c790c	0.053826377
48	0x3d560d4d	0.05225878
49	0xbd314556	-0.043279015
50	0x3d00fa54	0.03148873
51	0x3d61a356	0.05508741
52	0xbd23627e	-0.03988885
53	0x3b3a31e1	0.0028411078
54	0x3d65e736	0.056128703
55	0x3d5a4b0e	0.053294234
56	0x3c78275c	0.015146103
57	0x3d1239e9	0.03569976
58	0x3d4072f5	0.04698463
59	0x3d5475df	0.051870223
60	0x3d271a31	0.040796462
61	0xbd2596ae	-0.040426902
62	0x3cb0d5a0	0.02158624
63	0xbb968534	-0.004593516
64	0x3d424430	0.04742831
65	0x3d38e4ec	0.045140192
66	0xbd394884	-0.045235172
67	0xbc7f5529	-0.015584269
68	0x3ccbe680	0.024890184
69	0xbcd23004	-0.025657661
70	0x3d41e1c3	0.047334444
71	0xbd07e469	-0.033176813
72	0x3d703a64	0.058649436
73	0x3cde3b68	0.027127936
74	0x3c8b59f1	0.01701066
75	0x3cffb2de	0.03121322
76	0x3d960b8f	0.073264234
77	0x3d76854c	0.060185716
78	0x3cf16c06	0.029470455
79	0x3d68b821	0.056816224
80	0x3d2e3f95	0.042541105
81	0x3b93d2a7	0.0045111957
82	0x3d1cbf0f	0.038268145
83	0xbc619fc8	-0.013771005
84	0x3c7dc7b0	0.015489504
85	0x3d5f0ab4	0.054453567
86	0x3b849d03	0.0040470376
87	0x3c80a71a	0.01570468
88	0x3d4543d9	0.048160408
89	0x3cb93b78	0.022611365
90	0x3d697cf5	0.057003934
91	0x3d1bab42	0.03800512
92	0xbd4378c1	-0.04772258
93	0x3d10dc7c	0.03536652
94	0x3ccbc886	0.02487589
95	0x3c056f6c	0.008144241
96	0xbc1ff480	-0.009762883
97	0x3cf8a06d	0.030349934
98	0x3d262190	0.04055935
99	0x3d094b9e	0.03351938
100	0xbcfd300a	-0.030906696
101	0xbd2ba1f6	-0.041902505
102	0x3d1d96cf	0.0384739
103	0xbcf8301e	-0.030296382
104	0xbd19a605	-0.037511844
105	0x3cd7f85a	0.02636354
106	0x3cdccc06	0.026952755
107	0xbcb53bab	-0.022123178
108	0x3cebc884	0.028782137
109	0x3a95e700	0.0011436641
110	0x3d5e0df5	0.05421253
111	0xbcff7c04	-0.031187065
112	0x3c9e3d7c	0.019316427
113	0xbc94f17c	-0.018181555
114	0x3d0e9912	0.034813948
115	0x3d1d2e49	0.03837422
116	0xbd2ad8de	-0.041710727
117	0x3c40222d	0.011726898
118	0x3d62c505	0.055363674
119	0x3d59efdf	0.053207275
120	0x3cdb0ea8	0.026740387
121	0x3bfdb313	0.0077422946
122	0xbc5ba153	-0.013405162
123	0x3d4cc693	0.049994063
124	0xbaff3f13	-0.0019473754
125	0xbd3465e4	-0.044042483
126	0x3d95593a	0.07292409
127	0x3ccfba41	0.025357367
128	0x3d25182a	0.040306248
129	0x3caae6a7	0.020861937
130	0xbd1db26d	-0.03850024
131	0xbcf681ee	-0.030091252
132	0x3cace72c	0.021106325
133	0xbc399367	-0.011326647
134	0x3d599a48	0.05312565
135	0x3c696639	0.014245563
136	0xbd4f8b66	-0.05067005
137	0x3cdd5cf9	0.027021872
138	0x3d3f991d	0.04677688
139	0x3a8ee664	0.0010902402
140	0xbc4e8481	-0.012604834
141	0x3d47b298	0.048754305
142	0x3cbacafb	0.022801867
143	0xbda215a9	-0.079142876
144	0xbd583554	-0.052785233
145	0xbceb7eea	-0.02874704
146	0x3d72ed50	0.05930835
147	0x3cc9e9ea	0.024647672
148	0xbc2b1d6f	-0.010444029
149	0xbd89efb2	-0.067351714
150	0xbc0b02cb	-0.008484553
151	0x3d72fe47	0.05932453
152	0x3d614bce	0.055003934
153	0x3d28f0ad	0.04124515
154	0x3d62b6c5	0.055350084
155	0x3c9628db	0.018330028
156	0x3d04e548	0.032445222
157	0xbc7bcc18	-0.015368484
158	0xbd0da789	-0.034583602
159	0x3b56866b	0.0032733928
160	0x3c96afb6	0.018394332
161	0x3d532264	0.05154647
162	0x3d57505f	0.052566882
163	0xbc2de9cc	-0.010614824
164	0x3c329bb7	0.010901383
165	0xbcbfb403	-0.023401266
166	0x3d43582a	0.0476915
167	0xbc3a879c	-0.011384871
168	0x3d3849ab	0.04499213
169	0x3cbdb75d	0.023158723
170	0x3ce8ee60	0.028433979
171	0x3d7209f5	0.059091527
172	0x3d2f35a4	0.042775765
173	0x3d2592bd	0.040423144
174	0x3d3f6c5c	0.0467342
175	0xbd51f146	-0.051255487
176	0xbcdd9b18	-0.027051494
177	0x3a2ebdc7	0.0006665852
178	0xbbc20308	-0.0059207715
179	0xbd23157c	-0.03981541
180	0xbd093a4d	-0.033502866
181	0xba3213d2	-0.00067931146
182	0x3d060e44	0.03272845
183	0xbcb128fb	-0.021625986
184	0x3d2a3a24	0.041559353
185	0x3d6cb878	0.05779311
186	0x3cba7cfb	0.022764673
187	0xbcaf6fa2	-0.021415535
188	0x3cb65c78	0.02226089
189	0xbaaddb10	-0.0013264138
190	0x3d0e1908	0.03469184
191	0x3d8d065c	0.068859786
192	0x3d2f6ee1	0.04283035
193	0x3cf4c85a	0.029880691
194	0x3d58ac16	0.05289849
195	0x3cfc1780	0.030772924
196	0xbd4a1a72	-0.049341626
197	0x3cd21af4	0.025647618
198	0x3d1f4f25	0.038893837
199	0x3cd48d84	0.025946386
200	0xbd4aba56	-0.04949411
201	0x3c126694	0.008935589
202	0x3d3f3d2a	0.04668919
203	0x3d45bd8b	0.048276465
204	0xbbec4923	-0.007210867
205	0x3cd52d80	0.026022673
206	0x3d18de1d	0.0373212
207	0x3c96659f	0.018359004
208	0xbc80bb38	-0.015714273
209	0x3cfb1a4b	0.030652186
210	0x3a969ce2	0.0011490847
211	0xbcd18a9d	-0.025578791
212	0xbc851d43	-0.016249305
213	0x3cfc0aa5	0.030766794
214	0x3cc69b84	0.024244078
215	0x3d88a1df	0.066714995
216	0x3d2476ff	0.040152546
217	0xbcf0705f	-0.029350458
218	0x3d4a4822	0.049385197
219	0x3d2a570c	0.04158692
220	0xb7bd70fb	-2.2583166e-05
221	0x3d39e20e	0.0453816
222	0x3d086fe0	0.033309817
223	0x3d5aceb9	0.053419802
224	0x3d19b750	0.037528336
225	0x3d168c8e	0.036755137
226	0x3d2f8abc	0.042856917
227	0x3b2d99e8	0.002648944
228	0x3d2ba0bb	0.04190133
229	0x3cb7ff23	0.022460526
230	0x3d04df5a	0.032439567
231	0xbca500b5	-0.020141939
232	0xbd3e8279	-0.046511147
233	0xbd468bce	-0.048473172
234	0x3c5c0d83	0.013430956
235	0x3d222aba	0.03959153
236	0xbd8b8c66	-0.06813888
237	0x3ce65b5c	0.028119735
238	0x3d006499	0.031345937
239	0x3cec4899	0.028843211
240	0x3c523938	0.012831025
241	0x3d20cdad	0.039258648
242	0x3ce381b6	0.027771812
243	0x3ce4a9c4	0.027912982
244	0x3b3fe3eb	0.0029280137
245	0x3cf39646	0.029734742
246	0xbd032294	-0.0320154
247	0x3d19d41c	0.0375558
248	0x3c10b234	0.008831549
249	0x3c9667b1	0.01835999
250	0x3be77d24	0.0070644785
251	0xbc737c3f	-0.014861166
252	0x3bbf402b	0.005836507
253	0x3cfbd645	0.03074182
254	0xbd059ab0	-0.032618225
255	0x3c90b439	0.017664062

fc.3.bias f4 [12]
0	0x3d368589	0.044560943
1	0x3d8e11cb	0.069369875
2	0xbb15ec1c	-0.0022876328
3	0x3c309c55	0.01077946
4	0x3c202f25	0.009776865
5	0xbd982473	-0.07428827
6	0x3cc19124	0.023628779
7	0xbd19669e	-0.03745138
8	0xbc94d747	-0.018169058
9	0xbc394dbe	-0.011310039
10	0xbce82105	-0.028336057
11	0xbce1ee7d	-0.02757954
