cnn_fighting_agent_starter/outputs/20251017_210056/model.pt (torch, 225947 bytes, 12 tensors)

state_cnn.0.weight f4 [32, 1, 3, 3]
000000 57 13 e5 3e 05 d8 c2 3e 30 35 1c bf 8e 1d 86 3e
       0.44741318 0.38055435 -0.6101866 0.26194423
000010 fc 22 88 bd 97 73 3e bf fc 28 b6 3d f4 d6 ab 3e
       -0.06647298 -0.74395126 0.08894536 0.33562434
000020 ce a5 1a bf c6 15 b5 bd 2c 93 0a 3e e4 ff af be
       -0.6040925 -0.088420436 0.13532704 -0.34374917
000030 19 ff 92 be 09 76 86 3e 3f 9f 58 3e 2c 59 b8 3e
       -0.2871025 0.2626193 0.21154498 0.36005533
000040 f8 fa dc 3e fb 05 9f bd ad 60 e5 3e 1c fa 4f be
       0.43160224 -0.077648126 0.4480032 -0.20310253
000050 c3 88 93 be 79 ec d2 3e 58 68 ca bd 81 4c 2c 3c
       -0.28815278 0.4119604 -0.09883183 0.010516287
000060 da 70 bf 3d 6c 7a df bd ae 51 e8 3d d3 d6 1b bf
       0.093476966 -0.10912022 0.11343704 -0.6087467
000070 eb 1b 83 be 7e af 9c 3d b5 90 81 3d 73 02 d6 be
       -0.25607237 0.0765066 0.06326429 -0.41798744
000080 fc 84 01 3f 41 6a 69 be 9f 99 c3 bc 9b f4 db bb
       0.50593543 -0.22794439 -0.023876963 -0.006712509
000090 4a 21 7c 3e 24 3e 91 be ea 67 a5 be 9a 9d 01 3e
       0.24622074 -0.28367722 -0.32305843 0.12657776
0000a0 89 66 10 be d3 d2 db bd 69 74 99 bd d8 c0 20 be
       -0.14101614 -0.10733571 -0.074929066 -0.15698564
0000b0 67 6e 0f 3e 5d a0 25 be 3c bf a1 3e 03 2e 32 be
       0.14006959 -0.16174455 0.31591213 -0.17400365
0000c0 8b 6d 78 3e 79 0a c7 3e 99 75 5f be 02 b1 bb be
       0.24260537 0.38875178 -0.21822204 -0.36658484
0000d0 a5 f6 0c be bb c8 f0 3e 96 fc 92 be d1 0c 27 be
       -0.13765962 0.47028145 -0.28708333 -0.16313483
0000e0 97 d5 68 bc 6a 9d 66 be 47 dc 54 3e 08 02 a6 be
       -0.01421108 -0.22520986 0.20787154 -0.32423425
0000f0 4e 42 0d be 79 57 83 be 5c 77 e6 3d 1d f0 a1 3e
       -0.13794824 -0.25652674 0.11253235 0.31628504
000100 da 21 83 be cc 5c 64 3d 02 d4 a0 be bf 4f 58 be
       -0.25611764 0.05575256 -0.3141175 -0.2112417
000110 d7 37 de 3d a2 bc f9 3d 2c 3f 15 3d 61 c6 9c bc
       0.10850494 0.12194182 0.0364372 -0.019137563
000120 45 6f e3 3e 0e 1b 1c 3e 8c 80 98 be 9d 9f af 3e
       0.4442083 0.15244696 -0.29785573 0.34301463
000130 31 4f 82 be 57 47 b1 bd 76 79 e8 3e bc 13 11 3d
       -0.25451043 -0.08656185 0.45405167 0.03541921
000140 98 ed a6 be 47 d0 be bc 80 49 fd bc e0 b2 98 3e
       -0.32603145 -0.023292674 -0.030918837 0.2982397
000150 0b 89 b0 be 39 0b d7 bd ec 26 eb 3e 71 f1 12 be
       -0.34479555 -0.105001874 0.45928133 -0.14349915
000160 9d 7e a7 3e 8f 0e 54 bd e1 e1 84 bc a9 68 99 be
       0.32713786 -0.051771697 -0.016220989 -0.29962662
000170 d7 ef 45 3d 81 b5 00 be 99 9c 83 3e f4 d7 79 3e
       0.048324432 -0.12569238 0.25705412 0.24398786
000180 21 91 27 be 01 21 3a bd 84 e3 1b be b8 60 71 3e
       -0.16363956 -0.04544163 -0.15223509 0.23572052
000190 c8 de 88 bd 30 90 44 bc ae 53 c9 3e 9e ee 92 3e
       -0.06683117 -0.011997268 0.39321655 0.28697675
0001a0 c1 0b 19 be 6d 5e 1e be f4 db 89 3e 27 30 60 be
       -0.1494589 -0.15465708 0.26925623 -0.21893369
0001b0 e7 21 c3 3d d0 47 b6 be 64 44 19 3e e3 8a b8 3c
       0.09527951 -0.35601664 0.14967495 0.022527164
0001c0 85 03 cb be b2 14 5e 3e c1 0f 94 be 88 3c 2e be
       -0.39651123 0.21687582 -0.2891827 -0.17015278
0001d0 58 56 12 be d1 b9 6f bd 71 75 70 bd 18 01 71 be
       -0.1429075 -0.058526818 -0.05870575 -0.23535573
0001e0 2e 8a 9e bc 77 d6 27 be f8 a2 b7 3d 4b 51 42 be
       -0.019352999 -0.16390406 0.08966631 -0.18976323
0001f0 79 0b cc 3d 0d 12 78 3b 2c f3 60 bd 2c 7c 59 be
       0.09963126 0.0037852556 -0.054919407 -0.21238774
000200 fa 65 98 be 42 54 d3 3c da 84 46 3e c2 04 6d bc
       -0.29765302 0.025797013 0.19386616 -0.014466466
000210 5f 42 6e be c1 1a 86 be 5a b2 44 3e b5 cc 69 3e
       -0.23267506 -0.26192287 0.1920866 0.22831996
000220 52 66 ae 3e 90 5a 8f 3e 21 08 89 be e4 b7 b9 bd
       0.3406244 0.2799878 -0.26764014 -0.090682775
000230 f6 1b 96 bd 37 f9 c9 be be e1 04 be a7 61 c8 3e
       -0.07329552 -0.39447948 -0.12976739 0.39137003
000240 70 39 b0 3e 7e 15 18 3e a9 16 b3 be 52 8c c7 3e
       0.3441882 0.14851949 -0.34978226 0.38974243
000250 6d 57 cc 3d ec 4a a4 be f4 90 be 3e b9 ab 93 bd
       0.09977613 -0.3208841 0.37219965 -0.07210488
000260 e0 79 5c be 3d ae 6d 3e 59 7b 31 be d6 07 9f 3c
       -0.21530867 0.23210998 -0.1733221 0.019412916
000270 83 86 76 bd 7b 30 9c be d2 f2 96 be a3 78 8e be
       -0.060186874 -0.30505738 -0.29482132 -0.27826414
000280 d3 65 2a 3b 86 61 db 3e 43 d1 9f be 7b c1 76 be
       0.0026000633 0.42847842 -0.31214342 -0.24097244
000290 73 cc 32 3e 6f e7 4f 3d 2b b5 44 3e 15 a6 65 3e
       0.17460804 0.05075782 0.19209735 0.22426637
0002a0 3a 12 33 bb 79 23 bd 3d 86 11 91 be 3e de cd 3e
       -0.0027324096 0.092352815 -0.28333682 0.4020862
0002b0 74 b3 b7 3e 62 ec 5f be 7b 21 fd 3e a5 ef c4 3e
       0.358791 -0.21867517 0.49439606 0.38464084
0002c0 41 2b bb be 64 75 df 3e ab 97 13 be f8 e2 ec be
       -0.36556438 0.4364425 -0.14413325 -0.46266913
0002d0 42 be 69 be a0 42 d4 be 8d eb d1 3d 60 e7 f2 3b
       -0.22826484 -0.4145708 0.10250006 0.007412836
0002e0 0d e3 c6 be 6f a7 b3 3e f2 65 1e 3e b3 db 53 bf
       -0.388451 0.3508868 0.15468577 -0.8275711
0002f0 df b9 8c be 6e b6 51 3d be ea 11 be 07 f7 bc 3e
       -0.27485558 0.05119937 -0.14249703 0.36907217
000300 52 81 8b bd fe 2b 30 be 82 e0 ab 3d 24 bd 90 be
       -0.06811775 -0.17204282 0.08392431 -0.28269303
000310 4a 87 7b bd ec e2 83 3e ba e0 35 3e bf c9 ec bd
       -0.06140832 0.25759065 0.17761508 -0.115619175
000320 79 2a fe be ad 6d b8 3e f4 01 4d be f2 9d 86 bf
       -0.4964178 0.36021176 -0.20020276 -1.0516951
000330 9b a2 5a bd eb b1 86 bf b4 64 5a bf ea ba 37 3d
       -0.05337773 -1.0523046 -0.8530991 0.04485599
000340 f2 3d bc 3d 80 51 a3 3e 02 97 2f be 19 af cc 3e
       0.09191503 0.31898117 -0.17147449 0.3997734
000350 f6 3b 22 be 3f 5b c8 be 30 8d 78 3e d4 ef f0 3e
       -0.15843186 -0.39132115 0.24272609 0.47057974
000360 86 6f 9b 3e c2 1f 88 bf 0d 2e 70 bd e7 6f 80 3e
       0.30358523 -1.0634692 -0.058637667 0.25085375
000370 ee 83 53 bf 17 99 c4 3e 89 81 93 be 60 34 63 bf
       -0.82623184 0.38398048 -0.28809765 -0.8875179
000380 71 87 d2 3d bd 65 16 3d f9 0b 02 3e d2 97 95 be
       0.1027974 0.03671812 0.1269988 -0.29217392
000390 4d 6e d6 3e 6b e1 fe 3d 87 a4 3f bf c3 d7 11 3f
       0.41881028 0.12445339 -0.74860424 0.5696985
0003a0 aa 22 c3 3e 13 57 5c bf 4b 1f a4 be ae 0e c8 3d
       0.38112384 -0.86070365 -0.32055125 0.09768425
0003b0 51 c2 c8 3e 06 cd ac be a5 38 3c 3d a3 7a a8 3e
       0.39210752 -0.3375017 0.045952458 0.32906064
0003c0 4e 3e 63 3e d8 80 60 be 2b 29 ea 3e 39 1c ac bd
       0.22191736 -0.2192415 0.45734534 -0.084038205
0003d0 28 62 1a 3d 84 d6 44 3c 55 6b f8 3d 6c eb 31 3e
       0.037691265 0.012014035 0.12129847 0.17374963
0003e0 f6 d1 75 3e 28 03 40 3d 19 ce c9 3e 4a 8a d8 3d
       0.24005875 0.04687801 0.39415053 0.105732515
0003f0 45 ec 13 be b7 61 88 3e 73 1a 82 3e 88 39 c9 be
       -0.14445598 0.2663705 0.25410804 -0.39301705

state_cnn.0.bias f4 [32]
000000 88 13 36 bd 5e 9f ee bc 37 8e 48 3e fe 97 cb 3d
       -0.04445222 -0.029128727 0.195855 0.099410996
000010 31 6d 93 3e 44 bd 27 be a1 36 00 bd 71 bf 34 be
       0.28794244 -0.16380793 -0.0313021 -0.17651154
000020 a2 32 28 3e 5e e7 fa 3d f8 6d a4 be 25 61 86 3d
       0.16425565 0.12251161 -0.3211515 0.065614976
000030 71 1f aa 3e 54 93 f1 3d f4 c1 96 be b8 44 08 3e
       0.33227113 0.11795679 -0.2944485 0.13307464
000040 b9 d9 aa 3e 40 9f 21 3e 74 32 13 3e f5 61 65 3e
       0.33369234 0.15783405 0.14374715 0.22400649
000050 af 38 b6 3e a4 77 b2 3e cd f5 93 3e 87 c6 50 be
       0.3559012 0.34856904 0.2889847 -0.20388232
000060 e9 75 0c 3e a2 0e b3 bd 4c e8 66 3e 06 3a bd bd
       0.13716854 -0.08743025 0.22549552 -0.09239583
000070 44 dd fe bc da fd cd 3d c3 b9 4a be a2 3e cd bd
       -0.031111367 0.10058184 -0.19797425 -0.10021712

state_cnn.2.weight f4 [64, 32, 3, 3]
000000 ae c1 c9 3e 8b b9 9f 3d 0a 6e 1b 3d 29 c6 cd 3e
       0.39405578 0.077990614 0.03794674 0.40190247
000010 17 37 ab 3d 78 76 8c 3c e4 79 f2 3e af d2 90 3d
       0.08360117 0.017146334 0.4735862 0.07071435
000020 19 e8 39 3d fc a9 41 3d c4 18 89 bd b1 8f 49 bc
       0.04538736 0.04728125 -0.06694177 -0.012302325
000030 2f 31 19 3d a4 20 27 be a4 d0 60 bd 8d f9 27 3d
       0.03740042 -0.16321045 -0.054886475 0.041009475
000040 43 55 46 be ed 24 97 bd cd 4b 36 3d 82 74 59 3d
       -0.19368462 -0.0738009 0.044505883 0.053089626
000050 f3 ec 90 3d 07 7e 4b 3d 7f d6 76 bb d6 e5 28 bc
       0.070764445 0.049680736 -0.003766447 -0.010308703
000060 72 cd ee 3c 7a 92 8f 3d 66 ba a4 3c fa 30 e0 be
       0.029150698 0.0701036 0.020108413 -0.43787366
000070 82 51 98 be 87 44 8d be 16 ee d1 be ea 11 9f be
       -0.29749686 -0.27591345 -0.41001958 -0.31068355
000080 37 66 9d be bb 86 ed be 4e c7 02 bf 69 c1 0f bf
       -0.30742046 -0.46391854 -0.51085365 -0.56154495
000090 23 73 e3 3c f7 58 1a 3d aa cf 60 bb c1 c4 d9 3b
       0.027764862 0.0376825 -0.0034303465 0.0066457693
0000a0 02 66 d4 bc f3 1d 52 bc 22 47 de 3c 03 42 13 bd
       -0.025927547 -0.012824523 0.027133528 -0.035951626
0000b0 9d 5b 6d 3d ce ff 0f bf 9a 33 1b bf 90 08 53 be
       0.057948697 -0.562497 -0.6062561 -0.20608735
0000c0 7b b6 c6 be 2a 01 1b bf 3b 70 99 be b8 8d cb be
       -0.38811097 -0.6054865 -0.29968438 -0.3975656
0000d0 24 25 0f bf 57 e5 8c be 2e d8 5e bd 60 69 9f 3c
       -0.5591605 -0.27518722 -0.054405384 0.019459426
0000e0 29 61 36 3c 1b 1b 26 bd 45 80 85 bc 98 83 dc bc
       0.011131563 -0.040553194 -0.016296515 -0.026918218
0000f0 18 92 d0 bc df f0 5c bd 99 50 bc bc 4f a7 0f bd
       -0.025460288 -0.05394065 -0.02298765 -0.035071667
000100 d9 74 ff bc be c9 db 3c 81 fc 0a 3d 2c f4 48 3b
       -0.031183647 0.026829597 0.033932213 0.0030663116
000110 ef 2a c4 3b 78 22 10 3c c9 67 3c 3d 3d 03 ce bb
       0.0059865634 0.0087972805 0.045997415 -0.006287007
000120 a1 31 e0 3d 1c 5c f3 3b a6 a6 66 3d ad 6c 45 3e
       0.10946966 0.007426752 0.056311272 0.19279738
000130 84 6b 61 3d 44 9f db 3c dc d8 43 3e ad e9 5a 3d
       0.055034176 0.026809342 0.19125694 0.053445507
000140 98 38 5f 3d 46 c5 1a bd 48 f4 9e 3d 51 bd 5b 3c
       0.05449733 -0.03778579 0.07761437 0.013411836
000150 8a 4e 8a bd d7 26 44 3a 11 f2 c7 ba 5d ef 90 bb
       -0.067532614 0.0007482594 -0.0015254637 -0.0044230656
000160 36 72 fe 3c b6 f2 3d 3d c5 9c 40 3d a9 35 60 3d
       0.03106032 0.046374045 0.047024507 0.054738674
000170 9f b6 09 3c f5 7a 49 3d c4 78 90 3b 47 0c 1a bc
       0.008405357 0.049189527 0.0044089276 -0.009402341
000180 84 3d 1d bd 53 ac ac bc 8d be ea 3c 9e e6 a2 3d
       -0.038388744 -0.021078264 0.028655315 0.07954143
000190 41 c9 25 bc 06 e2 bc 3a bc c7 05 3e fd cc 80 bc
       -0.010118783 0.0014410622 0.13064474 -0.015722746
0001a0 64 1f 81 bb 95 bc 16 3e 0f 20 e4 bc 4d b9 8c 3d
       -0.0039405096 0.14720376 -0.027847318 0.06871281
0001b0 02 03 73 3d 47 3f 98 bb 87 73 a6 ba 72 e3 38 bc
       0.05932904 -0.004646215 -0.0012699225 -0.011284696
0001c0 86 5d 01 3c d9 69 a8 bc eb 4e 08 3d da 85 d4 3c
       0.007895833 -0.020558285 0.033278387 0.025942732
0001d0 81 3b 7a 3d 2c 95 63 3d a9 7f 5d 3d 0a 41 16 bd
       0.061091904 0.055562183 0.054076824 -0.03668312
0001e0 59 ec f7 3a 84 ee 4b 3c 6c e0 86 3d 83 b2 cc 3d
       0.0018915042 0.012447003 0.06585774 0.09994986
0001f0 0b 9f 95 bc 8c 67 82 3d ea 00 99 3c a7 e7 44 bd
       -0.018264314 0.06367406 0.018677194 -0.048072483
000200 f6 12 24 bd ca 49 c7 3c 08 a6 3f 3c d7 18 92 3c
       -0.040057145 0.024327178 0.0116973 0.01783411
000210 d9 02 25 3d db 14 54 3d 0e 17 26 3a 9d 02 f3 3c
       0.04028592 0.0517777 0.0006335833 0.029664332
000220 ef 5a 8d bc ca 5f bf 3c ab 2a 2a bd 70 2a b5 bc
       -0.017255275 0.023361105 -0.041544598 -0.022114962
000230 bc 05 aa 3d d8 e9 94 bd 0d ce 2d bc 62 3f cb 3d
       0.08301875 -0.07271165 -0.010608208 0.09924199
000240 3d e1 11 3e 95 90 71 3d a0 d2 34 3d 77 a6 9d 3d
       0.14246078 0.058975775 0.04414618 0.07697766
000250 98 c6 d9 3c 09 9f f8 bb 4f 4f 1c 3e 18 40 89 bc
       0.026583955 -0.007587318 0.15264629 -0.016754195
000260 3d 22 65 3d 55 8a 0b 3d 09 17 28 bd 4e 8a 5f 3d
       0.055940855 0.03406747 -0.041037593 0.054575257
000270 f6 9f 8d 3d a0 ce e1 3a 30 05 30 3d ac 7a 08 3b
       0.06915276 0.0017227717 0.042973697 0.0020825071
000280 5b 5a 05 3d 26 53 23 3d 94 f2 40 bb b5 8b 86 bc
       0.032556873 0.03987422 -0.0029441463 -0.01642404
000290 ae 59 94 3c 95 71 70 3d fb b3 4d 3d 44 dd a5 3d
       0.018109169 0.05870207 0.05022047 0.08098844
0002a0 d4 90 28 3c 91 f3 9c bc 76 8f 31 3d 82 d9 f6 3d
       0.010288436 -0.01915911 0.043349706 0.12053205
0002b0 18 08 97 3d 1e ca 3f 3d 86 bf 10 3e ad 7d 05 3c
       0.07374591 0.046823613 0.1413556 0.008147639
0002c0 86 b7 02 bd 7b fc 30 3e 01 97 3d 3d b6 20 d1 bc
       -0.031913303 0.17283814 0.046286587 -0.025528293
0002d0 22 05 29 3c cc 2f 5a bc 9c f1 a0 3d b8 1a 32 bd
       0.010316165 -0.01331706 0.07858583 -0.043482512
0002e0 3e 3e bb bd 5a 1b 24 3d bb bd 13 bd 8d 39 2a bd
       -0.09142731 0.040065147 -0.036069613 -0.04155879
0002f0 76 0f 05 3d e9 1d 69 bd 33 f1 8f 3d 69 d2 3a 3d
       0.032485448 -0.05691329 0.07028427 0.04561082
000300 c8 fd 34 bd 2d 99 70 3d da 56 1a 3d eb 31 4f bd
       -0.044187337 0.05873983 0.037680484 -0.050584715
000310 34 4a 21 bc 54 23 b6 3d ce 45 b0 be 5f a9 cd 3e
       -0.009844352 0.08893457 -0.34428257 0.40168282
000320 a5 21 da 3e 17 e8 cf 3f a1 a1 e7 3e b6 ae ed 3e
       0.42603794 1.6242703 0.452405 0.46422356
000330 46 3b d4 3f e0 76 e5 3e 24 fd f3 3e 5e c1 2b be
       1.6580589 0.44817257 0.47654068 -0.16772982
000340 24 08 20 bd fd 54 b3 3d 0c 4c e9 bd 85 da f1 bb
       -0.039070264 0.087564446 -0.11391458 -0.007380786
000350 46 a3 3a 3d 87 2f c0 bd 2c 8f 8f bd d7 1e 25 3e
       0.045565866 -0.09384065 -0.0700973 0.16125046
000360 0c f6 82 be 9a 3b 79 bd 06 bb 5e 3e 4f af 86 be
       -0.25578344 -0.060847856 0.21751031 -0.26305625
000370 70 12 a4 bd 7b 5e 84 3e 21 87 bc be e3 cc 0f bd
       -0.08011329 0.25853333 -0.36821845 -0.035107505
000380 fb af 58 3e aa f7 f5 3e bc 34 86 3b 19 b7 ff bc
       0.21160881 0.48040515 0.004095642 -0.031215237
000390 87 eb dc 3e 66 c2 cd 3d 95 b4 29 3d b4 38 da 3e
       0.43148443 0.10046844 0.041431982 0.42621386
0003a0 a0 7f d5 bd c0 3a 33 bd 23 26 aa bd b7 20 1c 3d
       -0.10424733 -0.0437572 -0.08308055 0.038117137
0003b0 bc 20 e2 3d 19 75 81 bd 3a 4a 8e bc b4 88 21 3d
       0.110414 -0.06321163 -0.017369378 0.03943701
0003c0 19 91 62 bd 89 b6 ba 3c 4b af 26 3c 98 52 9e 3d
       -0.055314157 0.022792118 0.010173629 0.07730597
0003d0 9c 30 5a 3d 99 e3 0f 3d d7 42 31 bc 77 d7 3b 3d
       0.053269014 0.035129163 -0.0108191585 0.04585978
0003e0 38 48 15 3d 55 40 36 bd c7 fb 94 3c d3 3a 8f 3d
       0.036445826 -0.044494946 0.018186463 0.06993642
0003f0 d8 fc 86 bc 4d f9 bb 3d e2 89 f2 3d b0 65 2c bd
       -0.016477987 0.0917841 0.11842705 -0.042089164

state_cnn.2.bias f4 [64]
000000 e6 2f f2 bc ad 0c 6d bc 53 70 31 3d 6f 9e 38 bc
       -0.029563855 -0.014468354 0.04332001 -0.011268242
000010 85 d3 e8 bc d0 6c 8a bc 8a b4 b4 3d f9 56 0a 3d
       -0.028421173 -0.016897589 0.088234976 0.03377435
000020 d5 3b 54 3d f9 f7 2f bd 0b 47 17 3e cd 3a 88 3d
       0.051814873 -0.042961095 0.14773194 0.0665184
000030 97 03 91 3d c7 9f 1e 3c 12 0f cc 39 50 97 0d 3c
       0.07080763 0.009681649 0.0003892114 0.008642033
000040 8c 3b a9 3d 2e c6 97 3d e4 16 87 3d ae 2d 63 3c
       0.08263311 0.07410847 0.06596163 0.013865871
000050 5a f2 77 bc 27 8f 5b bc ec 58 1f 3d fb 15 0e 3d
       -0.015133465 -0.013400829 0.038903162 0.03468893
000060 10 c5 3f bc 0f e0 a3 3c 5a 7f f1 3c 3d b0 b0 3d
       -0.011704698 0.0200043 0.029479671 0.08627365
000070 d9 23 21 3d 5c 6c 6b 3c ad cf 8e 3d 49 69 16 bd
       0.039340828 0.014369097 0.06973205 -0.0367215
000080 8f 7a 20 3c c9 fe 97 3c 8d fe 16 3e b5 bc 15 bd
       0.009794845 0.018554108 0.14745541 -0.03655692
000090 dc 02 f3 3c f8 af 28 3d 73 ec 96 3b 2c 84 81 bd
       0.02966445 0.041183442 0.0046058237 -0.06324038
0000a0 e7 04 94 3c ae c7 15 ba 1e 72 ae bc b2 31 04 bc
       0.018068744 -0.00057136535 -0.02129465 -0.008068489
0000b0 05 46 5d 3d e1 71 36 bd cc 80 c8 3b a4 e0 ab bc
       0.054021854 -0.044542197 0.0061188694 -0.02098114
0000c0 0d e6 be bc 66 38 5c 3c bd d8 1d bd f9 a4 58 bd
       -0.023303056 0.013441181 -0.038536776 -0.052891705
0000d0 12 3f a7 3d 65 ec 8b bc 36 68 4a bd e4 18 d6 3d
       0.081663266 -0.017080495 -0.04941579 0.10453966
0000e0 bb 16 3b 3d 95 30 d1 bc f6 67 8e 3d c9 ef 54 bd
       0.045675974 -0.025535861 0.06953423 -0.05198649
0000f0 3d 74 07 bd e7 07 d0 bc 5d dd b7 bb 39 cc e6 3c
       -0.033069838 -0.025394393 -0.0056111054 0.028173553

buttons_cnn.0.weight f4 [32, 1, 3, 3]
000000 a3 a6 10 be a4 36 6d 3d 10 0d 99 3e 2a 25 68 be
       -0.14126067 0.057913437 0.29892778 -0.22670427
000010 43 8c 85 3e 80 d1 f0 3d fe c5 22 3f ba 0b 3a 3e
       0.26083574 0.11758709 0.6358336 0.18168536
000020 4f df 6a be 8e 68 be 3d 60 b1 96 be 2a 6a 33 3e
       -0.22936748 0.09297286 -0.294322 0.17520967
000030 35 88 d8 3e 48 04 a6 3e 28 6a d0 3e bd db 2a 3f
       0.42291418 0.3242514 0.4070599 0.66741544
000040 6b c8 59 3e 2c 32 bf 3e 41 9a bb 3d 9c 45 bc 3d
       0.2126786 0.37342966 0.09160281 0.091929644
000050 ea e0 f0 be db ff 1a bf f3 18 69 bc cb 88 4c be
       -0.47046596 -0.60546654 -0.01422714 -0.19974057
000060 a1 46 f2 be 16 46 0f 3e c9 88 ee be f9 5c 19 3e
       -0.4731951 0.1399158 -0.46588734 0.14976873
000070 cc 9e 9e 3c 17 1b 4b 39 dc 7c 8d bd 5c 05 f5 3d
       0.01936283 0.0001936968 -0.06908581 0.11963913
000080 7f bc 42 be df fe 5e be d1 f3 97 be 51 62 90 bd
       -0.19017218 -0.21776913 -0.29678205 -0.07050002
000090 87 77 77 be b5 33 aa be 9c 2a 99 bd 6a a8 66 be
       -0.2416669 -0.33242574 -0.0747883 -0.22525182
0000a0 2c 17 04 bd ce aa 3c be a6 57 b2 3d 71 a1 01 be
       -0.03224866 -0.18424532 0.08708124 -0.12659241
0000b0 61 4e 83 bd d7 4d 01 bd 2c ec a7 3e 05 25 05 be
       -0.06411434 -0.031568374 0.32797372 -0.13002403
0000c0 0e c9 54 3e 45 a4 e5 3c 50 cc f5 3e d3 e2 b7 3e
       0.20779821 0.028032431 0.4800744 0.3591524
0000d0 fa 33 b6 3e cb ef e7 3e a8 06 2d 3d a3 4b 98 be
       0.3558653 0.45300135 0.042242676 -0.29745206
0000e0 5e 91 03 bf 8e cf e0 3e be 99 17 3d 5d 47 d0 be
       -0.5139369 0.43908352 0.037011854 -0.40679446
0000f0 8e 8f ce 3e b3 1d f9 ba 31 ba e2 be d6 aa 8b 3e
       0.403439 -0.0019006043 -0.44282678 0.27278775
000100 d4 b0 c2 bd 81 5f 76 3e 01 a0 ec be 24 04 b2 be
       -0.095063835 0.2405987 -0.46215823 -0.34768784
000110 40 0f cc be 12 c1 e8 be fc 6f 1b bf e9 67 74 3d
       -0.39855385 -0.454598 -0.6071775 0.05966941
000120 8f ea b2 3e 15 32 a5 bd 7a 50 f0 be cb 96 28 bf
       0.3494458 -0.08066193 -0.469364 -0.6585509
000130 f0 0c 53 be ae 6b fe be 33 6c af be 8b 3c df 3d
       -0.20610404 -0.49691528 -0.34262237 0.109002195
000140 a6 d3 b5 be f1 7e 7a bd 68 b4 52 3e a3 0f 55 be
       -0.35513037 -0.061156217 0.20576632 -0.20806746
000150 49 2b f4 bd 6d 20 fa bd b9 e3 f9 3d 9a 4f 24 3f
       -0.119223185 -0.12213216 0.12201638 0.6418396
000160 9c 58 bf 3e ab ad 95 3e 0b ea ff 3e a7 4c 19 be
       0.3737229 0.2923406 0.49983248 -0.14970647
000170 e4 89 81 bc a7 ff fa 3d fe 8e bc be 1f 08 03 bf
       -0.015812822 0.12255793 -0.36827844 -0.51184267
000180 24 c2 21 bf b6 1b 17 bd 7d 60 3d be 19 ac 7d be
       -0.6318686 -0.03689166 -0.18493839 -0.24772681
000190 5c c8 a9 3e a7 84 ad be 72 17 65 3e ac 0d 8f 3e
       0.33160675 -0.33890268 0.22372225 0.27940118
0001a0 56 34 c1 be d2 dc 0d bf 3e 45 7f bd 94 19 27 bf
       -0.37735242 -0.5541507 -0.062321894 -0.65273404
0001b0 ba f2 fb bc 20 b3 96 3e 8b 53 43 3d aa 45 10 3f
       -0.03075539 0.29433537 0.047687095 0.563563
0001c0 a7 7e 94 3e 4a f9 4a bd 79 59 c5 3e 10 97 39 bd
       0.29002878 -0.049554147 0.38544825 -0.04531008
0001d0 88 79 32 3e e8 6f 89 be e1 03 bd bd 81 f8 db 3d
       0.17429173 -0.2684319 -0.092292555 0.10740758
0001e0 41 cd a6 3e 60 39 29 bf 41 03 21 3e ee 3c f6 3e
       0.3257847 -0.6610317 0.15723898 0.4809336
0001f0 0e 1d 93 be 66 b6 7f be 29 a3 b6 3d d9 61 73 be
       -0.28733104 -0.24971923 0.08917839 -0.23767795
000200 f5 4f 98 be 8c 41 bb 3e c2 7f 1e 3e 7e 41 98 3e
       -0.29748502 0.36573446 0.15478423 0.29737467
000210 cb bb 00 3f ca 56 84 bb ad 91 d4 be 6c 7a c1 bd
       0.5028655 -0.0040386664 -0.41517392 -0.09447178
000220 89 df d7 bc 5d 21 9f be c3 78 c8 be 08 14 b5 3e
       -0.026351707 -0.31080142 -0.39154634 0.35366845
000230 6f 44 00 bf e5 df 4b 3f fd 00 be be 90 c1 ca be
       -0.5010442 0.7963851 -0.3711013 -0.396008
000240 ef 90 c7 3c 60 0e 28 bf db c7 5c 3e c6 58 bc be
       0.024361102 -0.65646935 0.21560614 -0.3678648
000250 ed 12 2d bf 65 8c 13 3f 1c 7e 2d bf 2a 7a 6c be
       -0.67607003 0.576361 -0.6777055 -0.23093477
000260 c2 87 eb 3e 33 7e d0 bd 3c 4d a5 3e af 64 b6 3e
       0.46002012 -0.101803206 0.32285488 0.3562369
000270 75 da 49 3e e6 30 b1 3d 67 c8 7f 3a 9a c9 d0 3e
       0.19712241 0.08651905 0.00097573403 0.4077881
000280 41 ba 90 3d cb 49 da bd 19 43 c0 be 0c 22 de 3e
       0.07066775 -0.10658606 -0.3755119 0.4338535
000290 39 a3 c0 be 68 9e 33 bf 96 4e 17 bd 78 d9 6c be
       -0.3762453 -0.70163584 -0.03694018 -0.23129833
0002a0 94 6d dc be b4 2d c2 3e 64 dc dc be a1 ac 0e 3c
       -0.4305235 0.37925494 -0.43136895 0.00870815
0002b0 20 e9 84 3e a8 78 9f 3e c8 59 e8 3e 37 0c dc 3c
       0.2595911 0.3114674 0.45380998 0.026861293
0002c0 bd d5 ca 3e 39 9b 80 be 6a 32 9e 3e 5e ad 4b be
       0.39616194 -0.25118425 0.30897838 -0.19890353
0002d0 f8 6e e2 3e e8 d4 38 38 e2 e6 60 be 97 a5 26 bf
       0.44225287 4.4067303e-05 -0.21963075 -0.6509642
0002e0 55 83 72 3e 04 ff e0 be cc 72 57 be 85 c8 17 bc
       0.23682912 -0.4394456 -0.21039885 -0.009264116
0002f0 50 6c 57 be cc 7c 29 bd 62 02 a1 be fe e2 e3 3e
       -0.21037412 -0.04137878 -0.3144713 0.4450912
000300 49 2a 6b be 69 53 a4 be da 64 84 3e 5a dc 09 3f
       -0.2296535 -0.32094887 0.25858194 0.53851855
000310 f6 2b 10 3e d0 eb b2 be d4 f1 9f be d0 ce c9 be
       0.1407927 -0.34945536 -0.31239188 -0.39415598
000320 1a 53 44 3e 98 b2 87 3e fb 0b 12 bf 65 21 93 bc
       0.19172326 0.26503444 -0.5704953 -0.01796026
000330 a1 b9 86 3e ad 59 59 be 06 45 1e 3e 95 13 97 3e
       0.263135 -0.21225615 0.15456018 0.29507127
000340 db 8b 83 be f1 10 a9 be 3b 1b d3 be 13 6b 8b be
       -0.2569264 -0.33020738 -0.41231713 -0.2723013
000350 d7 41 15 3d 96 26 af be 38 f2 27 3e 1f 7e 4b 3c
       0.036439743 -0.34209126 0.16400993 0.012420206
000360 03 dd 0b bd 22 60 19 3d e3 8a ab bd fd 06 80 3e
       -0.03414632 0.037445195 -0.083761 0.25005332
000370 8a cc 57 be a9 98 7c be ea d3 73 bd 85 28 c9 3d
       -0.21074119 -0.2466761 -0.05952827 0.098221816
000380 19 bd 75 bd 8c 00 00 bf cb 18 dd 3d 4c e9 bc be
       -0.05999479 -0.50000834 0.107957445 -0.3689674
000390 22 2a e8 bd a2 17 88 bc 61 53 dd bd 5d 16 f1 3e
       -0.11336161 -0.016612832 -0.10806919 0.47087374
0003a0 41 af 95 3e 67 2f 7d be fa 8b fa bd 66 20 83 3e
       0.2923527 -0.24725114 -0.1223373 0.25610656
0003b0 cd 8e 67 3b 57 47 11 bf 46 fd 13 bc 23 22 39 be
       0.0035332919 -0.5674948 -0.009032553 -0.18079428
0003c0 82 e2 0d 3f 56 dd 69 3e 45 77 99 be c9 3d 9c 3b
       0.5542375 0.22838339 -0.29973808 0.0047681076
0003d0 f4 64 a6 be c4 4f 9e be 3b 8d de 3e 3a 62 4b be
       -0.32498896 -0.3092023 0.43467125 -0.19861689
0003e0 1a dd 88 be 82 13 dc be 0c 6b 0b 3f a7 5c 12 3f
       -0.26731187 -0.42983633 0.54460216 0.57172626
0003f0 7d 2c b0 be 59 50 65 bf ae a1 58 3e ee 18 d2 be
       -0.34408942 -0.89575726 0.21155426 -0.41034645

buttons_cnn.0.bias f4 [32]
000000 f0 82 92 bb 7e c7 9a 3e 86 48 be 3e 8a 24 96 be
       -0.0044711754 0.30230325 0.37164706 -0.29324752
000010 9a e1 50 be 66 5e 8a bd 4a fc 31 bd ec f0 e7 3e
       -0.2039856 -0.06756286 -0.043453492 0.45300996
000020 70 da ae 3e 0a 8e 58 3d 89 a9 a1 bb 0f 07 14 3d
       0.3415103 0.052869834 -0.0049335402 0.036139544
000030 49 f6 12 3e 16 61 7a 3e f3 a8 b5 3e 54 54 64 3c
       0.14351763 0.24451098 0.3548046 0.013936121
000040 ae 17 8f ba 0e 3b cd 3d 58 d0 98 bb e7 e7 f3 bd
       -0.0010917091 0.100210294 -0.0046635084 -0.11909466
000050 eb 4d 50 3e 6c 78 af 3e 83 28 77 3e f4 16 ad 3e
       0.20342223 0.34271562 0.24136548 0.33806574
000060 8b 98 a5 3e 7a b0 4c bb 00 5f 98 bb 2e 4c 90 ba
       0.32342944 -0.0031233118 -0.0046499968 -0.0011009031
000070 f8 b1 f9 bb f5 59 88 bb a3 8c 5c be 3f 99 78 be
       -0.0076200925 -0.0041611143 -0.21538024 -0.24277209

buttons_cnn.2.weight f4 [64, 32, 3, 3]
000000 f3 2c ff bc 7c 5b 83 bc a6 df 7f bd c7 b0 d1 3c
       -0.031149363 -0.016034834 -0.062469147 0.02559699
000010 79 f8 b4 bc 86 46 04 3c 7e cd 79 bc a0 27 36 3d
       -0.022091137 0.008073455 -0.015246747 0.044471383
000020 70 cd ac 3b 96 05 33 3d 92 6a 04 3c 92 7c 61 bc
       0.0052735135 0.0437065 0.008082049 -0.01376261
000030 38 cb 66 bd 80 46 14 bd 13 8f b6 bc 27 79 34 3d
       -0.05634615 -0.036200047 -0.02228502 0.044060852
000040 7e aa 95 bc 7b 32 da 3c ae 16 1c 3d cc 47 8b 3c
       -0.018269774 0.0266354 0.038107567 0.017002009
000050 27 52 81 bd 22 e4 35 3c 81 c8 ca 3a 86 e8 19 bd
       -0.063144974 0.011101754 0.0015471132 -0.037575267
000060 42 20 80 bc e5 ad db 3c 82 bc 74 3c 7f 56 aa bc
       -0.015640382 0.026816318 0.014937522 -0.020793198
000070 79 fe 42 3b 76 50 e3 3c 10 0a 0b bd 3f 85 6a bd
       0.0029753728 0.027748328 -0.033945143 -0.05725598
000080 32 21 62 bd 98 f5 d8 3c e6 a5 da ba 03 20 30 3d
       -0.05520744 0.026484296 -0.0016681522 0.04299928
000090 32 d7 33 bd 35 69 05 bd d7 5b 2f 3c 48 f4 58 3d
       -0.043906398 -0.032571036 0.010703049 0.05296734
0000a0 50 3a 6d 3c ba 90 3a 3d c7 b8 c1 3c 26 7a 9c bc
       0.014479235 0.04554818 0.023647679 -0.019101214
0000b0 ed d2 0e 3d d9 e6 8c 3a 15 7c dc bc 81 a0 7f bd
       0.034869123 0.001074995 -0.026914636 -0.062408928
0000c0 72 74 35 3d 8c 73 3a bd 9c 33 5a 3c 3b b5 75 bd
       0.044300504 -0.04552035 0.013317969 -0.059987288
0000d0 5c fc 94 bc e7 87 c0 bc 2e ce e1 3b 97 a8 34 3d
       -0.01818674 -0.023502303 0.0068910336 0.044106092
0000e0 c4 cb 8e 3a c5 91 19 3c 7f f2 8b bc 5b 50 85 3b
       0.0010894467 0.009373133 -0.017083405 0.004068417
0000f0 ee 39 5b 3b 49 a4 49 3c c2 cb 7a bd 97 c0 3f bd
       0.0033451277 0.012307235 -0.061229475 -0.046814527
000100 ff 93 e5 3c 69 c6 31 3d 10 ac 00 bd f5 d7 55 3c
       0.028024672 0.04340211 -0.03141409 0.013051976
000110 05 4a 6f bc 6e a5 e2 3a a7 a2 85 bd c6 97 38 3d
       -0.01460505 0.0017291734 -0.06525164 0.045066617
000120 6a 84 3d bd 8c 78 a0 3b 16 7d c2 39 ae 99 52 bd
       -0.046268858 0.004897183 0.0003709576 -0.05141609
000130 b7 3d 8a bc 63 ff 4f bd ed 3a 3c 3d 2f cd 85 bd
       -0.016875131 -0.050780665 0.045954634 -0.06533276
000140 5e d0 81 bd 3e 50 7d bd bd e7 ca 3c 2b 05 26 3b
       -0.06338571 -0.061844103 0.024768705 0.002533267
000150 a8 f4 3f bd 9b fd c8 3c 4c 73 ab 3b c0 1f 85 bb
       -0.04686418 0.024534991 0.0052322503 -0.004062623
000160 8f 85 fc 3c f2 eb 9e 3c 96 5e 5f bd 72 e4 77 bd
       0.030825404 0.019399617 -0.054533564 -0.060520597
000170 8b 40 80 bd d8 7a 04 bc ac 64 04 bc 8e cd a5 3c
       -0.062623106 -0.008085929 -0.008080643 0.020239618
000180 67 01 8d bd 3f cb 3d bd 61 79 d2 bc 7e 8a 47 bd
       -0.06885033 -0.04633641 -0.025692644 -0.04871606
000190 f3 cc 0c bd 16 86 f0 bc 96 62 05 3d 1e 6e d9 bc
       -0.034375142 -0.029360812 0.032564722 -0.026541766
0001a0 fc df 1b 3d 25 25 24 3d 4d ff 2e 3c 83 86 ec bb
       0.038055405 0.040074486 0.010680986 -0.0072181835
0001b0 82 82 b7 bb c6 46 97 3c 75 82 24 bc cc 26 ff bb
       -0.0056002745 0.018466365 -0.010040869 -0.0077866074
0001c0 c2 28 1f bd c7 b9 25 ba ee cd e5 bc 17 13 36 3d
       -0.03885723 -0.00063219335 -0.028052296 0.0444518
0001d0 27 7b e1 bc fd 50 0f bd dc 89 8c bd fd fd 07 3d
       -0.027524544 -0.034989346 -0.06862232 0.033201206
0001e0 d9 7b 81 bc cf b2 e1 3c 5a 1d 85 bd c2 2d 8f bd
       -0.015806125 0.027551083 -0.06499739 -0.069911495
0001f0 9d 1c 57 bd 41 b0 0d 3d ce 2e c9 bc 01 c7 aa 3c
       -0.052517522 0.034591917 -0.024558451 0.020846846
000200 58 0c 05 bd c1 4b 2f bd c1 3c 45 bd 3e 14 2b 3d
       -0.032482475 -0.042796854 -0.048153643 0.04176735
000210 8e b4 6f bc ba f3 97 3c 48 b9 12 bd 22 0d 21 bd
       -0.01463045 0.018548835 -0.03582123 -0.039319165
000220 86 fd b3 3c 02 8f 56 bc 27 78 85 bd 76 a1 7a 3c
       0.021971475 -0.013095619 -0.06517058 0.015297284
000230 e9 3d 39 bd 60 86 cf bc 39 5f e6 3b 90 db 09 3d
       -0.045225058 -0.02533263 0.0070303944 0.033656657
000240 ac f5 53 bb ed ca 14 bb a9 a8 12 3d f4 45 5f bd
       -0.0032342477 -0.002270396 0.035805378 -0.054510072
000250 ad 02 27 3d 2a 96 dc 3c de 87 2f 3d 1f fd a2 3c
       0.040774036 0.026927073 0.042854182 0.019896088
000260 eb 66 ad bc 67 e8 5d 3c 67 81 a6 bb 6a b9 9d 3c
       -0.02116724 0.013544179 -0.005081344 0.019253451
000270 4b 24 65 3c 7f d3 d9 3c a9 d8 f4 bc 0a 61 41 bd
       0.013985704 0.026590107 -0.029888468 -0.047211684
000280 e4 00 a3 bc 86 13 91 bd 17 b9 50 bd 75 96 df bc
       -0.019897886 -0.07083802 -0.050957765 -0.027293423
000290 ad 89 2f 3c 19 51 ee bc bc 46 1f bd 28 3e 85 bc
       0.010713977 -0.029091405 -0.038885817 -0.01626499
0002a0 1d 36 21 3d 37 15 c3 ba cf 04 03 bd 9d 79 70 bd
       0.039358247 -0.0014883642 -0.031987008 -0.05870973
0002b0 36 8c 5f 3c 3a b4 83 bd 15 b4 18 3d 7c a7 8f bd
       0.013644269 -0.0643086 0.037281115 -0.07014367
0002c0 d5 93 70 bd 6c 21 57 3b 45 97 ce 3b 29 2b 68 bd
       -0.058734734 0.0032826317 0.006304654 -0.056681786
0002d0 a9 f5 70 ba 93 f4 56 bd dc 61 84 3b 28 9c 7d bd
       -0.00091918797 -0.052479338 0.004039986 -0.0619165
0002e0 77 4d 43 bd 99 d5 7b 3c 37 79 b0 3c 5d ad 91 bd
       -0.047681298 0.01537075 0.021542175 -0.071131445
0002f0 41 82 79 bd 9d 60 24 bc e5 d4 3b 3b 44 36 d8 3c
       -0.060915235 -0.0100328 0.002866083 0.026393063
000300 e8 23 09 bd bb 74 12 bd 31 40 a4 3c 01 aa 60 bd
       -0.03348151 -0.035755854 0.02005014 -0.05484963
000310 da 44 e2 3c 55 d3 b7 3b 4e 61 6c 3c dc 2a 74 bd
       0.027620722 0.0056099095 0.014427496 -0.059611186
000320 f1 28 10 bd 39 a6 05 bd 26 c4 80 bc 9c d5 82 bd
       -0.035195295 -0.032629225 -0.01571853 -0.06388399
000330 4c 0d c6 3b bb c5 b2 bc c2 43 d7 3c 70 6b d0 3c
       0.0060440656 -0.0218228 0.026277427 0.025441855
000340 10 ad 7c bd c3 56 90 bc 68 89 2d bd 74 b9 35 3d
       -0.061688483 -0.017619496 -0.04236737 0.044366315
000350 af 4b 3b 3c 3e 19 0d bd fc 7f 97 bc 41 dc 8e ba
       0.011431619 -0.0344479 -0.018493645 -0.0010899381
000360 ef 9d f0 bc 9e 0b 5d bd bd d6 2b 3d 8e f9 0c 3d
       -0.029372184 -0.053966157 0.041952837 0.03441768
000370 29 d1 0f 3d 20 99 67 3c ce 59 39 3d 2c f6 15 bc
       0.03511158 0.014135629 0.04525166 -0.00915293
000380 b4 bf d7 3c 81 c2 ef bc c1 36 70 3c 05 13 90 bd
       0.026336528 -0.029267551 0.014661492 -0.07034878
000390 77 4e 64 bd b5 42 eb 3c 10 32 b5 bc ab 2f 56 bd
       -0.055738892 0.028718332 -0.022118598 -0.052291553
0003a0 5d 3f c4 3c 32 4f 11 bd 3c ad f9 bc a6 4e d7 3c
       0.023955995 -0.035475917 -0.030478112 0.02628262
0003b0 ea 1a 91 b8 05 5e d7 bc 75 c2 00 3d 8b fe 77 bd
       -6.919152e-05 -0.02628995 0.03143545 -0.060545485
0003c0 97 bb b7 3c e2 11 f4 bc 66 cf 51 bd 95 b7 b5 bc
       0.022428317 -0.029793683 -0.05122318 -0.022182265
0003d0 bc 9a 2a 3c 4d 1b 08 bd cd bf 21 bd c3 d5 9f 3c
       0.010412868 -0.03322916 -0.039489556 0.01951111
0003e0 66 1b 1e 3d 75 8f 81 bd 21 c3 01 3d 0f 75 63 bc
       0.038600348 -0.063261904 0.03168023 -0.013882889
0003f0 91 c7 39 bd d3 5d 0c bd 7c 74 97 3c 6b 09 30 3d
       -0.045356337 -0.034269165 0.018488161 0.04297773

buttons_cnn.2.bias f4 [64]
000000 f0 9f e6 3b 56 dc 95 bb 48 22 d1 3b c7 14 d0 3c
       0.007038109 -0.004573385 0.0063822605 0.025400532
000010 4e 80 61 3c b6 d2 85 3c f8 29 62 3d 04 1f 45 bd
       0.0137635 0.016335826 0.055215806 -0.048125282
000020 85 7e 58 bd a3 eb 3a 3d 4a 21 2d 3d 9b cb 42 3d
       -0.052855033 0.045634877 0.042268075 0.047557455
000030 d0 82 5b bd a4 b3 f1 ba a7 d8 9a bb eb de 14 3c
       -0.05359155 -0.0018440378 -0.004725534 0.009086351
000040 62 8c c2 3c b4 e2 1c 3d 70 ea 37 3d 19 16 97 bc
       0.02374858 0.03830214 0.04490131 -0.018443154
000050 33 29 0f bc b3 9c 82 bd c1 58 6c bd 76 a2 6e bc
       -0.00873785 -0.06377544 -0.05770183 -0.014565101
000060 e9 96 ae bd de 8d bf 3c 34 6f 5c bd 72 7f 5b 3c
       -0.085248776 0.023383077 -0.05381699 0.013397085
000070 d6 ba d0 3b 55 ed ee bc 32 a9 2e bd 32 06 ad bc
       0.006369929 -0.029165903 -0.042641826 -0.021121118
000080 4b 54 17 3d bc 36 89 bc 51 37 30 bd b3 35 12 3d
       0.036945622 -0.016749732 -0.043021504 0.035695743
000090 96 6c 21 bd 69 95 d5 bc 63 55 2f bd e7 9c 85 3c
       -0.039410196 -0.02607222 -0.04280604 0.016310168
0000a0 c6 17 27 bd a6 8f 16 bc c1 56 d0 bc b3 bc 6d bd
       -0.040794156 -0.009189522 -0.025431992 -0.058041286
0000b0 ba 3f c4 3d b3 50 55 3d 51 de c4 bc ca db 0a 3c
       0.095824674 0.052078914 -0.02403179 0.008475253
0000c0 62 8e c7 3c 1d 0d 05 bd b6 2e 37 3d 98 b8 5f bd
       0.024359886 -0.03248321 0.04472228 -0.0546194
0000d0 33 aa a1 bc a6 a0 76 bd 22 e6 7d 3d 9f b5 1e bb
       -0.019734478 -0.0602118 0.06198705 -0.0024217141
0000e0 01 2c ad bb a0 86 06 bd fc 4c d6 3c 6c a9 1d 3b
       -0.0052847867 -0.032843232 0.026159756 0.0024057282
0000f0 bd 49 11 3b 4a 3e 50 bd 71 44 b7 3c cf 2e 54 bd
       0.0022169196 -0.050840653 0.022371503 -0.051802453

head.0.weight f4 [128, 128]
000000 97 d9 27 bd 37 f7 7b 3b 5e b3 a5 bd 7a c6 38 bd
       -0.040978994 0.0038446912 -0.08090852 -0.045111157
000010 43 1c 6f bb 6f 90 1c bb 94 89 b9 bd 69 18 c1 3c
       -0.003648535 -0.00238898 -0.09059444 0.02357121
000020 7d 23 0a 3d fc b7 b2 3d e8 93 cb bc b2 a6 ad bd
       0.03372525 0.087264985 -0.0248508 -0.0847906
000030 bd 3a 31 3d 0b 58 0d bd 83 1a b2 bd b4 09 9e 3d
       0.043268908 -0.034507792 -0.08696463 0.077166945
000040 28 33 60 bd df 43 40 3d e5 47 1f b9 1f 2f ab bd
       -0.054736286 0.046939727 -0.00015190204 -0.08358597
000050 86 f9 5d bd f4 48 ab bd d7 fb d1 3c fa 11 4e bd
       -0.054193042 -0.08363524 0.025632782 -0.050310113
000060 0e 81 4d bc 44 01 8d 3d 28 6f 0e 3d e6 e7 bc 3c
       -0.012542976 0.06885007 0.034773976 0.023059797
000070 3e e4 a3 3c 73 6f db 3c 22 eb 53 bd 9f c5 a7 bd
       0.020006295 0.026786542 -0.051737912 -0.0819199
000080 41 75 63 bd fe 4c 8c bc 79 bc 48 3d 95 8d 77 3c
       -0.055531744 -0.017126556 0.049007867 0.015109439
000090 15 93 8a bd 41 f8 72 3d 0e ef 8b 3c 3f f1 9b bd
       -0.06766335 0.059318785 0.017081764 -0.076143734
0000a0 89 91 36 3c 7e 9b 55 bd 2f 3c 27 bc eb 0e 14 bd
       0.011143097 -0.052150242 -0.01020722 -0.03614704
0000b0 d0 cf 0c bd e4 38 9e 3d 07 5b 78 3d 21 36 c3 bd
       -0.034377873 0.07725695 0.060633685 -0.09531809
0000c0 15 ad 5d bd 1a 6a a3 3d be d3 06 bd ad 3f 5c 3d
       -0.054120142 0.07979222 -0.032916777 0.053771663
0000d0 1f 15 4c 3d 03 50 3d 3d 0b 8f 94 3d a0 b1 ab bd
       0.04982483 0.046218883 0.07253846 -0.08383489
0000e0 5e d4 77 bc e5 cb af bd d8 f8 9c bd fa b8 5a bd
       -0.015126316 -0.08583812 -0.07664651 -0.053399064
0000f0 d0 19 49 bd 0f 66 a0 bd 79 7d df bb 3b e3 96 bd
       -0.049096882 -0.07831966 -0.0068203774 -0.073675595
000100 ce 50 0e bb 63 c7 11 bd 8a 29 64 bd 55 11 24 bd
       -0.0021715644 -0.03559054 -0.055703677 -0.04005559
000110 43 c9 91 bd 31 25 69 3d 2d 54 8c bd aa 1f 1f bc
       -0.07118466 0.056920234 -0.06851993 -0.009712139
000120 69 fe 69 3d cc d1 f1 3a cd 8c 74 3d ab 73 ea 3c
       0.05712739 0.0018449365 0.05970459 0.028619608
000130 7b 09 ac ba e8 92 02 bc 58 3e 76 bd d7 fe 1b 3d
       -0.0013125384 -0.0079695955 -0.06011805 0.03808483
000140 0d 52 fb bc 1f 76 a8 bd ba 09 0d 3d 44 4e 8f 3d
       -0.030678773 -0.08225655 0.034433104 0.0699735
000150 56 d5 a5 bc e8 6a a6 bc 30 9b 81 3d ba f0 38 3d
       -0.020243328 -0.020314649 0.06328428 0.04515145
000160 f6 4f 20 bd 77 ec 90 3d 8c 71 95 bd b1 19 28 3b
       -0.039138757 0.07076352 -0.07297048 0.002565008
000170 12 fd 40 3d 5f 50 01 bd ed 51 5e 3d b8 db bd bd
       0.047116347 -0.03157079 0.05427735 -0.09270424
000180 d8 d7 97 bc 3f 28 5e bd e8 cb a0 bc 28 a8 67 3b
       -0.01853554 -0.0542376 -0.01962848 0.0035348032
000190 dd fa 1a 3d 37 49 1e 3d 58 52 5f bd ef b5 35 3d
       0.037836898 0.038644042 -0.05452189 0.04436296
0001a0 82 a1 30 3d 23 ca 3f 3d e6 b5 b7 bb d7 c2 4e 3d
       0.043122776 0.046823632 -0.005606401 0.050478783
0001b0 9f 26 0a 3d 16 89 bb bd 6b 6f e8 3a 3d 97 97 3d
       0.03372824 -0.091570064 0.00177334 0.07401893
0001c0 79 5f a3 3d 00 d9 19 3d 90 6c b4 3c c5 40 b0 3d
       0.07977194 0.037560463 0.022024423 0.08606104
0001d0 3e 94 77 bd ce 4e 2e 3d b4 89 09 3c 64 ee 88 bc
       -0.06044411 0.042555623 0.008394647 -0.016715236
0001e0 35 58 8e bd b4 80 06 3d 62 6d 38 bd 85 c1 84 3d
       -0.06950418 0.032837585 -0.04502619 0.064822234
0001f0 13 4c 06 bc c8 54 a1 3d 5a 7f e6 3b ee 98 9f bc
       -0.008196848 0.07877499 0.0070342245 -0.019482102
000200 84 a1 9c bd bc 06 a4 bd bd 8a 0a 3c 69 4c 35 bd
       -0.07647994 -0.08009097 0.008455929 -0.044262324
000210 11 5c 82 bb 04 ec 81 3d 79 da 2a bd ec ef 38 3c
       -0.0039782603 0.063438445 -0.041712258 0.011287671
000220 77 56 9e 3c 1e 71 de 3c 4d 28 ce 3c 19 1e 95 bd
       0.019328339 0.027153548 0.025165701 -0.07281131
000230 e6 72 12 3d 10 a8 f1 3c fc 6d aa bd 59 f2 c8 3b
       0.035754107 0.029499084 -0.08321759 0.0061324057
000240 eb 94 6e bd ad 21 47 bd 81 8e a1 bd e6 7a 98 3d
       -0.058247488 -0.0486161 -0.078885086 0.07445316
000250 dd 1c b3 bd d0 62 68 3a 7e 43 76 bb c1 9a 03 3c
       -0.087457396 0.0008864822 -0.003757685 0.008032502
000260 4b 7f 97 3c b9 78 81 bd 02 62 94 bc ed 0a 4c 3c
       0.018493315 -0.06321854 -0.01811314 0.012453777
000270 b1 b4 64 3d a1 48 2b bd be 56 50 ba a4 a7 00 bd
       0.055836383 -0.04181731 -0.0007947496 -0.031409875
000280 69 4c a6 bd db 11 49 bd 6b cd a3 3d f5 76 20 3d
       -0.08120043 -0.049089294 0.07998165 0.039175946
000290 78 77 dc bc 55 b7 3c bc 89 5b 4e 3d 62 f5 aa 3d
       -0.026912436 -0.011518319 0.050380263 0.08347584
0002a0 ea 55 24 bd 05 04 78 bc 84 56 ff ba 7f 3b 8e bd
       -0.040120997 -0.015137677 -0.001948074 -0.06944942
0002b0 4c 47 24 3c b3 5d dd bc 79 29 ac bd ec da 3a bc
       0.010026764 -0.027022218 -0.08406348 -0.011404734
0002c0 13 d5 a5 3d 87 c7 06 3d dc 08 58 3d 9d c2 be 3c
       0.08097281 0.032905128 0.052742824 0.023286158
0002d0 0e 28 90 3d 7a 18 8e bb 9e 53 36 bc 41 21 0b 3d
       0.0703889 -0.004336414 -0.011128334 0.03396726
0002e0 36 9c 48 3d 54 69 e4 bc 90 6b 97 bd e7 fa 82 bd
       0.0489771 -0.027882256 -0.07393563 -0.06395512
0002f0 7c 94 8e 3b ee da 60 bc 73 7d 8c 3c 63 fd 78 bd
       0.004351197 -0.013724072 0.017149663 -0.060788523
000300 6e 3e 94 bd 7e a8 9d 3d b3 2d 82 3d 16 9f 8e 3d
       -0.0723847 0.07698153 0.06356373 0.06963937
000310 55 8e 90 ba 6c 12 75 3c 19 d3 e2 bc 5d 42 57 3d
       -0.0011028746 0.014958005 -0.02768855 0.052553523
000320 33 de 97 bc 50 d4 d1 3b 96 f4 32 bd da e4 3a bd
       -0.01853857 0.0064034835 -0.043690287 -0.045628406
000330 b3 8b 73 3d 8c 06 a4 bd e8 a0 07 bd ec e3 62 bd
       0.0594594 -0.08009061 -0.033112437 -0.055393144
000340 7e 08 61 bb 79 3e 94 3c 2b 8d 82 bc b7 e4 4e bd
       -0.0034337337 0.018096196 -0.015936455 -0.05051109
000350 b4 ea 89 3d 02 57 bd bc 37 ee 31 bc de 13 ef 3b
       0.06734219 -0.023112778 -0.0108600175 0.0072960695
000360 86 2c df bc 70 de 61 bc 1a 73 4a bd 4b fe 58 bd
       -0.02724291 -0.013785943 -0.049426176 -0.052976888
000370 b0 d1 fa 3a 80 f5 32 3d 8a 0f a4 bd df c0 1e bd
       0.0019135978 0.04369116 -0.08010776 -0.038758155
000380 ca b1 1a 3d 2c ff bc 3c 5d ce a6 3c f6 d1 a4 bd
       0.03776721 0.023070894 0.020362074 -0.08047859
000390 8d 84 9d 3d 20 65 90 bd 67 03 d2 3c 2a 3d 37 3d
       0.07691298 -0.07050538 0.025636388 0.044736065
0003a0 fd 80 b3 3d 96 1e 55 bd a7 7c cd 3b 31 ea 68 3d
       0.08764837 -0.052031122 0.0062709632 0.056863967
0003b0 74 cf ea bc e6 4b 10 bd 6c 38 61 bd 3c 7f 39 bd
       -0.028663374 -0.035228632 -0.05498545 -0.045287356
0003c0 95 e6 0f bd 10 3b ad bd 40 0e 9a 3c 77 7a f7 3c
       -0.03513201 -0.08458531 0.018805623 0.030209763
0003d0 30 b1 9e bd 7b ac 17 bd e5 0b 4c 39 37 97 90 3c
       -0.077486396 -0.037029725 0.00019459387 0.01765023
0003e0 48 07 11 3d a3 55 56 bd 55 93 17 bd fe bd 3d 3d
       0.035407335 -0.052327763 -0.03700574 0.04632377
0003f0 da 3a e1 3c 6e fe a4 bd 0d 73 88 bd d4 bc 70 bd
       0.027493883 -0.08056341 -0.06662569 -0.05877383

head.0.bias f4 [128]
000000 47 25 95 bd 0c 48 c3 3c f1 ed 30 bc e5 fd c6 bd
       -0.07282501 0.023838066 -0.010798917 -0.09716395
000010 d5 43 1d 3d 4d cf 47 3d 1b ae 7c bd b9 0f 00 3e
       0.038394768 0.04878168 -0.061689477 0.12505998
000020 4a 4e cd bd e5 9a 38 bd 4c 33 0a 3d ea e4 ce bb
       -0.10024698 -0.045069594 0.033740327 -0.00631391
000030 17 ff 65 3d cd 3e f9 bb da 2e 98 bd c2 fc 50 bd
       0.056151476 -0.0076063634 -0.07430811 -0.0510223
000040 3f 22 c7 3d 03 c5 93 bd 15 8f dc 3d 50 64 c0 3c
       0.09723329 -0.072153114 0.10769478 0.023485333
000050 0f e2 a6 bd cf 6b f2 3d 06 ea 7f bc 71 b0 80 3d
       -0.08148586 0.11836969 -0.01561976 0.062836535
000060 49 09 92 bd c2 0f 1b 3e 62 a6 f1 bc 9b f4 7e bd
       -0.07130677 0.1514273 -0.029498283 -0.062244993
000070 b5 b8 ad bd f6 20 df 3c 76 4b 29 3c 94 b9 29 3e
       -0.08482496 0.027237397 0.010332933 0.16574699
000080 2f d7 08 3e 4b 12 d3 3d 36 cf 16 3e 2e c7 a5 3d
       0.13363336 0.103062235 0.14727482 0.08094631
000090 47 f5 0b 3d af 1c 77 bd 94 05 ee bc 63 da 29 bd
       0.03416946 -0.06033009 -0.029055394 -0.041468035
0000a0 3e 11 b6 3d 3f 20 13 3d 57 1e da 3d 91 46 ad 3b
       0.088900074 0.035919424 0.10650318 0.005287953
0000b0 9f 60 9e bd 59 c7 b9 bc d4 ce bb bb 5b 48 91 bd
       -0.07733273 -0.022678064 -0.005731443 -0.07093879
0000c0 b0 96 fc 3d 30 a1 13 3d 7a 0f af bd c7 da c8 bc
       0.12333429 0.036042392 -0.08547874 -0.024518384
0000d0 d4 c1 13 bd 94 37 f3 3d 69 58 7d bd 74 71 56 3d
       -0.03607352 0.11875835 -0.061851893 0.05235429
0000e0 19 db 2b bd d6 f6 97 bc 83 c6 90 3d 06 52 81 3c
       -0.041956995 -0.018550318 0.07069113 0.015786182
0000f0 91 ac 02 bd ea b9 d7 3b 47 87 d1 3d 5f 7a 5f bd
       -0.031902853 0.006583442 0.1023088 -0.05456006
000100 cb e6 87 bd 71 ff eb 3b 6c 56 61 3d 1a 42 94 3b
       -0.06635817 0.007202082 0.05501406 0.0045244815
000110 8d f5 84 3c 7a 25 22 3d ff 5c 72 bd 6d 14 a1 bd
       0.016230369 0.03958652 -0.05917072 -0.07865224
000120 72 e0 76 3d 78 38 20 3c 53 17 05 bd e1 39 e9 bd
       0.06027264 0.009779088 -0.032492947 -0.11387993
000130 bf 3f 1a bd ef 0e 8d bd 64 58 49 3d 84 a9 72 bc
       -0.03765845 -0.06887614 0.04915656 -0.0148109235
000140 ec 42 b4 bc 52 bf e5 bd a0 55 0c 3d 26 ad 37 bc
       -0.022004567 -0.11218132 0.034261346 -0.011210715
000150 02 03 87 3d 50 20 2b 3d ed 1f 22 3e 83 59 a2 3d
       0.065923706 0.041778862 0.15832491 0.07927229
000160 33 02 f9 3c c9 2d 06 3e 47 e9 fd 3d 65 f2 99 3c
       0.030396556 0.13103403 0.1239801 0.01879234
000170 ce 89 ad 3c 73 16 0c bd 10 6f 31 bd 28 7a 37 3d
       0.021183874 -0.034201097 -0.043318808 0.04479423
000180 f2 b3 1a bd 56 70 4f 3d 76 34 78 3d 16 47 1e bd
       -0.037769265 0.05064424 0.060596906 -0.03864201
000190 c7 3a 2d 3c ca 1a b1 3c b9 7d 41 3d 50 2e 19 bd
       0.010573096 0.02161922 0.04723904 -0.037397683
0001a0 15 e8 04 be f6 a1 bd 3b 13 63 2c 3d 3f 68 29 3c
       -0.12979157 0.0057871295 0.042086672 0.010339796
0001b0 6e bd 64 bd 33 3e 98 bd 0e 2d 7c bd 96 33 05 3d
       -0.055844717 -0.074337386 -0.061566405 0.0325199
0001c0 df 32 44 bd 47 be 87 3d d4 09 a5 bd 0d e8 cb 3d
       -0.047900077 0.066280894 -0.08058515 0.099563695
0001d0 44 c3 b7 bc f1 26 93 3c f0 ab 94 3d c9 fc af bd
       -0.022431977 0.017962905 0.07259357 -0.08593137
0001e0 02 dd 81 3b 2c d3 9a bd 6f 41 9e 3d 39 01 3d bd
       0.0039631138 -0.07559809 0.07727324 -0.046143744
0001f0 ec e8 15 bd c9 b8 87 3c 1d cd b1 3c 27 4a 70 3d
       -0.036599085 0.016567605 0.021704251 0.058664467
