cnn_fighting_agent_starter/outputs/20251017_210056/model.pt (torch, 225947 bytes, 12 tensors)

state_cnn.0.weight f4 [32, 1, 3, 3]
00000000: 3e8e 6abe 1e13 5c3e ed4e 19bd 8226 a03e
00000010: 32e9 4c3e 658a 98bd ddee b73e 9f5a c93d
00000020: 7728 853e 6a6b 7abe d43e 033d cfb7 753d
00000030: 4322 39be 0809 a33e 2bab 47be 12ee aabe
00000040: 15ab 0dbe e840 da3e 48a8 0b3e f1d1 a63e
00000050: 29d2 4c3e 4504 7bbe d873 5a3e c683 babd
00000060: 99f6 60bd e88f 0c3e 2905 433e ac12 0a3c
00000070: 5838 e2bb bfff 3a3e 039b 65be 44ce 85be
00000080: 829b 163c 1f9c 37be 17bc 3ebe 369d 82be
00000090: 3af3 bf3e 3a8d 8f3e d642 8cbb 9386 2fbc
000000a0: 28c3 b83e 3376 88be 2307 a03e 68c4 6b3e
000000b0: 8620 93be 7190 f33e b597 683d b9cc 823e
000000c0: 9cda be3e b8c4 113e caf6 89bd 869b 253e
000000d0: e7ef 713e fb16 90be e67a 5dbe 608a 043d
000000e0: 06e3 a5be dc41 91bd e779 643e 4681 7dbe
000000f0: e5bc 95be cf2a 843e c8b1 54bc 9a13 20bc
00000100: 6d18 7bbd d4be 443e 6ce9 6abe 1891 0fbd
00000110: 29ff 28be c851 923c f1e2 273e dc95 86bc
00000120: 75af e63e 17ca b93e efd8 d7be 59ee ca3c
00000130: 879e cb39 e737 b0be fef9 84bd 2ab6 bbbc
00000140: b770 1dbf f1da 54be 2778 eabb 6b2a 6e3b
00000150: cdba c5be 9325 323e 80c9 873e fc2f 05bc
00000160: 4f21 2f3e 8e6c 163e 2c8a 883e a160 ac3e
00000170: 0d88 c0be ebf6 013f 1acd a03e 2503 dabc
00000180: 1c27 eaba 7a00 bcbd fd85 38bf 73a3 86be
00000190: 9abb dd3d 3dc4 80bd d7f0 26be b1a2 09be
000001a0: 79cd ab3d 65cb 8dbe e507 073d b254 be3e
000001b0: 8c9b 9c3e ae28 4c3e 40b2 593e c58f 523d
000001c0: 1a15 99be 6d81 b6be 0b20 523e a328 d8bc
000001d0: 0225 e5bb 83d8 743d c2a2 8abe f72b 0cbd
000001e0: 7e80 cb3d 9a1c 3a3e b841 7cbe 5856 ce3d
000001f0: 3026 7fbe ec5b 953e cd1b 9d3e 9001 b2bd
00000200: 2f63 a3bc 779f 8b3d 45ea 773e 1207 3fbd
00000210: f9f2 8d3c 578c af3e 064b 25be cea6 813e
00000220: b76f e63d 1111 31bf f4b9 03be 84b5 e53d
00000230: ab75 1dbf 7784 f53e 527a 113f 35f6 2ebf
00000240: 8798 43be 248b c3bd 2085 22be 605f 2a3e
00000250: 90c1 c2bd 56fc 07bf 9d0b b73e f463 0d3f
00000260: 7c8a 96bd 7984 d43e 4756 b03d 5ef3 a3bd
00000270: 6c76 2d3e 979c 7c3e cd4d f6bd 9472 ba3d
00000280: d9f1 fdbd 3d73 46be 865e a9be 024e 18bd
00000290: ef29 22bc eccf 563e d460 e9be 80cd 98bd
000002a0: 0a3c 25bd 99bb 493d e21a 833e c0a4 4d3e
000002b0: a037 363d e811 76bd e139 a7be 634b 183e
000002c0: 8910 ba3e 28bf 78be a138 44be 5d99 c03e
000002d0: b62e 4abe 9403 1c3e 0c45 0bbe 1ce7 a1be
000002e0: 9873 f33c ae45 57bd 3fac 90be 50fe 8b3e
000002f0: 5efa cdbd b158 0c3e 549b bd3d a573 2ebd
00000300: 61db a9bd c93e 7dbe cfb4 ddbe d78d ca3e
00000310: 5240 043e f885 c7be 9c68 b2bd 6347 f93d
00000320: 3463 8ebe 7dff 9cbe 2557 b53d 861c 3cbd
00000330: 2ad1 40be cee3 e63e eef5 653e 6ead d5be
00000340: 2332 ae3e f478 903e 7cb0 793d 5466 c5bd
00000350: 0b2d f9bd d403 56bd 5a02 123e d534 8ebe
00000360: ab9d 92bd 44f6 e73e 6fa3 55be 3a43 093f
00000370: f456 483e 4ea7 0fbf ee54 bc3e 6226 bf3d
00000380: 3348 32bf 373a 19be 2ff8 003d ce58 0cbe
00000390: f763 953e 794c d93e 548a cf3e 5c28 a5be
000003a0: 875e f6bd 2902 843e 11ca 96bd 14ff 723e
000003b0: 50a7 e93c 416b 95be 657f 863e 96fe 853e
000003c0: 63c0 1e3c 7fb0 8f3c 2325 803e 5aa0 6cbd
000003d0: 792c afbe dd8d f93d be07 253c cf6b 30bd
000003e0: 9b36 1f3d 5e2b edbd a870 e0be d574 8a3d
000003f0: 8837 e43e a6b4 113e 5da0 f6be cbbd bb3e
-0.22905824 0.21491668 -0.037428785 0.3127938 0.20010832 -0.07448272 0.35924426 0.09831738
0.26007435 -0.24455038 0.03204234 0.059989747 -0.18079476 0.31842828 -0.19498889 -0.33384758
-0.13834794 0.42627645 0.13638413 0.32582048 0.20002045 -0.24513347 0.21333253 -0.09107165
-0.054922674 0.13726771 0.19044937 0.008427303 -0.0069036894 0.18261622 -0.22422414 -0.2613393
0.009192349 -0.17930649 -0.18626438 -0.25510567 0.37490255 0.28037435 -0.0042804284 -0.010713237
0.36086392 -0.2665268 0.31255445 0.23024142 -0.2873575 0.47571138 0.056785304 0.25546816
0.3727616 0.14235198 -0.067365244 0.16172609 0.23626672 -0.28142533 -0.21628913 0.032358527
-0.32399768 -0.0709264 0.22312127 -0.24756345 -0.29245678 0.2581391 -0.0129818395 -0.009770298
-0.06130259 0.1921342 -0.22940606 -0.03505048 -0.16503586 0.017861262 0.16395165 -0.01642888
0.45055738 0.36286995 -0.42157695 0.024771856 0.0003883729 -0.3441765 -0.06492995 -0.022914011
-0.61500114 -0.20786645 -0.0071554366 0.00363412 -0.3861908 0.17397146 0.2652092 -0.008129116
0.1710255 0.14689848 0.26667917 0.33667472 -0.37603799 0.5076739 0.3140648 -0.026612828
-0.0017864439 -0.091797784 -0.7207945 -0.26296577 0.10826798 -0.062874295 -0.1630281 -0.13440968
0.083888 -0.2769424 0.032966513 0.37173992 0.30587423 0.19937393 0.21259403 0.05140664
-0.29898912 -0.3564562 0.20520036 -0.026386565 -0.006992937 0.059776794 -0.270773 -0.034221616
0.09936617 0.18174973 -0.24634445 0.100750625 -0.24916911 0.29171693 0.30685273 -0.08691704
-0.019944755 0.06817525 0.2421046 -0.046637602 0.017327772 0.34286758 -0.161419 0.25322574
0.11251777 -0.69166666 -0.12863904 0.11216262 -0.6150767 0.47952625 0.5682727 -0.6834443
-0.19101153 -0.09548023 -0.15871096 0.16637945 -0.09509575 -0.5311941 0.35751048 0.5523064
-0.073506325 0.4150732 0.08610206 -0.08005403 0.16939706 0.2466911 -0.12026558 0.09103885
-0.123996444 -0.19379897 -0.33079928 -0.03718377 -0.009897693 0.20977753 -0.45581686 -0.07461071
-0.04034046 0.049251173 0.25606447 0.20082378 0.044486642 -0.06007567 -0.32661346 0.14872508
0.3634074 -0.2429167 -0.19162227 0.37617007 -0.19744381 0.1523574 -0.13600558 -0.31621635
0.029718205 -0.052556686 -0.28256413 0.27342463 -0.100575194 0.13705708 0.09258142 -0.042590756
-0.08293796 -0.24730982 -0.43302009 0.3956134 0.12915161 -0.38969398 -0.08711359 0.12171819
-0.2781006 -0.30663672 0.08854512 -0.04592564 -0.1882979 0.45095676 0.22457096 -0.4173388
0.34022626 0.2821728 0.060959324 -0.09638658 -0.121667944 -0.052249745 0.1425871 -0.27774683
-0.07158979 0.45305073 -0.20863126 0.53618205 0.1956442 -0.5611466 0.36783546 0.09333493
-0.6964142 -0.14963613 0.031486686 -0.13705751 0.2917783 0.42441157 0.40535223 -0.32257354
-0.120297484 0.25782898 -0.0736276 0.23730117 0.028522164 -0.2918339 0.2626907 0.26170796
0.009689423 0.017540215 0.25028333 -0.05777011 -0.34213617 0.121852614 0.010072647 -0.043071564
0.038870435 -0.11580537 -0.4383595 0.06760565 0.44573617 0.14229068 -0.48169222 0.36668238

state_cnn.0.bias f4 [32]
00000000: aeb8 1e3e 83b2 853e b972 193e d8ea 4cbe
00000010: 12be 9cbe 9872 b93b 5760 a63e edc0 953e
00000020: 7dab 9e3d 8c43 b73d 4a41 45be 5590 8c3c
00000030: 880f a93e 437f 66be 9881 ab3e 19a5 93be
00000040: 3287 21be 76cd 973e 1969 953d 2e57 183e
00000050: db19 62be 3a92 243e 8612 65bd 9cff 8ebd
00000060: a39e 57be 2a7d 24be 44ee 41be 8e95 b33e
00000070: b49f 273e cc47 b63e e6a4 ee3d ac83 0cbe
0.15500137 0.26112756 0.1498517 -0.20011461 -0.30613762 0.0056594126 0.32495376 0.29248753
0.077475525 0.089484304 -0.19263187 0.017158667 0.33019662 -0.22509484 0.3349731 -0.28836897
-0.15774229 0.29648942 0.072954364 0.14877006 -0.22080176 0.16071406 -0.05592587 -0.06982347
-0.21056609 -0.16063371 -0.18938547 0.3507504 0.16369516 0.35601652 0.11652546 -0.13722104

state_cnn.2.weight f4 [64, 32, 3, 3]
00000000: c1d2 283d 089f fdbc c82b a2ba 9b5e 9b3b
00000010: 9c2c 003c 2d87 7e3d 83d1 433c 42dd 2b3d
00000020: f898 bb3c 7f77 163d 52b6 d23d 6de3 b53d
00000030: b50f a23d 0a1a c83d 27a5 b33d 7ff6 ea3c
00000040: 1a74 eb3d a817 3e3e 3275 673d 9da8 553d
00000050: 6c49 053d a50a 46bc 5125 603d 65ca bfbc
00000060: b91f 973c abdd 563d e940 7cbc 7fc2 103d
00000070: 205d 753c 5179 1ebd d541 24bd 0f19 f13b
00000080: e1ab 75bc 9fb8 643d 57e7 52bd 6fb0 46bc
00000090: 266e 2f3d 2c47 1e3e 9e7b b13d 157d 853c
000000a0: 9a57 b63d 424c 033e 487c afbc 448d af3d
000000b0: 7e0c 713d 6ad6 64bc 5ca1 073c 2174 9fbd
000000c0: 7a5c 1b3b 17da 373d 9bbf acbd 438f b9bd
000000d0: b41e 353d d7fa 1dbd 0e6d dd3c 8b99 213d
000000e0: 95dd dc3d 9a9c 753d 4259 4abb bf4e e93d
000000f0: c2a0 153c dff8 5e3c e117 843d 2c13 f23c
00000100: d3f2 9d3d 89d3 243d 4968 a33c 2c47 bdba
00000110: 6b54 9d3d a949 a33d 3581 ed3b a51c 713d
00000120: 537e 2bbe 387d cabd 0b6d f1bd 5720 d0bd
00000130: d3f7 c1bc f348 91bd 9b1c bebd 3906 c6bc
00000140: 6646 a7bd 785c 573d 7bb4 8b3d 94c2 0b3e
00000150: bd5e bb3d 7177 ac3d 6556 ea3d 03b4 6f3d
00000160: cba8 0d3d 6c95 1d3e 888d dbbd 1587 4d3d
00000170: 32a3 86bd 4d27 9abd bb83 493c 2409 2bbd
00000180: 8a0d 20be 2233 df3d ea28 c5bc f794 c83d
00000190: cad4 123e 570e 3d3e f122 fe3d 0a32 0f3e
000001a0: b5d3 363e 5395 923d 47a8 123e 85a1 633e
000001b0: e346 03bd b95d 513d 789c b0bc 4022 96bc
000001c0: ce02 23bd 7748 32bd dce5 083d f11e 123d
000001d0: 5824 7fbc fa11 8c3c 0cba e5bc 1152 10bc
000001e0: 08a3 3bbc 778c 3bbc 732e 483d deaf a7bc
000001f0: 481a 9f3c a303 f7bc 0251 dcbb 4708 d93b
00000200: 4f76 8bbc f951 803c a81d 0c3d b6c6 69bc
00000210: aba2 553d d984 c23c 3769 753d efd8 b5bd
00000220: 291d 453e feb5 363e da38 0bbe 85f1 6d3e
00000230: c04d 4f3e 6b45 76be 08c0 0e3e 663e 0e3e
00000240: 371f 17bd b0f8 9f3e 9051 953e e18c 4dbd
00000250: 0d1e b13e b6df 893e 6bb2 7dbd 586d cf3e
00000260: 63e5 c33e cf05 dbbc 9b35 d63c 2761 d1bc
00000270: 48ce 2e3d 4fa1 0cbd 3146 0abd c8de 1cbc
00000280: 8ebe 4ebd 9efc 5ebd 5cbb be3e 3a2a 853e
00000290: a7f8 54bd 5954 cb3e 57e4 813e a664 35bd
000002a0: 78dd de3e 90f5 ca3e 20b7 a9bc 7b1b 033d
000002b0: 6dae 9a3c 8d50 b03d a881 473d adfe a23d
000002c0: f880 f53c 9fc3 be3d f321 8e3d 7db2 823d
000002d0: 879c 3ebc 4f4e 09bc 2b4a 3f3d a12f 203d
000002e0: 93c7 5cbd 8562 76bc 501a 1c3d bf1f 1fbd
000002f0: 2496 693c 1205 7ebd 1f89 bd3d f652 e138
00000300: 4d8b c0bd 00a4 5f3d 3f14 87bd 33aa 96bd
00000310: 8eb1 ed3b 7b7a 29bd aed5 723e 6a40 9e3e
00000320: 916f d13e adb4 683e 2eaf 633e 9900 c43e
00000330: 5f4a 763e af6c 923e 96b2 d03e 16cd 223e
00000340: 30d2 383e 3ef2 823e 7782 8e3e d43e 803e
00000350: 1dc1 a33e 21b0 a03e 8584 643e 5243 af3e
00000360: fcf6 3ebe 7635 fb3d f889 d53d 90ea 37be
00000370: 92dc dd3d c1a1 083d 25b6 56be 506b a93d
00000380: a48f ad3d f2c0 783d ae8a 293e 369f 353e
00000390: 9aab 243e 64c5 cb3d 5c8e d53d 2b15 1c3e
000003a0: 76f6 5f3e 441b 353e 20c1 053d d8aa 863d
000003b0: a007 213e 3ee3 db3d 9cbb fc3c 004b 113e
000003c0: e6d9 9f3d 24dc 0b3e 3dfb 173e bf76 8a3d
000003d0: 2f45 313d 35f3 923d fd20 383d d086 ce3d
000003e0: a062 df3b 26cf af3d 7e99 a33d 5dbf b33c
000003f0: 33e6 48bd bc44 883d d4c6 b2bd 30bd fcbd
0.041216616 -0.030959621 -0.0012372667 0.0047415025 0.007823136 0.062140632 0.011951807 0.041959055
0.02290009 0.036735054 0.10288681 0.08881269 0.07913152 0.097705916 0.08771735 0.028681992
0.11496754 0.18563712 0.05650825 0.052162755 0.032540724 -0.012087499 0.054723088 -0.023411939
0.018447744 0.052457493 -0.015396335 0.035341736 0.014975816 -0.038689915 -0.040101845 0.0073577235
-0.014994592 0.05584013 -0.051490154 -0.012127026 0.042829655 0.15456837 0.08666156 0.016294995
0.089034274 0.12822059 -0.021421567 0.08571866 0.058849804 -0.013967136 0.008278217 -0.07785822
0.0023706243 0.04488572 -0.08434983 -0.09060528 0.044218734 -0.038569298 0.02702954 0.03945307
0.10784451 0.0599638 -0.0030875956 0.11391973 0.009132566 0.01360914 0.06449867 0.029550157
0.07712331 0.0402408 0.019947188 -0.0014440767 0.07682117 0.07973034 0.0072480687 0.05886521
-0.16747408 -0.09887165 -0.117883764 -0.10162418 -0.023677742 -0.07093992 -0.092828 -0.02417289
-0.08167724 0.05257842 0.06821533 0.13648444 0.09148929 0.08421219 0.1144226 0.058521282
0.0345848 0.15389031 -0.10720354 0.050177652 -0.06574096 -0.07527027 0.012299473 -0.041756764
-0.15630165 0.10898425 -0.02406736 0.09794038 0.14338985 0.18462501 0.12409008 0.13983932
0.17854197 0.071573876 0.14322005 0.22229584 -0.032050025 0.05111477 -0.021558985 -0.018326879
-0.039797597 -0.04352614 0.033422336 0.03567404 -0.01557263 0.017098416 -0.028042816 -0.008808629
-0.011452444 -0.011447064 0.048872422 -0.020469602 0.019421712 -0.030153101 -0.006723524 0.006623301
-0.017024187 0.015664088 0.03420797 -0.014268568 0.052157085 0.023744987 0.059914794 -0.088792674
0.19249405 0.17842862 -0.13595906 0.23236664 0.20244503 -0.24049918 0.13940442 0.1389099
-0.036895003 0.3124442 0.2916379 -0.05018318 0.3459324 0.2692849 -0.06193773 0.4051311
0.38260946 -0.026736168 0.026148608 -0.025559021 0.042677194 -0.034333523 -0.033758346 -0.0095746
-0.050474696 -0.054440133 0.3725232 0.2600878 -0.051994946 0.3971279 0.25369522 -0.04428544
0.43528342 0.39640474 -0.020717204 0.03200863 0.018882 0.08609114 0.048707634 0.07958732
0.029968724 0.093146555 0.06940069 0.063817 -0.011633999 -0.008380487 0.04670159 0.039107922
-0.053901266 -0.015038137 0.03811103 -0.038848635 0.014256988 -0.062016554 0.092546694 0.00010744289
-0.094015695 0.054599762 -0.065956585 -0.07356682 0.007253832 -0.041376572 0.23714325 0.3090852
0.4090543 0.22725172 0.22234794 0.38281706 0.24051808 0.28598544 0.4076125 0.15898547
0.1804893 0.2557544 0.27833912 0.25047934 0.3198327 0.31384376 0.22316177 0.3423105
-0.18648905 0.12266056 0.10426706 -0.17960572 0.10833086 0.033357386 -0.2096792 0.08272421
0.08474663 0.060730882 0.16556808 0.17736515 0.16081086 0.09949759 0.104275435 0.1524245
0.21871361 0.17686182 0.03265488 0.065755546 0.15725565 0.107367024 0.030851178 0.14188766
0.07805233 0.13658196 0.14841934 0.0676093 0.04327887 0.07175294 0.044953335 0.10084307
0.006817177 0.08584432 0.07988261 0.021941835 -0.04904766 0.06653735 -0.0872933 -0.12340772

state_cnn.2.bias f4 [64]
00000000: b7a9 643d 5bc2 8a3c 03d0 953c 98d7 df3c
00000010: db48 0e3c e4f6 15bd b2b5 bbba 14f6 3cbd
00000020: 8db5 bebc 3453 523d 97d3 4dbd 0f69 163d
00000030: 2e59 263d 077f cabc 45ef 413d dcb3 8e3d
00000040: 3446 073d d7dc e33c 6d91 a03d f2e9 ef3c
00000050: 67b9 a43b b607 91ba 6859 db3c 4817 993d
00000060: 49c3 16bd 8a28 f93d f133 a83c 5ba6 c2bc
00000070: 19d2 fcbc a005 1f3c 18fc 18bc b6be 41bc
00000080: 27c4 0e3d 38e3 de3c 1ebe 7f3c ddb3 8e3b
00000090: aa46 443d b81d 2d3d cf27 8a3d def2 843c
000000a0: 8bac 51bd f5de 28bc d2f3 0b3d 6d24 4cbc
000000b0: efc0 f73c 423d 3b3d f40d f43c d8d9 5b3c
000000c0: 50c4 653d 7587 253d 5620 0b3d 7253 4ebd
000000d0: 8752 e93c ba46 87bc 6f23 efbc eff9 bfbc
000000e0: c9e4 8abc cecc aebd a387 6c3d 1463 31bc
000000f0: 200e dc3c 8f77 0b3d e22c b93d 2d56 93bd
0.055825915 0.016938379 0.018287664 0.027324483 0.008684362 -0.036612406 -0.0014321117 -0.046133116
-0.02327993 0.05134888 -0.050250616 0.036721285 0.040612392 -0.024718774 0.047347326 0.06967899
0.033025935 0.027815266 0.07840238 0.029286359 0.0050269845 -0.001106492 0.02677603 0.07475144
-0.036807332 0.12165935 0.02053258 -0.023760965 -0.030861901 0.009705931 -0.009337448 -0.011825254
0.034855034 0.027207956 0.015609292 0.0043549375 0.047918953 0.04226467 0.06745874 0.01622909
-0.05118994 -0.010307063 0.034168072 -0.012459856 0.030243365 0.045712717 0.02979181 0.013418637
0.05609542 0.040412385 0.033966385 -0.05037255 0.028481735 -0.016513217 -0.0291917 -0.023434607
-0.016954796 -0.08535157 0.05774654 -0.010826845 0.026862204 0.034049567 0.09041764 -0.07194171

buttons_cnn.0.weight f4 [32, 1, 3, 3]
00000000: f8d8 10be e9b6 4c3e 5076 2dbc 1186 c9be
00000010: 8207 48be 02d6 a0be 5b08 cabe a96f 8d3e
00000020: a51b 9c3d aec3 7bbb a9d9 0abe fd0c 8c3e
00000030: 312e c1bd 7999 80bd d40e f53e 5ea8 afbe
00000040: 5ed2 f93d ef2d 893e bca6 7c3e cf87 9bbe
00000050: e44c 1b3e 24ba d03e e57f 8fbe d6c0 12bd
00000060: 24c8 f43e 9cba 96be f4c7 d7be 19ea b93e
00000070: 3124 793e 6a06 33be 44f8 823e d23e 993e
00000080: c61e aa3e 088f 283d d3c5 753e 3fa9 9c3e
00000090: 8e38 bcbe fd1c 083d 81e2 963e 7d13 683e
000000a0: c88d 08be 89ba 4b3e 5474 df3e b517 c33d
000000b0: 0be8 7dbe 34de dcbe 9c66 a73e 499a b5be
000000c0: ed71 093e d7ab 8fbd 2cf9 0abf a87a c93e
000000d0: 0510 bd3e 1a94 e4bd cee6 b83e c69f 21be
000000e0: e02b a93e 1a2c 01be 510c e03d 2194 1a3e
000000f0: c980 233f bd72 1fbc b840 2abe 97d4 813e
00000100: 679a dfbe 84f8 a53c 2ecb 09be a2a7 53be
00000110: dedc 933e 083f 29bd bd06 89be 31fc d43d
00000120: c71f 973e 98a2 30be fd8f a0bc 1f8f d03e
00000130: 056c eabe 9386 b8bd 1bd4 943e 2da5 88be
00000140: 7f83 87be e18f 823d 4bb3 423e c73d 633e
00000150: b958 ff3e de67 b33e 1505 313e 1945 cd3e
00000160: 0b76 fdbd 4187 74be ed49 203d bfa1 97be
00000170: 90fc 62be c006 903e 1e62 013e 5955 8cbe
00000180: f11f 18bd d368 c2be f8bc 51be 2e8a 273d
00000190: 0c53 91be f263 b3be af0c 71bd f341 f1bd
000001a0: 25fa 1abe 54dd b73e fb17 6f3e 7840 a6bd
000001b0: 8cf9 923c 1831 803e b2f8 3dbb a205 cb3e
000001c0: d2c1 64bd c625 913e 0c7c 08be 5166 b83e
000001d0: c19e 2f3e 9299 543e da17 9fbe 9054 32be
000001e0: 6317 633e 2ac5 933c c20f 3abe 696c 37be
000001f0: de47 eabd 3035 f3be cdb3 bdbd 0289 513e
00000200: 8910 243e ae35 cfbd cebb cfbc 77d8 d53e
00000210: 3327 c63e e971 cdbc 6dfd 88be 8518 97be
00000220: f7f4 6b3e cb8a b3be 2e78 87be 31f8 b83e
00000230: a090 87be b2d9 60be 0990 1e3e 8729 a0be
00000240: c423 46bd dc5a 963d 5686 7e3c 82c4 973e
00000250: 45a0 043e e6a6 5e3e e26a bf3e 1ea3 9c3d
00000260: 75af c53e b16e c13c 036e b43c 7bcf 59bc
00000270: 932c 823e 6fbe 7cbe 09bb c6be 0327 333e
00000280: 3adf cb3d fa1a f3be 9ef4 1ebd ff04 1e3e
00000290: e752 873e 92ec 0bbe 4ec1 07be 8aeb c63e
000002a0: 0488 7fbe c10c 2e3c 1dd6 823e e0f2 d43b
000002b0: f5e0 52be 2434 6dbe 378c 3c3e cc49 17be
000002c0: c138 e1bc 1e32 f53d 3b93 7f3d 5910 8c3e
000002d0: 6772 d53d 0dea 963e 519b a0be 5304 803e
000002e0: 109c 0d3e 34ba 793d 992a 9e3e b747 debb
000002f0: fb63 b43e c084 3d3e b02a 143d e030 f1bd
00000300: 7a22 8b3e b55b 70be f6f5 61be 4807 e93e
00000310: 16e0 493e eb97 29be 0586 123c 885f 383e
00000320: 0fed 8cbe 46bb ad3e 609d 6fbe 1c90 b3be
00000330: 9776 113e c7a6 293e db7e 33be 59fb 4dbd
00000340: beee 1bbe 4341 903e 7fbc dabe a96f 4c3e
00000350: ba1b 09be 18a5 c0be dd22 5b3e 1fa2 6cbe
00000360: ef72 10be b29e 2ebe 9b81 c13c 1ec9 35be
00000370: fa47 09bc e729 c63e 8e84 5ebe e869 f13d
00000380: 4e3b 713d f5ec 30be c10e be3d a500 5a3e
00000390: 6457 57be 08b0 293e 1c6e d83e 43fa c0be
000003a0: cdc2 843e 3320 41be 1817 9abe 555d 673e
000003b0: a627 633e 1cfd b0be 295c 773e cb0f a03d
000003c0: 06aa 9abe 9991 543e 65a9 253e 63ab 353d
000003d0: d345 0cbd f458 73be af15 f23e 4010 22be
000003e0: ed27 7dbe cda5 c13e ad26 373e 00d4 dcbe
000003f0: de8d 1a3e 57b4 37be 8cc5 a6be 28f0 8a3e
-0.14145267 0.1999165 -0.01058729 -0.39360097 -0.19534114 -0.31413275 -0.394595 0.27624252
0.0762246 -0.0038416195 -0.13559593 0.2735366 -0.094326384 -0.062792726 0.47862875 -0.3430814
0.121983275 0.26792857 0.24672979 -0.3037705 0.1516605 0.40767014 -0.28027263 -0.035828434
0.47808945 -0.29439247 -0.4214474 0.36311415 0.24330212 -0.17482916 0.25580037 0.2993074
0.33226603 0.04115203 0.24001245 0.30597875 -0.36761898 0.03323077 0.29469684 0.22663684
-0.13335335 0.19895376 0.4364344 0.09526006 -0.24795549 -0.43138278 0.32695472 -0.35469273
0.13422365 -0.07015198 -0.54286456 0.39351392 0.36926284 -0.11161061 0.3611359 -0.15783605
0.33041286 -0.1261448 0.10939849 0.15095569 0.63868386 -0.009731946 -0.1662625 0.25357506
-0.43672487 0.020260103 -0.13456413 -0.20669416 0.28879446 -0.041319877 -0.26762953 0.10399664
0.29516432 -0.17249525 -0.019599909 0.40734193 -0.45785537 -0.09010043 0.29068074 -0.2668852
-0.2646751 0.06375099 0.19013707 0.22191535 0.49872378 0.35040182 0.17287095 0.4009178
-0.123760305 -0.2387972 0.039133 -0.2961559 -0.22166657 0.2813015 0.12635085 -0.27408865
-0.037139837 -0.379706 -0.20482242 0.040903263 -0.28383672 -0.3503719 -0.058849987 -0.11780157
-0.15134485 0.35911047 0.23348992 -0.08117765 0.017941259 0.25037456 -0.0028987345 0.39652735
-0.055848904 0.2834913 -0.1332857 0.3601556 0.17150404 0.20761707 -0.31072885 -0.1741507
0.2217689 0.018038351 -0.18170074 -0.17912449 -0.11439489 -0.47501516 -0.0926281 0.2046242
0.16021933 -0.101176605 -0.025358107 0.41766712 0.38701782 -0.02507873 -0.2675585 -0.29510894
0.23042665 -0.35066828 -0.26458877 0.36126855 -0.26477528 -0.21958044 0.15484633 -0.31281683
-0.048373953 0.07341549 0.015534958 0.2964211 0.12951763 0.21743354 0.37386233 0.076483
0.38610426 0.023612352 0.022025114 -0.013294096 0.25424632 -0.2468202 -0.38814571 0.1749535
0.099546865 -0.4748152 -0.038807504 0.15431593 0.26430437 -0.13664463 -0.13257334 0.38851577
-0.2495423 0.010623158 0.2555398 0.0064986795 -0.20593627 -0.23164421 0.18412863 -0.14774245
-0.027492883 0.1197245 0.06239627 0.27356222 0.10422211 0.29475442 -0.31368497 0.250033
0.13829064 0.060968593 0.30891874 -0.0067834514 0.3523253 0.18507671 0.036173522 -0.117769
0.2717474 -0.23472483 -0.22066483 0.45513368 0.19714388 -0.16561858 0.008943086 0.18005192
-0.2752461 0.3393194 -0.23399878 -0.35070884 0.14205395 0.16567527 -0.1752886 -0.050288532
-0.15227792 0.2817479 -0.42721936 0.1996447 -0.13389483 -0.37625957 0.21400018 -0.2310872
-0.14106344 -0.17052725 0.023621371 -0.17752501 -0.008378977 0.38703844 -0.21730253 0.11787778
0.058894448 -0.17277892 0.09280158 0.21289308 -0.2102943 0.16571057 0.42271507 -0.37690935
0.2592987 -0.1885994 -0.30095744 0.22594197 0.22183093 -0.34568107 0.2415625 0.07815512
-0.30207843 0.20758666 0.161779 0.0443529 -0.034246277 -0.23764402 0.47282168 -0.15826511
-0.24722262 0.37821808 0.17885847 -0.43130493 0.1509318 -0.17939888 -0.3257259 0.2713635

buttons_cnn.0.bias f4 [32]
00000000: 6c25 c93e bc86 5fbb 84d2 16be c022 2e3e
00000010: 41d6 15bd 09db 62bc 305f 04bb 4228 8b3e
00000020: 57cc 873e 3d85 5c3c 4756 633e 6e55 ab3e
00000030: 3ad0 32be dfc5 363e 710b 40be a5a0 19be
00000040: cce7 893c 88fc c63e bbc3 f23d 004e 9c3e
00000050: 95a1 803e 3ba9 003e 1759 503e bd6d 9a3e
00000060: cfc1 253e 5cc3 85be 18ac 973e 765e 7d3e
00000070: 6d4d c43e 992b 263d 324c e0bd 108e c93e
0.39286363 -0.0034107408 -0.14728743 0.17005444 -0.03658128 -0.013846167 -0.0020198338 0.27179152
0.26523086 0.013459501 0.22200881 0.33463615 -0.17462245 0.1784892 -0.18754365 -0.15002687
0.016834162 0.3886454 0.11853739 0.3052826 0.25123277 0.12564556 0.20346485 0.3016185
0.16187213 -0.2612561 0.29623485 0.24743065 0.3834032 0.04056892 -0.10952033 0.39366198

buttons_cnn.2.weight f4 [64, 32, 3, 3]
00000000: fdc7 fbbc cc16 a73c baff 16bd 59c6 47bd
00000010: b6ca 5ebc 598b 1dbd c293 413d 0ee4 b43c
00000020: 7b95 df3c 2081 d8bc e6c2 0dbd e52e 283d
00000030: 4682 32bc 9fc9 e6bc cbbc 27bd 2dd6 763c
00000040: 7c2f 123d cafb d0bc 8f3e 6dbd e437 3a3d
00000050: 42c2 603c a8ef cdbb 3ee6 8bbc 3922 fd3c
00000060: 9acb 7b3c b6ba 5cbc f896 4dbd b066 bf3b
00000070: 5b72 253d 4c57 803a 983d 06bd 9383 0a3d
00000080: 48e6 9bbc 5a0f 063d e0a3 3c3c 4cee 10bd
00000090: 1877 7abc dd11 f7bc b299 c93c 5aa7 953c
000000a0: c5dc 21bc dc0e 06bd a6c6 05bd 6db0 81bd
000000b0: b4ea 043d 9c72 743c 6a05 81bd 03f7 5dbd
000000c0: 448f 5fbd ebe1 78bd ea5d 9a3c c395 433d
000000d0: 0744 22bd cb0b 123d a8ab 69bd 2efd b1bc
000000e0: cf66 19bd f867 13bd 54ff cbbb 79fa 1ebd
000000f0: 3952 033d e92f b7bc 6f6a 023c 6e25 21bd
00000100: 0cea b9bc bcec 0b3d bb4a 68bd 19a8 213d
00000110: de51 3bbd 8258 76bd 5089 1f3b 6029 d93c
00000120: 0949 eb3b 6c54 083d 574d 5dbd a9f3 94bc
00000130: c8e9 30bd 3334 e2bc f8c4 e53c 52fc 7bbd
00000140: 20a7 20bc 051b 5bbc cc60 e3bc de4e 163d
00000150: 7055 253d 6708 4dbd 295e 64bd 0af1 10bd
00000160: 7e93 6abc 2f5f c7bb 0eb6 73bd 8306 2f3d
00000170: 1b19 70bd 5031 e5bc a7c0 863c 20f6 e33a
00000180: 14e1 c03c dc5b 8bbc 2fd6 85bd 63dd fb3a
00000190: 2f7b 1a3c 266d e2bc bdfe f5bc 2954 ccbc
000001a0: 4b2e d8bc c7d0 d03c b78e b6ba ba8f 2cbc
000001b0: dcdc 30bd 6a36 4bbd c5b2 a8bc 067c 23bb
000001c0: b4fd 77bd fa06 71bb 1ea6 4c3c 3af9 edbc
000001d0: 51f2 60bc cb1f 1b3d 4cbd 373d 2572 50bd
000001e0: c430 c53c 71ba 82bc 0466 2bbd 21e8 423c
000001f0: 5afb 3abc cabf 1a3c 272d 57bd cac2 50bd
00000200: 9736 41bd 371a 753c 1c1b 9ebb a8df 53ba
00000210: d2b2 de3c 6aa3 263d b575 c2bb 4a80 0e3d
00000220: fe7b 1fbd 9a8f 4cbd c291 a3ba 2dae 17bd
00000230: bb12 293b 6e40 acba e0d0 d8bb 38c9 273d
00000240: 5f31 2c3c 2dff 83bd 9028 1d3d 506d d6bc
00000250: 02e9 82bc 56c6 9ebb c27a 82bd 1bad 44bd
00000260: fcdf 83bd fea1 8f3c b0c3 e5bc 2517 45bd
00000270: fdf0 a5bc 41d1 acbc 581c a5bc 6fb1 273d
00000280: d1f6 adbb 0cbb 8fbc 9332 a03c c22c d6bc
00000290: bf3f b03c 7204 82bd 9b5d 83bd 6b47 73bd
000002a0: b686 0c3d 8a27 e53b 13c0 1d3d a28a 1c3c
000002b0: 1f18 b3bc 36dd c13c cead 323d fdb1 583c
000002c0: 4087 40bc 1763 50bd 864f 02bd 6bc5 57bd
000002d0: d67d 933c f28e 833c 902d 2abd eb65 4fbd
000002e0: 8611 a43c fed8 89bd 9343 fcbb 8f1d 3dbd
000002f0: 0b7a eb3c 00c3 ac3c f599 81bd ab6d 5abd
00000300: 740e 6ebc 349a f6bc 8ea9 2b3d aeb4 6b3c
00000310: 0276 00ba 8054 04bd 1702 c53c 94b3 d13c
00000320: defc 4cbd ab63 22bd 8059 c63b db00 f9b3
00000330: b664 38bd a7b7 523b 0a6e 85bd c043 d13b
00000340: 6c2e babc 1932 9a3b 81cb 29bd 5b1f 60bc
00000350: c0cf 4fbd e0f0 fb3c 4357 5cbd 09ce a43b
00000360: e5c1 08bd 3066 643c 88e1 abbc 31db 70bd
00000370: 9dac 0abd c94e 77bd 4fae 6bbd b6ff 34bd
00000380: 7e7c 2dbc c8f2 233d 25e9 543c 0d7d 73bb
00000390: b659 1cbd 6d8e 46bd a233 933c 4ec6 d1bb
000003a0: 56db 5cbd f6ed b83c b3e8 68bd d058 c73b
000003b0: 4006 d6bb bb0c ea3c cdac cd3c 40e9 233d
000003c0: 7695 b43c a3b9 01bd 7427 7f3a 9887 29bc
000003d0: 469b ddbb 5278 ffbc abc0 cb3a a699 4dbd
000003e0: 1923 a1bc 80d4 f4bb 9de2 02bc 92af 993c
000003f0: 109b fabc 35a5 db3c e39d 363d c488 5a3c
-0.03073501 0.020396613 -0.036864974 -0.048773143 -0.013598135 -0.03846297 0.047260053 0.022081401
0.027292958 -0.02642876 -0.034609698 0.041060347 -0.010895317 -0.028172312 -0.04095153 0.015065712
0.035689816 -0.025510687 -0.05792099 0.045463458 0.01371819 -0.0062846728 -0.017077561 0.030900108
0.015368367 -0.01347225 -0.050192803 0.0058410987 0.04039226 0.0009791641 -0.032773584 0.033816885
-0.019030705 0.032729484 0.01151368 -0.035383508 -0.015287183 -0.030159885 0.02460942 0.018268276
-0.009879296 -0.032729015 -0.03266015 -0.06332479 0.032450393 0.014919903 -0.06299861 -0.054190647
-0.054579988 -0.060762327 0.01884361 0.047750246 -0.039615657 0.035655778 -0.05704847 -0.02172717
-0.03745156 -0.035987824 -0.006225506 -0.038813088 0.032060836 -0.022361713 0.007959946 -0.039342336
-0.02269461 0.034161314 -0.056711894 0.03946695 -0.04573237 -0.060143 0.002434332 0.026508987
0.0071803373 0.033283636 -0.054028835 -0.018182592 -0.0431917 -0.027612781 0.028048024 -0.06151993
-0.009805471 -0.013373141 -0.027756117 0.036696307 0.040364683 -0.05005684 -0.05575386 -0.035386123
-0.014317391 -0.006084345 -0.059499793 0.04273082 -0.058617692 -0.027977616 0.016449286 0.0017392077
0.023544826 -0.017011575 -0.06534993 0.0019215759 0.009428783 -0.027639937 -0.030028695 -0.024942474
-0.026389262 0.025490178 -0.001392803 -0.010532314 -0.043179378 -0.04961244 -0.020593056 -0.002494575
-0.060544685 -0.003677784 0.012490777 -0.029049505 -0.013729648 0.037872117 0.044858262 -0.050890107
0.024071105 -0.015958043 -0.041845337 0.011896164 -0.011412466 0.00944514 -0.052533295 -0.050967015
-0.0471712 0.014959863 -0.004825009 -0.00080823386 0.027184878 0.040683188 -0.005934442 0.034790315
-0.038936608 -0.049941637 -0.0012479352 -0.03703134 0.0025798518 -0.001314176 -0.0066166967 0.04096338
0.010509818 -0.06445155 0.03836876 -0.026175171 -0.015980247 -0.004845421 -0.063710704 -0.04801665
-0.06439206 0.017533299 -0.028047413 -0.048117775 -0.020256514 -0.021095874 -0.020155117 0.0409407
-0.005308964 -0.017545246 0.019555366 -0.026144389 0.021514772 -0.06348504 -0.06414338 -0.05939428
0.034308158 0.006993239 0.038513254 0.009554537 -0.021862088 0.023665052 0.043622784 0.013226029
-0.011750996 -0.05087575 -0.03181412 -0.052678507 0.01800434 0.016059373 -0.041547358 -0.050634306
0.020027887 -0.06730841 -0.007698485 -0.046170767 0.028744718 0.021089077 -0.06328193 -0.053327244
-0.014529813 -0.030102827 0.041909747 0.014386339 -0.0004900397 -0.032307148 0.024048848 0.025598325
-0.05004584 -0.039645832 0.0060531497 -1.1595122e-07 -0.04501792 0.0032152922 -0.06515129 0.0063862503
-0.022727214 0.004705679 -0.041453842 -0.013679351 -0.050735235 0.030754507 -0.053794157 0.005029444
-0.033388037 0.013940379 -0.020981565 -0.058802787 -0.033856023 -0.06037787 -0.05753928 -0.044189177
-0.010588763 0.040026456 0.012995039 -0.0037153393 -0.038171493 -0.04847567 0.017968956 -0.0064018136
-0.053920113 0.022574406 -0.056862544 0.0060835853 -0.006531507 0.028570523 0.025106812 0.040017366
0.022043925 -0.031671178 0.0009733357 -0.0103472695 -0.006762895 -0.031185303 0.001554509 -0.05019536
-0.019670056 -0.007471621 -0.007988599 0.018760476 -0.030591518 0.026812175 0.044584166 0.0133382715

buttons_cnn.2.bias f4 [64]
00000000: 49c1 57bd 5235 4ebd 26a9 043c a69b 8cbc
00000010: d1ae 763d 0787 90bb 3504 313d e39a 40bb
00000020: cf62 1ebc 7384 263d 4161 4ebd 3f9e 1bbd
00000030: 498b d73c 801a 203d aa7d e0bc 2a6c 2e3b
00000040: 36e4 293d 20e8 bc3c d4d5 263d 3376 15bc
00000050: f7c7 323c f4ba 53bc 4f4a 45bd f8e4 b2bc
00000060: ecef 0dbd 2473 27bd 2b80 ccbc e4e0 cabc
00000070: 34ac 6f3d e321 413d dbe1 fe3c 2ac1 17bc
00000080: 46e6 043d 83a7 31bd 1f4a 54bd 98f1 003c
00000090: 57a7 8a3b 0e3e 0abc 61d9 7ebd 25bf e13c
000000a0: 4ad0 493d e620 5bbd 51d8 de3c 870f 6b3d
000000b0: 1bf3 493c 3c99 9cbb 8939 a4bb 1f19 553d
000000c0: 4cfc 11bd 1afe 55bd e7b1 f13b cb96 40bd
000000d0: e6b1 533d 525c e8bc dc3d c1bc bb3c 6fbd
000000e0: 3cc3 b5bc 19f7 303d 2536 80bd 5741 013d
000000f0: 6b23 df3c c7ed 22bc 034a aebb b0af 593d
-0.052674565 -0.05034382 0.008096969 -0.017164063 0.06022531 -0.0044106278 0.043216903 -0.0029389195
-0.0096671125 0.040653657 -0.050385717 -0.037992712 0.026311534 0.039087772 -0.027403671 0.0026614764
0.041477405 0.023059905 0.040731266 -0.009122419 0.010911933 -0.012922991 -0.04816657 -0.021837696
-0.034652635 -0.04088129 -0.024963459 -0.02476544 0.058513835 0.047151458 0.031113556 -0.0092623625
0.03244617 -0.043372642 -0.0518285 0.0078701 0.0042313742 -0.008437647 -0.062219027 0.027556965
0.049270906 -0.05349817 0.027202757 0.057387855 0.012326027 -0.004779009 -0.0050117415 0.05202591
-0.035641 -0.052244283 0.007375944 -0.047018807 0.05168333 -0.028364334 -0.023589067 -0.058407526
-0.022187822 0.0432044 -0.06260327 0.031556454 0.027238568 -0.009944386 -0.0053188815 0.053146064

head.0.weight f4 [128, 128]
00000000: a5b7 8abd 9af2 083e 4d60 9e3d 670c d2bc
00000010: 27c6 41bd 4f0b 203d 5d97 1bbd 828f a23b
00000020: 654d ecbc 4978 66bc d9f8 9f3d ceb3 7d3d
00000030: a822 463e 5a83 bc3c 4d87 41bd eec0 6b3c
00000040: 91a8 90bc f243 9a3d eb79 cb3d b987 0b3d
00000050: eda6 df3d 0801 0fbe c2a6 8b3d 8bf8 79bd
00000060: 5dda 913d f8e8 8e3e 08fe eebc 79aa 483c
00000070: 9d8a 193d bd76 f6bd 9783 72bd 412d d4bc
00000080: 65b0 c23d b80a cf3c ce00 f63c 0475 bb3c
00000090: 9cb2 26ba c99f bfbd e667 76bd 3596 86bd
000000a0: 5f78 6abd e373 293d 68d5 b5bc 2a28 f73d
000000b0: 4f9d 96bd 2fee b13d d381 de3d bbbe 443d
000000c0: 8852 273d 5cb7 5fbd cc10 173d eedb cd3d
000000d0: 624c c6bc 7ed3 063e 3b94 363c c6f9 983d
000000e0: 0e8e 4f3d f0e4 97bc ce21 c33d f9c9 123e
000000f0: 214b e2bd c4cd 8e3c 26e8 54bd 57c5 c9be
00000100: a916 f53c 9d86 20bd c763 153d 18bf a13a
00000110: ef29 fd3c 7512 04bd bb18 313d 56b1 66bb
00000120: 4477 013d e50f ba3a 9cc1 c43c 0bda 86bd
00000130: 1c88 d2bd 66d5 0dbd c24f ffbd c536 10bc
00000140: 434b f73d f1c8 3cbd d9ed 9e3d 0a75 a93d
00000150: 7900 a13d 183f ffbd 68d0 933c df73 ae3d
00000160: cd8d 503d b276 993d ffc6 93bd cfb5 9cbc
00000170: 35bc 0abe 131c 4ebd f939 803d 4d64 033d
00000180: 710b 9fbd b4c3 82bd 945e c4bb 48c5 75bc
00000190: 539e 91bc e331 8a3d 6297 3e3d 1272 873d
000001a0: f494 bc3c ebc3 8e3d 8219 5f3d 350b 0e3d
000001b0: 353d 69bd 9429 a13d 6c67 a13d be3a 69be
000001c0: f0c5 783b 0d38 56bd c19c c93d d7bf 353e
000001d0: 5620 953d 771f b8bc 81ed 843e 5c93 c23d
000001e0: af1a 3b3c 7825 a23d b17c 283d b789 7abc
000001f0: 0f47 853d 7fc6 853c dfbd 463c 888b ce3c
00000200: 2258 42bd 9426 323d a0e9 6dbd 92e1 20bd
00000210: e01f fe3c db0f a83d d58e 27bd 66b4 133d
00000220: 1e86 25bd 2688 bcbd 7fd6 b83c 9d2d 0f3d
00000230: 912e d3bd 2458 b83c 73d6 92bd 0cf7 42bd
00000240: b993 01bc 684a 14bc 4036 123d 0233 b9bd
00000250: 9a51 debd 4174 38bd f267 133d e0f2 5ebd
00000260: 0db8 d6bd a1da 3c3c d8ab 8dbd 1e9b c4bc
00000270: 93ad 743d 4c7c 6b3d cd20 8bbd 55b0 083d
00000280: 150b 9c3d c0aa 893c 0e00 0e3d 5b56 26bd
00000290: bf8e 1f3d fe4b 18bc 40d3 13bb 7e63 943d
000002a0: 05d6 a93d b6ee 513b 15a1 633c 4acd c2bc
000002b0: 7228 d7bc aa42 98bd 145c b8bd 30e7 88bb
000002c0: 7d77 d0bd 0a6b 72bd 3859 963c bc6e 8dbc
000002d0: 79c2 57bd 9819 a5bd 3243 8ebd 04b2 d8bb
000002e0: 0be3 b8bb 9863 ab3b 1af4 723d fb42 76bd
000002f0: 1e7d bebb ca1c 413c 6efe b53c a444 b2bd
00000300: dee8 81bd 9a35 dabd 2a2a 89bc babc 64bd
00000310: e0fb b3bd cc4c 08bd 2ad0 083d 8c37 8cbd
00000320: 7c4a c0bd 2f89 b0bd ac23 7e3b 0813 30bd
00000330: f8ed c2bd 12ed 4ebd fffb b8bd 53b9 b13c
00000340: da50 2e3d 3d4b 4ebc fec2 6c3c ac38 9fbd
00000350: fc60 a4bd e3c1 37bd 56d7 383c e87f d4bd
00000360: e6ee 88bd b1c9 12bd 5c57 673d 671b c0bd
00000370: ce7b 59bd 4800 54bd d7c7 f3bc b41f 33bd
00000380: 132f 863d 5b5a 74bc 9340 4dbb 9289 9cbc
00000390: 9a0f 16bd 018a 26bb d079 b0bd f539 bfbd
000003a0: 65da bfbd 4ebb 89bd b82c 1c3c 9f23 26bd
000003b0: 3ef2 0ebd 3294 d9bd 907b 88bc 0772 92bc
000003c0: e6c2 88bb b5a1 b43d fd6b 823d 02e5 19bb
000003d0: 488b 913c fa64 f3bc 4744 7bbd c107 87bd
000003e0: 0668 c8bc e3ed 823d d97c a03d 66df b13c
000003f0: e152 d93c e4c6 5f3c e2c2 c7bc 4fbf dabd
-0.06773309 0.13373795 0.07733212 -0.02564068 -0.047308113 0.039073285 -0.03798615 0.004960955
-0.028845498 -0.014066764 0.07811136 0.061939053 0.19349158 0.023011852 -0.047248174 0.01438926
-0.017658504 0.07532491 0.099353634 0.034064982 0.109205104 -0.13965237 0.06818916 -0.061028045
0.071217276 0.27912116 -0.029173866 0.012247675 0.037485708 -0.12034366 -0.059207525 -0.025900485
0.09506301 0.025273666 0.03002968 0.022882946 -0.00063590123 -0.093566485 -0.06015768 -0.065716185
-0.0572437 0.041370284 -0.022196487 0.120682076 -0.07354223 0.08688008 0.10864606 0.048033457
0.040850192 -0.054618225 0.036881253 0.10051714 -0.024206344 0.13166615 0.011143739 0.074695155
0.050672583 -0.018541783 0.09527932 0.14334859 -0.11049486 0.017432101 -0.051979207 -0.3940837
0.029918032 -0.039190877 0.03647211 0.0012340276 0.030903785 -0.032244164 0.043236475 -0.0035200915
0.03160788 0.0014195411 0.024018101 -0.06584557 -0.10279867 -0.03462734 -0.124663845 -0.008802121
0.12074902 -0.04609007 0.077602096 0.082742766 0.07861418 -0.12463206 0.018043712 0.085181944
0.05091648 0.074933425 -0.0721569 -0.019129662 -0.13548358 -0.050319742 0.062610574 0.032078076
-0.07765854 -0.06384984 -0.00599272 -0.015000649 -0.01777569 0.067477964 0.04653109 0.06613554
0.023020245 0.06970962 0.054467686 0.034678657 -0.056943137 0.078692585 0.07881054 -0.22776315
0.0037959777 -0.052299548 0.098443516 0.17748962 0.07281558 -0.022475941 0.2596245 0.09500763
0.011419936 0.07917303 0.04113454 -0.015291623 0.06507694 0.016330002 0.01213023 0.025213018
-0.04744733 0.043493822 -0.05808413 -0.03927762 0.031021059 0.08206149 -0.0409077 0.036060713
-0.040411107 -0.09205656 0.022563217 0.03495561 -0.10311616 0.022502966 -0.07169809 -0.047598884
-0.007908755 -0.009050943 0.035696268 -0.09042932 -0.10855408 -0.045032743 0.0359878 -0.054430842
-0.10484324 0.011526735 -0.06917542 -0.023999747 0.059735846 0.057491586 -0.06793366 0.03337129
0.07619301 0.016805053 0.03466802 -0.0406097 0.038954493 -0.009295462 -0.0022556335 0.07245539
0.08292774 0.0032033152 0.013893385 -0.02377953 -0.026264403 -0.0743459 -0.090019375 -0.0041779503
-0.101790406 -0.05918411 0.01835309 -0.017264716 -0.052675698 -0.08061522 -0.0694641 -0.006613018
-0.0056423 0.0052303784 0.059314825 -0.06012247 -0.005813255 0.011786649 0.022216048 -0.087044984
-0.06343244 -0.10654755 -0.016743738 -0.055844046 -0.08788276 -0.033276364 0.033401646 -0.06846532
-0.09389207 -0.08619916 0.0038778586 -0.0429869 -0.09518045 -0.050519057 -0.090324394 0.021694815
0.042557575 -0.01259118 0.014450787 -0.07774481 -0.08026311 -0.04486264 0.011281809 -0.10375959
-0.06686191 -0.03583688 0.056479797 -0.093802266 -0.053096585 -0.05175808 -0.029758377 -0.043731406
0.065519474 -0.014914121 -0.0031319007 -0.019108567 -0.036635973 -0.0025411847 -0.08616984 -0.09337226
-0.09367827 -0.06725179 0.009532146 -0.040561315 -0.03489899 -0.10623969 -0.016660482 -0.017876638
-0.0041736243 0.08819906 0.063682534 -0.0023482447 0.01776661 -0.029711235 -0.06134441 -0.06593276
-0.024463665 0.063930295 0.07836313 0.02171297 0.026528778 0.013658259 -0.02438492 -0.106810205

head.0.bias f4 [128]
00000000: e958 07b9 395b 113d 2ce1 933d b604 febc
00000010: 8229 5f3d d3d1 c83d 817e adbc 648e 763d
00000020: c0fb 1d3d 16e1 e63a bd22 04bd 7e04 113c
00000030: 95f3 91bb 0c48 063d a6c9 a9bd 0269 a13d
00000040: e764 133d 7d5a 0bbd d45c 273c 08f8 6abd
00000050: 2243 853a 26b1 003d 82f4 52bd 6df5 97bd
00000060: 8416 8b3d a9ad 0abd b1ab 8ebd cce1 493d
00000070: 662a 133c 1fbe b9bd c75d e2b9 b0aa f0bb
00000080: e9b8 fd3c 038f d93c a298 a5bd b5f5 9bbd
00000090: 7168 583d 2684 533d 7bb9 d53c 0876 8dbd
000000a0: 1b75 71bd a028 efbc 65a7 2e3d 9017 c63c
000000b0: f31d abbd 441d b7bc b306 c83b 216e 4fbd
000000c0: c107 6cbd dd0c fa3d 12fb 933c e6f1 f0bb
000000d0: 0cab b0bd 50a7 6dbc 74f5 34bd e410 3a3b
000000e0: 454c 293d 762d d4bc 0fcc 8bbd b8b9 41bd
000000f0: 76e1 60bd 98b2 cd3c 491f 8f3d 92d2 313d
00000100: ce56 b83d a4cd 39bd 9c90 6fbd a922 83bd
00000110: 5037 ee3c ffa7 05bd 2640 07bd 137a 21bd
00000120: b411 f13c d960 cabd 10c9 aabc 58bb 993d
00000130: c72b 913d c5f8 27bd 6106 bbbc 66ad 843d
00000140: 4978 203d a454 5a3d cdbc 58bd 62bd 5cbb
00000150: 080f ab3d 836f 863d ffca 843d 6e67 193d
00000160: a74e 223d 04b2 8cbd 3c5f 97bd 12fa 2cbd
00000170: b95f 753d 8df0 97bc 6ae1 a63d 002e 293d
00000180: c95e bb3c 1298 e0bc b41c 83bd da7b 07bd
00000190: 04ec c73b db06 9e3c fd15 61bd a0d3 abbd
000001a0: c4b6 5ebd f4c9 673d c6f9 6fbc 334e 51bc
000001b0: 1796 9fbd 5d75 a63c 30f2 d03b 0c9f fcbc
000001c0: 04e7 1b3d 32aa 2a3d 5a59 053d 67e1 e3bc
000001d0: b4fd 5b3d 1122 cf3d cbd0 4a3c 8aa6 6e3d
000001e0: 23a1 a2bc ada8 c03c b360 60bc 0a45 b3bc
000001f0: 7c96 29bd b255 093d 1402 7b3c 70f9 cb3c
-0.00012907725 0.035487387 0.072206825 -0.031008106 0.054482944 0.09805646 -0.021178486 0.060194388
0.038570166 0.0017614688 -0.03225969 0.008851169 -0.004454086 0.032783553 -0.082904145 0.07881357
0.0359849 -0.034021843 0.010215003 -0.057365447 0.0010167102 0.031418942 -0.051502712 -0.07419858
0.06791404 -0.03385702 -0.06966341 0.049287602 0.008982277 -0.09069466 -0.0004317595 -0.0073445663
0.030971961 0.026557451 -0.08085753 -0.07615224 0.052833978 0.0516397 0.02608942 -0.06907278
-0.05894957 -0.029194176 0.04264011 0.024181157 -0.08355322 -0.022352822 0.0061043142 -0.050642136
-0.057624582 0.12209485 0.018064056 -0.0073530553 -0.086263746 -0.014505222 -0.044179395 0.0028391415
0.041332502 -0.025900584 -0.068260305 -0.047296256 -0.054902516 0.025109574 0.06988389 0.043413706
0.09000932 -0.04536213 -0.05848752 -0.06403095 0.02907911 -0.032630917 -0.03302016 -0.03942306
0.029427387 -0.098817535 -0.020847827 0.07506436 0.07088428 -0.04100873 -0.02283019 0.064783856
0.039177213 0.053303376 -0.05291443 -0.0033682217 0.08352476 0.06564238 0.06484031 0.037452154
0.03962579 -0.06869891 -0.073912114 -0.042230673 0.05990574 -0.01854732 0.08148463 0.041303635
0.022872346 -0.027416263 -0.06401959 -0.0330771 0.0061011333 0.019290378 -0.05495261 -0.08389974
-0.054373518 0.056589082 -0.014646953 -0.012774992 -0.07792299 0.020319635 0.0063765272 -0.030837558
0.03806211 0.041666217 0.032555915 -0.027817441 0.053708747 0.101139195 0.012378882 0.058264293
-0.019852227 0.02351793 -0.01369493 -0.021883506 -0.04140328 0.03352899 0.01532032 0.024899215

head.2.weight f4 [10, 128]
00000000: 0be9 83bc bbde 93bb 22a3 bdbc d9f7 3e3c
00000010: e446 093d c4b9 d83d 7254 7a3d 0cd5 893e
00000020: 1a81 743d 7f8e b6bd dceb 9d3c 4e29 793e
00000030: 5b84 b23d 11a1 253d 0b80 193d d8a1 82bc
00000040: 217e 763d f595 32bd fae2 a13b 6870 0ebc
00000050: 740c 65bd 4605 56bd 617a ff3b c4bc 963d
00000060: c64d 983d 7569 8a3d 8a5b 0c3c 8f50 b63a
00000070: b3c2 f8bb 703c cf3e bdf9 31bd 15f2 80bc
00000080: 2518 32bd 927b 583c 432c 2eba 6e0a 7c3c
00000090: ac97 97bd 65a1 823e afcd 903d 00a3 033d
000000a0: b9c9 813e 4b4b 343d ab9d 213e 20e4 6b3c
000000b0: f8b5 103d 0bd7 bc3c e604 563e 1216 60bd
000000c0: cab8 6b3b f4aa 3cbc 50ee 8a3e 7f3f 973d
000000d0: 0b02 593d 3c67 e43d 33d4 a03c ac97 a5bd
000000e0: 7991 f63c 7fe2 bb3d 0e6e 073d 32f8 b3bd
000000f0: e192 c8bc 0cd7 8d3d bc35 673d cbdf 673c
00000100: 4ded 073d 62a2 093d 05eb 45bc e80d dcbc
00000110: afca 88bd 781c bf3c 13a4 54bd 42db 063d
00000120: 03d0 0cbb be7f 5cbc 42cb 02bd 4c54 73bd
00000130: b54c 92bd 933b a43e 03d7 8b3c 76b0 15bd
00000140: de30 7abd dcd9 1c3d 7ff1 693d b2c7 90bd
00000150: 7d7d 103d 1287 9a3d 81ba c93a 50a4 083d
00000160: 6fb9 593e bd78 923d 56a5 003e a65c 4d3d
00000170: c330 8ebd f670 673b 522c 673d ead7 973d
00000180: dd9c 91bd 5a69 6c3d 888e 2f3b 330d bb39
00000190: 9978 8bbc 331d 32bd 01f3 aa3d 707b 58bc
000001a0: 29eb ccbd 6970 ab3d bae4 f93d c954 ccbb
000001b0: bf67 7b3a d4fe b6bd d3b6 3e3c 4ef2 863d
000001c0: 19d0 19bd ad8f 9b3d 36aa 6e3c 94e4 003c
000001d0: 984f bbbc d885 8bbd 941e 203e 7071 a0bb
000001e0: e9cc 8e3e 3a9b 2ebc 9a31 053e 8d61 c93c
000001f0: dab0 04bc be47 e6bc 2095 2ebd a83a 88bd
00000200: 6278 a4bb d2df 893d 1949 0ebe 3d8a 54be
00000210: 82e8 d3bb 11fa 62bd 00dd ffbd b234 6bbc
00000220: 3b5e 23be 4867 e7bc 2cbf e23c af37 74bd
00000230: 40fc ca3b c4f9 dcbd 74ef f13c 1aa0 07bc
00000240: cd33 49bd ca05 1c3d 70f2 4f3c aaac 4cbd
00000250: 2f82 823d d8d3 063d 3611 06be 84e7 fdba
00000260: 2cef 4d3d 47ce 873d 8337 7e3d df86 16bd
00000270: 8fd0 b2bc 6bea c2be d70a 6fbe 7ba3 47bd
00000280: d022 2f3d 5bde 943d 56d0 06bd b687 06bc
00000290: e348 bc3a f1c6 97bc ee7b 34bd f5c8 9d3d
000002a0: 59d1 12be b6a3 efbc 2929 e1bc e7d5 77bc
000002b0: a03d af3d fe6f 1bbe 1490 2ebe 94bc a7bd
000002c0: 036e 783d 8440 2abe 06e0 adbc 6397 e7bc
000002d0: 63d3 4bbd c3ff 08be b823 cfbd bc21 09be
000002e0: 841b 99bd cadf 98bc c15e 9f3d 454f aabd
000002f0: 9102 bc3c 18fb 66bd f0cd 99bd d13f 1bbe
00000300: 58de 763c 3de2 d73c 3771 653d d49a dcbc
00000310: 886e b2bd 5540 6c3c bc4a 2d3c 2237 1fbd
00000320: 725a 12bd b393 8cbc d50f 3cbd c50b b63a
00000330: cafa d1bd 9a52 02be e2db 973d d4b3 3d3d
00000340: 8a83 94bb d52b 5cbd 2940 b63c ca08 43be
00000350: 3ec9 8fbd 2b6b e2bc fc4a 783d 3c20 36bd
00000360: d221 23be ac89 02bd f51e a8be 8e29 363d
00000370: b219 01bd f3ab 583d 1e0d e4bc 9776 7e3d
00000380: 6d09 8abd 606c 2b3d 090e bcbc 37f5 96bb
00000390: 538c 5bbd 7966 db3c 0d35 2a3d ad33 6d3d
000003a0: c35b 46bd c4fb e3bd 24c9 82bd c357 453c
000003b0: a86b e4be ad0a 28bd d57c 883d 968f b83c
000003c0: 2c2b 743d 5353 863d 1303 aabd 5d2a 203d
000003d0: 12a0 14be b4db c6bd fc6f 26bc 8075 b1bc
000003e0: f570 b1bd 9273 d63c 592f edbd 9b2d 9c3d
000003f0: 472e 513d c0e8 84bc 99c9 47bd 911d a93d
-0.016102334 -0.0045126355 -0.023149077 0.011655771 0.033514872 0.10582307 0.06111569 0.26920354
0.059693433 -0.08913898 0.019277506 0.24332163 0.08716651 0.040436808 0.037475627 -0.015946314
0.06017888 -0.04360004 0.004940388 -0.008693792 -0.05592008 -0.052251123 0.007796571 0.07360223
0.07436709 0.067583956 0.0085667465 0.0013909506 -0.0075915693 0.40475798 -0.04345106 -0.015740434
-0.043480057 0.013213055 -0.0006644169 0.015383346 -0.07401976 0.2551376 0.07070481 0.03213787
0.25349215 0.044017117 0.15782802 0.014397651 0.03532979 0.02305176 0.20900306 -0.054708548
0.0035968297 -0.011515368 0.27134943 0.07385158 0.052980464 0.11152503 0.019632434 -0.0808557
0.030098664 0.0917406 0.03306394 -0.08787574 -0.0244841 0.069257826 0.05644773 0.0141524775
0.033185292 0.033602126 -0.012079959 -0.0268621 -0.06679284 0.023329005 -0.051914286 0.032923944
-0.002148629 -0.0134581905 -0.031932123 -0.059406564 -0.07143537 0.32076702 0.017070299 -0.03654524
-0.06108176 0.038293704 0.057115074 -0.07069339 0.035275925 0.07545294 0.0015390666 0.033359826
0.21262144 0.07151935 0.1256307 0.050137185 -0.06942894 0.0035315133 0.05643875 0.07414229
-0.071099974 0.05771766 0.0026787836 0.00035677254 -0.017025279 -0.043484878 0.083471306 -0.013213024
-0.10005791 0.0837105 0.12201829 -0.006235693 0.00095903495 -0.08935323 0.011640268 0.06589185
-0.037551973 0.07595763 0.014566949 0.007866997 -0.022865102 -0.06812638 0.15636665 -0.0048963353
0.2789071 -0.010657126 0.13007203 0.024582649 -0.008098805 -0.028110381 -0.042622685 -0.06651813
-0.0050192336 0.067321435 -0.13895072 -0.20755859 -0.006466926 -0.055414263 -0.12493324 -0.014355825
-0.15953915 -0.02824749 0.027679048 -0.059623417 0.0061946213 -0.107898265 0.029533125 -0.008277917
-0.049121667 0.03809146 0.012692079 -0.049969353 0.06372487 0.032916874 -0.13092503 -0.0019371365
0.05027692 0.06631141 0.06206466 -0.036749717 -0.021827964 -0.38069472 -0.23343979 -0.04873989
0.04275781 0.072689734 -0.03291353 -0.008211067 0.0014364984 -0.01852748 -0.0440635 0.07704345
-0.14337672 -0.029252868 -0.027485447 -0.015126682 0.08556676 -0.1517944 -0.17047149 -0.08190265
0.06065179 -0.16626173 -0.021224987 -0.028270429 -0.04976214 -0.13378815 -0.10114235 -0.13391775
-0.07475951 -0.018661398 0.07781745 -0.08315901 0.022950443 -0.056391805 -0.075099826 -0.15161063
0.015067659 0.026352996 0.056016173 -0.026929297 -0.087124884 0.014419635 0.0105769 -0.038870938
-0.035730787 -0.017160272 -0.045913536 0.0013889006 -0.10252912 -0.12726822 0.07414986 0.046314076
-0.0045322822 -0.05375274 0.02224739 -0.19046322 -0.07020806 -0.027638992 0.060618386 -0.044464335
-0.1593087 -0.031869575 -0.32836118 0.044473223 -0.031518646 0.05289836 -0.027838286 0.062124815
-0.06740079 0.0418514 -0.022955911 -0.0046068686 -0.05360062 0.026782261 0.0415545 0.05791061
-0.048427355 -0.11132005 -0.06386021 0.01204485 -0.44613385 -0.041025806 0.06664435 0.022529405
0.059611484 0.065588616 -0.083013676 0.0391029 -0.14514187 -0.09709874 -0.010158535 -0.021662474
-0.08664123 0.026178155 -0.115812965 0.07625886 0.051069524 -0.016224265 -0.048776243 0.082575925

head.2.bias f4 [10]
00000000: f8c0 68bd fd40 f73c c7e3 a73d 45a0 84bd
00000010: 0b47 d9bc 635f db3d 1934 203d 6df0 d6bb
00000020: 860c b5bc ca25 a8bc
-0.056824654 0.030182356 0.08197742 -0.064758815 -0.026523134 0.10711553 0.039112184 -0.0065594227
-0.022100698 -0.020525832
