cnn_fighting_agent_starter/outputs/20251017_184620/model.pt (torch, 239835 bytes, 12 tensors)

state_cnn.0.0.weight f4 [16, 3, 3, 3]
0.11799991 0.038600925 0.0021620227 0.22128002 0.04525554 -0.15549265 -0.08763452 -0.02201753
-0.1018721 -0.035034522 -0.04580315 -0.066004984 0.121534444 -0.08138929 0.12018505 -0.066793025
0.1103708 -0.07384986 -0.07852932 -0.05807736 -0.0057374574 0.07556734 -0.077426985 0.0717586
-0.079561375 0.14318238 -0.14008035 -0.1338572 -0.065924056 -0.17357157 -0.0613397 0.06150572
-0.115643136 -0.025919527 0.11311003 -0.09479638 0.08971468 0.021657854 0.077596225 0.038894277
0.069239795 0.08021589 0.08348233 0.100380145 -0.032181114 -0.17802227 -0.14353053 -0.20272914
0.125314 -0.07323522 0.13549271 -0.027693523 0.15362975 0.15789469 0.07374918 -0.0073751844
-0.06653863 0.16591676 0.028777357 -0.06426255 -0.16231321 0.13720238 0.17257121 -0.03258976
-0.005957399 -0.030848335 0.009509192 0.1924325 0.00023706049 0.018351784 -0.09058472 -0.18750097
0.1706269 0.07269712 -0.0163639 -0.09012208 0.14446466 -0.16205207 0.04795572 -0.19100128
-0.17508592 0.044655703 -0.14104155 -0.10501155 0.22445874 0.037816923 -0.16092844 -0.03171382
-0.10750122 0.1166203 0.15768683 0.087515295 0.051172562 0.17128728 -0.06955389 0.16110732
0.089550175 -0.15507488 0.04553183 -0.066692635 0.18614179 0.11403674 -0.056314245 0.11166488
0.027965281 -0.10879635 -0.13807605 -0.10919241 0.031715445 0.10763911 0.10821265 0.14492875
-0.09473128 -0.15640992 -0.16948831 0.024495075 -0.10576536 -0.07902109 -0.010465123 -0.09594176
-0.08448081 0.017256845 -0.10924537 -0.09982753 0.11999234 0.14489359 0.047967352 0.118023194
0.031075122 -0.10470029 0.07864605 -0.047816165 -0.15582964 -0.15376411 0.07110859 -0.036013596
-0.08501285 -0.056653094 -0.06989757 0.12860031 0.15381294 -0.11512054 0.0067923153 0.10718132
-0.1695455 0.013848048 -0.1353894 0.10461343 -0.08316419 0.12464429 0.14325455 0.11397243
-0.04181898 -0.15377358 0.052380014 -0.046117768 0.058078706 0.0928851 -0.15403375 -0.071275786
-0.008871063 0.1804789 0.013755263 0.07917289 0.1332101 -0.12324132 0.052511785 0.04927214
-0.11457769 0.10632441 -0.08976991 -0.04184549 0.18532775 -0.046030615 0.110113144 0.06535097
0.18061893 -0.0966238 -0.1567 0.050637003 0.121890746 -0.07827633 -0.11944907 0.098907396
0.17788483 0.04208208 -0.10448345 -0.16085044 0.067152046 0.20160536 -0.15356728 0.12557963
0.18019162 0.025204867 0.028079629 -0.043318987 -0.12790397 -0.08477969 -0.059240703 -0.077041835
-0.013604417 -0.05381076 0.0885554 -0.044044245 0.058509488 0.15784726 -0.14415447 0.085005105
-0.087574005 -0.13364772 -0.05624702 0.08115329 0.028169727 -0.17508297 -0.14108832 -0.19978032
0.17194831 0.00660157 0.17499265 0.163169 0.15275331 -0.097875975 -0.07504157 0.16368443
-0.20801379 0.04160446 -0.10102397 0.06120164 0.079023615 0.18699822 -0.19428279 0.016431043
-0.05502854 -0.1167092 -0.15595658 0.11267101 0.10579408 -0.12632416 0.15091553 -0.05985195
0.11450642 0.14822124 -0.19335759 -0.058136385 -0.14911488 0.01839581 0.06369787 0.035104536
0.08264891 0.08645124 0.10062816 -0.17533284 0.09918964 0.15289007 -0.106487274 0.07556072
00000000: f0a9 f13d 011c 1e3d b9b0 0d3b 3b97 623e
00000010: e05d 393d 7739 1fbe ba79 b3bd 1b5e b4bc
00000020: 52a2 d0bd 5c80 0fbd 159c 3bbd 9f2d 87bd
00000030: 0de7 f83d 6eaf a6bd 9423 f63d c8ca 88bd
00000040: 160a e23d 983e 97bd fbd3 a0bd 87e2 6dbd
00000050: 4801 bcbb 0dc3 9a3d 0a92 9ebd 2cf6 923d
00000060: 13f1 a2bd 679e 123e 3971 0fbe dd11 09be
00000070: 3103 87bd bfbc 31be 563f 7bbd 6ced 7b3d
00000080: 4fd6 ecbd 3055 d4bc 3ba6 e73d 9b24 c2bd
00000090: 55bc b73d d06b b13c c5ea 9e3d 9b4f 1f3d
000000a0: 98cd 8d3d 3b48 a43d c9f8 aa3d 1b94 cd3d
000000b0: 58d0 03bd 784b 36be abf9 12be 3a98 4fbe
000000c0: 5052 003e 59fc 95bd 9abe 0a3e 87dd e2bc
000000d0: 1e51 1d3e 25af 213e cf09 973d 88ab f1bb
000000e0: 6845 88bd 15e6 293e 7ebe eb3c 159c 83bd
000000f0: 6f35 26be c87e 0c3e 82b6 303e d77c 05bd
00000100: 4936 c3bb a6b5 fcbc 71cc 1b3c 060d 453e
00000110: 7193 7839 7b56 963c 7b84 b9bd 4100 40be
00000120: d1b8 2e3e 3ae2 943d 960d 86bc ed91 b8bd
00000130: 8bee 133e faf0 25be 386d 443d d795 43be
00000140: b949 33be e6e8 363d 326d 10be 4c10 d7bd
00000150: 83d8 653e ebe5 1a3d 6dca 24be 5ae6 01bd
00000160: 9a29 dcbd a0d6 ee3d a878 213e 383b b33d
00000170: 529a 513d ef65 2f3e 4572 8ebd 51f9 243e
00000180: 1566 b73d f3cb 1ebe 967f 3a3d 2696 88bd
00000190: f49b 3e3e 188c e93d c4a9 66bd 8eb0 e43d
000001a0: 7217 e53c 9fd0 debd cf63 0dbe 45a0 dfbd
000001b0: 0ee8 013d e571 dc3d 989e dd3d 3468 143e
000001c0: 7902 c2bd ec29 20be 588e 2dbe e5a9 c83c
000001d0: 829b d8bd cfd5 a1bd e875 2bbc 1d7d c4bd
000001e0: 4604 adbd 3a5e 8d3c 09bc dfbd 6072 ccbd
000001f0: 8bbe f53d fc5e 143e 6a79 443d 25b6 f13d
00000200: 4191 fe3c 1b6d d6bd 2e11 a13d e2da 43bd
00000210: ce91 1fbe 5774 1dbe 61a1 913d fe82 13bd
00000220: 381b aebd 130d 68bd 7526 8fbd cdaf 033e
00000230: 2481 1d3e 51c4 ebbd 1292 de3b e181 db3d
00000240: 569d 2dbe ece2 623c 85a3 0abe 913f d63d
00000250: fd51 aabd 8145 ff3d 52b1 123e 616a e93d
00000260: 614a 2bbd d276 1dbe 6d8c 563d fce5 3cbd
00000270: f0e3 6d3d 8b3a be3d 06bb 1dbe 0af9 91bd
00000280: ef57 11bc 76cf 383e c15d 613c 6525 a23d
00000290: 3a68 083e f265 fcbd 9916 573d 95d1 493d
000002a0: b5a7 eabd 9dc0 d93d 49d9 b7bd 2d66 2bbd
000002b0: 8fc6 3d3e 998a 3cbd 0083 e13d bbd6 853d
000002c0: 2bf4 383e b3e2 c5bd f775 20be bf68 4f3d
000002d0: dba1 f93d 574f a0bd b7a1 f4bd f68f ca3d
000002e0: 7127 363e 425e 2c3d 6bfb d5bd fab5 24be
000002f0: 0387 893d a371 4e3e be40 1dbe f297 003e
00000300: 2784 383e 707a ce3c 4007 e63c 406f 31bd
00000310: 42f9 02be f9a0 adbd 61a6 72bd 1cc8 9dbd
00000320: 10e5 5ebc ac68 5cbd 895c b53d bd67 34bd
00000330: a5a7 6f3d b6a2 213e 3b9d 13be 2817 ae3d
00000340: 005a b3bd f3da 08be 4663 66bd b233 a63d
00000350: 33c4 e63c f348 33be 7579 10be 3693 4cbe
00000360: 3813 303e fc51 d83b 4631 333e c615 273e
00000370: 5d6b 1c3e 3373 c8bd 65af 99bd e49c 273e
00000380: 9101 55be 7069 2a3d a8e5 cebd 92ae 7a3d
00000390: 22d7 a13d 767c 3f3e 11f2 46be 659a 863c
000003a0: 9b65 61bd 3c05 efbd 15b3 1fbe 0fc0 e63d
000003b0: 91aa d83d 1f5b 01be 9a89 1a3e 5127 75bd
000003c0: 5882 ea3d 4fc7 173e 88ff 45be 6b20 6ebd
000003d0: 92b1 18be cfb2 963c 0774 823d c6c9 0f3d
000003e0: d543 a93d 590d b13d 2316 ce3d 748a 33be
000003f0: f023 cb3d 378f 1c3e 0016 dabd 94bf 9a3d

state_cnn.0.0.bias f4 [16]
0.025810607 0.11872468 -0.09783312 -0.11779744 0.14903684 -0.151281 0.056151744 0.011986193
-0.038493924 -0.1836429 0.12431872 0.043453626 -0.15963258 -0.1574336 -0.14965555 0.12328669
00000000: c470 d33c ed25 f33d bb5c c8bd c93f f1bd
00000010: 1d9d 183e 68e9 1abe 5fff 653d bd61 443c
00000020: ceab 1dbd e20c 3cbe d09a fe3d 6efc 313d
00000030: b976 23be 4636 21be 4e3f 19be bb7d fc3d

state_cnn.1.0.weight f4 [32, 16, 3, 3]
0.047597665 0.014048864 0.07067255 0.05069872 -0.01869997 0.030503737 -0.030008202 0.053550147
0.0076447437 0.07823912 -0.024626914 0.02079608 0.035330042 0.00984493 0.05004475 0.019733805
-0.00047780215 0.025523504 0.053708225 0.009515081 0.0344014 -0.017176045 -0.06876207 0.03411424
-0.056367137 -0.007144287 0.060181532 0.06334605 0.04158826 0.016031798 -0.04571534 -0.032195825
-0.055493835 0.0063076806 -0.02024138 0.047136884 -0.009544001 0.03944761 0.0820472 -0.053940922
-0.09790276 -0.009702243 0.06632121 -0.029523404 0.035297804 0.017335009 -0.055204764 0.040143985
-0.0028733958 0.021142667 -0.068276756 -0.05557724 0.009933397 -0.022794029 -0.013272275 0.03726322
-0.040997256 0.033807687 -0.079657994 -0.06887257 -0.08155699 0.042829715 -0.046474304 -0.033153363
-0.048355635 -0.0025489542 -0.08785537 -0.003408287 0.045926753 -0.011786077 0.005981554 -0.027178673
0.06442744 0.026799725 0.07669987 0.039176088 0.039306846 -0.08360688 0.010148221 0.01164995
-0.029580798 0.016911473 0.030873591 -0.064569816 0.00990811 0.041171104 -0.04186456 0.05039181
-0.03744352 -0.020484388 -0.011083124 0.018587146 -0.008257659 0.0004943492 0.06674783 0.023055421
-0.00016951974 -0.0022091388 -0.05244598 -0.037403665 0.011525105 -0.031870633 0.018508933 -0.06031488
0.04081824 0.04214822 0.029641166 0.052267235 0.04403818 0.05633966 -0.031408366 0.014593887
8.294843e-05 0.028384151 0.038302552 0.059018604 0.039913725 -0.06879546 0.008931363 0.05918206
-0.041325055 -0.042649157 0.073261805 0.050753582 0.0665578 0.037086982 0.019470917 0.03837615
-0.0124134375 -0.061267987 -0.0659983 0.026239939 0.0035408337 0.023321223 0.022443078 -0.020480584
0.05839005 -0.016416758 -0.07957061 -0.02596359 -0.031307105 0.020063533 -0.034766756 -0.04338089
-0.06506269 -0.0045905374 0.03534752 -0.019251116 -0.031456195 0.084757745 -0.059546288 0.0094230855
0.0028995532 -0.0090648085 -0.02361926 -0.0655642 -0.034886893 0.0062666456 0.053304285 0.020435914
-0.041095547 -0.02294809 0.018551113 0.0029949404 -0.08448957 0.028293481 0.019384619 -0.07178436
0.0575852 0.10629558 -0.074964985 -0.044440396 -0.045860007 -0.058128037 -0.085956834 0.06473234
-0.05443197 0.08027772 0.06699065 -0.021705383 -0.03146914 0.061780073 -0.0071005938 -0.06684876
0.07983383 -0.02721859 -0.030852115 -0.05267402 0.065467894 -0.068628915 0.024027275 -0.09856173
-0.061097797 -0.03829971 0.027031614 -0.058626886 -0.046436682 0.06539371 -0.0058454815 -0.061954953
-0.006760235 -0.018911256 -0.059537217 0.039015237 -0.00047201023 -0.0059409332 -0.030294163 0.058358807
-0.066939615 -0.07974646 -0.018034473 -0.03669021 0.020454353 0.0058255824 -0.024343345 0.0890577
0.0027079626 -0.070148855 0.036998015 0.050878573 0.008219623 0.014748378 -0.05609115 -0.053867847
0.088378206 0.053427905 0.012600411 0.026743256 -0.03153725 -0.05361206 -0.06290125 -0.040487666
-0.07451837 0.099817656 -0.056530043 0.057555854 0.0014962401 0.050755017 -0.028649276 -0.02182478
-0.020314073 0.053877268 -0.045640055 -0.044207796 0.06588117 0.038421523 0.093613476 0.019678636
-0.0755656 0.04114401 0.0057162344 0.046671104 -0.0248657 0.06536386 0.037566222 -0.07778361
00000000: c5f5 423d 352d 663c c5bc 903d 76a9 4f3d
00000010: ae30 99bc f9e2 f93c c3d3 f5bc 6657 5b3d
00000020: c280 fa3b d53b a03d 62be c9bc 8a5c aa3c
00000030: 3cb6 103d a14c 213c b9fb 4c3d caa8 a13c
00000040: 8581 fab9 ab16 d13c 28fd 5b3d 24e5 1b3c
00000050: 7be8 0c3d c7b4 8cbc 21d3 8cbd 60bb 0b3d
00000060: 3ae1 66bd a01a eabb e980 763d 93bb 813d
00000070: 7458 2a3d 1e55 833c 0240 3bbd c5df 03bd
00000080: 814d 63bd a9b0 ce3b 40d1 a5bc 9b12 413d
00000090: 715e 1cbc d193 213d 5d08 a83d 28f1 5cbd
000000a0: 3e81 c8bd 28f6 1ebc 6ad3 873d 11db f1bc
000000b0: 6e94 103d 2602 8e3c 641e 62bd 056e 243d
000000c0: 954f 3cbb 6333 ad3c afd4 8bbd f6a4 63bd
000000d0: b0bf 223c 8bba babc f573 59bc 51a1 183d
000000e0: bdec 27bd ee79 0a3d bb23 a3bd 100d 8dbd
000000f0: 5a07 a7bd 366e 2f3d d75b 3ebd d2cb 07bd
00000100: 8f10 46bd 5b0c 27bb 84ed b3bd 915d 5fbb
00000110: b11d 3c3d 641a 41bc e900 c43b cfa5 debc
00000120: 89f2 833d 198b db3c d214 9d3d 1b77 203d
00000130: 3700 213d 153a abbd b944 263c 6fdf 3e3c
00000140: 6e53 f2bc ee89 8a3c 9dea fc3c 2e3d 84bd
00000150: a055 223c 08a3 283d 2c7a 2bbd a467 4e3d
00000160: 605e 19bd e0ce a7bc fe95 35bc 1244 983c
00000170: 224b 07bc 3797 013a 16b3 883d b9de bc3c
00000180: 1cc1 31b9 33c7 10bb 99d1 56bd 9634 19bd
00000190: cbd3 3c3c c88a 02bd 0ca0 973c bc0c 77bd
000001a0: 0731 273d 9da3 2c3d 08d2 f23c 2b16 563d
000001b0: 6161 343d 6ac4 663d 0fa6 00bd 331b 6f3c
000001c0: 99f4 ad38 e185 e83c 23e3 1c3d 7ebd 713d
000001d0: 937c 233d a2e4 8cbd da54 123c e368 723d
000001e0: 7644 29bd e2b0 2ebd 490a 963d fde2 4f3d
000001f0: 754f 883d 85e8 173d 7981 9f3c 4f30 1d3d
00000200: bb61 4bbc 24f4 7abd 1e2a 87bd 24f5 d63c
00000210: 550d 683b 260c bf3c 8cda b73c e6c6 a7bc
00000220: 682a 6f3d 707c 86bc eaf5 a2bd 98b1 d4bc
00000230: e13b 00bd 475c a43c 9667 0ebd 29b0 31bd
00000240: 963f 85bd 386c 96bb 90c8 103d 84b4 9dbc
00000250: 36d8 00bd 7895 ad3d cfe6 73bd 4963 1a3c
00000260: 6e06 3e3b 9084 14bc 2e7d c1bc 8646 86bd
00000270: 8fe5 0ebd 6f58 cd3b 9855 5a3d 3869 a73c
00000280: ce53 28bd a2fd bbbc 81f8 973c c346 443b
00000290: de08 adbd bbc7 e73c 7ecc 9e3c ae03 93bd
000002a0: 75de 6b3d 7fb1 d93d 3e87 99bd 2207 36bd
000002b0: b4d7 3bbd aa17 6ebd 230a b0bd 6492 843d
000002c0: 0ff4 5ebd a568 a43d 6532 893d 7dcf b1bc
000002d0: c9e5 00bd 1a0d 7d3d 19ac e8bb 01e8 88bd
000002e0: eb7f a33d 85f9 debc 93bd fcbc b7c0 57bd
000002f0: 0814 863d 518d 8cbd d9d4 c43c bbda c9bd
00000300: af41 7abd 28e0 1cbd 6771 dd3c bf22 70bd
00000310: 6434 3ebd 23ed 853d 748b bfbb 7ac4 7dbd
00000320: f684 ddbb c7eb 9abc 4cdd 73bd 71ce 1f3d
00000330: 2478 f7b9 29ac c2bb 772b f8bc a509 6f3d
00000340: a317 89bd 1d52 a3bd 08bd 93bc 7948 16bd
00000350: e38f a73c 87e4 be3b b26b c7bc e263 b63d
00000360: 1378 313b 34aa 8fbd 3b8b 173d 0d66 503d
00000370: 99ab 063c 2ea3 713c d5bf 65bd 88a4 5cbd
00000380: a2ff b43d 38d7 5a3d f471 4e3c ac14 db3c
00000390: 342d 01bd 5298 5bbd 5fd2 80bd 65d6 25bd
000003a0: 169d 98bd 336d cc3d 0c8c 67bd b0bf 6b3d
000003b0: 7d1d c43a 7ee4 4f3d e3b1 eabc e2c9 b2bc
000003c0: b369 a6bc 69ae 5c3d 11f1 3abd 3c13 35bd
000003d0: b5ec 863d e35f 1d3d 6cb8 bf3d 1735 a13c
000003e0: 23c2 9abd 9f86 283d 404f bb3b 332a 3f3d
000003f0: 27b3 cbbc 7ddd 853d 0adf 193d 034d 9fbd

state_cnn.1.0.bias f4 [32]
0.039259806 0.086339645 0.06322529 -0.052097876 -0.08383175 0.043012634 0.002619014 -0.03702655
-0.050709218 0.02243861 0.05677888 0.05609228 -0.011145271 0.026816953 -0.034530543 0.013234793
0.048543505 0.043150615 -0.0655907 -0.061792623 -0.08224053 -0.038346265 -0.028786968 -0.01972444
0.0045134504 0.06428249 0.053475093 -0.0066959155 0.0075849867 -0.03025371 -0.01608995 0.008977067
00000000: e4ce 203d d7d2 b03d 437c 813d 9564 55bd
00000010: fbaf abbd 042e 303d c3a3 2b3b 27a9 17bd
00000020: 78b4 4fbd 2dd1 b73c f990 683d 05c1 653d
00000030: a89a 36bc 3aaf db3c e66f 0dbd bfd6 583c
00000040: 8ed5 463d b3be 303d 6b54 86bd 431a 7dbd
00000050: b96d a8bd f910 1dbd a6d2 ebbc 2695 a1bc
00000060: 91e5 933b 8aa6 833d b308 5b3d 6969 dbbb
00000070: 7b8b f83b a1d6 f7bc 12cf 83bc 8c14 133c

button_cnn.0.0.weight f4 [8, 1, 3, 3]
0.10810518 0.25118995 0.17809609 0.07763428 0.26104558 -0.34404033 -0.089349404 -0.20660098
0.29520413 -0.19241256 -0.27366325 0.23876451 -0.18672772 -0.14894874 -0.05087077 -0.06422322
0.008812281 0.097407214 -0.23884618 -0.15926702 0.16099475 -0.3094029 -0.03740319 -0.13146126
0.11770219 -0.0447045 0.32525578 -0.05394953 0.29959077 0.3563823 0.32462034 -0.00079140504
-0.09816917 0.15951306 0.17343095 0.12868206 0.09968556 0.24756531 -0.044646263 0.19180697
0.15932266 -0.24823247 0.13636123 -0.10888394 0.06281452 -0.15676744 0.30311415 -0.04016227
0.07098581 0.027913608 -0.25128868 -0.02531372 0.043750983 -0.12548621 0.1358829 0.055779476
0.28019533 -0.00979965 -0.295031 -0.12982474 0.14720786 -0.08493493 -0.083466366 -0.2987763
0.10046082 0.17310156 -0.33002228 0.29890066 0.018455181 0.09487526 0.040505275 -0.28158695
00000000: 4066 dd3d f89b 803e d25e 363e b9fe 9e3d
00000010: c4a7 853e 0e26 b0be d2fc b6bd 358f 53be
00000020: ff24 973e cc07 45be 971d 8cbe af7e 743e
00000030: 8d35 3fbe 0586 18be de5d 50bd 7787 83bd
00000040: 6361 103c 6f7d c73d 1894 74be e516 23be
00000050: cfdb 243e 0f6a 9ebe 1634 19bd c89d 06be
00000060: d90d f13d 111c 37bd ed87 a63e 2ffa 5cbd
00000070: f663 993e be77 b63e a334 a63e 4b76 4fba
00000080: eb0c c9bd 6457 233e e297 313e 3bc5 033e
00000090: f127 cc3d c381 7d3e 00df 36bd 0c69 443e
000000a0: 7b25 233e a730 7ebe 47a2 0b3e 8bfe debd
000000b0: e6a4 803d a587 20be c731 9b3e 3181 24bd
000000c0: 0261 913d 14ab e43c e9a8 80be b85e cfbc
000000d0: 3b34 333d 757f 00be e324 0b3e 0579 643d
000000e0: c375 8f3e b68e 20bc 4e0e 97be c7f0 04be
000000f0: a8bd 163e 5df2 adbd 6af0 aabd 35f9 98be
00000100: 67be cd3d 8941 313e aef8 a8be 8209 993e
00000110: 522f 973c f64d c23d dce8 253d 2a2c 90be

button_cnn.0.0.bias f4 [8]
0.3096498 -0.06567296 -0.18808612 -0.013195997 -0.2436153 0.25532368 -0.24487478 -0.062366102
00000000: 6b8a 9e3e 8b7f 86bd a699 40be 0634 58bc
00000010: 4a76 79be c9b9 823e 74c0 7abe 9973 7fbd

button_cnn.1.0.weight f4 [16, 8, 3, 3]
0.046021126 -0.046006665 0.08691312 -0.026768226 0.04654053 0.049761344 -0.036167614 -0.020441962
0.06800028 0.057278648 0.11507404 0.03770851 0.018257966 0.061685007 0.10800623 0.022703111
-0.06737202 -0.09626463 0.097249575 0.08421405 -0.018184483 0.003183653 0.016259972 0.13794766
0.1373418 -0.020827798 0.11047848 -0.09067252 -0.07878241 0.089761354 -0.10713508 -0.07640517
-0.035976082 -0.10126801 0.12603521 0.036021605 -0.12373264 -0.09817547 -0.05811559 0.030754892
0.12240764 -0.03173061 0.043177027 0.03452756 -0.040856134 0.11837077 -0.049147375 -0.058742404
-0.07513066 0.00973528 0.0065618446 0.019484006 -0.007366339 -0.07196317 -0.08009458 0.016277649
0.13400224 -0.10643492 -0.05432013 0.04643557 -0.019441877 -0.017154764 0.06484962 0.03207587
0.10367519 0.024074923 0.046348788 0.12257311 0.12249644 -0.017647082 0.13331482 0.10656038
-0.06441861 0.09446858 0.014127499 0.030160386 0.033027258 -0.044928752 0.09076128 0.06602277
0.014527152 0.012803402 0.013014274 -0.0057555586 -0.08069179 0.019435488 0.1114037 0.052106384
0.040461972 0.118693694 -0.06346661 -0.04794789 0.10131638 0.03638272 -0.11353715 0.14650506
0.013030559 -0.09343799 -0.07793501 0.06333128 0.11935347 -0.008454555 -0.030447083 -0.040163074
-0.009337759 -0.07557407 -0.11236023 -0.014394227 0.1351421 0.02455131 -0.03407034 -0.067532785
-0.07385515 -0.14891012 0.0493623 -0.052694604 -0.04476018 0.094571516 -0.025038023 0.0200578
0.0913303 0.091091126 -0.07546664 -0.092390716 -0.005037512 0.1096194 -0.012238736 -0.030465553
0.05359249 0.0845182 0.0714343 0.02967754 -0.08207597 0.03924664 0.07166593 0.078089096
0.028200416 0.0454031 0.03639999 -0.07221604 -0.021262204 0.10489 -0.095433876 0.05261801
0.10135485 0.109288886 -0.07174374 -0.11684736 -0.07883661 -0.015738206 -0.08523931 0.03340941
0.10907486 -0.11041671 -0.092451155 -0.042370196 -0.10341327 0.058101654 0.06739951 -0.12703356
-0.0007864989 -0.071556956 -0.09153832 -0.04963663 0.09095488 -0.120158836 0.07778102 -0.01645202
-0.116911985 0.051635444 0.104000896 0.033396706 -0.123369485 -0.01586087 -0.04184862 -0.009631531
0.089217484 -0.0019097932 0.06722368 0.061845064 0.009293527 -0.11376293 0.0974045 -0.11393828
-0.082564674 0.10568841 -0.11589223 -0.119373225 -0.10707532 0.0698951 0.09139385 0.049848624
-0.085507385 -0.109713726 0.0108196 0.09835945 0.0068470547 -0.039276365 0.054518044 -0.11823361
0.1054087 -0.005362209 -0.016423551 -0.038499292 -0.07212965 0.022673354 -0.029098116 -0.032917235
-0.061894912 -0.071236715 -0.01773293 0.070164464 -0.09600704 0.01275236 -0.05313097 -0.12317811
0.060084388 -0.007896794 0.04645182 0.006934139 -0.026422564 0.012934612 0.051326256 0.10866602
0.034173455 0.02451343 0.08721785 -0.049304947 -0.090513736 -0.06781053 -0.05366565 -0.07431079
-0.05662894 0.0705554 -0.07869558 0.0824386 -0.06512404 0.05288874 -0.0016881042 0.09944041
-0.08136661 -0.06362847 0.05935526 -0.018115995 -0.022305472 0.11235415 -0.062892035 -0.01168196
-0.069691375 -0.042466044 0.06526713 -0.07078134 -0.034949303 0.06145653 0.104615115 -0.055276353
00000000: a680 3c3d 7c71 3cbd 81ff b13d 0a49 dbbc
00000010: 48a1 3e3d 8dd2 4b3d 7e24 14bd e775 a7bc
00000020: bb43 8b3d 049d 6a3d f0ab eb3d 3d74 1a3d
00000030: bb91 953c 6ba9 7c3d 5f32 dd3d e0fb b93c
00000040: 57fa 89bd 6426 c5bd c92a c73d 6a78 ac3d
00000050: a0f7 94bc d6a4 503b a233 853c 2742 0d3e
00000060: 54a3 0c3e 0f9f aabc 8b42 e23d 84b2 b9bd
00000070: ac58 a1bd cdd4 b73d a369 dbbd 507a 9cbd
00000080: a85b 13bd 9a65 cfbd 600f 013e 648b 133d
00000090: 8a67 fdbd 3910 c9bd 9d0a 6ebd aff1 fb3c
000000a0: dbb0 fa3d f5f7 01bd 65da 303d c56c 0d3d
000000b0: c358 27bd 606c f23d c24e 49bd e09b 70bd
000000c0: 1ade 99bd b980 1f3c be04 d73b ec9c 9f3c
000000d0: 5561 f1bb 6d61 93bd a108 a4bd b458 853c
000000e0: e237 093e 8dfa d9bd c97e 5ebd 3933 3e3d
000000f0: 9244 9fbc 2688 8cbc e1cf 843d fd61 033d
00000100: a853 d43d c638 c53c 3ad8 3d3d 9c07 fb3d
00000110: 6adf fa3d 9d90 90bc ae83 083e 543c da3d
00000120: e7ed 83bd be78 c13d 0777 673c ea12 f73c
00000130: 9747 073d 3607 38bd 0de1 b93d f236 873d
00000140: 4b03 6e3c 5cc5 513c d239 553c 2099 bcbb
00000150: bd41 a5bd 2c37 9f3c a027 e43d 816d 553d
00000160: 74bb 253d ae15 f33d c8fa 81bd 0265 44bd
00000170: f67e cf3d 0c06 153d 2a86 e8bd 6c05 163e
00000180: 207e 553c 6b5c bfbd 649c 9fbd d5b3 813d
00000190: 986f f43d f984 0abc 296c f9bc 0982 24bd
000001a0: 66fd 18bc 94c6 9abd 1f1d e6bd c4d5 6bbc
000001b0: b162 0a3e d41f c93c 578d 0bbd a14e 8abd
000001c0: 5e41 97bd e57b 18be 2030 4a3d 4cd6 57bd
000001d0: 7356 37bd b6ae c13d 8a1c cdbc 4150 a43c
000001e0: 610b bb3d fc8d ba3d 418e 9abd 5837 bdbd
000001f0: b711 a5bb 2380 e03d fb84 48bc e592 f9bc
00000200: cc83 5b3d e117 ad3d 254c 923d 501e f33c
00000210: 7217 a8bd 16c1 203d 96c5 923d 2ded 9f3d
00000220: 8f04 e73c 9af8 393d 2818 153d 01e6 93bd
00000230: 132e aebc 91d0 d63d d672 c3bd fc85 573d
00000240: 2293 cf3d dad2 df3d 62ee 92bd ab4d efbd
00000250: 1775 a1bd 69ed 80bc f391 aebd 4ed8 083d
00000260: a462 df3d 2822 e2bd 0857 bdbd 5f8c 2dbd
00000270: 56ca d3bd 00fc 6d3d c108 8a3d 1615 02be
00000280: 0c2d 4eba 748c 92bd 7178 bbbd c74f 4bbd
00000290: 8d46 ba3d d615 f6bd a84b 9f3d 63c6 86bc
000002a0: 8d6f efbd b07f 533d 6cfe d43d fcca 083d
000002b0: 24a9 fcbd a8ee 81bc 7569 2bbd 92cd 1dbc
000002c0: a8b7 b63d 0752 faba 92ac 893d 4051 7d3d
000002d0: e143 183c 8afc e8bd 037c c73d 7958 e9bd
000002e0: ab17 a9bd 2a73 d83d e858 edbd f379 f4bd
000002f0: 4e4a dbbd 2a25 8f3d b32c bb3d 122e 4c3d
00000300: 7f1e afbd 97b1 e0bd b144 313c ae70 c93d
00000310: 425d e03b 41e0 20bd 504e 5f3d 7724 f2bd
00000320: 84e0 d73d 78b5 afbb af8a 86bc 6fb1 1dbd
00000330: b6b8 93bd 78bd b93c 2c5f eebc 39d4 06bd
00000340: 8585 7dbd 8ee4 91bd a644 91bc 63b2 8f3d
00000350: 579f c4bd 46ef 503c dc9f 59bd ce44 fcbd
00000360: 0c1b 763d 8e61 01bc 4344 3e3d c637 e33b
00000370: 2274 d8bc b2eb 533c 7b3b 523d 4a8c de3d
00000380: 77f9 0b3d 64d0 c83c 469f b23d fcf3 49bd
00000390: 445f b9bd 3fe0 8abd 83d0 5bbd 4130 98bd
000003a0: bff3 67bd 597f 903d 262b a1bd 92d5 a83d
000003b0: c15f 85bd dda1 583d 6143 ddba 6aa7 cb3d
000003c0: 8aa3 a6bd a54f 82bd 801e 733d ff67 94bc
000003d0: f7b9 b6bc ef19 e63d 8acd 80bd b165 3fbc
000003e0: 5aba 8ebd e0f0 2dbd c6aa 853d cff5 90bd
000003f0: 0027 0fbd d8b9 7b3d 7340 d63d 7569 62bd

button_cnn.1.0.bias f4 [16]
-0.0724438 -0.052301917 -0.08985336 -0.029266402 0.07203099 0.094832115 -0.06426944 0.019796625
-0.08614167 0.07184706 -0.057339728 0.017997658 0.03636381 0.056981914 0.05362832 0.08603317
00000000: 6a5d 94bd 893a 56bd 0a05 b8bd 18c0 efbc
00000010: fc84 933d 5737 c23d b29f 83bd 882c a23c
00000020: 0b6b b0bd 8d24 933d 10dd 6abd d36f 933c
00000030: 38f2 143d de65 693d 5fa9 5b3d 2932 b03d

fc.0.weight f4 [256, 192]
0.010622224 -0.024687972 -0.064471975 0.008726077 -0.019822303 -0.014912673 -0.03170267 0.003429362
0.00022843089 -0.0459778 -0.018553315 -0.05008287 -0.07027747 0.043368295 -0.031404592 -0.04853506
-0.048741072 0.05219163 -0.03999313 0.013483501 0.020822706 0.046781607 0.04546235 -0.015242817
-0.0023066024 -0.022252392 -0.076256156 -0.014921837 0.03330524 0.022732163 -0.06869812 0.0036925795
-0.023777973 -0.07319693 -0.036971666 -0.041886266 -0.031493045 0.03555875 -0.044218093 -0.06849312
0.024847517 0.05154041 -0.013014995 -0.03157121 0.054436374 0.028925192 0.057091113 0.03468424
-0.026157644 -0.0072260974 -0.06929326 0.061900143 -0.06977563 0.027223727 0.012315645 -0.06089379
-0.061960466 0.046242174 -0.060237702 0.028931238 0.032228734 -0.0027050963 -0.01461338 0.039980914
-0.04774138 0.02199032 -0.052094344 0.00079495896 -0.01325023 -0.040325895 -0.02442302 0.017390419
-0.049396362 0.05185491 -0.05277337 0.02778829 -0.008663214 0.029069537 -0.070090875 -0.053096935
-0.060018312 0.055475883 -0.00037565012 -0.019303849 -0.028014045 -0.022108724 -0.023858605 0.061506994
0.065687574 0.06012792 0.0005028386 0.037348922 -0.050164472 0.024171617 -0.041363083 0.019237872
-0.021722294 -0.07214727 0.009604538 -0.0022375076 0.026014216 -0.052791733 -0.03391663 -0.002345081
0.003518753 -0.0026280696 -0.051745255 -0.07332888 -0.04508519 0.06968085 0.008037874 0.010028675
0.025635356 0.012250148 -0.043863952 0.05514046 0.052686267 0.017567014 -0.019561263 -0.026417432
0.010911426 -0.07474898 -0.07326272 -0.052340385 0.030841796 -0.013534967 -0.034651555 -0.07441348
-0.06885497 0.0370891 -0.058521647 0.03780426 -0.05284241 0.023269318 -0.04148203 -0.06930013
0.04703231 -0.003968657 0.027662858 -0.0027905256 -0.06162349 0.049517334 -0.050063886 0.01269275
-0.04518155 -0.030803805 -0.03546347 -0.050320115 -0.04181382 -0.077726 0.010213996 0.036243156
0.032928184 0.029506745 -0.0034046732 -0.026290074 -0.04515336 0.012367434 0.017568491 -0.045732196
-0.04963831 -0.06394064 0.05452106 -0.058343474 -0.0531515 0.016048452 -0.04960954 -0.0348114
-0.035601728 0.014768736 0.010487211 0.02631199 0.013862627 0.022908483 0.00079688855 -0.00062485214
0.03386636 0.021099789 -0.03329404 -0.03099667 0.030590465 0.026884625 0.013704726 0.038358387
-0.06540363 -0.033841286 0.06021527 0.043112013 0.059354957 -0.002700795 0.052673664 -0.07362136
-0.002453 -0.051253565 0.059781235 -0.03843255 0.031320263 0.04541676 0.038719222 0.051693972
0.035602923 0.061297454 -0.0049336096 0.01953685 0.026100338 0.022775786 -0.014121859 -0.040530976
0.027390515 0.053706672 -0.058778916 0.011830874 0.04222606 0.054137457 -0.030026967 -0.065510325
-0.022118531 0.030721363 -0.031194793 -0.062275577 0.01358836 0.05181788 -0.0018231572 -0.045761548
-0.07533906 -0.042682003 0.03375119 -0.034157485 0.0040446133 0.04308856 -0.0508191 -0.019570109
-0.054895397 -0.028892681 -0.0017833331 0.0039269137 0.0378056 0.06337407 -0.053895753 0.027412986
-0.057528347 -0.0102112 0.026462903 -0.022780027 0.016430177 -0.032433327 -0.0082512135 -0.0045518707
-0.00017688014 -0.030832121 0.009403843 0.06313168 -0.03892009 -0.034843758 0.049980383 -0.072969936
00000000: d608 2e3c 6e3e cabc e209 84bd d2f7 0e3c
00000010: 6262 a2bc 4954 74bc a9da 01bd 26bf 603b
00000020: f386 6f39 3853 3cbd 1ffd 97bc b223 4dbd
00000030: a2ed 8fbd f4a2 313d 1aa2 00bd b3cc 46bd
00000040: b8a4 47bd e4c6 553d d6cf 23bd e7e9 5c3c
00000050: 6194 aa3c 129e 3f3d bb36 3a3d 02bd 79bc
00000060: 5e2a 17bb a64a b6bc 302c 9cbd b87a 74bc
00000070: 136b 083d cd38 ba3c 9ab1 8cbd 34ff 713b
00000080: 06ca c2bc 46e8 95bd 9a6f 17bd ef90 2bbd
00000090: dafe 00bd 0da6 113d 081e 35bd 1f46 8cbd
000000a0: 058d cb3c 091c 533d d83c 55bc d050 01bd
000000b0: adf8 5e3d 86f4 ec3c 5fd8 693d 1011 0e3d
000000c0: 8e48 d6bc e6c8 ecbb a0e9 8dbd 018b 7d3d
000000d0: 87e6 8ebd 4b04 df3c 8fc7 493c c46b 79bd
000000e0: 42ca 7dbd 6f68 3d3d cfbb 76bd 3401 ed3c
000000f0: 4702 043d fc47 31bb f56c 6fbc 07c3 233d
00000100: 778c 43bd 0b25 b43c e160 55bd cb64 503a
00000110: 7e17 59bc c42c 25bd c912 c8bc 5a76 8e3c
00000120: d753 4abd d065 543d e428 58bd 45a4 e33c
00000130: 27f0 0dbc 3d23 ee3c ce8b 8fbd 2c7c 59bd
00000140: c3d5 75bd ae3a 633d e8f2 c4b9 1b23 9ebc
00000150: b67d e5bc 5b1d b5bc 1f73 c3bc c2ee 7b3d
00000160: 3587 863d b248 763d edd0 033a 2ffb 183d
00000170: 4379 4dbd 8e03 c63c 566c 29bd be98 9d3c
00000180: f4f2 b1bc f3c1 93bd 5a5c 1d3c 26a3 12bb
00000190: c41b d53c 253c 58bd 2aec 0abd eeaf 19bb
000001a0: e19a 663b b13b 2cbb d5f2 53bd 742d 96bd
000001b0: 40ab 38bd d5b4 8e3d 49b1 033c 504f 243c
000001c0: 3d01 d23c d8b4 483c b0aa 33bd f7da 613d
000001d0: 8ecd 573d b3e8 8f3c f13e a0bc 5f69 d8bc
000001e0: d6c5 323c fe15 99bd c40a 96bd df62 56bd
000001f0: efa7 fc3c c4c1 5dbc caee 0dbd 1866 98bd
00000200: d603 8dbd bdea 173d 65b4 6fbd a4d8 1a3d
00000210: 4871 58bd 4c9f be3c 10e9 29bd 3aed 8dbd
00000220: f4a4 403d 820b 82bb 389d e23c 40e1 36bb
00000230: ea68 7cbd b0d2 4a3d ca0f 4dbd 41f5 4f3c
00000240: 4a10 39bd 4358 fcbc 2542 11bd 771c 4ebd
00000250: f844 2bbd cf2e 9fbd 9b58 273c b473 143d
00000260: b4df 063d 21b8 f13c f020 5fbb 485e d7bc
00000270: bbf2 38bd c7a0 4a3c cceb 8f3c af51 3bbd
00000280: 8a51 4bbd 4ff3 82bd 7a51 5f3d 91f9 6ebd
00000290: 63b5 59bd 0b78 833c 5f33 4bbd 6696 0ebd
000002a0: 1ed3 11bd 92f8 713c 8dd2 2b3c 3e8c d73c
000002b0: 1220 633c 92aa bb3c 49e6 503a 1ecd 23ba
000002c0: 74b7 0a3d 77d9 ac3c 555f 08bd baec fdbc
000002d0: db98 fa3c 253d dc3c c989 603c af1d 1d3d
000002e0: 57f2 85bd 299d 0abd 49a4 763d 3996 303d
000002f0: 2f1e 733d d2ff 30bb 57c0 573d ccc6 96bd
00000300: 83c2 20bb 42ef 51bd 2bdd 743d 736b 1dbd
00000310: ad49 003d ed06 3a3d 0c98 1e3d 0fbd 533d
00000320: 5fd4 113d 0a13 7b3d 1eaa a1bb be0b a03c
00000330: 60d0 d53c 4994 ba3c 5f5f 67bc cf03 26bd
00000340: 1362 e03c 87fb 5b3d 29c2 70bd 48d6 413c
00000350: 3cf5 2c3d 3dbf 5d3d 1dfb f5bc 472a 86bd
00000360: ec31 b5bc 5eab fb3c 398c ffbc ad14 7fbd
00000370: b6a1 5e3c fc3e 543d 01f7 eeba 7670 3bbd
00000380: 5d4b 9abd 53d3 2ebd b03e 0a3d b8e8 0bbd
00000390: ad88 843b a17d 303d b027 50bd 7e51 a0bc
000003a0: ffd9 60bd 58b0 ecbc bbbe e9ba 57ad 803b
000003b0: 0bda 1a3d 44ca 813d cbc1 5cbd 3391 e03c
000003c0: d8a2 6bbd e14c 27bc bbc8 d83c 2e9d babc
000003d0: 9498 863c cfd8 04bd 1930 07bc dc27 95bb
000003e0: e778 39b9 a593 fcbc 9412 1a3c 2f4b 813d
000003f0: ac6a 1fbd 54b8 0ebd 3bb8 4c3d 4371 95bd

fc.0.bias f4 [256]
0.055161573 0.010125222 0.029569888 0.036188316 -0.060046222 -0.05992518 -0.06541927 -0.07029099
-0.033175226 0.022630734 -0.01297401 -0.0020898278 0.02881315 -0.0079855975 0.051781237 -0.05482589
0.0710112 -0.042805634 0.055197142 0.004723153 0.02231319 0.016968274 0.05890324 -0.0055460534
0.047459595 0.019187136 0.00019501601 -0.04315812 -0.07275375 0.027429607 0.052575313 0.02431012
0.040872425 0.059734628 0.014609002 -0.027503038 -0.0055693914 -0.058407944 0.02737155 0.0095999045
0.029259333 -0.005951281 0.029423065 0.042518266 0.012594848 0.013231891 0.020318089 -0.0020520221
0.0042305887 -0.07334762 0.016312573 -0.015246882 0.052747387 -0.043179132 -0.063132696 0.029954944
0.06304116 0.06284919 0.03061247 -0.008981152 -0.011223303 0.02325791 -0.009382279 0.019994326
-0.055427987 0.01198146 0.051478177 0.07427046 0.026781334 -0.042930875 -0.052628353 0.052587416
0.06749376 -0.034806784 0.00114324 0.03637008 0.0058129462 -0.04590365 0.01748579 -0.054409113
-0.06437413 0.046170987 0.019629277 -0.019264126 0.060400892 0.027095437 0.04067022 0.056695867
0.029416548 -0.06428079 0.04306816 0.034353822 -0.022119302 0.0029687986 0.017311698 0.00406054
-0.06344868 -0.072768755 -0.047313467 0.007772082 0.06324465 0.03483725 -0.056682985 0.0058595533
0.05946376 -0.012855841 0.024360133 0.057434574 0.0014683432 -0.02418488 0.030937042 0.058976438
-0.05944137 0.024614124 0.033621665 -0.012146107 -0.07260857 -0.030136563 0.034574308 -0.06637726
0.02651526 0.03395827 -0.02700728 -0.074002944 0.0495085 0.016626062 -0.035741486 -0.029975098
0.034272656 0.050551448 -0.02618317 0.050386332 -0.0075608348 -0.05658827 0.025608236 -0.005348772
0.007681817 -0.06408645 0.0069109877 0.034039516 0.06866216 0.034679573 0.05791871 -0.011188644
-0.052715153 -0.04705202 0.048986174 -0.064030595 0.022435857 -0.019909233 0.017323151 0.07212305
0.04054634 0.0016977572 -0.0038631929 -0.0069687334 0.03384027 -0.03466554 -0.0549286 -0.066399306
0.01991594 -0.06093081 -0.0099440925 -0.05621253 0.03227863 -0.036619797 -0.027705386 -0.030386826
-0.04871245 -0.010716897 -0.031562354 -0.010944917 -0.06172081 -0.052525777 0.002038332 -0.03609541
-0.01286688 0.05164671 -0.017050268 -0.038692646 -0.055487618 -0.04918378 0.048064936 -0.014797575
0.050512247 0.06046177 -0.03187291 0.021739678 0.020850806 0.0052155214 -0.06344139 0.043482438
0.012099249 -0.063109815 0.06406 -0.057785485 -0.039171226 -0.06946985 0.016457908 -0.0022130278
0.016746018 0.023760086 -0.013454899 -0.01667784 0.026488826 -0.074223 0.04017481 -0.036013052
0.0264833 0.037639312 -0.05690884 -0.031028844 -0.06638927 -0.050181404 0.055443253 -0.03696383
0.031360805 0.030243596 0.0579879 -0.06319087 0.0021478632 0.0013904013 0.024311803 0.004170684
0.05883441 0.018130096 0.04455877 -0.0012974346 -0.051994942 -0.02171066 0.041677356 0.045987025
0.048928425 0.045261107 0.0034449883 0.03287754 0.07899377 -0.0002050111 -0.02003288 -0.074678995
-0.025030203 0.049007695 0.016352918 0.041235413 0.03451735 -0.025546787 -0.032344773 0.07545804
-0.036489055 0.012193287 -0.013114979 0.021588743 0.004824401 0.043569896 0.04366322 -0.027047863
00000000: 1af1 613d 42e4 253c 8d3c f23c 333a 143d
00000010: 07f3 75bd 1b74 75bd 8afa 85bd b9f4 8fbd
00000020: bfe2 07bd 1764 b93c f190 54bc 7ef5 08bb
00000030: 8e09 ec3c 06d6 02bc 9018 543d 1d91 60bd
00000040: 526e 913d f654 2fbd 6616 623d aec4 9a3b
00000050: 27ca b63c 0d01 8b3c 8644 713d abbb b5bb
00000060: fe64 423d 572e 9d3c 367d 4c39 92c6 30bd
00000070: ebff 94bd 0eb4 e03c 3659 573d 0426 c73c
00000080: d869 273d 4cac 743d 985a 6f3c 0d4e e1bc
00000090: 717f b6bb 2b3d 6fbd 4d3a e03c eb48 1d3c
000000a0: 45b1 ef3c f702 c3bb a408 f13c a227 2e3d
000000b0: 9f5a 4e3c 93ca 583c 1f72 a63c 387b 06bb
000000c0: c0a0 8a3b 4737 96bd f2a1 853c 0fce 79bc
000000d0: a50d 583d 9adc 30bd b74b 81bd 1264 f53c
000000e0: b91b 813d 13b7 803d 01c7 fa3c af25 13bc
000000f0: f2e1 37bc 5f87 be3c 21b8 19bc 24cb a33c
00000100: 7508 63bd e34d 443c c8da 523d 1c1b 983d
00000110: 8764 db3c 49d8 2fbd d490 57bd e765 573d
00000120: 2b3a 8a3d 8f91 0ebd c5d8 953a cbf8 143d
00000130: 877a be3b 7705 3cbd 5c3e 8f3c 17dc 5ebd
00000140: 95d6 83bd ca1d 3d3d 94cd a03c cdcf 9dbc
00000150: ed66 773d 40f7 dd3c d195 263d ed39 683d
00000160: f9fa f03c a6a5 83bd 3d68 303d 98b6 0c3d
00000170: 8a33 b5bc 2d90 423b 43d1 8d3c 470e 853b
00000180: 62f1 81bd c907 95bd c4cb 41bd f3ac fe3b
00000190: 6986 813d 81b1 0e3d 6b2c 68bd 7f01 c03b
000001a0: 4690 733d 4ea1 52bc e78e c73c 8440 6b3d
000001b0: 6c75 c03a 5f1f c6bc ae6f fd3c 4791 713d
000001c0: cb78 73bd 8fa3 c93c dfb6 093d 7700 47bc
000001d0: cdb3 94bd f4e0 f6bc ca9d 0d3d cdf0 87bd
000001e0: 8836 d93c d417 0b3d 5f3e ddbc db8e 97bd
000001f0: 6dc9 4a3d 6133 883c aa65 12bd 568e f5bc
00000200: 7c61 0c3d 090f 4f3d 167e d6bc e661 4e3d
00000210: e1c0 f7bb 1ac9 67bd 5dc8 d13c c044 afbb
00000220: c0b7 fb3b c23f 83bd 9175 e23b 056d 0b3d
00000230: bf9e 8c3d 2b0c 0e3d 2b3c 6d3d 9350 37bc
00000240: d8eb 57bd 9eb9 40bd baa5 483d 7922 83bd
00000250: 67cb b73c b018 a3bc 48e9 8d3c 40b5 933d
00000260: eb13 263d 4787 de3a 9f2d 7dbb f959 e4bb
00000270: 189c 0a3d 74fd 0dbd d0fc 60bd 5cfc 87bd
00000280: c126 a33c 9692 79bd 8cec 22bc 1c3f 66bd
00000290: 9936 043d a4fe 15bd 68f6 e2bc cbed f8bc
000002a0: b586 47bd ed95 2fbc 8747 01bd 4f52 33bc
000002b0: f6ce 7cbd 4525 57bd 8995 053b c8d8 13bd
000002c0: 9bcf 52bc 808b 533d 01ad 8bbc 2e7c 1ebd
000002d0: fc46 63bd ee74 49bd bddf 443d 8771 72bc
000002e0: eee5 4e3d c3a6 773d 2b8d 02bd 6917 b23c
000002f0: 4fcf aa3c f7e6 aa3b 8fed 81bd a41a 323d
00000300: ee3b 463c b83f 81bd e431 833d 79b0 6cbd
00000310: 0272 20bd 3546 8ebd bcd2 863c 7208 11bb
00000320: f22e 893c 83a4 c23c f071 5cbc f79f 88bc
00000330: 18ff d83c 3a02 98bd 578e 243d 6c82 13bd
00000340: 81f3 d83c ae2b 1a3d 3e19 69bd 3430 febc
00000350: 19f7 87bd 048b 4dbd 7718 633d 6367 17bd
00000360: 3074 003d 6bc1 f73c b884 6d3d 376a 81bd
00000370: 2ac3 0c3b 203e b63a 8c29 c73c 3caa 883b
00000380: 5afc 703d 9185 943c 4283 363d ae0e aaba
00000390: a6f8 54bd 8eda b1bc e0b5 2a3d e45c 3c3d
000003a0: 2c69 483d b663 393d 50c5 613b 99aa 063d
000003b0: 7cc7 a13d 40f8 56b9 ff1b a4bc 4df1 98bd
000003c0: 240c cdbc 4bbc 483d 8ef6 853c 77e6 283d
000003d0: 1162 0d3d 7f47 d1bc f47b 04bd bf89 9a3d
000003e0: 8c75 15bd 5ac6 473c 35e0 56bc e0da b03c
000003f0: 0216 9e3b 5976 323d 34d8 323d 7b93 ddbc

fc.3.weight f4 [12, 256]
0.008384062 -0.006226238 0.022321777 -0.021538595 0.033104327 -0.005031703 0.030380525 0.005446941
0.028584324 -0.004126653 0.02734501 0.021083545 0.0066379285 0.031262226 0.045549635 -0.010269897
0.030534633 0.048769966 0.045378406 -0.057104763 0.03925736 0.021172937 -0.036134005 0.02077485
0.04815919 0.008588686 -0.04152056 -0.05922514 -0.030667527 -0.0002741934 0.055317912 -0.0025508911
0.02525596 0.02491884 0.02100846 -0.057603706 0.04971678 -0.049985506 -0.050418954 0.023324385
0.04854921 -0.03382235 -0.00496799 -0.02196633 -0.029737907 0.0107836025 -0.0063230614 -0.037269764
-0.04821684 -0.020431476 0.0081890095 0.044578303 -0.06049685 -0.036893982 0.026448231 -0.012569313
-0.04655689 -0.04673343 -0.04212792 0.020382693 0.043533295 0.017224995 -0.010473043 -0.004571779
-0.004722022 0.020800542 -0.033876095 -0.039685354 0.0034284126 0.03735277 -0.054852158 0.009648615
0.03138061 0.019736668 0.071375884 -0.012490748 -0.022664126 0.016182559 0.06888093 -0.034918327
0.07246508 -0.022249557 -0.04120262 -0.042925213 -0.046301257 -0.04125651 0.035185132 -0.022459935
-0.060390368 -0.0459739 -0.019651867 0.04514918 0.0152744 -0.066072136 -0.05897469 0.026491143
0.028424364 0.026856419 -0.002831514 0.04172683 0.014239238 0.0495074 -0.061453387 -0.0004998858
-0.017458942 -0.010488603 -0.015434604 0.0028333785 0.047479525 -0.015862841 -0.040835723 0.028024584
-0.060504556 0.049862493 -0.069523856 0.04485855 0.041239697 -0.03477676 -0.0055398475 -0.03176481
0.015213472 -0.058848105 -0.044168532 -0.031810332 0.036410782 -0.006642016 -0.03124662 0.035263535
0.005761238 -0.011608656 0.040107306 -0.05434722 0.03338011 0.052977655 -0.014364595 -0.020182699
0.044575736 -0.05280412 0.01726712 0.00097620685 -0.04666136 -0.04711616 -0.08772709 -0.0519575
0.02833854 -0.022530189 -0.025987826 0.053695828 -0.023738746 0.007598411 -0.03393733 -0.057885025
0.041095812 0.02979066 -0.051328864 0.03828161 0.022575269 -0.059541713 0.0039732833 -0.028604642
0.012279135 0.021858715 0.021925487 -0.04521292 0.054788426 0.041287567 -0.04372316 0.03923027
0.026965274 0.013462295 -0.04257672 0.03939575 -0.0316973 0.009297649 0.05239914 0.04061484
0.0629157 0.016463293 -0.014483849 -0.0009961688 0.03260493 -0.058799226 -0.020372003 -0.011625717
-0.04773377 0.0332737 0.050268862 0.022301756 -0.057277102 0.007885442 -0.02051918 -0.04618746
-0.030439293 0.045071524 -0.04778815 -0.008963321 -0.04574839 -0.0058112317 0.053578813 0.0065105716
-0.034202673 -0.03565487 0.024186721 -0.04639484 -0.046022773 -0.051494084 -0.0008661013 0.026381198
0.022594687 0.019785048 0.0021557368 0.054510236 -0.05262134 0.03317713 -0.019936342 0.026098555
0.002423263 0.05543017 0.052900184 -0.042395156 0.054362006 0.00045756798 -0.052851234 0.049099848
-0.037158854 -0.03779772 0.053804975 -0.02020143 -0.06199178 -0.056627017 -0.02938011 0.0045620617
0.023684625 0.047792904 0.027084095 0.0037564822 -0.031635106 -0.03806561 0.038187053 0.05485034
-0.048579283 -0.012959041 0.033408817 0.0067470674 0.015660817 -0.051673535 -0.025688997 -0.022604773
-0.029218502 -0.05982575 -0.023219254 -0.0531947 -0.047855794 -0.06527572 -0.057902597 0.04050379
00000000: 4e5d 093c 7805 ccbb 29dc b63c b571 b0bc
00000010: 6798 073d fce0 a4bb 94e0 f83c 417c b23b
00000020: ac29 ea3c e038 87bb a402 e03c 66b7 ac3c
00000030: fb82 d93b d20c 003d 4192 3a3d 1243 28bc
00000040: c423 fa3c 04c3 473d b5de 393d afe6 69bd
00000050: 53cc 203d de72 ad3c 4001 14bd 0530 aa3c
00000060: 9242 453d 8fb7 0c3c 7611 2abd 0f96 72bd
00000070: 773a fbbc 9dc1 8fb9 0995 623d da2c 27bb
00000080: 96e5 ce3c 9822 cc3c ef19 ac3c ddf1 6bbd
00000090: d3a3 4b3d 9abd 4cbd 1b84 4ebd c812 bf3c
000000a0: 89db 463d 4e89 0abd 85ca a2bb bcf2 b3bc
000000b0: e99c f3bc b5ad 303c af31 cfbb 2ea8 18bd
000000c0: 057f 45bd e95f a7bc 322b 063c bd97 363d
000000d0: 8ccb 77bd 251e 17bd f6a9 d83c 85ef 4dbc
000000e0: 70b2 3ebd 8e6b 3fbd 538e 2cbd 9bf9 a63c
000000f0: f84f 323d 6f1b 8d3c 2097 2bbc ddce 95bb
00000100: 31bb 9abb e665 aa3c a9c1 0abd 1c8d 22bd
00000110: 38af 603b 38ff 183d a8ac 60bd 3915 1e3c
00000120: f488 003d cbae a13c 852d 923d ffa5 4cbc
00000130: 1eaa b9bc 4991 843c 7211 8d3d 8506 0fbd
00000140: 9268 943d b444 b6bc 14c4 28bd 59d2 2fbd
00000150: 63a6 3dbd 96fc 28bd 491e 103d e6fd b7bc
00000160: e45b 77bd 214f 3cbd f4fc a0bc 59ee 383d
00000170: 7a41 7a3c d450 87bd 728f 71bd f403 d93c
00000180: 36da e83c fe01 dc3c ec90 39bb c1e9 2a3d
00000190: b14b 693c 45c8 4a3d 8cb6 7bbd c50a 03ba
000001a0: 0e06 8fbc 64d8 2bbc 6ce1 7cbc 34b0 393b
000001b0: e479 423d caf2 81bc 5c43 27bd d093 e53c
000001c0: a0d3 77bd 9d3c 4c3d 8662 8ebd 99bd 373d
000001d0: f5ea 283d 1372 0ebd 9c87 b5bb d11b 02bd
000001e0: ed41 793c b60a 71bd 10ea 34bd 8d4b 02bd
000001f0: 7923 153d 45a5 d9bb e9f8 ffbc 7f70 103d
00000200: c4c8 bc3b 3b32 3ebc 8f47 243d 319b 5ebd
00000210: 95b9 083d 19ff 583d 7a59 6bbc 3056 a5bc
00000220: 0c95 363d 2249 58bd c673 8d3c 22e8 7f3a
00000230: fb1f 3fbd e0fc 40bd 43aa b3bd 63d1 54bd
00000240: 3a26 e83c 3b91 b8bc 6ce4 d4bc 28f0 5b3d
00000250: c277 c2bc 17fc f83b df01 0bbd d918 6dbd
00000260: 1554 283d 8b0b f43c 373e 52bd 2dcd 1c3d
00000270: c5ef b83c 03e2 73bd 5132 823b 4854 eabc
00000280: 6d2e 493c 0c11 b33c 149d b33c 2f31 39bd
00000290: d469 603d 271d 293d 0e17 33bd ebaf 203d
000002a0: 47e6 dc3c f590 5c3c ed64 2ebd 705d 213d
000002b0: 07d5 01bd 2b55 183c 7ba0 563d bf5b 263d
000002c0: f2d9 803d 07de 863c aa4d 6dbc e191 82ba
000002d0: bf8c 053d 75d7 70bd 30e3 a6bc cb79 3ebc
000002e0: 7c84 43bd 014a 083d b9e6 4d3d 2cb2 b63c
000002f0: 659b 6abd f131 013c d717 a8bc 102f 3dbd
00000300: d35b f9bc eb9c 383d 82bd 43bd e5da 12bc
00000310: aa62 3bbd 256c bebb 7575 5b3d a256 d53b
00000320: 1a18 0cbd d70a 12bd 3b23 c63c 8408 3ebd
00000330: 6082 3cbd 76eb 52bd 130b 63ba 621d d83c
00000340: 7e18 b93c 4114 a23c 4347 0d3b 2046 5f3d
00000350: 7989 57bd bee4 073d 8a51 a3bc a3cc d53c
00000360: 9bcf 1e3b bf0a 633d ddad 583d 8ba6 2dbd
00000370: b2aa 5e3d bce5 ef39 897a 58bd ec1c 493d
00000380: e233 18bd c8d1 1abd 9b62 5c3d 787d a5bc
00000390: 18eb 7dbd bbf1 67bd 8eae f0bc 597d 953b
000003a0: 4206 c23c 7ec2 433d 77df dd3c 502f 763b
000003b0: d093 01bd afea 1bbd 076a 1c3d c0aa 603d
000003c0: 12fb 46bd 2852 54bc afd7 083d 8116 dd3b
000003d0: 1d4b 803c a1a7 53bd bb71 d2bc a52d b9bc
000003e0: a45b efbc d80b 75bd 4e36 bebc b0e2 59bd
000003f0: 7004 44bd 47af 85bd 462b 6dbd 4de7 253d

fc.3.bias f4 [12]
-0.004640873 0.04024564 0.047014955 -0.014351587 0.022050045 0.045282647 -0.010351469 0.061467893
0.04335448 -0.00067684636 -0.02327559 -0.02743247
00000000: 7712 98bb 9dd8 243d c192 403d eb22 6bbc
00000010: 4ca2 b43c 4c7a 393d 3599 29bc c2c5 7b3d
00000020: 7894 313d 646e 31ba 73ac bebc 0fba e0bc
