cnn_fighting_agent_starter/outputs/20251017_184435/model.pt (torch, 239835 bytes, 12 tensors)

state_cnn.0.0.weight f4 [16, 3, 3, 3]
00000000: 2e68 30be 2063 21bc 269a cb3d dd59 d7bd
00000010: 48fe 5d3c 5647 aebd 163a 2f3d 6292 053d
00000020: b5cb f13d 0b06 163e 3b4f 833d 55e8 1e3e
00000030: fcf7 16be 24ee 38be 2173 63bd 82aa c9bc
00000040: f875 55be 6725 26be a030 363e e778 0c3e
00000050: 5abb 87bd f14f 29bd e98f 96bd e89f 063e
00000060: e8a9 293e aaa3 2e3d ab62 6d3d 8bf8 263e
00000070: 7a11 19be 40f6 48be b7a0 1a3e 149c eaba
00000080: 7041 12bc 201f 97bd aebe f93d a43f d7bd
00000090: 798d ebbd f084 b6bd a824 24bd 622f 273d
000000a0: e5dc dc3d e0ce a9bd ee0f b93d b2ff 04bd
000000b0: 07b6 39bd 5579 89bb 6d70 2b3d 61e1 d33d
000000c0: 214f 393b 87aa b2bd 4e82 03be 1bb0 9dbc
000000d0: 0c70 053e 2ece 52be cbc6 a73d a10c 283d
000000e0: 0067 04bd 1bf6 2abe a95b 05be 5d53 e93d
000000f0: a741 8abc fdb4 2cbb 3a18 ad3d 483c 07be
00000100: acbb 053b 9dff d53d 2159 f0bd 3116 993d
00000110: 54ec f33d fb16 7f3d 4bbf 383c 6550 04bd
00000120: c6ac 053d 1cd4 d3bd 03e5 be3c f0bf 2abe
00000130: c5af abbd 4835 2c3e 9b52 35be e990 d93c
00000140: 22bb d13d cd91 de3c 7331 80bd 2d45 2d3e
00000150: 080e 033b 885f 053d 4fb4 e33d 6fa8 803c
00000160: a465 dcbd 7cf1 abbd e3f3 8c3c 746e 5ebd
00000170: 9f9b efbd cc48 e5bd acc0 07be d5d2 fabd
00000180: be50 033e 80cb cabd 9f6e 353e 9ca6 94bd
00000190: 9cc1 74bd 3cb3 953d 3652 7e3c c49e 603d
000001a0: 7cef cabc de6a 75bc 7057 ed3d bf30 19be
000001b0: b793 043d fb83 21ba 5815 033d 722a f33d
000001c0: 9da9 173e 4fa1 923b 5e47 e43d a95f 993d
000001d0: fab9 d93d 23bd 003e 7011 1b3e ced3 033e
000001e0: 50ef 20bc 368f bd3d af88 32bc b4c2 9c3d
000001f0: 84af 343e 555b e8bd e3a7 edbd 8c42 093e
00000200: f781 debb d684 0abe e71c 853c bef1 9c3d
00000210: 28d8 243e 6227 9fbc a992 7b3d 0905 35be
00000220: fd7d fabd ee21 623d b811 ad3d 5918 03bd
00000230: ef7f 3a3e 8ba9 dbbd 753e d83d ee7f 05bd
00000240: 3430 323d 1d07 39be 5885 d23d ae86 eabd
00000250: a839 30be a489 18be 0a95 cc3d aaed 05be
00000260: bc26 99bd dc95 a4bd 7530 f6bd 6b50 a33d
00000270: db7f 33be 0fce 203e e6ad 123e 85d6 403e
00000280: c113 463b 425c d0bd 5667 393e 38d0 0dbe
00000290: d41e 113e 79b1 7a3d 5cb2 7fbc 515d c1bc
000002a0: bddd 1a3e b1fd ae3d 2dd7 21be 0fc5 cc3d
000002b0: 3916 173e 9b0c 02be 9014 0fbe 8721 1b3e
000002c0: 9ce3 f3bc 0895 993b 0304 103d 6f9b 10be
000002d0: 2bb2 c0bd 4e62 c53d 6279 8dbd f081 02be
000002e0: 901f 1ebe 281f 733d 1935 17bd c81e 96bd
000002f0: 40c9 cdbd ded7 1fbe 785f 15be e5f8 27be
00000300: 181a 043e 2d02 43be 9d8f ed3d b00b f83d
00000310: ca32 a3bd c893 fc3d 0406 02be 3764 f13c
00000320: 827d 3bbe 0e6b 01be b864 e93d c925 babc
00000330: 2673 6e3b 7526 173d cfdf 183e 2fcc 02be
00000340: ff4b 4abd f608 21bd 1b59 29bd 60c9 8a3c
00000350: fcd8 df3c 0fc0 38be 921e 023e 9e7d e33c
00000360: 2fc4 a6bd d188 10be 0fea 9dbd 1431 14be
00000370: d087 dc3d 0543 983d 3c51 a13d bd49 b73d
00000380: f621 16be 7052 30be 9b17 35be eaa0 39be
00000390: 5fab 033e 5264 e63d 120d ccbd d50c da3c
000003a0: 4e31 31bd 196a 273d 5a22 8a3d 6d98 843d
000003b0: 01bd b53c 1f05 193e 3a17 3ebe 098e 313e
000003c0: 0466 0cbe d432 243c a0ed c03d 063c 123e
000003d0: 2932 1dbe 2188 313d 1671 dbbd ab65 e73d
000003e0: 470e ad3d 4550 ecbc da39 0fbe 0f24 303e
000003f0: 4771 b63d 3ff8 c13d 1417 dbbd 4519 9dbd
-0.17227241 -0.009850293 0.09941511 -0.10515187 0.013549395 -0.085097 0.042780004 0.032610305
0.11806432 0.14650743 0.064115964 0.15518315 -0.14743036 -0.18059593 -0.055529717 -0.024617437
-0.20845783 -0.16225205 0.17791986 0.13717996 -0.06627531 -0.041336004 -0.073516674 0.13146937
0.1656872 0.04263655 0.057955425 0.16305749 -0.14948073 -0.19625187 0.1510037 -0.0017899298
-0.008926734 -0.073789835 0.121945724 -0.10510185 -0.11501593 -0.089120746 -0.04007402 0.040816672
0.1078432 -0.082914114 0.090362415 -0.032470413 -0.04533961 -0.004195372 0.041855264 0.10345722
0.0028275924 -0.08723932 -0.12842676 -0.019249013 0.13031024 -0.20586464 0.081922136 0.04102767
-0.03232479 -0.16695444 -0.13023247 0.113928534 -0.016877009 -0.0026352995 0.084518865 -0.13206589
0.002040605 0.10449145 -0.1173575 0.07474936 0.119103104 0.062277775 0.011276077 -0.032303233
0.032635473 -0.10343191 0.02330256 -0.16674781 -0.08383135 0.168172 -0.17707293 0.026558356
0.10240771 0.027169133 -0.06259432 0.1692092 0.0019997377 0.03256181 0.111183755 0.015705315
-0.10761574 -0.08395669 0.017206138 -0.054304555 -0.11699604 -0.111955255 -0.13257092 -0.12247244
0.1282377 -0.09902096 0.1771798 -0.07258341 -0.059754953 0.07309577 0.01552253 0.05483891
-0.024772398 -0.014979092 0.11588943 -0.14960001 0.032367434 -0.0006161329 0.032002777 0.1187333
0.14810796 0.004474796 0.11146425 0.07488949 0.10631175 0.1257215 0.1514337 0.12873766
-0.009822682 0.09255831 -0.010896846 0.07654324 0.17645079 -0.11345545 -0.116042875 0.13404292
-0.0067903954 -0.13527235 0.016249133 0.07663296 0.16098082 -0.019427959 0.061419163 -0.17677702
-0.122310616 0.05520814 0.08450645 -0.03200564 0.18212865 -0.10725697 0.10558788 -0.032592706
0.043503 -0.1806912 0.102793396 -0.11451469 -0.17209494 -0.14896256 0.099893644 -0.13078943
-0.07478091 -0.08036396 -0.12020961 0.07974323 -0.17529242 0.15703605 0.1432415 0.18831833
0.0030224177 -0.10173847 0.18105826 -0.1384896 0.14171916 0.061204407 -0.015606489 -0.023604067
0.15123649 0.085444815 -0.1580474 0.099985234 0.14754571 -0.12700121 -0.13972688 0.15149508
-0.029771619 0.0046869554 0.035160076 -0.14121793 -0.09408983 0.09637891 -0.069079176 -0.1274488
-0.15441728 0.059355885 -0.036915872 -0.0733009 -0.10048151 -0.1560969 -0.145872 -0.1640354
0.12900579 -0.19043799 0.11599658 0.12111604 -0.079686716 0.123328745 -0.12697607 0.029466731
-0.18309596 -0.12638494 0.11396164 -0.022723095 0.0036384552 0.03690191 0.14929126 -0.12773202
-0.04938888 -0.039315186 -0.041344743 0.016941726 0.027325146 -0.18042015 0.12706974 0.02776986
-0.08142888 -0.14114691 -0.07710659 -0.14471847 0.10768092 0.07434658 0.07876822 0.08949611
-0.14661393 -0.17218947 -0.17684786 -0.1812779 0.12858342 0.11249603 -0.099634305 0.026617447
-0.04325991 0.040872667 0.06744833 0.064743854 0.02218485 0.1494336 -0.18563548 0.17339338
-0.13710791 0.010021884 0.09420323 0.1428071 -0.15351166 0.043342713 -0.10714929 0.112986885
0.08449989 -0.02884687 -0.13986912 0.17201255 0.08908325 0.09471177 -0.10697761 -0.076708354

state_cnn.0.0.bias f4 [16]
00000000: 6938 32bd 7cd2 553d 73eb db3d 17c6 21b9
00000010: 2330 07bd 10f8 f73d 5bef 90bd 88af e93c
00000020: 28ef 00bd fa7c 9d3d bbbb 47be 5081 9fbd
00000030: bcca 043e 22fd 413e bd8c 1a3d 7b6b 00be
-0.04351083 0.052202687 0.10738268 -0.0001542795 -0.03300489 0.12107861 -0.070769034 0.028526083
-0.031478077 0.07689853 -0.19505207 -0.07788336 0.12967962 0.18944219 0.037731875 -0.12541

state_cnn.1.0.weight f4 [32, 16, 3, 3]
00000000: 9f8d 7cbd a4aa 6ebc 20ad 61bd 6c7b a5bd
00000010: fd66 86bc c957 aa3b d600 1fbb 285f bfba
00000020: 0a16 de3a b61e 3f3d b38c 9c3d 994d 553d
00000030: 90c4 383d fb6e 52bc 6dea acbd 8a60 163b
00000040: be64 acbd e6a1 363d 989e c6ba 7371 a6bd
00000050: 1530 0abd d728 3a3d e608 493d 074c 0fbd
00000060: f531 eabc 77dc 5c3d de2e 8c3c 1557 c4bc
00000070: 7fb4 eabc 9282 59bb 2b9e a2bd 8206 883c
00000080: 2349 c33c 59c7 bcbc 3d06 0b3d d74b 913d
00000090: 019f 12bd d062 64bc 5cb5 013d 5e3b 2b3d
000000a0: 8ec0 4b3d 2b07 77bd ecca 4c3c a9bb 79bc
000000b0: 1ea1 20bd 9558 a2bc cb91 4f3d 5186 76bd
000000c0: f62d 8abd 17b2 05bd ef69 2b3d 62f2 1c3d
000000d0: f439 083d 32fd 853c 25a1 a7bd 51fb 783d
000000e0: 87a6 a83d 224b e63b f7ac 52bd b598 0e3d
000000f0: 3b7f c1bd ee2f babd ef64 c43c b45b 963c
00000100: 6277 abbd 70e0 b8bd ddd7 98bd a2d6 1a3d
00000110: 6f6a d33c eacb 8c3d fe72 a93d c80e a2bc
00000120: dca0 c93c dc6b c0bb ea2d b8bd 838e 8f3c
00000130: 0115 7c3c 978c 00bd cb1a ae3a 2392 4fbd
00000140: 3bd1 91bd ef3f 7b3d ceb7 603d b46e 123d
00000150: 6b50 063d 7c72 6c38 d957 32bd 83e4 a5bb
00000160: b457 f3bc 42d8 773d 51c5 81bd eba9 fd3a
00000170: 08c7 80bd 4af0 8d3d af11 0c3c c380 3d3d
00000180: 2bea a8bd b63e 403d 205a 6b3c f084 083d
00000190: 029f 3ebd 59b1 f0bc 54a5 233d b44d d4bc
000001a0: d843 ec3d a6d8 22bd 1f90 40bd c2b3 b1bc
000001b0: 97c5 9f3d 71e8 603d e8a0 47bc 154b f5bc
000001c0: a219 2cbd f6f8 733d c573 95bd e034 3b3c
000001d0: 40c3 7ebd 74cc 963d 28ce 303c 38f0 6ebd
000001e0: 2702 a9bc b4e2 a93d 9e42 793d b329 8cbd
000001f0: 2853 bf3c 045f a13c a287 ac3b 7877 013c
00000200: c2e4 e83a ba42 90bd b2af 903b ca66 38bc
00000210: 8d0f a5bd 6980 1fbd 0c3e 5dbc 5b13 173d
00000220: e8f3 2b3b cbca 87bd 1ef4 6dbd 17f1 7fbd
00000230: d21f adbd 08e7 39bd a4a7 ac3d cf8d cc3a
00000240: da55 96bd ca94 e03c a4eb 96bd 260f a63d
00000250: 9c4e 7b3d dfd3 9abd b2c2 843d 705d 19bd
00000260: aefc f63c 8afa 8fbb 0998 973d 7225 3c3b
00000270: 344f 3a3d af61 26bd 88e7 8c3c 70c1 36bd
00000280: 42a2 323d 7335 d83c 80fb 43bd e935 633c
00000290: 39f0 983d 36f1 05bd 44e5 853d db58 4cbc
000002a0: 7ee1 943c 385c 8a3d ea27 13bd 6081 9fbd
000002b0: 7576 4abd 4e92 173c 1e2c 0a3d 51d9 eabb
000002c0: 675d 4a3b 0657 1f3d 7053 233d 2469 ba3a
000002d0: 88d7 643d e7a6 17bb 223e 853d 36e4 2b3d
000002e0: 7bec 1f3d 861f 243d 0917 aabd 772f a1bd
000002f0: c4a7 283d 07df 923d 406e 80bd fbb7 783d
00000300: 4f8a 333c d827 293d 568b 1c3d 4f59 84bb
00000310: 3220 b3bd dfbe 1b3d d7e3 36bd 26e2 97bd
00000320: 3b7a 613d 203c 963d 26e1 68bd ef3d 33bd
00000330: 4c66 89bd cbaf 6c3d ac3a 0f3d e9cb 0d3d
00000340: 3c47 153d ea87 dcbc 7301 be3c 47ea 90bd
00000350: c1ef 9bbd 6486 aebc 2e4a bb3c 6b71 363d
00000360: dd7b 2e3d 01a8 ca3a a4fc a8bd 5b1d 6e3b
00000370: 04c3 cebc 387b 6d3d c173 233d 45fb 82bb
00000380: d64f 5cbd 42b1 94bd 69e7 813d 9a2d 613d
00000390: 9a19 9f3c 9fbe 2abd e0bb 293d f6a3 c6bc
000003a0: b0ee 5bbc d877 2b3c 1727 9bbd 1160 e2bc
000003b0: f6a3 babc 7acd 7fbd 2792 783d d8a3 8bbd
000003c0: 9bca bebd 07b6 1cbd 7c81 adbd 201a c53c
000003d0: 6604 2c3d 67ce 923d e15b a03d 60dd 59bd
000003e0: c2a8 dfb9 d01c e6bc 18c6 9ebd b6db ec3c
000003f0: d060 d2ba bcfc 963d adb4 813c fc4f b9bc
-0.061658498 -0.014567051 -0.055096745 -0.080801815 -0.01640653 0.005198453 -0.0024261973 -0.0014600502
0.0016943824 0.046660148 0.07644024 0.052075956 0.04510933 -0.012843843 -0.08443151 0.0022945725
-0.084176525 0.044587992 -0.0015153466 -0.081271075 -0.03373726 0.045449104 0.04908075 -0.034984615
-0.028588274 0.05392119 0.017112192 -0.023967305 -0.02865052 -0.0033189398 -0.079403244 0.016604666
0.023838585 -0.023044275 0.033941496 0.070945434 -0.03579617 -0.013939574 0.0316671 0.041804664
0.04974418 -0.06030957 0.012499552 -0.015242496 -0.039216153 -0.01981763 0.05067615 -0.060186688
-0.067470476 -0.032640543 0.041849073 0.03831709 0.033258393 0.016356084 -0.08185033 0.06078655
0.082348876 0.0070279995 -0.051434483 0.0348136 -0.094480954 -0.09091173 0.02397391 0.018354274
-0.0837238 -0.09027183 -0.07463048 0.037802346 0.025807587 0.06874831 0.08273886 -0.019782439
0.024612837 -0.005872233 -0.089931324 0.01752401 0.015385867 -0.031384077 0.0013283131 -0.050676476
-0.07119986 0.06134027 0.05486279 0.035750106 0.032791536 5.6373407e-05 -0.04354081 -0.005062641
-0.029704906 0.060508974 -0.06336463 0.0019353008 -0.06287962 0.06930597 0.008549138 0.046265375
-0.08247789 0.046934806 0.014364749 0.033329904 -0.04653836 -0.029381441 0.03995259 -0.025915958
0.11536378 -0.039757393 -0.047012445 -0.02169216 0.07801359 0.054909173 -0.012184359 -0.029943028
-0.042016633 0.0595636 -0.07297472 0.011426181 -0.062197924 0.07363215 0.010791339 -0.05833456
-0.02063091 0.08295193 0.060854547 -0.06843891 0.023355082 0.019698627 0.005265192 0.007902019
0.001776837 -0.07043977 0.0044154758 -0.011254976 -0.08059607 -0.03894082 -0.013503563 0.036883693
0.0026237909 -0.066304766 -0.058094136 -0.06248578 -0.08453335 -0.045386344 0.084304124 0.0015606227
-0.07340594 0.027414698 -0.07369164 0.08108358 0.061354265 -0.075599425 0.06482448 -0.037442625
0.030149784 -0.0043938803 0.07402045 0.0028708843 0.04548569 -0.040620502 0.017200246 -0.04461807
0.043611772 0.026392674 -0.04784727 0.013867834 0.07467694 -0.03270074 0.065378696 -0.012472357
0.01817393 0.067558706 -0.035926737 -0.07788348 -0.049429376 0.00925119 0.03373348 -0.0071670194
0.0030878426 0.03890135 0.039874494 0.0014222008 0.05586961 -0.0023140253 0.065059915 0.041965686
0.039043885 0.040069126 -0.08305175 -0.07870381 0.04117562 0.07171445 -0.062710285 0.060722332
0.010958268 0.041297764 0.03821882 -0.0040389667 -0.08746375 0.038023826 -0.04465088 -0.07416181
0.05504821 0.07335687 -0.056855343 -0.043760236 -0.06708965 0.057784837 0.034968063 0.034618292
0.036444888 -0.026920278 0.02319405 -0.07075935 -0.07614089 -0.021304317 0.02286252 0.044541758
0.042598594 0.0015461446 -0.082513124 0.0036333415 -0.025239475 0.05797884 0.039905313 -0.003997239
-0.053787075 -0.07260372 0.06342966 0.05497513 0.019421387 -0.041685697 0.041438937 -0.024248105
-0.013423607 0.010465585 -0.07575815 -0.027633699 -0.02278326 -0.062451817 0.060686257 -0.0681836
-0.09315988 -0.038259532 -0.08471963 0.024060309 0.041996382 0.071682744 0.078300245 -0.053189635
-0.0004265961 -0.02808991 -0.07752627 0.02891336 -0.0016050581 0.07372424 0.015833223 -0.022621147

state_cnn.1.0.bias f4 [32]
00000000: 0807 b43c f33a 093d 8897 d7bc e0a5 043d
00000010: 73c9 a93d 962b 3a3d dd67 723b e6a3 803d
00000020: 969b 91bd ef9d 8ebd 9d66 9abd 35d2 6e3d
00000030: 1b55 75bd 30a9 a03d 617c 5d3d ce80 91bd
00000040: 0a09 5ebd 1855 a7bc 2453 8cbd 3f5c cc3c
00000050: a0c9 aebd 52b7 043d 2e47 82bd b5d9 923d
00000060: 14e8 783d 5674 9f3c 9d36 96bc d090 e6bc
00000070: a048 7c3d 262c 30bd 6e43 183d 47d5 98bd
0.021976009 0.033503484 -0.026317373 0.032384753 0.082903765 0.045451723 0.0036988177 0.06281261
-0.07109754 -0.06963717 -0.07539103 0.058305938 -0.059895616 0.0784477 0.054073695 -0.07104646
-0.05420784 -0.020426318 -0.06851795 0.02494633 -0.08534551 0.03240139 -0.06361233 0.071704306
0.060768202 0.019464653 -0.018336589 -0.028145224 0.061592698 -0.043010853 0.03717368 -0.074625544

button_cnn.0.0.weight f4 [8, 1, 3, 3]
00000000: 2628 0ebe 840f 813e 05d7 97bd f8d4 46be
00000010: 0f3d 6a3e bdeb 9e3e 9651 863d b466 833e
00000020: 3487 393d a441 9cbe 0ff4 3bbd b3e4 8fbe
00000030: e152 c13d 0dc5 9abe 7b2b 84be f639 b1bd
00000040: b1c4 623e 3126 cdbd 5949 993e 468d 3f3e
00000050: f834 3cbe b05b 763e 2399 4a3e 848f 91bc
00000060: 3033 853e 0488 84be 128c 0c3e 0866 903e
00000070: c6f2 183e bab2 913e 9195 56bb 3a7c 1c3e
00000080: 61cf 4d3d f574 20be bb6c 16be ee66 9dbe
00000090: c75e 163c a19b 643e 6f9d a63e 9e81 00bd
000000a0: 6047 a2be 033d dfbd 43ea 963e 585f 013e
000000b0: 4a44 2d3e 953a 93bd 0ada f63d a069 223e
000000c0: 287a 0e3e 6b61 443e 115d 2b3d 1898 83be
000000d0: e0c6 9f3e 537d b6bc f884 abbe fdf4 583e
000000e0: ba00 a13e ea03 a1be 9745 203c 9257 02be
000000f0: cf30 9f3e 731e dcbd b45f 533e f4e6 73be
00000100: 61dd 9abd bc29 183e cdb0 32be d3ff 2fbd
00000110: 817b 263d 2297 a73e ae21 4abe c1c0 dcbd
-0.13882503 0.2520715 -0.074140586 -0.19417179 0.22874855 0.3103923 0.0655853 0.25664294
0.045294955 -0.3051883 -0.04588705 -0.2810417 0.09439636 -0.30228463 -0.25814423 -0.08653633
0.22145344 -0.1001705 0.29938772 0.18706235 -0.18379581 0.24058414 0.1978498 -0.017768629
0.26015615 -0.25885022 0.13725308 0.28202844 0.1493636 0.2845667 -0.0032742957 0.15281764
0.0502466 -0.15669616 -0.14689915 -0.30742592 0.00917787 0.22324993 0.32541987 -0.031373613
-0.3169508 -0.10900309 0.29475603 0.12634027 0.16920581 -0.07188908 0.120533064 0.15860605
0.13913786 0.19177787 0.041836802 -0.25701976 0.31206417 -0.022276556 -0.33499885 0.21187206
0.31445867 -0.314483 0.0097822165 -0.12728718 0.31091926 -0.10747995 0.20641977 -0.2381857
-0.07561756 0.1485967 -0.17450257 -0.042968582 0.040645126 0.32732493 -0.1973941 -0.107789524

button_cnn.0.0.bias f4 [8]
00000000: ef84 e23d 9d32 5bbe 4a8f c03d f0a2 0d3e
00000010: 3638 8dbe 5aeb 85be d020 803d 5cd3 75be
0.11060511 -0.21406026 0.0940233 0.13831687 -0.27581948 -0.26156121 0.062562585 -0.24006408

button_cnn.1.0.weight f4 [16, 8, 3, 3]
00000000: 316c 9ebd a1e6 6fbb 04e5 c93d 3d3e 84bd
00000010: b479 2c3d 6cbb cbbc eb4c 5ebd 9363 493d
00000020: 06e3 8e3c cbbd a53d af66 f63d 1856 23bd
00000030: adf0 7b3d 9cb6 833d 6fd7 c5bd 272b bd3c
00000040: c601 f7bd 1c60 69bd e419 bd3d db61 c33d
00000050: 9163 8f3d df96 4dbc 4ce3 a53c a63d 30bd
00000060: 54c5 ab3c ef19 983d 7bd9 033c 8044 883d
00000070: a24a 6d3d 6b6b 92bd 4819 e63d 00b9 ec3c
00000080: 7562 433d 35ad b73d 825b 79bd da4e c2bc
00000090: d3b3 8a3d 55a9 183d 6809 b9bd 3847 193d
000000a0: 1020 c03d 0482 adbd 9ca2 303d 4baf c2bd
000000b0: b5f0 01be 1804 943d 416f 58bc a750 93bd
000000c0: df5e fd3c c8ad 9e3d 5bb9 453b 93eb 78bd
000000d0: 13db e2bd 15dd ebbd 9e0f cd3d 38c2 873d
000000e0: 51c4 b0bd 0615 df3d decc 8abd 241c 80bd
000000f0: 013c cd3d 1edd 4abc 6dba 95bd 43f6 073c
00000100: 3f30 a93d 9ee4 793d 1f4d 403d 8422 ca3d
00000110: 3df6 eb3d 275e c53d ae27 a93c 6f6c 8e3d
00000120: b16f fbbc a676 f2bc 22b6 d43d 6bde dc3c
00000130: 2813 33bd 0c09 c6bd 0b58 63bc b3d3 c9bd
00000140: 23e9 89bd f445 f3bd 8d2d ac3c ebdb b3bd
00000150: 421b 073d 4546 bb3d e2f4 ce3d c682 a9bb
00000160: 12c9 be3d 0d23 5e3d 2c47 5cbd 9e04 e4bd
00000170: 6e1c 773d d6ab bebd 1149 543d ef3f cebd
00000180: 237f 9abb db96 f6bd 4814 69bd 8911 883d
00000190: 8fbb 343c 7de3 c83c e6cf 0c3d d5b5 1cbd
000001a0: 89da eebc fa4a a83d 0ee6 8e3d e151 243d
000001b0: df89 5bbd 4534 25bd aa09 e8bd c8b7 43bd
000001c0: 2be7 abbd 1ecf ec3c 23d3 df3c 05f3 573c
000001d0: da41 3c3d 4fe4 f9bd df02 113d a0a5 d03d
000001e0: a682 8a3d 40ff 99bc fc27 58bd d5ac 323d
000001f0: 256b 923d d86b e5bd 52ff be3d bef9 47bd
00000200: a01a 943d 7338 913d df72 5dbd c998 4bbd
00000210: 1e71 f4bc 85ea a3bd a2d3 963d 9904 1f3d
00000220: ed76 febc 9cbb 31bd c3bd a73c 2e02 afbc
00000230: 9c30 b63d 1934 efbd 85f0 b93c b2f3 8a3b
00000240: 80c2 b8bd e4c5 60bd 22bd a13d b02c 8d38
00000250: 9a64 e63d 7333 59bd 50cf b23d 0842 5bbd
00000260: 813e 19bd be15 c8bd c8ef 7e3d c0f8 863d
00000270: 5fb8 a0bd 4852 513b 5431 4cbd e1ef d8bc
00000280: 33dc 49bd 6e9f dbbd 67a8 d23d a104 3fbd
00000290: d47d b0bd 3444 ccbd 92f2 14bd de96 fcbc
000002a0: 39a7 a63d 96d6 17bd 15a6 12bd 01c6 4fbd
000002b0: 505a 483d 370c 98bd 7cda 6c3c f1b4 173d
000002c0: efaa 67bd 2b82 fd3c a68e 063d c370 603d
000002d0: 823d 873d edfc a1bd 560e 753d f5ec 34bc
000002e0: 770e b93d 34a9 d93d 72ae 603d 3384 71bd
000002f0: 1b83 2d3d f839 22bd 7ac2 d2bd 4984 773d
00000300: 94f9 80bc 7c50 adbd e392 9dbc ee45 26bd
00000310: ec83 113c 8d66 e4bb f107 c9bd 3987 56bd
00000320: 72aa b83c 1114 76bd f786 bdbd 9689 07bc
00000330: 8f38 c13c 7e4b ae3d 940f ccbc 40f5 c63d
00000340: 4a5a 8f3d 9a54 a53d 2858 a33d 621d 883b
00000350: c333 853d ae98 ab3d d013 7f3c 9c7e 8d3d
00000360: 34b0 183d 2f8a 563d 135c 1ebc a5f2 8c3d
00000370: a973 28bc 2dd1 af3c 95a2 1a3d 5672 a7bd
00000380: ef15 d9bd 28ef 91bd e37d b63b 2586 fd3c
00000390: b708 b9bc a60e e23c 3bc9 52bd 54b1 c5bc
000003a0: 901b 1c3d 8cf0 a8bd 7d43 12be 2074 55bd
000003b0: ab6e d63d 7e26 bf3c c1bb d13d 6cb6 8a3d
000003c0: b1ee 943c ca52 a13d 6eac 65bd 0311 603d
000003d0: a81e ecbd 2b28 a63d f927 90bc bf49 a83d
000003e0: 13b2 b13d 0164 6a3c 5266 023b a5a4 cbbc
000003f0: de38 8b3d 80be 5cbd 8be5 cabd e3c2 823c
-0.077354796 -0.0036605971 0.098581344 -0.064571835 0.042108253 -0.024869643 -0.054272573 0.049167227
0.017442238 0.08092841 0.12031304 -0.039877027 0.061508823 0.06431314 -0.09660231 0.023091866
-0.12060885 -0.056976423 0.09233454 0.09540149 0.07001413 -0.0125481775 0.020249985 -0.043027543
0.020968117 0.074268214 0.008047457 0.0665369 0.057932504 -0.071493946 0.11235291 0.028896809
0.047701318 0.089685835 -0.060878284 -0.02371924 0.0677258 0.037270863 -0.09034997 0.037421435
0.093811154 -0.08472064 0.043123826 -0.09506091 -0.12689479 0.07227343 -0.013210119 -0.071931176
0.030929027 0.0774799 0.0030170295 -0.060771536 -0.11076941 -0.115167774 0.10012744 0.06628841
-0.086311944 0.10892682 -0.067773566 -0.062553674 0.100212105 -0.01238182 -0.073109485 0.008298459
0.08261155 0.061009042 0.04694855 0.098698646 0.115215756 0.09637099 0.020648804 0.06954276
-0.030692907 -0.029597592 0.103863016 0.026961526 -0.04371944 -0.09669694 -0.013875972 -0.098548315
-0.067339204 -0.11878577 0.021017814 -0.087821804 0.03298498 0.09144262 0.101053014 -0.00517306
0.09315695 0.054232646 -0.053778812 -0.11133693 0.060329847 -0.09310119 0.051827494 -0.10070788
-0.004714863 -0.12040492 -0.056904107 0.066439696 0.011031046 0.024522537 0.034377955 -0.038259346
-0.02915694 0.08217426 0.06977473 0.04011715 -0.05359828 -0.04033305 -0.11329968 -0.04778269
-0.08393701 0.028907355 0.027322358 0.013180499 0.04596124 -0.122017495 0.03540313 0.101878405
0.067632005 -0.01879847 -0.052772507 0.043621857 0.071493424 -0.1120221 0.09326042 -0.048822157
0.07231641 0.07090845 -0.054064628 -0.049706254 -0.029839095 -0.080037154 0.073645845 0.038822744
-0.031062568 -0.04339181 0.020476228 -0.021363344 0.0889599 -0.11679859 0.022697696 0.0042404765
-0.09021473 -0.054876223 0.07897402 6.7317276e-05 0.11249657 -0.05302758 0.08730948 -0.05352977
-0.037413124 -0.09769772 0.062240392 0.06590414 -0.07847666 0.0031939913 -0.04985173 -0.02648157
-0.049282264 -0.10723768 0.102860264 -0.046635274 -0.0861775 -0.09973946 -0.036364146 -0.030833658
0.08137364 -0.03706988 -0.03580292 -0.05072594 0.048914254 -0.07424205 0.014456388 0.037037794
-0.0565595 0.030945858 0.032850884 0.054795038 0.066035286 -0.0790957 0.059828125 -0.011042823
0.09035962 0.10627976 0.054853864 -0.058963966 0.04236136 -0.039606065 -0.10291 0.06042889
-0.015744008 -0.08462617 -0.01923508 -0.040594034 0.00888155 -0.006970233 -0.09815968 -0.052375052
0.022542212 -0.06007773 -0.09254258 -0.008272549 0.02358654 0.08510493 -0.024909772 0.097147465
0.06999643 0.08072777 0.07975799 0.0041538933 0.065040134 0.08378731 0.0155686885 0.069089144
0.037277415 0.052377876 -0.009665507 0.06882218 -0.010281482 0.021462047 0.037752707 -0.08176105
-0.105998866 -0.071256936 0.005569206 0.030947754 -0.022587163 0.027594876 -0.05146144 -0.024132408
0.038112223 -0.08249006 -0.14283557 -0.0521127 0.10470327 0.023333784 0.10240889 0.067730755
0.018180223 0.07877119 -0.056072645 0.054703724 -0.11529285 0.0811313 -0.017597185 0.08217191
0.08676543 0.014306069 0.0019897413 -0.024858782 0.06797956 -0.053892612 -0.09907063 0.01596207

button_cnn.1.0.bias f4 [16]
00000000: 2cb6 5d3d b03a 04bd 626d cbbd 344e b83d
00000010: bdfa 2fbd 353c eebc ffe5 9e3b af9a 54bd
00000020: fbd7 eebd a735 78bd 0f1a cc3d 1661 bb3d
00000030: 77f8 7f3d 4998 49bb 41dd a5bd 28cc 043d
0.05412881 -0.03228253 -0.099329725 0.08999291 -0.042963732 -0.029081443 0.004849195 -0.05190533
-0.11662289 -0.06059804 0.09965908 0.09149377 0.062492814 -0.0030760935 -0.080988415 0.03242126

fc.0.weight f4 [256, 192]
00000000: 787d 84bd 6b70 2ebc f5b4 efbc 565e b03b
00000010: 94d5 12bd c883 18bd c112 99bd 70fd 5cbd
00000020: 0f70 593d 0cf6 e23c 7a36 883d 79bb b33b
00000030: 5527 443d f1d7 b3bc 24a9 02bd c711 63bd
00000040: cdfb 9cbd b734 d2bb 4bf7 773d e9df 8f3d
00000050: 2f95 ca3b ce13 0dbd 3c42 503a 3d00 483d
00000060: 4b6c 103c 05c0 dbbc e4a7 913b 21fb 7e3c
00000070: 736b 593d 7485 36bd 50fc 11bc 0ab1 81bd
00000080: 1e76 e3bc dde9 a63c ecd2 1e3d b4b6 31bd
00000090: 95de 08bd 4d41 ecbc 17d2 853d 4c04 33bc
000000a0: 0b66 95bc cd44 f9bc 5c46 833c 4811 533b
000000b0: 4d97 f9bb 29e1 193d e53a 85bd ab99 883d
000000c0: 54e6 723d 0359 0dbd f6a9 fd3c 8ade 7bbd
000000d0: 0886 7abd 3ee8 693d 3abe 2f3a 3e92 413c
000000e0: f111 953c 3778 7abd 24b0 de3c 1463 863d
000000f0: 4f70 4f3d 96d9 cb3a 6bc4 a5bb f3c3 31bc
00000100: 4b6f 02bc 725f 60bc c50b 3ebb e389 3c3d
00000110: 1a9c 32bd cd6d 2bbd cd01 be3a fd8b 7abc
00000120: a487 e5bc 38c5 e83c 9f79 83bd 9031 4cba
00000130: 975d a2bd db01 133d 6d84 85bd 33c5 92bd
00000140: adc0 973d 80de 033d 8a73 153d 4959 13bd
00000150: 7c7a 333d 515e 34bd de02 58bc a884 2ebd
00000160: 9925 64bd 4f89 b6bc b203 87bc 353a 1b3d
00000170: 24e7 8cbb 9705 603d 3a05 053d 4299 b03b
00000180: adc7 03bd 67ef 75bd 634b 823d e8d2 05bd
00000190: 34f1 53bd fd64 0f3d 5912 0b3d eea8 e93b
000001a0: 93a6 46bd 098d 653d 2073 893c 9a06 87bd
000001b0: 40dd dd3c 3a26 81bc 609d 833c 5efe 3c3c
000001c0: 2778 3fbd 972e 39bd 6133 abbc 437d cebc
000001d0: 9565 79bd 2f9c 793d fba2 ae3c e0eb 123d
000001e0: 65aa c3bc 13b7 093d 05c7 5d3d 4803 843c
000001f0: 5698 8dbc 2ac8 bb3c 405f 18bd 4300 3d3d
00000200: df28 0d3b c935 03bd 3192 e83c de9f c83b
00000210: 0492 0b3d aa8f cb3c 8057 923d a9bb 863d
00000220: db68 72bd b3b8 88bd b790 ac3c da19 89bd
00000230: e842 91bd 30e6 aebc b8ad b63c 4af4 403c
00000240: 9024 003d 4d99 ab3c 531f a1ba 0ef7 b53b
00000250: 1943 843d 1e35 53bc e25f 01bd 2f9e 443d
00000260: 0993 8c3d d7d9 923d 0fff 893d 7226 89bc
00000270: 0c8b 8cbd 962d 143d 6241 183d 0864 b93c
00000280: cea2 3dbd f14a 97bd 98d5 02bd a1e5 b93b
00000290: 3695 7fbc 5a0c 443c 7d90 1abd 2401 65bd
000002a0: 7498 50bd 79a2 e33c ca26 abbc d3a1 a3bd
000002b0: 5a80 9a3c 676d 053c 532c 4bbc c88a bc3d
000002c0: d799 11bd 2995 d63c 940e 4e3d 76d1 e0bc
000002d0: 7734 99bd 27bf 8b3a 678b 4cbc 2220 4fbd
000002e0: e784 e23c 3b39 883d b37f 8dbd b9a9 ca3b
000002f0: 3ad8 a1bd 647d ac3c fdd9 33bd c191 513c
00000300: 82f2 a63c de4c 513d 9da5 a1bd 6a13 ea3c
00000310: 7840 723d 9ae2 8cbc c1a7 4ebd bc86 40bd
00000320: fa2b cbbc 00b3 5e3c f2ce 74bd 16c8 d63c
00000330: 8f04 0ebd f159 f0bc 6b7f 933d ddc1 563c
00000340: 8ab1 67bd b169 103d 6408 bdbc 4296 16bd
00000350: bdf5 d83b 5721 863d 311f 47bd a185 23bd
00000360: 7f6c 6fbc c166 a1bc e2f8 683d c127 7dbd
00000370: 7da2 31bd 0dbd 39bd 3ceb 9a3b 7adf 1bbd
00000380: 4330 0f3d 5f43 f3bc bc18 823d e419 34bd
00000390: a237 76bb 7bd8 a3bb b88b 4a3d de75 69bd
000003a0: d41f 933d 8589 e4bc 63a8 e9bb e39c 993c
000003b0: d6df 8abd ff99 3dbd a9e3 833d ebc0 14bd
000003c0: 0627 9a3c 37bd 173d d4f4 1f3d 5c81 e23c
000003d0: e8c7 8abd 8d8c 72bc 80b8 a7bc bb6f 463d
000003e0: 50b3 72bd 24b4 cb3c 0e91 113d 4e20 9b3c
000003f0: cda4 153d 548b 3ebd af4d 30bc 4768 4cbd
-0.06469244 -0.01064692 -0.029261092 0.0053823395 -0.035848215 -0.03723505 -0.0747428 -0.053952634
0.053085383 0.027705215 0.066510156 0.005484995 0.047889072 -0.021953555 -0.031899586 -0.055436876
-0.07665215 -0.0064149755 0.06053857 0.07025129 0.006182335 -0.034442715 0.000794444 0.048828352
0.008814882 -0.02682496 0.004445063 0.0155628035 0.053080987 -0.044560865 -0.008910254 -0.06332596
-0.027766284 0.020375187 0.03877537 -0.04338713 -0.033415396 -0.028839732 0.06534212 -0.010926317
-0.018237134 -0.030428315 0.01602476 0.0032206345 -0.0076169134 0.037568245 -0.06505374 0.06669935
0.05930169 -0.034508716 0.030964833 -0.061491527 -0.06116298 0.05710625 0.0006704066 0.011814652
0.018197032 -0.061149802 0.0271836 0.065618664 0.050644215 0.0015552517 -0.0050588152 -0.010849941
-0.007961105 -0.013694631 -0.0028998714 0.046029937 -0.0436059 -0.04185276 0.0014496386 -0.015292165
-0.02801878 0.028414354 -0.06419682 -0.0007789368 -0.07928007 0.03589044 -0.06519399 -0.07166519
0.07409797 0.032194614 0.03648714 -0.03597382 0.043817982 -0.04403526 -0.013184277 -0.04260698
-0.05569992 -0.02228227 -0.016481254 0.037897307 -0.004300015 0.05469283 0.032475688 0.0053893635
-0.032172848 -0.060042765 0.06362035 -0.03267184 -0.0517437 0.03500842 0.033953045 0.0071307337
-0.0484987 0.056042705 0.016778529 -0.06593056 0.02708304 -0.015765298 0.016066253 0.011535255
-0.046745446 -0.045210447 -0.020898523 -0.025206214 -0.06088789 0.060939964 0.02131795 0.03586948
-0.023884961 0.03362186 0.054144878 0.016114846 -0.017284553 0.022922594 -0.037200212 0.046142828
0.0021539254 -0.032033715 0.028390022 0.0061225733 0.0340748 0.024848778 0.071455956 0.06578762
-0.05918203 -0.066758536 0.0210651 -0.06694384 -0.070928395 -0.021349996 0.022299632 0.011776993
0.03128487 0.020947123 -0.001229266 0.005553133 0.0645811 -0.012891082 -0.03158558 0.048002418
0.06863982 0.07170456 0.06738102 -0.016741965 -0.068624586 0.036176287 0.03717173 0.022630706
-0.04629784 -0.07387341 -0.03194198 0.005673126 -0.0155995395 0.0119658355 -0.03773545 -0.05590929
-0.05092664 0.027787434 -0.02089252 -0.0798985 0.01886003 0.008143759 -0.012400704 0.09206158
-0.035547104 0.026194172 0.05030687 -0.027443629 -0.0748071 0.0010661826 -0.012484408 -0.050567754
0.027651263 0.06651541 -0.06909122 0.0061847833 -0.0790257 0.021055885 -0.04390906 0.012791098
0.020379309 0.051098697 -0.07892916 0.02857371 0.059143513 -0.017197896 -0.05045295 -0.047003493
-0.024801243 0.013592482 -0.05976767 0.026218455 -0.034672316 -0.029339762 0.072020374 0.013107744
-0.0565658 0.035257045 -0.02307529 -0.03676439 0.006621091 0.06549328 -0.04861373 -0.03992236
-0.01461327 -0.019702317 0.05687798 -0.06180549 -0.04336785 -0.04534631 0.004727749 -0.03805492
0.034958135 -0.029695211 0.06352374 -0.043970004 -0.003756978 -0.0050001717 0.049449652 -0.056997173
0.07183805 -0.027897606 -0.007130669 0.018751567 -0.067809746 -0.04628944 0.06439907 -0.036316793
0.018817436 0.037045684 0.039051846 0.027649574 -0.0677641 -0.014804018 -0.020473719 0.0484464
-0.059253037 0.024866171 0.035538726 0.018936303 0.03653412 -0.046519592 -0.010760709 -0.049904134

fc.0.bias f4 [256]
00000000: 54b9 04bd 0def 843d 2969 363d bb94 cabc
00000010: dbe8 ccbc ad2c c23c ac99 68bd c64f 823d
00000020: 02df 90b9 d248 aabd 7a31 fd3c 8c61 2abd
00000030: 209c 233d ffff e33b c58c 053d 025c 863d
00000040: 4990 7ebc b834 73bd 130d 8b3d 625c 6ebd
00000050: 1f94 76bd 2637 d7bc 4d93 37bd 0ec1 f43c
00000060: 979d d43c 11e3 d1bc 037d 47bd 4709 813d
00000070: e620 33bd dc5b 23bd e110 03bd 0a34 82bd
00000080: c4ba a53b 8a36 d4bc 617a 673d 9b84 113d
00000090: 1008 703d dc6e 05bd 62ed 423d fe52 40bd
000000a0: 4713 1dbd bc85 03bd 5421 023d 601f 8d3d
000000b0: ee15 b8bc f6e7 6dbd 65a2 8abc cde2 a23c
000000c0: e42c 8bbd d748 2a3d 9f99 033d 94c4 9cbd
000000d0: 8856 7d3d d1b3 c1bc 7c83 f5bc 7b26 2cbd
000000e0: 811c 04bd b096 bf3c fd05 2e3d 0be1 463b
000000f0: 543a 253d 74f3 5abc a245 7c3d 9c67 31bd
00000100: e6c9 673a 7402 d63c 1002 4e3d e940 8fbd
00000110: 7267 1cbd bc54 563d 3258 70bd 3100 36bd
00000120: e8a6 793d 916d 5fbc 3397 723d df8b 9cbd
00000130: 771a 1bbd 1616 57bc 3d66 0dbc d117 023d
00000140: bb67 95bb 68b7 6438 b62f 6fbd d22a 7a3d
00000150: 6421 7abd 1f15 20bd d8c3 3cbc d522 33bd
00000160: 4ced bc3c 750e 343d 65ea 57bc a994 0b3d
00000170: 3574 18bd 1b65 56bd f24d 0d3d 215a 18bd
00000180: 02d6 073c 2f1e 183d d0aa 133d fa25 213d
00000190: 4687 7f3c f0ef 6f3d 0404 1bbd 50de bf3c
000001a0: 9bfa 7fbc c69e 3e3d 0286 43bd cb3f ed3c
000001b0: 980d 983b 0d23 4bbd 964d df3b 0e31 4bbd
000001c0: 2f45 d9bb fd23 1cbd 3504 423d 6c19 223d
000001d0: 7713 57bd 3e91 ee3a 7408 9fbd bcef 69bc
000001e0: 479a 253d 413a 413c 807a 45bb d829 a53c
000001f0: 4d9b 213c 5c5f 3aba 7b17 ebbc 2a69 f73c
00000200: d12c 1ebd 4394 83bb 4810 91bd 5c0b 77bc
00000210: 63a8 9b3d aa29 1c3d a281 63bd b1d3 2b3d
00000220: ab89 b63b 5531 9bbd 84d8 b8bb 6b82 3fbd
00000230: cf4c 4c3d 654e 84bd 124f 613d 71fd 893c
00000240: 3c25 c13c bb72 5fbd 3673 533d a88e 923d
00000250: 3850 52bd aab4 4fbd 1f7f 57bd 0b5b 14bd
00000260: d26d b33c 544d 843d 4fff c7bb fdae c13c
00000270: 6d1c 8d3d 063f 843d e5dd da3c 580a 8d3d
00000280: 436e b73b e570 ecbc bc8a 0cbd 2398 0fbc
00000290: 46f6 833d 0c06 dbba 3f98 4dbd f0e4 4dbd
000002a0: 982d 96ba 7c18 c2bc 49bb 883c 3e2f 70bd
000002b0: 8d26 383d 9b44 80bc bb13 ac3b 9e4c 0fbb
000002c0: 6edf 0a3d 3818 80bd 4572 5c3d f5f0 0fbc
000002d0: b2e5 093d 56b4 773c 88b1 403d 40a3 133d
000002e0: fd48 7a3d bc2b 373d c945 7bbd f82d 44bd
000002f0: 4d5e 233d e848 fa3c 9a3d 973d 37e4 c7bb
00000300: 8f05 4ebd ea0e 34bd 5f15 cabc 099a 5cbd
00000310: 2687 973c b77a e0bb 1738 93bd b127 33bd
00000320: f280 4c3b 14c2 143d e12c 63bc c630 23bd
00000330: f25b 8fbd fd86 143d c06b 6c3b 84c0 773c
00000340: 5699 48bd e526 993d 5063 57bc 6fa8 c0bc
00000350: b067 2cbd c1e1 503d b395 21bd 003c 903d
00000360: 15f6 ea3c 5f91 49bd 6dfb 9bbd b31f 423d
00000370: 252c 783c 53d4 213d dbbb 2cbd b725 7a3c
00000380: 8396 563d d5c5 8fbc c0f8 d4ba c0ca 4dbd
00000390: dc32 7f3d bf54 08bc 84b4 ca3c a280 27bd
000003a0: 76f2 1b3d 3f2b 63bd 75e2 073c e5c4 d53c
000003b0: 6fea 81bc a9e7 983d 54db 85bd db6e 30bb
000003c0: 6d48 19bc 5fe9 e5bc b3b4 72bd b0a7 0bbd
000003d0: 434d 36bc f359 9abd 5e79 81bd 3d0b 233c
000003e0: b854 fe3c c2f4 5ebd 9ab6 1c3d b574 ff3c
000003f0: 8de3 543d 213b 09bd 9081 5d3c 8155 0d3d
-0.032403305 0.06490908 0.044533882 -0.024729123 -0.025013378 0.023702944 -0.056787178 0.06362872
-0.00027631974 -0.083146706 0.030907381 -0.041596934 0.039943814 0.0069580073 0.03260495 0.06560518
-0.01553733 -0.05937645 0.06789603 -0.058193572 -0.060199853 -0.026271414 -0.04481821 0.029877212
0.025954051 -0.025620969 -0.048703205 0.06300598 -0.043732546 -0.039882526 -0.03199852 -0.06357582
0.0050576646 -0.025904913 0.056513194 0.035526853 0.05860144 -0.032576427 0.047589667 -0.046954148
-0.038348462 -0.03210996 0.031770065 0.0689075 -0.022471394 -0.058082543 -0.016923139 0.019883538
-0.067956716 0.04157337 0.032128926 -0.07654682 0.0618501 -0.023645313 -0.029969923 -0.042028885
-0.032253746 0.023387283 0.04248618 0.0030346538 0.04033883 -0.013363708 0.061589845 -0.0433117
0.0008842036 0.026124217 0.050294936 -0.069948025 -0.03818459 0.052326903 -0.05867786 -0.044433776
0.06095019 -0.0136369625 0.059226226 -0.07643866 -0.037867036 -0.013127824 -0.008630333 0.031760994
-0.004559485 5.4530246e-05 -0.05839511 0.061075993 -0.061067 -0.039082643 -0.011521302 -0.04373439
0.02306237 0.0439591 -0.013178443 0.03407732 -0.0372202 -0.052342515 0.034498163 -0.03719533
0.0082907695 0.03713816 0.03605157 0.039342858 0.015596217 0.05857843 -0.037845626 0.023421437
-0.015623714 0.046538137 -0.04773522 0.028961083 0.0046402924 -0.049593974 0.006814669 -0.04960733
-0.006630562 -0.03812026 0.047367293 0.039575025 -0.052508797 0.0018201245 -0.07765284 -0.014278349
0.040430333 0.011793674 -0.003013283 0.020161554 0.009863687 -0.00071095466 -0.02869772 0.030201513
-0.03861696 -0.004015477 -0.070831835 -0.015078392 0.076004766 0.03812567 -0.05554355 0.04194993
0.0055706105 -0.07577769 -0.005641045 -0.046755236 0.049877938 -0.06460265 0.055007048 0.016844483
0.023577325 -0.054552775 0.051623546 0.07156116 -0.051346034 -0.050709404 -0.052611466 -0.036219638
0.021902952 0.06460062 -0.006103433 0.023643011 0.068901874 0.06457333 0.026717136 0.068867385
0.005597861 -0.028862426 -0.034311995 -0.0087643 0.06443457 -0.0016710176 -0.05019402 -0.05026716
-0.001145768 -0.023693316 0.016690867 -0.058638804 0.04495864 -0.015657714 0.0052513755 -0.0021865736
0.033904485 -0.06254619 0.053819913 -0.008785476 0.03366632 0.015118679 0.047044307 0.03604436
0.061104763 0.044719443 -0.06134585 -0.0478954 0.039884854 0.030552343 0.073847964 -0.0061002034
-0.05029827 -0.043959536 -0.024668394 -0.053857837 0.018497061 -0.0068505662 -0.07188433 -0.043739025
0.0031204787 0.0363179 -0.01386568 -0.039841436 -0.06999959 0.036261547 0.0036074966 0.015121583
-0.048974358 0.07478122 -0.013146237 -0.023517815 -0.04209107 0.050996546 -0.039449405 0.07042694
0.028681794 -0.049210902 -0.07616315 0.047393512 0.015147244 0.03950913 -0.04217134 0.015267781
0.052389633 -0.017550388 -0.001624845 -0.050242186 0.062304363 -0.008320986 0.02474428 -0.04089416
0.038073026 -0.055461165 0.008293738 0.026094863 -0.015858857 0.07466061 -0.06535974 -0.0026921544
-0.009355647 -0.028065382 -0.05925436 -0.034095466 -0.011126819 -0.07536688 -0.06321977 0.00995141
0.031046256 -0.054432638 0.03826008 0.03118358 0.05197482 -0.033503655 0.01351966 0.03450537

fc.3.weight f4 [12, 256]
00000000: 9998 77bd 55e2 263d b7c6 48bc 9879 23bc
00000010: bc6c 45bd 1069 11bd f876 46bd b647 673b
00000020: 98d9 87bc 524a 5f3d f15f 3a3d 0497 10bb
00000030: a3af c7bc 7e9c c23c 670e 7fbd 55ac bf3c
00000040: c2a7 8dba a49a c63c 818b 32bd c66f fcbc
00000050: 62ef 1f3d 0d01 b7bc 07d7 4f3d 9848 233b
00000060: a0c4 0cbb 063f 84bd ff25 93bc 7d3a 953c
00000070: 428b 58b9 1030 9bbc e9ca 59bd 92b3 dd3c
00000080: b967 003b 0f65 49bd 67c7 16bd 3459 54bd
00000090: 8662 283d d539 74bd 6db4 04bc 62d6 703c
000000a0: 6b7a e23b b983 dc3c d26d 31bb 67d4 58bc
000000b0: f715 a8bc c650 07bd 55ab d3bc 70f8 7ebc
000000c0: daf0 3abd e9b4 19bd dd54 8d3b 7f9f 07bc
000000d0: 2256 5cbd a831 57bd 016c bbbc 9ca2 3bbd
000000e0: 6f65 5cba c2b8 65bd ebe2 333d 1546 75bc
000000f0: 4aa1 b5bc 6a7c 58bc 7dc1 5dbd f0f9 10bd
00000100: 0339 c3ba cb42 6fbd ccc9 723d f0e5 1cbd
00000110: e122 96ba 8f62 803d c56f 703c 1dee 9d3c
00000120: d516 183d b753 3fbd fcb8 02b8 5dc9 80bb
00000130: 6004 ebbc dca3 f23c b6b6 21bd 6a5b 053c
00000140: 07f4 6cbd c6c9 32bc 38ec 7fbd 82ab e03c
00000150: f83f 7e3c e8c6 bb3a a19b 10bc e0b5 613c
00000160: a566 4fbd 54e8 72bd c4c0 f6bc bbf1 20bd
00000170: 213f 983a bece 603d 427b 99bb 9d91 283d
00000180: 528b 2e3d da42 853d 4157 863d 2d3c c6bc
00000190: 21bb 423c 3a34 50bd 3af5 793c d826 0f3d
000001a0: ab60 0abd a721 8b3c 8163 9cbc d44d ae3c
000001b0: ca8c 533c 6763 553d 3cb3 64bd bd1b 28bd
000001c0: 4c8d 763d b53b 92bc 5e64 2abd c670 01bd
000001d0: fe6f 4f3d 1408 40bd 8a10 d23c b039 59bb
000001e0: a2c8 f6bb fef4 4d3d 4251 77bd 1e23 07bc
000001f0: 9e6d d3bc 82fd 84bd c27a 543d 3cb7 08bb
00000200: 908a abbd 8d29 18bd e237 4b3b e812 45bd
00000210: 893d 1c3d 896c 193d ed20 a93c de83 ccbc
00000220: acab 57bd 37fc 68bd aa54 d83b fdab 963c
00000230: 0e85 2ebd 9971 21bd 9741 8fbc e0e6 fabc
00000240: 6ddb 8ebb ff10 293d d40e 31bd 9564 87bd
00000250: 930f 5f3d e877 0cbd 464f 4cbd 19a6 caba
00000260: d3e8 89bc 4629 bab9 3986 94bb fc20 77bc
00000270: cc0d 5dbd a978 5f3d ec6d a9bb 7c60 b33c
00000280: e112 b7bc 99c0 263b f98b 1a3d bb83 85bd
00000290: ef82 013c b6ea 8bbd ed23 f63b 9afb 43bd
000002a0: 1533 5c3d 4219 63bd b740 56bd 2beb 91bd
000002b0: b7f6 3e3d 8b32 68bc 7587 3cbd 5a28 cd3c
000002c0: 74d6 1abd 8ecd 9ebc b78f 41bd a8ca 5a3a
000002d0: 6587 2cbd ee19 78bc 667e b83b b427 f0bc
000002e0: 8761 81bd 9034 5cbd ee7e 7f3d 0638 b23c
000002f0: bae6 7dbd 24ae 6d3d 6a5f 49bb 9ec1 5dbd
00000300: 11ce 91bb f3ee 03bd da85 d2bc 9176 a8bc
00000310: 0ebe 49bc b65f 1b3d 17bc 12bd beb5 63bd
00000320: c6d7 54bd ee42 5abd 577b 2b3b 8101 06bc
00000330: 3f3f 923c f7e5 1dbd 2542 2b3d 8f52 3e3d
00000340: 363b 273b 0e5b 2b3d 2fb1 1d3d ff03 2fbd
00000350: 564f 2b3d ba6b 2d3d 8a60 a43c 1677 86bc
00000360: ec39 3cbd 2c10 45bd a96e 43bc e75f 4d3d
00000370: 8538 8cbc cb0b 193d d168 a43c 56ce 2d3d
00000380: 2ac6 e1bc c2d2 103c b7d6 d83c dc89 533d
00000390: 4878 24bd 58c7 5cbd 6667 12bd 8d24 1abc
000003a0: c336 e4bc 54de 86bd 8f27 53bc f5a2 53bd
000003b0: d59b 70bd c05c dcbc 4db2 833c c9d3 fa3c
000003c0: 0634 86bd 01db 37bd 7e16 fa3a 1033 c33c
000003d0: 50eb a1bc 7d4d 033d 9d3b 803b 0e70 ce3c
000003e0: bed9 3e3c 1306 44bb effc 623d 78fe 4b3d
000003f0: c2dd 88bd eaec 913c 9009 553d 277e 80bb
-0.060448263 0.04074319 -0.012254409 -0.009977721 -0.0481994 -0.035500586 -0.0484533 0.0035290546
-0.016583249 0.054514237 0.045501653 -0.0022062669 -0.024375742 0.023756262 -0.062269595 0.023397604
-0.0010807442 0.02424366 -0.043590073 -0.030815016 0.039046653 -0.022339368 0.050742175 0.0024915095
-0.0021479502 -0.06457333 -0.017962454 0.018216366 -0.00020651243 -0.018943816 -0.053172026 0.027063165
0.0019593074 -0.049168643 -0.03681126 -0.051842883 0.041109584 -0.059625465 -0.0080996575 0.01469955
0.006911566 0.026918279 -0.0027073515 -0.013234234 -0.020518286 -0.033036016 -0.025838533 -0.015562162
-0.04563985 -0.037526045 0.004313095 -0.008277773 -0.05379308 -0.05253759 -0.022878649 -0.045809373
-0.0008407449 -0.056084402 0.043917578 -0.014970322 -0.022171635 -0.013213256 -0.054139603 -0.03539461
-0.001489431 -0.058413308 0.05927448 -0.038305223 -0.0011454487 0.062687986 0.014675085 0.01927858
0.03713115 -0.046710696 -3.1166695e-05 -0.0039302544 -0.02868861 0.02961915 -0.039480887 0.008139471
-0.05784991 -0.010912364 -0.062481135 0.027425531 0.015518181 0.0014326246 -0.008826167 0.013776273
-0.050635 -0.059303597 -0.030121215 -0.039293032 0.0011615494 0.054884665 -0.004683883 0.041154493
0.042613335 0.065068915 0.06559611 -0.024198616 0.011885435 -0.050831057 0.0152562205 0.034949154
-0.033783596 0.01698382 -0.019090416 0.021277346 0.012911985 0.05209675 -0.055834994 -0.04104208
0.060193345 -0.017850736 -0.041599624 -0.03160169 0.050643913 -0.046882704 0.025642652 -0.0033145957
-0.0075312415 0.05028247 -0.060380228 -0.008248119 -0.025809105 -0.06493665 0.051874883 -0.002086117
-0.08376038 -0.037149 0.003100865 -0.048113734 0.038144622 0.037457023 0.020645583 -0.024965223
-0.052653953 -0.056881156 0.0066018896 0.018392557 -0.04260736 -0.039414976 -0.01748733 -0.030627668
-0.0043596537 0.041275974 -0.04322703 -0.066109814 0.054458212 -0.03429404 -0.04988029 -0.0015460878
-0.016834652 -0.00035507436 -0.004532602 -0.015083548 -0.053968236 0.05455843 -0.0051705744 0.021896593
-0.02234787 0.0025444387 0.037731145 -0.06519266 0.007904752 -0.06831877 0.007511607 -0.047847368
0.053759653 -0.05544401 -0.05230781 -0.07124933 0.046622004 -0.014172207 -0.04602762 0.025043655
-0.037802175 -0.019385125 -0.047256198 0.0008346238 -0.04212131 -0.015142901 0.0056303022 -0.029315807
-0.0631743 -0.053761065 0.06237691 0.02175523 -0.061987616 0.0580274 -0.0030727037 -0.054139726
-0.004449614 -0.0322103 -0.025698591 -0.02056435 -0.012313379 0.037933074 -0.035823908 -0.055593245
-0.05196359 -0.053286485 0.0026166046 -0.0081790695 0.017852424 -0.03854939 0.041811127 0.046465453
0.002551747 0.041834883 0.038499054 -0.04272842 0.041823708 0.042339064 0.020065565 -0.016414206
-0.045953676 -0.048111126 -0.011928239 0.050140288 -0.017116794 0.037364762 0.020069512 0.042433105
-0.027560312 0.008839311 0.026469572 0.051645145 -0.04015377 -0.053901047 -0.03574314 -0.009408128
-0.027858144 -0.065853745 -0.0128878495 -0.05166908 -0.058742363 -0.026899695 0.016076231 0.030618565
-0.065528914 -0.044886593 0.001908019 0.02382806 -0.019765526 0.03205632 0.0039133565 0.025199916
0.0116485935 -0.0029910847 0.055416998 0.049803227 -0.06682922 0.017813165 0.052011073 -0.0039212885

fc.3.bias f4 [12]
00000000: c1e9 033d d349 4a3c c6ca 93bc 9160 b73c
00000010: 8f73 413c 4c55 ecbc c63a bbbc ce94 1c3b
00000020: 4235 9a3c d66c 523d ad11 0bbd 5e00 463c
0.032205347 0.012346703 -0.018041026 0.022384914 0.0118073365 -0.028849266 -0.022855174 0.0023892405
0.018824223 0.051373325 -0.033952404 0.0120850485
