cnn_fighting_agent_starter/outputs/20251017_195251/model.pt (torch, 287835 bytes, 12 tensors)

state_cnn.0.0.weight f4 [16, 1, 3, 3]
000000 55 f5 0f bd 8d f2 37 bd bf 9a 82 be 7a 73 a8 3d
       -0.035146076 -0.04490905 -0.25508687 0.082251504
000010 e6 94 80 bd 5e 77 17 bf bc 39 94 3e 92 6b 19 bd
       -0.062784 -0.59166515 0.28950298 -0.037456103
000020 8c 66 25 bf f9 93 06 be e8 03 95 3e e9 ab d9 be
       -0.646096 -0.13142385 0.29104543 -0.4251397
000030 59 09 d2 3d 62 75 7c be 46 de 50 bf 06 ca a9 3d
       0.10255689 -0.24654153 -0.8158916 0.08290486
000040 87 ec cb bd 99 b4 76 be f8 f4 b1 3d 44 8b 57 3d
       -0.099572234 -0.2409233 0.08689302 0.05262305
000050 b7 3f 0f bf 67 68 cb 3d 1c 57 1b be bf 1c d6 bd
       -0.55956596 0.099320225 -0.15169948 -0.10454702
000060 be 81 0d be d6 b2 c4 3e 1c 5f 26 3f 09 93 72 be
       -0.13819024 0.3841769 0.64988875 -0.23688902
000070 fe ea 7c be e1 f5 3e be 2e 8f b1 3e b9 4f 84 3e
       -0.24699017 -0.18648483 0.3467955 0.25842074
000080 67 4d b5 be 66 27 be 3d 13 99 7c 3d e7 85 03 3e
       -0.35410616 0.092848584 0.06166942 0.12844048
000090 bf dd 15 bd 48 1a a6 be 1d 08 90 bd 05 6d 8d 3e
       -0.036588427 -0.32441926 -0.070327975 0.27622238
0000a0 32 5d a8 3c ff 2f be 3d 78 2a 09 3d 44 b1 b7 be
       0.020552251 0.09286498 0.033487767 -0.3587743
0000b0 49 f7 b8 3e 4b 32 4c bc 5a f2 09 be 82 a9 82 3e
       0.36126164 -0.012463163 -0.13471356 0.2551995
0000c0 cb 3f 1f bd 23 7c 87 be a3 2d 33 be d2 be 5c 3e
       -0.038879197 -0.26461896 -0.17497878 0.21557167
0000d0 c1 c9 bd be c8 89 58 be 9f 0c 98 be 01 66 5e be
       -0.3706799 -0.2114631 -0.2969713 -0.21718599
0000e0 21 b0 e0 3d ba 74 d3 bf 0d c8 b8 3e a2 ea 9e 3e
       0.10971094 -1.6519997 0.36090127 0.31038386
0000f0 66 fb cd bd c3 28 b4 be 7d 36 64 be e7 10 c5 bd
       -0.10057716 -0.3518735 -0.2228641 -0.096223645
000100 4c c4 37 be a2 59 63 3e af d4 af be c5 9e 96 3e
       -0.17945975 0.22202161 -0.34341952 0.29418007
000110 fa f1 1e 3e 7b ee 57 be d1 82 a2 bd f2 ee d3 3e
       0.15521994 -0.21087067 -0.079351075 0.41393238
000120 66 6e 37 be 83 01 49 be 18 50 73 3e d2 40 8f 3d
       -0.17913207 -0.19629483 0.23761022 0.06994785
000130 cf d3 78 be 34 bc a1 3d ea 53 05 3e d8 c2 ad be
       -0.24299549 0.07897225 0.13020292 -0.33937716
000140 66 fc 83 3e a4 ef d9 3d 3c 3d 01 be df cd 02 3e
       0.25778502 0.10641411 -0.12621015 0.12773846
000150 9b a1 3e 3e 80 b2 14 be 2a b2 ea be e4 22 6a 3e
       0.18616335 -0.14521217 -0.45839053 0.22864872
000160 e6 cb be be 6b ef 84 bd dc b0 7c 3e d6 9c ab bd
       -0.37264937 -0.06490978 0.24676841 -0.083795235
000170 3d 41 0d 3e f0 30 16 be f3 de 8e 3e 95 c2 b6 be
       0.13794418 -0.14667106 0.27904472 -0.3569533
000180 6e df 68 be 09 f8 8f 3e 7f ab 72 3e 2b 0c 5a bd
       -0.22741482 0.28118923 0.23698233 -0.05323426
000190 8f ad 89 be 07 1c 80 3e 9d e7 9f bd ee 53 91 be
       -0.26890227 0.25021383 -0.078078486 -0.28384346
0001a0 40 f0 97 3e 46 b8 23 3d be 27 76 be f8 34 90 3c
       0.29675484 0.03997066 -0.24038598 0.017603382
0001b0 e7 41 5a be 09 df f4 bd 63 3c 5a 3d 74 3d bb 3d
       -0.21314202 -0.11956603 0.053280246 0.09142581
0001c0 90 97 b9 3c f8 12 96 3e 17 f2 93 3e e6 07 40 bd
       0.022655278 0.29311347 0.28895637 -0.046882533
0001d0 d0 3f 6a 3e de c4 58 be 56 d1 6f be 8a 7f 9c 3e
       0.22875905 -0.21168849 -0.23419699 0.30566055
0001e0 97 de 1a bb 78 2d 36 3e 6a 2a 72 3e b1 ab a3 3e
       -0.002363121 0.17790782 0.23648992 0.31966928
0001f0 51 b7 bd be ec c2 52 3e 20 7e 02 be 0c 9b 8b 3e
       -0.37053922 0.2058217 -0.12743425 0.2726673
000200 65 c0 ac be 56 be 41 3d b0 66 aa bd a5 bf 95 be
       -0.33740535 0.04730066 -0.08320367 -0.29247776
000210 c0 b1 6b 3d 48 bb 13 be 46 62 6b be 83 99 1b bc
       0.057542562 -0.14426911 -0.22986707 -0.009497049
000220 0d 80 06 be d5 aa 25 3e 75 92 2f 3e df 91 b2 3d
       -0.13134785 0.16178448 0.17145713 0.08719229
000230 49 30 be 3d 6e 66 8f 3e f0 44 9f 3e 7c 60 03 bd
       0.092865534 0.28007835 0.31107283 -0.032074437

state_cnn.0.0.bias f4 [16]
000000 31 e8 a5 3e b2 55 3c 3e d3 7e da bd ec 9a eb bd
       0.3240371 0.18392065 -0.10668721 -0.115041584
000010 ca bd 4d 3e 44 d3 2b 3e cb 14 d2 bd d2 8f 98 3d
       0.2009193 0.1677981 -0.10257872 0.074493065
000020 b7 ec cd 3c f8 a5 0f 3e 56 b4 6c bd 4d bb d3 3d
       0.025137288 0.14028156 -0.05778917 0.10338459
000030 ac 4a 14 be 42 19 7b be 0c 7b 3e be d6 70 8b bd
       -0.1448161 -0.24521354 -0.18601626 -0.06808631

state_cnn.1.0.weight f4 [32, 16, 3, 3]
000000 94 08 09 be 24 bf 9c bc 35 19 a9 3e 0f 88 1a bd
       -0.13382179 -0.019134112 0.33027044 -0.03772741
000010 13 94 43 be 53 42 28 3f 76 41 95 bd 8a b6 90 3b
       -0.19099455 0.657262 -0.07287876 0.0044162916
000020 aa 49 58 3d ac 7c af bb 76 db 28 bf bf 46 1d be
       0.052804627 -0.005355438 -0.6595987 -0.15359019
000030 51 30 09 be 5f a9 9f 3c f1 a7 7f 3f b1 2f 56 bd
       -0.13397337 0.019489942 0.99865633 -0.052291576
000040 c9 56 a9 be b7 46 82 be 24 09 ca 3c b6 4c a3 3d
       -0.33074024 -0.25444576 0.024662562 0.07973616
000050 2a 22 cc 3d ac 3c f3 ba 0f d5 60 3d e1 55 79 be
       0.09967454 -0.001855751 0.05489069 -0.24349166
000060 6c 80 bd 3c 8b 66 56 bd 10 96 85 bd f0 0f f5 bc
       0.023132525 -0.052343886 -0.06522763 -0.029914826
000070 ec 93 69 3d 6a fc 91 bd 90 23 4b bc 3c 0c b6 be
       0.057025835 -0.07128222 -0.0123986155 -0.3555621
000080 8e 3a 8b be 31 b6 04 bd 30 99 86 be 70 a0 8b 3d
       -0.2719311 -0.032400314 -0.26288748 0.068177104
000090 ca 5a 98 bd db 17 0f 3e 1c f9 e3 3d d0 25 c2 bd
       -0.07439192 0.13973944 0.11131498 -0.094798684
0000a0 fb 76 5f 3d 23 e4 08 3b 1d 4a 74 bc e3 7c 8d bd
       0.054556828 0.0020887933 -0.014910248 -0.06908586
0000b0 54 77 2a 3d df 66 42 bd 48 d9 c3 be 7c 29 85 be
       0.041617706 -0.047461387 -0.3825171 -0.26008213
0000c0 4e b0 42 be e0 60 c9 bd 98 07 e5 3d 8e f9 c4 bc
       -0.19012567 -0.098329306 0.11183089 -0.024044778
0000d0 40 b4 c7 3d 4d 66 2e be 0e 04 6c 3d 17 c8 f5 3d
       0.09751177 -0.17031212 0.057621054 0.12001055
0000e0 a6 c6 84 3d 25 c5 ef bd 66 f1 a2 bd b1 65 60 be
       0.06483202 -0.11707524 -0.07956199 -0.21913792
0000f0 6b 29 45 bc 7f 90 e1 be 0e 05 01 be 69 fc 5f be
       -0.012033801 -0.44055554 -0.12599584 -0.2187363
000100 97 9c 2e 3e bd 2b 8b be e3 78 55 be 98 be cf 3d
       0.17051922 -0.27181807 -0.20846896 0.10143775
000110 1d 73 aa be 92 73 77 3c e5 7a 7d bd 30 68 95 bd
       -0.3329095 0.015103238 -0.06188478 -0.07295263
000120 ca bf 84 bd 3f f3 f1 3b 80 2d cd be c2 89 22 be
       -0.06481893 0.0073837335 -0.40073776 -0.15872863
000130 ba 17 8c bc 0e fe 85 bf 8c 03 86 bb c2 f4 02 bd
       -0.017101157 -1.0468156 -0.0040897783 -0.0319717
000140 4d 85 50 be fd a0 f2 bd 7c f2 c4 3c dc c2 08 3d
       -0.2036335 -0.11847112 0.024041407 0.033388957
000150 62 6c 0d be 00 c3 c4 bb 0e e9 5c 3e e8 c4 15 3d
       -0.13810876 -0.006004691 0.21573278 0.036564738
000160 e0 b0 82 bd f0 e9 1d 3d 58 c9 df bd e5 47 d3 3b
       -0.063813925 0.03855318 -0.10927075 0.0064477795
000170 35 e0 cb 3b 5a e8 44 be 64 a5 b7 3d e3 c1 be bd
       0.006221796 -0.1922926 0.08967093 -0.09314325
000180 d5 79 b5 3b 5d a5 8c bd ac f5 0d bd 4c fe f7 bd
       0.005538205 -0.06867478 -0.03465812 -0.1210905
000190 f1 8a 7c bd b8 93 f3 be 33 11 0a be 7c 01 c7 bd
       -0.061655942 -0.47573638 -0.13483123 -0.0971708
0001a0 56 c7 c2 be 26 cf a9 bc ab 5a 39 bd 2c e8 75 be
       -0.38042706 -0.020728659 -0.045252483 -0.24014348
0001b0 29 cd 94 bd eb 02 65 3d 6b a9 fb 3d ae 41 11 be
       -0.07265694 0.055910986 0.12288173 -0.14185211
0001c0 f8 f1 37 3e fc 88 a2 bd fb f9 72 bd 4a 03 53 bd
       0.17963398 -0.07936284 -0.05932043 -0.05151681
0001d0 f3 82 0e bc 07 41 40 3c a8 0e a3 3c 31 ed 9f be
       -0.008698213 0.011734254 0.01990445 -0.3123565
0001e0 e7 2f 6c 3c ef 7e 24 bd 09 00 33 bf ca 72 3a bd
       0.014415718 -0.040160116 -0.6992193 -0.045519628
0001f0 1f 59 5a be bd 62 34 bd 80 67 57 3d 80 14 12 bd
       -0.2132306 -0.044039477 0.05258894 -0.03566408
000200 24 21 85 3d 30 2a c8 3c 17 1c 80 3d 8b 8a 14 bd
       0.06500462 0.024434179 0.06255358 -0.036264937
000210 5b 8c 63 bd d4 b8 a9 bd 63 93 38 bd 90 cd 20 be
       -0.055553775 -0.08287206 -0.045062434 -0.15703416
000220 b8 1d 40 3e 6d 91 d0 3d fc 5a d9 bd bd f0 40 3e
       0.18761337 0.10183988 -0.10613057 0.18841834
000230 99 47 ae 3b 10 f4 9e 3c 0a 28 3f bd d8 99 18 bd
       0.0053185937 0.019403487 -0.046669044 -0.03725609
000240 bc 34 64 3d d1 e5 64 bd 61 48 8b 3d df 39 72 3d
       0.055714354 -0.055883233 0.068009146 0.05913722
000250 b2 e9 45 be f1 c1 bb 3d b5 d2 3a 3d b9 9e 4d be
       -0.19327429 0.09167851 0.045611102 -0.20080079
000260 90 08 6b bd 1a 2e 30 3d 66 4e ce bd 12 c6 d9 3e
       -0.057381213 0.043012716 -0.10073547 0.42533928
000270 d3 fb 87 be f2 76 57 bf bb a9 05 3e 24 a2 4c 3c
       -0.26559314 -0.8416587 0.13053028 0.012489829
000280 b7 97 2c be e0 8a 89 bd e1 11 8e bd 55 60 26 bd
       -0.1685475 -0.067159414 -0.06937004 -0.040619213
000290 62 90 bf bc cf 65 df bc 15 1b 90 3c d6 11 a8 bc
       -0.023384277 -0.027270226 0.017591039 -0.020516317
0002a0 b3 01 f4 3c e5 17 ea bd dc a3 b2 3c c4 3a 2e 3e
       0.029785967 -0.11430339 0.02180665 0.17014605
0002b0 41 73 e5 bd 2f c1 8a 3d 05 85 11 be 14 86 3c bd
       -0.112036236 0.06775128 -0.14210899 -0.046026304
0002c0 15 97 21 3e a2 a0 46 bd f9 e8 2a 3b c1 2e a4 3d
       0.1578029 -0.048493035 0.0026078804 0.0801673
0002d0 d2 ef 61 3d 88 93 41 bd 0e 74 be bc 34 a9 07 3d
       0.05516035 -0.047259837 -0.023248699 0.03312035
0002e0 ab 13 c9 bc 20 93 07 be c4 26 cd bc c2 bb bd bd
       -0.024545511 -0.13239717 -0.025042899 -0.092643276
0002f0 82 28 50 bd 75 d2 3a be 41 42 82 3e 54 f0 36 3e
       -0.05081988 -0.18244345 0.25441173 0.17865115
000300 68 a1 24 bd d2 e2 4a 3e 48 c7 6b 3e 4e dd a3 bc
       -0.04019299 0.19813088 0.23025239 -0.020002987
000310 c2 7a 87 3d 9a 2b c4 bd bd 1e 8a be 64 2a b8 bd
       0.06615211 -0.09578629 -0.26976576 -0.0899246
000320 4b 6c 4c bb 9d d9 5f 3e a0 fb 88 3d 28 81 0a bd
       -0.0031192477 0.21860357 0.06688619 -0.03381458
000330 e8 03 29 be 8c b6 07 be 72 5d ca bd 6e b0 67 bc
       -0.16505396 -0.1325323 -0.098811045 -0.014141185
000340 8d ac eb 3c 5d c1 5c bd 88 b8 9c 3d f7 3a 10 3e
       0.028768802 -0.053895343 0.07652384 0.14084993
000350 2a 69 85 3d 7a 31 8a 3a 7e 08 27 bd 58 94 8c bd
       0.06514199 0.001054331 -0.040779583 -0.06864232
000360 1d e4 1a bd 89 fc e0 3d 2a 34 8b be d7 3d ff bd
       -0.037815202 0.10985667 -0.27188236 -0.12462967
000370 cc 33 9b 3e 7f 58 c4 bd dd cf 0f be 8c 16 20 3e
       0.30312955 -0.09587192 -0.14044137 0.15633601
000380 a6 8a 78 3e bb f8 68 bd 6b 28 d1 3d c0 4a 19 be
       0.2427164 -0.056877833 0.10212787 -0.14969921
000390 a9 d7 6c 3d 6e cf 5f bd 72 70 40 bd 95 43 10 bd
       0.057822857 -0.05464118 -0.046982236 -0.0352207
0003a0 70 66 1a bc 99 9c 23 bd 8e 8a f9 3c d6 f0 e1 3c
       -0.009423837 -0.039944265 0.030461576 0.02758066
0003b0 c0 31 ff bd 75 d0 15 3d f0 9f 1e bc 2c 99 29 bd
       -0.12460661 0.036575753 -0.009681687 -0.04140584
0003c0 2c ab 49 3c 9c 7a 9b 3d 32 31 77 3d 55 9d 00 3d
       0.012308877 0.07591745 0.06034965 0.031400044
0003d0 1f 7e 38 3e c8 ae 6d be 44 33 9d bd 98 55 50 3e
       0.18016861 -0.23211205 -0.07675794 0.20345151
0003e0 ad 4f d8 bd 47 a4 60 be 4a 22 06 3e 4e bb 42 bb
       -0.10562072 -0.21937667 0.13099018 -0.0029713693
0003f0 e6 bf 85 bb 26 c5 4b 3d 3a d1 e7 bd 1a 1e 8f 3b
       -0.004081714 0.049748562 -0.11319204 0.004367602

state_cnn.1.0.bias f4 [32]
000000 09 f2 38 3d 7a 50 8f bd a4 b4 99 bd 5c 8d 96 bd
       0.045152698 -0.069977716 -0.075051576 -0.07351181
000010 da c0 29 bb 71 c3 40 3c a1 76 27 3b 22 0f a7 bd
       -0.0025902302 0.011765347 0.0025552886 -0.08157183
000020 df 4c 10 bd f0 ee ba 3c 1a 53 76 bd 3c 0c 8d bc
       -0.03522956 0.022819012 -0.060137846 -0.017217748
000030 1a d3 4c 3c 83 20 96 bd 23 7c ee bc 0e 32 7f bd
       0.012501502 -0.0733042 -0.029111927 -0.062303595
000040 f0 64 5f bd 19 f7 3a bd a0 1e 4d bd 5d 3e 9b 3b
       -0.05453962 -0.045645807 -0.050078034 0.004737659
000050 b1 cb 03 bd fe 59 27 3d f7 7d 23 bd dc 57 9b bd
       -0.032176677 0.040857308 -0.03991505 -0.07585117
000060 f8 60 b8 bd 32 37 ba bd db a9 43 3d 42 fd cf bd
       -0.0900287 -0.09092559 0.04776941 -0.10155727
000070 b5 44 7d bc a4 95 05 bd 98 02 23 bd 80 32 f7 3d
       -0.015458276 -0.03261341 -0.039797395 0.12070179

button_cnn.0.0.weight f4 [8, 1, 3, 3]
000000 5a 6f 17 3e 3f 78 3c 3e 06 bc 6c be 36 c5 2f bd
       0.14788571 0.18405245 -0.231186 -0.042912684
000010 3b eb d3 be f5 9b 9f 3e ec 37 16 3e e5 d7 3a be
       -0.41390404 0.31173673 0.1466977 -0.1824642
000020 f4 68 9f 3e c8 c6 13 bd 96 99 76 be e8 7b b8 be
       0.3113476 -0.036078244 -0.24082026 -0.36032033
000030 90 f3 1f be b1 2e 4c 3d 18 3a 58 3d 94 ba c7 3e
       -0.15620255 0.049849216 0.052789778 0.39009535
000040 c6 b2 a3 3c 25 ab 7a be 80 c7 f9 3c 43 e8 98 be
       0.019982707 -0.24479349 0.030490637 -0.29864702
000050 e5 60 f2 3a e7 c0 c2 bd 42 30 8e 3e ac 15 2f 3e
       0.0018492012 -0.095094495 0.27771193 0.17098111
000060 71 26 44 be 69 2c 4b 3e 97 b7 40 3e 57 0d 0d be
       -0.19155289 0.1984116 0.18820034 -0.1377462
000070 79 c7 68 bd f8 b9 84 3e 55 11 8f be c8 79 99 be
       -0.056830857 0.25923133 -0.2794291 -0.29975724
000080 da 79 e4 3e 04 8c bc bd 62 95 40 be 58 1f 71 be
       0.44624215 -0.09206393 -0.18806985 -0.23547113
000090 46 dc 34 bd 0e 05 78 3e ef c2 11 be 94 ae 70 be
       -0.04415538 0.24220678 -0.14234518 -0.23504096
0000a0 ae 88 ae 3e c7 67 5e bd 91 93 3d 3c 7e 6b b2 3e
       0.34088653 -0.05429819 0.011570827 0.34847635
0000b0 a4 e5 1e 3d 60 c0 d9 3b 87 f7 8b be 36 43 3f 3d
       0.03879322 0.0066452473 -0.27337286 0.046694957
0000c0 9b 2f a8 bd 94 23 4a 3e 8c 1c 9f be f9 e2 61 be
       -0.08212205 0.19740134 -0.31076467 -0.2205924
0000d0 f7 e3 4b be b3 13 a1 be ba c3 18 be f4 2e 46 bc
       -0.1991118 -0.31460342 -0.14918414 -0.012096155
0000e0 51 88 12 be ad 8c 88 3d f3 9e af 3e 78 e3 b9 3b
       -0.14309813 0.06667457 0.34300956 0.0056728683
0000f0 57 28 ed bd 2e e6 9a be 87 84 37 3d 3d 47 2a be
       -0.1157996 -0.30253738 0.044804122 -0.16628738
000100 f6 96 c9 bc c3 d2 13 3e 87 c0 d2 bc b4 97 77 3e
       -0.024608117 0.14435868 -0.02572657 0.24178964
000110 ab 3e 9f bd 9a cd bc 3e e5 4f 6e 3e 76 95 ce 3d
       -0.07775625 0.36875612 0.23272665 0.10087101

button_cnn.0.0.bias f4 [8]
000000 fa 00 bf bd e1 59 8e 3e a6 40 c2 3d 40 2e 2c bc
       -0.09326358 0.27802947 0.09484987 -0.010509074
000010 18 48 4e 3c c3 34 82 3e a7 1d c6 3d b2 c7 1f bd
       0.012590431 0.2543088 0.096736245 -0.039008804

button_cnn.1.0.weight f4 [16, 8, 3, 3]
000000 d8 f7 ec b9 56 1c 15 bd 7a 53 a7 3d 0d a0 26 be
       -0.00045198086 -0.036403976 0.08170219 -0.16271992
000010 21 3d e8 bd 09 21 cd bb 38 9c 9b bd 51 db 90 3d
       -0.113397844 -0.0062600416 -0.07598156 0.07073081
000020 1b 29 87 3d 1a fa 45 bd bb 29 8f 3d ea 44 ad 3c
       0.06599637 -0.04833422 0.06990381 0.021151025
000030 93 69 57 3d 3f b7 11 be 37 89 d6 3d 56 0b 83 39
       0.052590918 -0.14230059 0.104753904 0.00024994713
000040 79 0f 10 3e ca 06 25 bb 2d c4 3e bd bc 6f 00 3d
       0.14068402 -0.0025181049 -0.046573807 0.03135656
000050 22 48 13 bd 10 0b d8 bd 7d 87 79 bd f9 bc 8a bd
       -0.035957463 -0.10548985 -0.060920227 -0.06774325
000060 dc 8c 86 3b 74 48 8f 3c 73 a4 29 ba 4e d2 3f bd
       0.004106147 0.017490603 -0.0006471343 -0.04683142
000070 b5 cd 7e be a0 e0 34 3e d5 ca 19 be f4 50 c7 3d
       -0.24883159 0.17663813 -0.1501878 0.097322375
000080 c0 39 68 3d 51 3f ec bd 0b f5 49 3d 02 75 8c bd
       0.0566957 -0.11535514 0.049305957 -0.06858255
000090 23 4b 7d bc 5d 71 33 3d 01 b1 84 bd 47 bf 3b be
       -0.0154598085 0.043809284 -0.06479073 -0.18334685
0000a0 1d 09 16 bd 7a 51 ba bc d4 86 f4 3d 62 29 b7 3d
       -0.036629785 -0.02274393 0.11939779 0.0894344
0000b0 61 4e 06 be bb 6b 2c 3d 3f d1 59 bd 43 38 ff 3d
       -0.13115837 0.042094927 -0.05317807 0.12461903
0000c0 b7 e0 2e 3d c6 b4 ea bd 77 d9 3d bb 14 26 95 3d
       0.042694774 -0.11460261 -0.002896873 0.072826535
0000d0 52 71 be 3d 38 98 77 3a 69 16 88 3d 82 51 2c be
       0.09298958 0.00094449846 0.066448994 -0.16827968
0000e0 b7 80 af 3d 76 d7 54 bd 92 e6 15 3e 24 4c 22 bc
       0.08569472 -0.051963292 0.14638737 -0.009905849
0000f0 c2 e4 91 3c 08 1a 7a bd 9c 13 c0 bd 7d 94 99 bd
       0.017809276 -0.06105998 -0.0937874 -0.07499025
000100 41 c0 8a 3d 6b 0f 20 be 87 02 b7 be 89 8e a9 bc
       0.06774951 -0.15630881 -0.35744116 -0.020697849
000110 15 df 9b 3d 89 bd 7c bd e2 da 21 3e f0 90 0a ba
       0.07610909 -0.061704192 0.15806153 -0.00052858796
000120 de 56 03 be 1e 2a c2 3d ef 59 5d bd d9 b6 27 bd
       -0.12826106 0.094806895 -0.054040845 -0.04094586
000130 9c 84 38 3d 57 e6 fd bc b0 fe ab 3c 30 4a 1a bd
       0.04504834 -0.030993624 0.020995468 -0.037668407
000140 c7 03 12 bc bd a2 c4 3d 58 ce 20 bd e3 12 c8 bd
       -0.008912033 0.09601352 -0.039259285 -0.09769227
000150 4d ec 3d bd 2c 0a 0a bd fd 81 c8 3d 24 ba 03 3e
       -0.046367932 -0.033701107 0.09790418 0.12863976
000160 8c ab c6 3d ad d3 5b 3d f4 8d 32 bd e2 ba 73 bd
       0.09700689 0.053668667 -0.04359241 -0.059504397
000170 b4 07 62 3c ab bc 38 3d 5d 34 63 bb 7b d1 c0 bd
       0.013795782 0.045101803 -0.0034668662 -0.09414955
000180 f7 5e 65 bd f2 6a 18 3c 0f 66 4c bc be b4 04 3e
       -0.05599877 0.0093028415 -0.012475505 0.12959573
000190 48 0c 17 be d1 40 58 3d 96 f2 50 be 6a 87 11 3d
       -0.14750779 0.05279619 -0.20405039 0.03552953
0001a0 af 7b 6c bd 9b 85 e8 bb bc 76 51 be aa 84 2d 3d
       -0.05773514 -0.007096005 -0.2045545 0.042362846
0001b0 47 4d d5 3d bd 48 f4 3c ea 23 8c 3d f6 70 8f bd
       0.1041513 0.02981984 0.068427876 -0.070039675
0001c0 e3 af 2b bd 35 1d ef bd d2 ec f3 bc e8 f6 3e bd
       -0.041915786 -0.11675493 -0.02977601 -0.046622187
0001d0 87 8c 93 bd 7d b7 a2 bd f5 52 23 3d 4b 83 bc 3d
       -0.07204538 -0.07945154 0.039874036 0.0920473
0001e0 2c fc 91 3d 48 c4 24 bc 27 ea a8 3d f8 42 0a bc
       0.07128176 -0.010056563 0.08247786 -0.008438818
0001f0 43 29 cd 3c 48 37 9a bc 6d cd 64 3d 36 d6 04 be
       0.02504409 -0.018825188 0.05585997 -0.1297234
000200 b5 ab ff bc e4 04 a7 3d 11 db 2a be b3 30 a8 bd
       -0.031209806 0.0815523 -0.1668513 -0.08212414
000210 72 ef 23 3d 12 1b 53 bd 83 26 b3 bb a6 66 2b bc
       0.040023275 -0.051539488 -0.0054672374 -0.010461485
000220 69 72 e6 bd 22 9c f4 3d 24 9a 1e be d1 2e 8a 3d
       -0.11252291 0.119438425 -0.15488487 0.06747211
000230 51 7c b9 bd 36 40 cd 3d 1d a7 07 be 8f 69 33 bd
       -0.090569146 0.10022013 -0.13247342 -0.04380184
000240 91 03 fa 3c 44 56 92 bd dc bf 06 be 49 65 62 be
       0.030519279 -0.0714536 -0.13159126 -0.2210895
000250 ae 89 c4 bd 07 86 30 3d 51 2c ad bd 83 6a fe 3d
       -0.09596573 0.04309657 -0.08455718 0.12422659
000260 aa ac 22 3d b2 d8 70 3c e6 35 78 3c 9f 59 41 bd
       0.039715447 0.014700102 0.015149569 -0.04720461
000270 f6 d2 5d bd 33 8f 0e be 73 d2 c2 3d e4 08 b9 bd
       -0.054156266 -0.13921814 0.09512796 -0.09034899
000280 1a 20 20 bb e0 be b5 3c e1 df 5e 3d 4e c5 ea 3c
       -0.0024433197 0.022185743 0.054412726 0.028658535
000290 00 06 2f 3d 62 57 fa 3c 7a 23 79 3d 58 aa a0 bd
       0.04273033 0.030559245 0.06082485 -0.078449905
0002a0 ed 8f f8 3c 43 12 05 3d c5 55 f9 3d 45 64 d1 bd
       0.030342067 0.03248812 0.12174562 -0.10224203
0002b0 8e 19 a7 3d ec 0a dd bd ee 4c 69 bc b2 39 ac 3d
       0.08159171 -0.10793099 -0.014239533 0.08409442
0002c0 34 ef e7 bd fc 9c a2 be 9e 95 21 3e 99 02 24 3e
       -0.11324921 -0.31760395 0.1577973 0.16016616
0002d0 52 3a 9e bb 55 a1 cc 3c f1 1d 06 bc 78 90 28 be
       -0.0048287297 0.024979273 -0.0081858495 -0.1646136
0002e0 83 ca 0f be 91 f8 ba 3d 53 86 95 bd 0b 2a 03 3d
       -0.14042096 0.091294415 -0.07301011 0.032022517
0002f0 b8 c2 3f 3e 61 d7 a9 bd 95 f5 e9 bc ff 0e fd 3b
       0.18726623 -0.082930334 -0.028559485 0.007722735
000300 72 1d f9 bc f8 7b 41 be 7a 4c b5 bd ac 9f bf bd
       -0.030409548 -0.18894947 -0.08852477 -0.09356627
000310 93 45 c4 3d 61 3d 2d bc 5c cb c8 bd 9f 7d f9 bc
       0.09583583 -0.010573716 -0.09804413 -0.030455409
000320 34 d4 5b bb 75 1d 05 be 6f c2 9b bd 50 d4 55 be
       -0.003354323 -0.12999518 -0.07605445 -0.20881772
000330 a2 f7 08 be 10 53 c0 bd 07 3b d4 3c ee 36 33 be
       -0.13375714 -0.09390843 0.025907053 -0.17501423
000340 3d d4 82 3d fc 34 1c bd fb 99 4a be 76 12 fa ba
       0.063881375 -0.038136467 -0.19785301 -0.0019078988
000350 40 d6 47 3d 9e 94 1a be c6 b4 74 bd 30 a3 7b 3e
       0.04878831 -0.15095755 -0.05974271 0.2457397
000360 9e 93 08 be ce 1d fc bd f9 fa 8a bd 37 f2 59 3d
       -0.13337561 -0.12310372 -0.067861505 0.05320951
000370 3d 56 54 bd ae ca f1 ba d3 9f 52 bd 4f e3 a3 3c
       -0.051840056 -0.0018447244 -0.05142195 0.02000585
000380 bf 87 24 3d f3 01 70 bd e7 77 05 3e 66 d8 da 3c
       0.04016852 -0.05859561 0.1303402 0.026714515
000390 1e ac f3 3d 3a 2f e0 bd 1f 06 02 3e 70 88 32 bd
       0.11898063 -0.10946508 0.12697648 -0.04358715
0003a0 02 6b 33 bc 93 3a 55 bc e2 8e 7c bd 86 43 c9 bd
       -0.010950806 -0.013014453 -0.0616597 -0.09827332
0003b0 7e cd 8d bd 6e 9e a4 bd 5b bf a8 3d 10 44 b8 bd
       -0.0692396 -0.080380306 0.08239623 -0.08997357
0003c0 bf de 80 bd 90 74 2e 3d 81 1c 09 bb 1b 12 a6 bd
       -0.062924854 0.04259163 -0.002092153 -0.08108922
0003d0 af ab ae bd df fa 77 bd 2b 3d 58 3d 2f 22 48 bd
       -0.0852884 -0.060541984 0.05279271 -0.048860725
0003e0 2a 14 d8 bc 3a 19 6f be 53 5e e1 bc 13 89 51 be
       -0.026376802 -0.23349467 -0.027510798 -0.20462446
0003f0 f5 1c b6 3d ae 8b 52 bd 0c b3 da bd 4f 70 b7 3b
       0.08892242 -0.05140274 -0.10678682 0.005598105

button_cnn.1.0.bias f4 [16]
000000 b0 fe f2 bc 22 41 cf 3d 5a c1 d8 3b d9 fe 96 3d
       -0.02966246 0.10119845 0.006614846 0.07372827
000010 cc b9 bd bd d9 4e c3 3c a1 5f 9e bd 14 b0 c6 bd
       -0.092639536 0.023841308 -0.077330835 -0.09701553
000020 f6 23 2a bd b1 74 04 bd 36 d0 e1 bd 1c 83 03 3c
       -0.0415382 -0.032337848 -0.11026041 0.008026864
000030 32 95 89 bd 07 30 4b bd 45 78 12 bd 62 26 a3 3d
       -0.0671791 -0.04960635 -0.03575923 0.07966305

fc.0.weight f4 [256, 240]
000000 f9 82 a1 3c e2 1d 1e bd cf cf 2c bd e7 6f 44 bd
       0.019715773 -0.038602717 -0.04219037 -0.04795828
000010 9d 43 b7 3c 37 03 48 3b 3a ff af bc 87 64 52 3d
       0.022371108 0.0030519494 -0.021484006 0.0513654
000020 97 e9 91 bc b1 95 89 bd eb c2 ef bc c2 62 01 bd
       -0.01781158 -0.067180045 -0.029267749 -0.031588323
000030 5d f6 a3 3c 2b 37 3a b9 bb c4 0d 3b 96 bd 89 bc
       0.020014936 -0.00017758894 0.0021632153 -0.016814034
000040 89 37 81 bb aa 42 80 bd f2 66 26 3d e5 81 0b 3d
       -0.003943388 -0.06262715 0.04062552 0.034059424
000050 cb ec 13 bc dc 98 6a bd 0a 2d 5d 3d 77 12 39 bc
       -0.009028624 -0.057274684 0.05399803 -0.011295906
000060 9e 8a 32 bd 93 e0 5d bd c6 1e 65 bd 8e 24 56 3d
       -0.043589227 -0.05416925 -0.05593755 0.052280955
000070 94 15 99 3c a8 50 5f 3d 31 a2 ec 3c 13 fb 2f bc
       0.018687047 0.05452028 0.028885933 -0.010741013
000080 b3 85 81 bc 3e fe ba 3c 60 e3 f7 3a 82 ff 7c bd
       -0.015810823 0.02282631 0.0018912368 -0.06176711
000090 58 93 9a 3b 08 d3 06 3d 17 96 4a bd 41 9e 79 bd
       0.004717272 0.0329161 -0.049459543 -0.06094194
0000a0 15 ff 20 3c bd 0a 57 3d 87 4e 3a 3b 2e c2 80 3c
       0.009826441 0.052500475 0.0028428154 0.015717592
0000b0 3b 8a e9 3b 27 c4 10 3d d3 dc bb 3c df 8d 1e 3c
       0.007127074 0.035343315 0.022932446 0.009677379
0000c0 5c 6f 39 bd e7 d2 b0 bd 61 13 03 3d 7f 7e 62 3d
       -0.045272216 -0.086339764 0.032000903 0.055296417
0000d0 72 b2 b7 3c fb 94 82 3d 20 b0 33 bb da a2 1c bd
       0.022423957 0.06376072 -0.002741821 -0.038241245
0000e0 63 7c df bc bb ed 0c 3d 62 38 3f bd 5d be 9f 3c
       -0.027280992 0.034406405 -0.04668463 0.019499952
0000f0 72 15 08 3d 71 7b e2 3c 1e 3c 51 bc e6 ca 09 3d
       0.033223577 0.027646752 -0.012770681 0.033640765
000100 9a 79 14 3b 8d 82 84 bd fd c7 9c bc 55 a5 62 3d
       0.0022655488 -0.06470213 -0.01913833 0.055333454
000110 14 62 e1 3c 1b 9e 25 3c 28 26 da bb b3 3c 3b bd
       0.027512588 0.010108496 -0.0066573806 -0.045712184
000120 e0 ad a2 3c a5 4d 39 bd e9 7c 83 bd db ad 80 3d
       0.0198583 -0.045240063 -0.06420309 0.0628316
000130 1b 38 53 3d fe 35 c5 bc e0 65 09 3d a3 2c 06 bc
       0.05156718 -0.024073597 0.03354442 -0.008189353
000140 a0 af bf 3c 14 42 99 3a f0 4c 9e bc c8 22 95 bd
       0.023399174 0.0011692666 -0.019323796 -0.072820246
000150 52 f1 55 bd d5 aa 36 3c 96 32 1b bd 4d ca 7f bd
       -0.052232094 0.011149128 -0.03789004 -0.06244879
000160 37 30 0d bd 4a 26 ce bc 7e d7 5d 3c 3b cc 3d bc
       -0.03446981 -0.025164742 0.013540147 -0.011584337
000170 a2 f1 16 bd 8f 69 44 3d 97 54 3a 3d 87 42 da 38
       -0.036851533 0.04795223 0.045490827 0.00010407442
000180 c7 74 52 bb 4b 66 57 3d fd 2e 3f bd 9b 79 2e 3d
       -0.0032113062 0.05258779 -0.04667567 0.04259644
000190 a7 3a 39 bd 13 3f 23 bd de 29 c0 bc 3c 4f 8c bd
       -0.04522195 -0.039855074 -0.023457464 -0.0685105
0001a0 9b 69 90 bd 81 3b 96 3c c1 01 bb bc 06 84 8a bc
       -0.07051393 0.01833892 -0.022827985 -0.016908657
0001b0 7a 50 80 bc 09 fe 53 3d ae f4 0b bd 58 c6 8c bd
       -0.015663374 0.05175594 -0.03416889 -0.068737686
0001c0 fc 81 35 bd 35 88 55 3d 3b 5d 3e bd 76 71 29 bd
       -0.044313416 0.05213185 -0.04647563 -0.04136797
0001d0 52 b5 4b 3d f7 cc 94 ba d1 62 79 3c 8f 9d 1a 3d
       0.049733467 -0.0011352588 0.015221314 0.037747916
0001e0 8d 49 8b bc 0d 43 0a bd 1d f0 53 3d d4 78 eb bc
       -0.017002845 -0.03375535 0.05174266 -0.028744139
0001f0 c5 4b 5a 3d a1 d2 35 bd 30 c3 35 bd da d2 a2 bc
       0.053294916 -0.044390325 -0.0443756 -0.019875932
000200 f0 98 11 bd 43 14 57 3d 7d a6 8f bd 7e ef 79 bd
       -0.035546243 0.052509557 -0.07014177 -0.061019413
000210 d2 dc 8c bd 3e 5d 80 bc 7e 13 59 bc a7 a3 a7 bc
       -0.06878056 -0.015669461 -0.013249276 -0.020463778
000220 d1 69 09 3c f7 0f 8a bc 1c 39 08 bd fe dd 86 bd
       0.008387045 -0.016853316 -0.03325759 -0.065853104
000230 61 d4 3b bc 11 88 34 3c f2 4b 68 bd eb d8 17 3b
       -0.011464209 0.011018769 -0.056713052 0.0023170065
000240 50 69 e3 3c 20 1d 4a 3d a7 98 d3 bc e0 51 85 bd
       0.027760178 0.049344182 -0.025829626 -0.06509757
000250 b0 ce 47 3d 96 4b 2a 3d b8 04 88 bd 65 4f 17 bd
       0.048781097 0.04157599 -0.06641525 -0.03694095
000260 9f 04 88 bc 97 9f 13 3d 3b e8 dc bc 18 94 54 bd
       -0.016603766 0.03604087 -0.026966205 -0.051899046
000270 cb 7f 89 bc 00 5f 3e 3b 02 77 33 3c 49 cb 1f bd
       -0.01678457 0.0029048324 0.010953667 -0.039012227
000280 56 a4 7a 3d 0f 82 a2 bc 4f 59 39 bd 99 b9 82 3d
       0.06119188 -0.019837407 -0.045251187 0.06383056
000290 bd 06 ae 3c 93 2c 38 3a ec 8d 67 3c 74 35 42 3d
       0.021243447 0.0007025685 0.014132958 0.047414258
0002a0 ce d0 c0 3c 62 52 e6 3a f8 c4 76 bd 7b c0 a9 bd
       0.023537066 0.0017572159 -0.060246438 -0.08288666
0002b0 69 57 4a bd 78 99 5f bd 72 c1 5d 3d 13 57 66 3d
       -0.049399767 -0.05458972 0.054139562 0.056235384
0002c0 1e 82 50 bd 14 fe 12 bd 3a 08 d1 3c 8d fd 36 bd
       -0.05090534 -0.03588684 0.025516618 -0.0446754
0002d0 a7 ba af bc 60 3c 73 bd f4 3f 6e bd a4 85 1b bd
       -0.021451307 -0.05938375 -0.05816646 -0.037969247
0002e0 aa b1 09 bd 48 d7 ac bd c2 7d 42 bd ab cb 47 bc
       -0.0336167 -0.08439499 -0.047483213 -0.012194554
0002f0 c9 90 b6 3c 98 b3 28 3d 77 df 48 3d 68 c1 2a bd
       0.022285836 0.0411869 0.049041238 -0.041688353
000300 e1 c1 0f 3c d7 b7 47 bc 23 0e 77 3c 07 d6 30 bc
       0.008774252 -0.012189827 0.015079054 -0.010793216
000310 2e 5d 8e bd 7f c0 b4 bc b0 45 27 bd 1e 8f 4d bb
       -0.06951366 -0.022064446 -0.040837944 -0.0031365822
000320 0a 8d 72 bd df 23 9b b9 f6 0a 05 3d 72 f7 28 bb
       -0.059216537 -0.0002959063 0.032481156 -0.0025782255
000330 d0 9d 1e bb dd 99 5f 3b 5f db 02 bd 9f c9 9d 3c
       -0.002420295 0.003411881 -0.03194749 0.01926118
000340 87 9f 56 3d f4 05 c2 3c 53 84 49 3c a3 60 31 bd
       0.05239823 0.02368448 0.012299615 -0.04330505
000350 ca 38 06 bc 86 f1 3b bc 83 08 3e 3d e0 68 ce 3c
       -0.0081922505 -0.011471158 0.046394836 0.025196493
000360 35 a8 33 3d 80 a2 56 bd 59 e0 20 bd 51 a8 4e bb
       0.043861587 -0.052401066 -0.039276455 -0.003153343
000370 20 e2 2b 3c b7 e9 50 3c ed e1 41 bd ca 1d 9e bd
       0.010490924 0.012751034 -0.0473346 -0.077205256
000380 73 06 ef bc 6b 1d 95 3c 20 69 95 bd e2 97 3f ba
       -0.02917788 0.018202504 -0.07295442 -0.0007308704
000390 91 45 98 bc 46 da 72 3b ba aa ea 3c 29 b4 94 3a
       -0.01858786 0.003705637 0.028645862 0.0011345196
0003a0 34 09 c3 bc 6a 5d 28 bd ae d6 c8 3c 0c d5 b3 3c
       -0.0238081 -0.04110471 0.02451643 0.021952175
0003b0 f9 c7 4d 3d cd 07 74 bc 9b e4 6d bd d2 bc 07 3d
       0.050239537 -0.014894438 -0.058079343 0.033139057
0003c0 45 9b 73 bd 40 2c c9 3c 6d f8 35 be e2 5d 62 3d
       -0.05947425 0.024557233 -0.17770548 0.055265315
0003d0 54 e3 6e bc e7 fb 01 3e 12 8f b1 bb dd 3a 83 3d
       -0.014580566 0.1269375 -0.0054186666 0.06407712
0003e0 59 a2 39 bd 91 f3 ca 3c 56 78 66 bc f7 ec e3 3d
       -0.045320842 0.024774345 -0.014066776 0.11129182
0003f0 ba 55 25 bd a0 c0 10 bc ab b1 93 bc f3 90 46 bd
       -0.04036496 -0.008834988 -0.018029055 -0.048478078

fc.0.bias f4 [256]
000000 4e e5 b5 bb 5d fe bc 3c bf ec f4 3c bf 61 32 3d
       -0.005551017 0.023070509 0.029898046 0.04355025
000010 2c 71 98 3c b3 70 e3 3b 64 03 ff 3b 56 7b 11 bd
       0.018608652 0.006940925 0.0077823866 -0.035518013
000020 22 1b 1c bd c2 3a 67 3d db 96 83 bd 95 17 e2 3c
       -0.038111813 0.05645252 -0.06425258 0.027599135
000030 25 bb 85 bd cc b7 a4 bd d1 4d d2 bc f8 5f 68 bd
       -0.065298356 -0.08042869 -0.025671871 -0.056732148
000040 a6 f3 1a bc 0d 5d 5c bd ca c1 96 3d 93 f4 1f 3d
       -0.009457504 -0.053799678 0.07361181 0.039051604
000050 02 f0 84 bd 78 47 33 bd a5 80 5d bc 1d fb a0 39
       -0.0649109 -0.04376933 -0.013519441 0.00030704672
000060 6e e3 73 3d 6e 06 1e bd 47 8a 88 bd e9 79 32 3d
       0.059543066 -0.03858035 -0.06666999 0.043573294
000070 91 2e 8f bd 29 ce 28 bb b5 a1 78 bc 01 d6 30 bd
       -0.06991304 -0.0025757647 -0.015175273 -0.04317284
000080 51 4e 96 bd 96 0c ab 3d 0f 76 f5 3c 9e 46 89 3c
       -0.073391564 0.0835201 0.029963521 0.016757306
000090 2e 73 86 3c b4 e0 21 bd d2 c5 30 bd 0e 9e fa 3c
       0.016412344 -0.039520934 -0.043157406 0.030592944
0000a0 d9 d3 08 3e 73 78 c2 bc b2 22 3f 3d 5b 52 e8 3d
       0.13362063 -0.023739075 0.046663947 0.11343833
0000b0 d1 ee ec 3b 65 26 0f 3d 08 17 b0 bd 90 6e dd 3d
       0.0072306176 0.034948725 -0.08598143 0.10812104
0000c0 11 c5 fd 3c c9 ac 8c bd db 66 96 3d 5e bc 5b bd
       0.030977758 -0.06868894 0.07343837 -0.053646438
0000d0 56 a1 d5 3c 0d cd d2 ba 90 1e 76 3c 2f 1e 5f bd
       0.026077908 -0.0016082838 0.015021935 -0.054472145
0000e0 06 b0 a1 bd 11 b1 21 bd b8 89 92 bc db fd 0b bd
       -0.07894902 -0.039475504 -0.017887935 -0.034177642
0000f0 30 fc d3 3d ac 4a b5 bd 59 36 84 bd ab 34 b1 bc
       0.10350835 -0.08852133 -0.064556785 -0.02163156
000100 02 6c 33 3d 0f 38 df 3c 09 f8 1d 3d ec 2f b9 3c
       0.043804176 0.02724841 0.038566623 0.022605859
000110 be 34 28 3d f4 c0 c8 3c c6 81 d3 bd ee 7f b8 3d
       0.041065924 0.02450607 -0.10327487 0.09008776
000120 cb 7b 90 bc 1e d0 c7 bc db 33 65 bd dc 0b da 3c
       -0.017637154 -0.02439123 -0.055957656 0.026616983
000130 97 5e 53 bd 02 cf 8f 3c bc 4b 69 3d 16 70 17 bc
       -0.05160388 0.017554764 0.05695699 -0.009243032
000140 63 33 8c 3c 76 93 8d bd 08 e5 36 3d 70 0e 4e 3d
       0.017114347 -0.069128916 0.044652015 0.050306737
000150 7d b4 10 bd 8e b3 e8 3b 62 bc 89 3c 4c d9 0a bd
       -0.035328377 0.0071014827 0.01681346 -0.033898637
000160 5d 3f ba bd 26 58 e4 bc 81 da 81 3c 35 18 80 bc
       -0.09094117 -0.027874064 0.015851261 -0.015636543
000170 e5 0d fe 3d 72 e8 dc 3c 37 f6 5d 3d 00 b3 9e bc
       0.12404994 0.026966307 0.054189887 -0.019372463
000180 bd a0 65 3d e6 8a c0 3d 10 49 42 bd c9 1e 5c bd
       0.056061495 0.09401493 -0.04743296 -0.053740297
000190 b5 47 a2 bc ad 1f 23 3d ed ea e6 3b 4e 48 56 bb
       -0.019809583 0.03982513 0.0070470483 -0.0032696906
0001a0 e0 f4 b2 bc 78 d3 47 bd 66 8f 2f bd 23 72 cd bc
       -0.021845281 -0.048785657 -0.042861365 -0.025078839
0001b0 15 70 7e 3d e5 a9 94 3c 58 42 9f 3d ff 1d 09 3c
       0.06211861 0.018147418 0.07776326 0.008368968
0001c0 18 01 88 bd 4e 2b f9 3c 16 a2 b7 bb 30 24 6f 3d
       -0.066408336 0.030416157 -0.005604039 0.05838412
0001d0 dc 20 10 bc 02 75 25 bd 53 fd 10 3d fe f5 1e bd
       -0.008796897 -0.04039479 0.03539784 -0.038808815
0001e0 28 9b 9e 3a b2 cb df 3d 3e 51 56 bd 1a 12 97 bd
       0.0012100684 0.10927524 -0.052323572 -0.073764995
0001f0 fc 33 97 3c 2a 74 21 bd a3 c3 4e bd 6a da 18 3d
       0.018457405 -0.039417423 -0.050479542 0.03731767
000200 0b 4e 94 3d 72 41 1d bd 20 3c 0f 3d 4c 79 d1 3c
       0.07241448 -0.03839249 0.03496945 0.025570534
000210 1a 78 83 bc d3 7f 7c bd 33 ca 32 3c 6b e9 1f bd
       -0.01604848 -0.06164534 0.010912466 -0.039040964
000220 6f 15 eb 3c 3d 06 24 3c 95 dd 90 3c 04 2e a1 bc
       0.028696744 0.010011253 0.017683784 -0.019675262
000230 5a 97 aa bd bb 15 80 bd 45 34 99 bd f0 88 9d 3b
       -0.08329649 -0.06254145 -0.07480673 0.004807584
000240 b0 cc 86 bc cb e7 ef bc 3a b0 c1 bb 45 a0 d6 3d
       -0.016455024 -0.029285332 -0.0059109004 0.10479788
000250 b9 90 2f bd 48 51 d5 bc 65 01 44 3d f3 05 14 bc
       -0.042862628 -0.026039734 0.047852892 -0.0090346215
000260 30 b1 6c bd 30 8a 75 bb 6a 65 41 3c ef f9 5d bd
       -0.057786167 -0.00374664 0.011803964 -0.054193433
000270 86 24 51 bd 66 b0 2a bd 96 7e c1 3c a9 5c 82 bd
       -0.051060222 -0.041672133 0.023619931 -0.0636533
000280 c0 68 1c 3d 84 c7 57 bc 02 16 6b bd 8b 9d 00 3d
       0.038185835 -0.013170127 -0.057394035 0.031400245
000290 85 3c 73 3c d5 5f 45 bc 42 d4 cf 3d 36 d1 f9 3c
       0.014845972 -0.012046774 0.10147907 0.030495267
0002a0 d4 f5 6f bd 5d 27 28 bc a6 0d ab 3d 9b ec 05 bd
       -0.05858405 -0.010263291 0.083522126 -0.032696348
0002b0 e1 86 b3 bb 0b 09 2a bd ce 8b 29 bc 5b 34 70 3d
       -0.0054787253 -0.04151253 -0.010348273 0.05864368
0002c0 ad b1 28 3d 6e f2 f3 bb 93 46 0f bd 57 05 52 3d
       0.04118507 -0.0074446714 -0.034979414 0.051274624
0002d0 fe 88 23 bd 1e 78 a3 3c 64 b7 35 3d cf dc 88 3d
       -0.039925568 0.019954737 0.044364348 0.06682741
0002e0 2c 94 31 3d b0 ac 2e bd 43 98 89 bc 71 e9 28 bd
       0.0433542 -0.042645156 -0.016796237 -0.041238252
0002f0 b3 03 7a 3c 7c e1 22 bd 4f e7 5e 3d 74 ff 60 bd
       0.015259671 -0.03976582 0.05441981 -0.05493112
000300 e0 50 71 bd c9 87 8d 3c bc ab 2a bd d3 38 3a 3b
       -0.05891502 0.017276661 -0.041667685 0.0028415218
000310 34 5d d7 bc 9a e8 51 bd d4 f6 5f bd f2 e5 c6 3c
       -0.02628956 -0.051247217 -0.054678753 0.024279568
000320 f0 e8 d6 3d b9 4c 8b bd 12 b0 b5 bd ef a1 6a 3c
       0.10493648 -0.06801743 -0.08871473 0.014320835
000330 bf 0a 43 bd c7 a6 62 bd b5 d9 45 3d e4 f6 bd 3c
       -0.04761767 -0.055334833 0.048303325 0.023189016
000340 00 fa f4 bc e2 be dc bb 61 45 73 3d 69 e1 58 bd
       -0.029904366 -0.006736622 0.059392337 -0.052949343
000350 a5 57 b4 3c 26 10 15 bd 08 b0 28 bd b2 fc 5e bd
       0.022014448 -0.036392353 -0.0411835 -0.054440208
000360 f3 07 2a 3c e2 45 fc 3c ae 35 2b 3c 09 ef 08 3d
       0.010377872 0.030795041 0.01044981 0.033431087
000370 d4 5a 4d bd 11 c2 93 3c 50 da b8 3d 80 5e 17 bd
       -0.05013545 0.018036874 0.09026015 -0.036955357
000380 19 50 98 bd 27 90 82 3d 62 ef 16 bc e5 3f e4 3c
       -0.074371524 0.06375151 -0.009212347 0.027862499
000390 de 2d d9 3d ca dc 8f 3c 12 db 40 bc 9f 84 a4 bd
       0.106044516 0.017561335 -0.01177098 -0.08033108
0003a0 14 1a a8 3c e3 35 da 3c cc e5 50 bd ce 75 99 bd
       0.020520248 0.026637023 -0.0510004 -0.074931726
0003b0 34 1e b2 3c 6b 6f 0a bc 76 18 27 3d 2f ea ce 3d
       0.021742918 -0.008449416 0.040794812 0.10103261
0003c0 40 39 26 3d 57 ff 67 3c 91 b1 34 3d 57 0e 4e 3c
       0.04058194 0.014159999 0.044114653 0.012576661
0003d0 35 8a ea bc 82 aa 7c 3d ac b4 f3 3d ba 63 ec bc
       -0.028630355 0.061686046 0.11899695 -0.028856147
0003e0 50 e2 e2 bc 11 e5 13 3d 14 00 3c bd 4a eb e3 bc
       -0.027695805 0.036107127 -0.045898512 -0.027822156
0003f0 cc 9d e9 bc 0e d7 c8 3d 0a 07 bf 3d 01 e5 a6 3d
       -0.028517626 0.098066434 0.093275145 0.08149148

fc.3.weight f4 [12, 256]
000000 c8 0a 40 3d 5a d3 c8 bb f9 a5 b4 3c 45 79 93 be
       0.04688528 -0.0061287107 0.022051798 -0.2880346
000010 6f a8 e9 bd c6 0a 14 be 9e a1 21 bd b6 43 51 bd
       -0.11409079 -0.14457235 -0.03946077 -0.051089965
000020 df 70 25 bb 98 6a 75 bd 8b 64 ae bd 35 ba 97 bd
       -0.0025244278 -0.05991611 -0.08515271 -0.07408563
000030 b2 90 79 3d 0d c1 bd bb e0 22 a9 bc d0 a0 39 bd
       0.060929008 -0.0057908357 -0.020646513 -0.04531938
000040 fb ad 6c 3c 74 8f ab bc 0f 8a a7 bc 93 2f a6 bd
       0.014445777 -0.020942427 -0.020451574 -0.08114543
000050 46 47 f6 bc b9 40 80 3c b2 8f 34 3d cf 58 b2 3c
       -0.030063283 0.015655862 0.04408235 0.021770863
000060 16 37 20 be 59 0b 86 bc 65 da 9f bc 6e 8d af bd
       -0.15646014 -0.016362833 -0.019513318 -0.085718974
000070 8d 35 d1 3c fb 7e de ba 58 8b c8 bd d8 63 39 3d
       0.02553823 -0.0016975099 -0.09792203 0.045261234
000080 90 93 da 3c 2a c9 a9 be 1c f3 02 be f8 f4 c9 bf
       0.026681691 -0.33161288 -0.12788051 -1.5777884
000090 50 5e 26 bf a7 2d 2c ba 4b 09 cc bc e4 80 99 bc
       -0.6498766 -0.0006568082 -0.024906775 -0.018738218
0000a0 08 14 47 be c6 82 b3 ba 90 37 35 be 50 6e db bd
       -0.19441235 -0.001369559 -0.17696977 -0.107144
0000b0 59 dd 16 be db 6b b7 bc e7 c4 88 bc 70 94 9e bd
       -0.14732875 -0.022390297 -0.016695453 -0.07743156
0000c0 b7 76 a7 bd ba ee 3b bc df ae 38 be 6c 56 2f bd
       -0.0817694 -0.011470491 -0.18035458 -0.042807028
0000d0 49 50 aa 3c 98 46 ba ba 83 a2 02 bd bd 8d ac bd
       0.020790236 -0.0014211712 -0.031893265 -0.08425472
0000e0 2f 45 c5 bc c6 d9 0c be d3 ee 4d bd 70 9d 7a bd
       -0.02408084 -0.13754949 -0.05027659 -0.0611853
0000f0 6c 62 e3 bd 4c cd 90 bf 1e 5e a4 bd b0 3e 76 be
       -0.11102757 -1.1312652 -0.08025764 -0.24047351
000100 21 d4 21 bd 84 2a 3f 3d b3 b7 2b 3d e1 f7 70 bd
       -0.039508943 0.046671405 0.041923236 -0.058830146
000110 d2 7a ad bc 99 cc f9 3c 74 82 28 bf 3a de 0a be
       -0.02117673 0.030493068 -0.65824056 -0.13561335
000120 05 0a 7b bd c9 76 46 bd 6a 80 17 3c 9e a4 83 bf
       -0.061288852 -0.048453126 0.009246925 -1.0284612
000130 b8 68 19 bd 9d 4d ac bc d5 47 f8 be c0 7b f6 bc
       -0.037453383 -0.021033103 -0.48492303 -0.030088305
000140 45 7c 28 be 3e b8 54 bd ca 87 01 bf c5 25 94 bd
       -0.16453655 -0.05193352 -0.5059782 -0.072337665
000150 dd a8 c7 bd 27 9a 1e 3d 0e 49 e1 bd 59 e6 aa bd
       -0.09749005 0.03872123 -0.11000262 -0.083447166
000160 fd 6c a9 bf de f3 bd 3c 53 69 a7 bd cc 04 c9 bc
       -1.3236386 0.023187574 -0.08174386 -0.02453842
000170 7b 9a 15 be 2f 71 61 bd 74 4e 12 bf 75 ec b7 bd
       -0.14609711 -0.05503958 -0.5715096 -0.089806475
000180 43 ac c1 bd 6f 31 8b bd 0b 44 b8 3c 83 54 dc bc
       -0.094566844 -0.06796538 0.022493383 -0.026895767
000190 4a eb 51 3d f4 c2 f4 bd c0 22 94 bd 99 80 4f bc
       0.05124978 -0.11951247 -0.072331905 -0.012664937
0001a0 0e 79 8b bd ba f3 e7 bc 7b de e6 bd ed b3 5f 3d
       -0.06810199 -0.02831446 -0.112729035 0.05461495
0001b0 71 2e 06 be 4c fe 4d be ff 5b 60 bd 20 64 80 bd
       -0.13103653 -0.20116538 -0.054775234 -0.06269097
0001c0 18 a7 46 3d 71 69 b6 bd 9d d5 a5 bd 38 9a ee bd
       0.048499197 -0.0890683 -0.08097384 -0.11650509
0001d0 21 c9 80 bd c5 d8 96 bc e7 56 08 be 6b f6 58 bf
       -0.06288362 -0.01841391 -0.133144 -0.84751004
0001e0 de ab 89 bd 8c 49 27 be c7 70 cb bd 6a 01 77 bf
       -0.06722234 -0.1633665 -0.0993362 -0.9648653
0001f0 14 b4 16 3c ca 74 ed 3c 46 8c 3b bd 11 53 78 bd
       0.009198207 0.028986353 -0.045788072 -0.060626093
000200 9d fd 23 be 34 1d a0 bd ca b7 65 bf be 30 16 bd
       -0.16014715 -0.0781807 -0.89733565 -0.036667578
000210 2f a5 b5 3c a8 4c 89 bc b9 13 a7 3c 85 0a 9d bd
       0.022173492 -0.016760185 0.020395147 -0.07668022
000220 61 20 fa bd a0 3b 86 bc ed 48 c4 bc fa 92 7e bc
       -0.12213207 -0.016385853 -0.023960555 -0.015537972
000230 62 ec b5 bd af ec 55 3d 57 a3 55 bb 72 20 38 3d
       -0.08882977 0.052227672 -0.003259858 0.044952817
000240 f4 40 de bc 79 36 e6 3c 2b 40 24 bd 49 cb 0e be
       -0.027130581 0.028102146 -0.040100258 -0.13944735
000250 8c 64 7d bd 6e 5f 19 bd 46 2f fa bd 1c 98 0f bc
       -0.061863467 -0.037444524 -0.12216048 -0.008764293
000260 79 ca 6e bd 8b f7 f8 bc fb f6 86 be b7 0b 84 bd
       -0.05829856 -0.030391475 -0.26360306 -0.06447547
000270 bf 5d 55 bd f5 03 5e 3d 65 02 c6 bb 84 b8 10 bd
       -0.052091356 0.054202992 -0.006042766 -0.035332218
000280 c4 ec 7e 3c d2 55 c9 bd 3d be a0 bc d0 83 43 bd
       0.015559379 -0.09830822 -0.019621963 -0.047733128
000290 41 2e 02 be 13 dd c9 bc cc 68 39 be 02 83 76 bd
       -0.12712957 -0.02464155 -0.18106383 -0.060183533
0002a0 c6 ac 51 bd 8f 0a ea bd 6e 08 47 bd e1 bb 6f bd
       -0.05119016 -0.11427795 -0.048592024 -0.058528785
0002b0 a4 0a 00 3d be fb 3f 3d 0e 89 6a 3d 3f 2b 9d bd
       0.031260148 0.04687094 0.05725961 -0.07674264
0002c0 5f 99 26 be 07 2c 11 bd fc da 59 3d 64 a7 98 bd
       -0.16269444 -0.03544238 0.053187355 -0.07453802
0002d0 ad 10 9a 3c d7 fc c7 bd 5d 34 11 3d 37 c5 c6 bd
       0.01880678 -0.09765022 0.03545033 -0.097055845
0002e0 4d 6a 8c bd 54 b9 90 bd 66 b6 65 bd 84 48 86 bd
       -0.06856213 -0.070665985 -0.05608215 -0.065568
0002f0 b4 16 88 bc 6c ea 92 bd ad 32 00 be 0e 42 14 bd
       -0.016612388 -0.07173619 -0.12519331 -0.036195807
000300 4e 7c 5b bf 58 b9 06 bd 7f 48 a0 bb ef 04 14 bd
       -0.8573655 -0.0328916 -0.0048914547 -0.036137518
000310 9a 67 74 bf 45 f3 2a bc 95 48 ff ba f2 a0 aa bd
       -0.95470583 -0.010433977 -0.0019476587 -0.08331479
000320 dd 11 45 be 78 7d f4 3c 20 80 b8 bc 2f 1e 9b bd
       -0.19245096 0.029844984 -0.022522032 -0.075741164
000330 b8 ee 68 3d f4 48 ff bd db ad 1b bd dd 26 dc bf
       0.056868285 -0.124650866 -0.0380076 -1.719936
000340 8d f6 77 3c cd d6 24 3d 93 6a 9a bd ab 2e bb bd
       0.015134466 0.040243912 -0.07539859 -0.091397606
000350 8b 2b bd bd e0 7b d7 3c 6f 32 f3 bb b6 5b 3a be
       -0.09236821 0.026304185 -0.0074217836 -0.18199047
000360 7c 50 59 bd 88 fd 2b 3d e4 03 8e bd 27 6b 1e 3d
       -0.05305527 0.041989833 -0.06934336 0.038676407
000370 de dc 08 3d 6a 98 89 bd 0c d2 33 be b3 c9 1f 39
       0.03341376 -0.06718524 -0.17560595 0.0001523856
000380 50 ef 08 3d c9 03 63 ba 51 72 2a be a5 8a e1 bd
       0.03343135 -0.0008659927 -0.16645171 -0.110127725
000390 89 2f 05 be 8c e8 74 bf 5c 7e 25 3d 70 86 2d be
       -0.13006414 -0.9566734 0.04040371 -0.16945815
0003a0 e7 a3 8a bf 7e f5 c6 bd 49 86 84 3b 1d 68 a7 bf
       -1.0831269 -0.09714793 0.0040443284 -1.3078648
0003b0 87 76 69 3c 20 e4 76 bc 6c f1 44 3d cf 2e 95 bd
       0.0142494505 -0.015069038 0.0480818 -0.07284319
0003c0 28 a8 5d bd 5b 2a 9f bc 44 74 45 bd 2d d3 19 bc
       -0.054115444 -0.019429376 -0.048206583 -0.009388727
0003d0 3a 96 53 be 1b 52 76 bb ea 73 18 bd 88 ed f6 3c
       -0.20662776 -0.003758556 -0.03721992 0.03014256
0003e0 15 1e cc bd e1 44 84 bc 46 b3 e5 3c 10 ca 30 bb
       -0.09966675 -0.016146125 0.028039586 -0.0026975907
0003f0 f9 60 84 bc ca e7 e9 be e7 d0 13 be 7d 73 e0 bd
       -0.016159521 -0.45684654 -0.14435159 -0.10959528

fc.3.bias f4 [12]
000000 8c b7 63 bd 1d 4f dc bd 4d 83 e1 bc 2a d0 ef bd
       -0.055594966 -0.10757277 -0.02752843 -0.11709626
000010 a5 a4 a6 3b 70 cf b2 3d 1e fd e5 3d 0a 19 84 3d
       0.005085545 0.08730972 0.11229919 0.06450088
000020 59 d6 93 3d 4c 60 a4 3b e2 1c d9 bb 9c 2d 44 3d
       0.07218618 0.0050163623 -0.0066257576 0.04789506
