cnn_fighting_agent_starter/outputs/20251017_191049/model.pt (torch, 287835 bytes, 12 tensors)

state_cnn.0.0.weight f4 [16, 1, 3, 3]
000000 03 79 be bd 71 ec 4b 3e ff 4a 64 3e f2 29 08 3e
       -0.09300425 0.19914414 0.22294234 0.13297251
000010 70 c4 89 3d 8d af 39 be ea 13 df bd ca db af bd
       0.067269206 -0.18133374 -0.1089247 -0.08586843
000020 cb 1e ee be d4 d1 86 bd 39 6a 09 3e c4 88 a3 be
       -0.46507868 -0.0658299 0.13419427 -0.3194028
000030 3c ad 78 bd 1d 57 a2 be 31 4c 35 be b6 50 0c 3e
       -0.060712084 -0.31707087 -0.17704846 0.13702664
000040 84 bd aa bd 09 9b 22 be aa 97 87 be 4b df 78 3e
       -0.083369285 -0.15879454 -0.26482898 0.2430393
000050 1a 1d 31 be e0 17 d9 be fd 0e 89 3e f2 8e 33 3e
       -0.17296258 -0.42401028 0.26769248 0.17534998
000060 fe 59 00 3e 99 36 80 3e e3 2e 53 be 68 64 3b be
       0.1253433 0.25041655 -0.20623355 -0.1830002
000070 e8 d6 8a be 05 6d 6f be e2 7f 98 3d eb a2 8b bd
       -0.27117085 -0.23381431 0.07446267 -0.068181835
000080 cb 43 d9 3d 47 cd 8a 3e 6d 5e a5 be 8b 09 46 3e
       0.106086336 0.2710974 -0.32298604 0.19339578
000090 36 fd 25 3e 75 46 14 be bf da 96 3e 43 e3 0f 3e
       0.16209874 -0.14480002 0.29463765 0.14051537
0000a0 71 ed 58 3e 0a 10 6e be 67 1e d5 be 81 6b aa be
       0.21184327 -0.23248306 -0.41624758 -0.33285144
0000b0 0b f5 42 3d 69 46 64 3e d2 df 54 3e 49 e1 68 bd
       0.047596972 0.22292484 0.20788506 -0.056855474
0000c0 3f c0 2e be a5 80 88 3d 74 95 c2 3d 7d 95 cb be
       -0.17065524 0.06665162 0.09501162 -0.39762488
0000d0 6f 4d 1a 3e 31 8b 40 3e 44 56 e0 bd 5e fc b6 bd
       0.15068601 0.18803097 -0.10953954 -0.08934854
0000e0 e6 c8 f9 bd e5 31 86 3e 8b f0 8a be 94 85 a6 3e
       -0.121965215 0.26209942 -0.27136645 0.32523787
0000f0 93 fa ee be 70 45 e0 3c dc 21 c9 3b da da 52 bd
       -0.46675548 0.02737686 0.0061380696 -0.051478244
000100 1e e3 e7 ba 43 cf 35 3e 52 b6 81 3d 37 3b 8d 3e
       -0.0017691588 0.17754845 0.06333603 0.2758424
000110 ba fc d1 3e 5a bd c8 be 53 9b d2 bc 4d 53 89 3e
       0.41013128 -0.39206964 -0.02570883 0.26821366
000120 ca d8 84 3e 7a c9 b0 3d 0e ee 1a 3e 2b e6 0d 3e
       0.25946647 0.086321786 0.15129873 0.13857333
000130 1e 76 e7 bd 8f 94 ba 3d 93 18 91 3e 0c 0b 33 be
       -0.11301826 0.091103666 0.2833906 -0.17484683
000140 32 51 89 be a2 2d 19 be 82 a8 32 be 30 65 89 be
       -0.2681976 -0.14958814 -0.17447093 -0.26835012
000150 63 63 dc ba 90 37 85 3e 48 13 7d be 68 6e 17 3e
       -0.0016814288 0.26018953 -0.24714386 0.1478821
000160 23 55 1c 3e f9 63 12 3f 84 0f b3 3c ad ad 1f be
       0.15266852 0.57183796 0.021857984 -0.15593596
000170 a7 81 e5 bd d9 0d 78 3d ac f2 2b be 7c b9 0c 3d
       -0.1120637 0.06056008 -0.1679179 0.03435658
000180 74 45 45 be 56 02 ae 3d ac af 4d 3e ae 32 9a be
       -0.19264776 0.08496539 0.20086545 -0.3011679
000190 bd da 8e bd 22 50 a4 3e c7 26 95 3e 5c 20 c6 be
       -0.06975315 0.32092386 0.29131147 -0.38696563
0001a0 6e de 00 bd 17 46 8e 3d 24 ff ad 3d 98 7c 06 bd
       -0.031462125 0.06946962 0.0849593 -0.032833666
0001b0 23 27 81 3e 54 d5 83 be 59 a9 8e 3e 81 af 59 bc
       0.2522517 -0.25748694 0.27863577 -0.013286472
0001c0 5f 92 a6 be 2d c4 55 3e f1 8e 63 be a0 a9 a9 be
       -0.32533547 0.20875616 -0.22222497 -0.33137226
0001d0 38 31 c1 3d bf 8f c5 3d 01 35 9e 3d 4e 10 a6 3e
       0.09433216 0.09646558 0.077249534 0.32434314
0001e0 49 42 e8 3d a2 bc b6 be 6d 62 a5 3e 5f c0 2c be
       0.11340768 -0.3569079 0.32301655 -0.16870259
0001f0 9b 9b 31 3d eb 9c 7e be b0 a1 84 3e b6 33 2a bd
       0.043361288 -0.24864547 0.25904608 -0.04155322
000200 af 4c 7d be 72 f0 6e 3e 1a 80 c0 3c 52 99 15 bf
       -0.24736284 0.2333391 0.023498584 -0.58437073
000210 73 63 34 bc 72 df a4 3c 83 c6 ac be 77 b1 80 3e
       -0.011010039 0.020126078 -0.33745202 0.25135395
000220 b8 92 07 bd 93 0d b8 bd 9e 18 99 3e f6 9a 6d 3e
       -0.033098906 -0.08986964 0.29901594 0.23203644
000230 ea 70 48 be 6c c1 4c 3e 2f 94 90 be 3e 02 71 3c
       -0.19574323 0.1999566 -0.28238055 0.014710007

state_cnn.0.0.bias f4 [16]
000000 cb ec 32 3d 49 e1 80 bd f0 67 6c 3e 33 21 8b 3e
       0.043682855 -0.0629297 0.23086524 0.27173766
000010 8e 32 03 3e 73 77 cf bd 0f 56 5d 3e dc 0b 97 be
       0.12812254 -0.10130205 0.2161486 -0.29501235
000020 11 f4 76 3e 08 2e 77 bd 23 be e7 3d 46 78 12 be
       0.24116541 -0.060346633 0.113155626 -0.14303693
000030 92 ec 8d 3e 2b 0f 21 be 29 60 4d 3e 65 e3 c4 3d
       0.2771955 -0.15728442 0.20056213 0.096136846

state_cnn.1.0.weight f4 [32, 16, 3, 3]
000000 21 30 01 3d 1e 2e a5 3d e5 66 aa bd d9 e7 59 3c
       0.03154004 0.08065437 -0.08320407 0.013299906
000010 6f 44 ee bc a4 e3 87 3d b6 2f 33 bd 72 c0 57 b9
       -0.029085366 0.06635216 -0.043746673 -0.00020575689
000020 8e fc a0 3a 39 a7 17 3b fc c1 4b 3d 72 51 79 bd
       0.0012282298 0.0023140444 0.049745545 -0.060868688
000030 ba 7b 83 bd e4 6f 55 bd b7 99 65 3d d9 a0 19 3c
       -0.06420083 -0.05210866 0.056054797 0.009376728
000040 42 92 ec bc 62 93 c9 3c 3c 59 bb bc 07 de 5d bc
       -0.028878335 0.02460641 -0.022869699 -0.013541705
000050 bc 58 71 bc b6 17 86 bd 40 e8 2e bc 75 ad a2 bd
       -0.014730629 -0.06547491 -0.01067549 -0.079432406
000060 39 36 9e bc 0c a5 90 3d e4 a2 01 3d a2 3b 61 bd
       -0.019312965 0.0706273 0.031649485 -0.05498851
000070 e4 c0 32 3d b4 f6 4b 3d e7 43 40 bd 1a 41 9a bd
       0.043640986 0.04979582 -0.046939757 -0.075319484
000080 f2 8e 72 3b 6f 68 6e 3d ca c7 5c 3d 59 00 09 bc
       0.0037011472 0.058205064 0.05390147 -0.008361899
000090 9f a7 0b 3c 6b 42 81 bd 47 9b ed bb 00 69 0a bd
       0.008523851 -0.06311496 -0.0072511765 -0.033791542
0000a0 8e ad fc 39 2f c3 56 bd 4e b9 8e 3d b4 f6 29 bd
       0.00048194494 -0.052432235 0.06968938 -0.04149504
0000b0 9e e5 89 bc 95 72 2d 3c 53 ed 46 3b ac 11 1b bd
       -0.016833123 0.0105864005 0.0030353859 -0.03785865
0000c0 82 3f 56 bc a8 78 43 bd 7c 42 d3 3c 4c f0 75 3d
       -0.013076665 -0.04772249 0.025788538 0.060043618
0000d0 4a 2e 68 3d 1c 83 20 3d bd 62 18 bd f1 16 75 bd
       0.05668477 0.039187536 -0.03720354 -0.05983633
0000e0 04 5d 3f bd 36 ba 1b bd d5 42 60 3d e7 db 4e bd
       -0.046719566 -0.03801938 0.054751236 -0.050502684
0000f0 19 51 97 bd f9 0e b7 bc 26 a5 1d bd 66 68 48 3c
       -0.07388515 -0.022346007 -0.038487576 0.012231922
000100 16 d8 7d 3d ce bf 9c 3c 1b 53 66 3c 07 45 c3 bd
       0.061973654 0.019134428 0.0140579 -0.0953465
000110 b1 3d 0c bd 2c 26 99 bd fa d8 64 3d 1c f2 68 bc
       -0.03423852 -0.07477984 0.055870987 -0.01421788
000120 8c 3c c1 bc ea 8f 09 bd f2 fc c4 3b 72 43 87 3d
       -0.023588441 -0.033584513 0.0060115987 0.06604661
000130 8d cb 0d 3c 2e 4c 25 bc 61 d9 1a 3d a4 9f a2 bd
       0.008654487 -0.010088963 0.037804965 -0.07940605
000140 a9 c2 95 3c 3d 46 85 3d cc b9 97 bc 17 27 51 bd
       0.018281298 0.065075375 -0.018521212 -0.05106267
000150 c4 af d6 bc ff a5 d2 3c b5 b3 96 3d 69 ae be bc
       -0.026206858 0.025713919 0.07358495 -0.023276525
000160 29 37 88 3c 6e a1 14 3c 6d 15 86 3d 51 8c 58 bb
       0.016627865 0.009071691 0.065470554 -0.003304262
000170 02 05 a3 3d c4 6b 2a bd 76 97 f7 bc f4 95 98 bc
       0.079599395 -0.04160668 -0.03022359 -0.01862619
000180 a4 45 9d bc 32 af ce bb e4 41 98 3d 93 a7 8d 3d
       -0.019198246 -0.006307506 0.07434443 0.06916728
000190 12 de cd 3c 87 74 57 bc d3 dc 6b bb 5f 84 c5 bc
       0.025130305 -0.013150341 -0.0035989776 -0.024110971
0001a0 27 be 7a 3c f6 28 00 bd 8c 16 87 bd d9 66 b1 3c
       0.015304125 -0.031289063 -0.06596097 0.021655487
0001b0 9f b3 48 3d 82 3a fc 3c d4 6e 4a 3d 96 71 b6 bd
       0.048999425 0.030789617 0.0494221 -0.089083835
0001c0 48 3b 05 bd 3f 3b 6f bd 58 4c a7 bd 9e c8 1c 3d
       -0.032527238 -0.05840611 -0.08168858 0.03827726
0001d0 ed 08 83 bd 76 3c c3 bd a5 a6 4d bd cf 42 65 3d
       -0.06398187 -0.095330164 -0.050207753 0.055971917
0001e0 89 9f 62 3d 2e 96 c4 3c 0e 29 b5 bb 1c ba 0a bd
       0.055327926 0.023997393 -0.0055285757 -0.033868894
0001f0 7c 59 0d bd a2 77 62 3d be 6c 24 3d 8a 45 af 3d
       -0.034509167 0.055289872 0.040142767 0.085581854
000200 34 5f 94 3d 21 42 5e 3a b3 b7 53 bd 09 f1 b2 3c
       0.07244721 0.0008478482 -0.05168886 0.02184345
000210 c7 bb f2 bc ac 7e 8f bd c7 7b e1 3c 5d f8 65 bd
       -0.029630555 -0.070065826 0.027524842 -0.05614506
000220 60 4f 05 bc be ee 10 bd d4 58 c8 bd 2b b9 bc bd
       -0.0081366 -0.035383932 -0.097825676 -0.092150055
000230 6f 57 49 bd 39 9c 80 bd ee 53 15 3c 82 79 c0 bc
       -0.04915565 -0.06279797 0.009114249 -0.02349544
000240 63 4c 7a bd fc 36 c8 3c 16 82 bd bd eb d0 8b 3c
       -0.061108004 0.024440281 -0.092533275 0.017067393
000250 24 42 ac 3c 71 7e 99 be da 50 b4 3c f8 79 5a bd
       0.021027632 -0.2997928 0.02201121 -0.053338975
000260 db cf 96 bc e4 a6 8a 3b 11 7d 22 3d 6e 6e 22 3d
       -0.01840966 0.0042313207 0.039670054 0.039656095
000270 52 17 42 3c d2 8a 6d bc b9 60 07 bc 1e a2 29 bd
       0.01184638 -0.014498429 -0.008262807 -0.041414373
000280 ec 95 42 3d c4 c8 43 bd 6e 5a a3 bd 72 26 8e ba
       0.047506258 -0.047798887 -0.079762325 -0.0010845198
000290 56 ea 15 bc 05 af 45 bd 80 8c 92 bd 65 b1 f1 3a
       -0.009150108 -0.048262615 -0.071557045 0.0018439709
0002a0 01 7f 3c 3d 0f 1e 72 3d 05 8a a2 bb 0f e5 60 3d
       0.046019558 0.059110697 -0.004960301 0.054905947
0002b0 2d fb b2 3c 2f dc b6 3d 61 a2 6b bd 9f e9 0a 3c
       0.021848286 0.089287154 -0.057527903 0.008478551
0002c0 52 c1 b7 3d 60 b0 8a bd 4c 08 ad 3d 5a dd e0 3d
       0.0897242 -0.06771922 0.08448848 0.109797195
0002d0 78 41 54 bd d3 40 1a 3c 4e 98 9e 3d 69 bd 41 3c
       -0.05182025 0.009414869 0.077438936 0.011824944
0002e0 3f ba f1 3b 22 10 16 bd 8b f5 c8 bd 00 b5 3e bd
       0.0073769386 -0.03663648 -0.098124586 -0.046559334
0002f0 74 a8 cd bd c3 94 3d bc 18 93 af 3d c2 60 92 bd
       -0.100418955 -0.011571112 0.08572978 -0.07147361
000300 f9 8c 8d bc bc 05 03 bd 25 5a 1c 3e 36 0d dd 3c
       -0.017279135 -0.03198789 0.15268762 0.026983839
000310 63 b5 ca 3d b6 8e b2 3d 58 1e 39 3b 43 41 2c bd
       0.09897878 0.08718626 0.0028246846 -0.042054426
000320 97 55 8e bd 06 3a 95 bd 69 74 8e bd 70 c9 28 3d
       -0.06949919 -0.07286458 -0.06955797 0.04120773
000330 c7 ed 4b bc 75 07 83 3d 27 d0 c5 3c 28 3d 13 3d
       -0.012446827 0.06397907 0.024147106 0.035946995
000340 1f 96 e1 bc 27 ba 9b 3c 02 47 aa bd 43 3b a9 bd
       -0.027537404 0.019009663 -0.08314325 -0.082632564
000350 a8 85 c9 3d 18 b2 6b bd 82 9e 94 3d 53 a1 6a 3e
       0.09839946 -0.05754289 0.072567955 0.22913103
000360 58 d2 9f bc 0f b9 1a bc 16 a1 fb 3b 54 a7 3f 3c
       -0.01950948 -0.0094435355 0.007679115 0.011697609
000370 06 65 88 bd aa 97 ba 3b 54 83 ef bc 9b c5 23 3c
       -0.06659894 0.0056943493 -0.029237427 0.009995843
000380 da 15 83 3c 29 91 1c 3d 81 6f 3f be 60 79 3b be
       0.01600163 0.038224373 -0.18694879 -0.1830802
000390 61 0f 96 3d 4b 5d 1e be 1c 98 b0 3b 9c 68 c9 bc
       0.07327152 -0.15465276 0.0053892266 -0.024586014
0003a0 76 62 75 bd 0b d1 99 3f 64 38 9e bd 97 50 34 be
       -0.059908353 1.201692 -0.077255994 -0.17608868
0003b0 c4 55 b7 3c 61 0e 70 bd cb 2c 2b 3d 25 62 37 3e
       0.022379763 -0.058607463 0.041790765 0.17908533
0003c0 2f 6e 69 bd 26 6c 20 3e 11 38 67 3e 72 a3 64 bb
       -0.056989845 0.15666255 0.22579981 -0.003488746
0003d0 de b1 8e bd 6f 36 95 3d ce 9d 1c bd 15 49 22 3d
       -0.06967519 0.07285773 -0.03823643 0.039620478
0003e0 10 36 6c 3e 6f 31 7c 3d 15 f6 95 3e ba df 4a 3e
       0.23067498 0.06157058 0.29289308 0.19811907
0003f0 13 5b 1e bd b1 27 05 3d be aa 88 3d f5 7a ad 3c
       -0.038661074 0.032508556 0.066731915 0.021176795

state_cnn.1.0.bias f4 [32]
000000 55 2f 85 bd c9 89 48 3d d6 6e 45 3d 3c aa 54 bd
       -0.065031685 0.048959527 0.048201405 -0.05192016
000010 bd 96 d6 3c b3 e0 fe bc 47 79 5b bd 9b dc e4 3c
       0.026194924 -0.031113004 -0.053582456 0.027937224
000020 e5 a3 a7 3c 3e 03 8c bd 51 f2 e5 3c c1 1d ca 3c
       0.020463893 -0.06836556 0.028069647 0.02467239
000030 aa 24 11 3d 98 da 37 3d b3 a1 30 3e c5 62 c9 39
       0.035435356 0.0448862 0.17249183 0.00038411297
000040 2b 9d 86 bd 9c 22 16 3d 09 bc ed bc 8f 9d 44 3d
       -0.06572946 0.0366541 -0.029020326 0.048001822
000050 83 d4 ad bd dd 93 87 bd 9a bb 00 3d 20 b5 9f bd
       -0.08487799 -0.066199996 0.03142891 -0.07798219
000060 7c 7f df bc 64 6e 98 3b 71 59 c9 bb 33 cc d8 bd
       -0.027282469 0.0046518315 -0.0061446954 -0.10585823
000070 16 e9 60 3c 5d 32 a5 bc 4e f9 86 bd c8 35 08 bd
       0.013727447 -0.020165617 -0.0659052 -0.033254415

button_cnn.0.0.weight f4 [8, 1, 3, 3]
000000 e4 11 d4 bb 7b a2 19 3d f4 04 5d be 62 1e 21 be
       -0.0064718593 0.03750847 -0.2158392 -0.15734246
000010 b3 c4 8b 3e 33 e5 59 3e b4 9c 93 3c b0 28 f4 3e
       0.27298507 0.21278839 0.018019058 0.47687292
000020 49 b6 83 be 6f 49 82 bd 92 69 a4 3d b6 8b 69 3c
       -0.2572501 -0.063616626 0.080279484 0.014254501
000030 fa 93 6f bd 3f 74 e8 3e 7e 18 ad bd 77 4f da bc
       -0.05849073 0.4540119 -0.08451937 -0.02664922
000040 d6 76 5a 3e 27 a9 23 bd c5 72 96 3c 3b 4d 69 3d
       0.21334395 -0.039956238 0.018365273 0.05695842
000050 14 60 72 bd d3 ad 12 bd 0b 36 1c 3d c9 aa 0d 3d
       -0.05917366 -0.035810303 0.038137477 0.0345867
000060 10 9a d8 3e 5b 60 90 3e 61 24 c9 3e 89 94 8e be
       0.4230504 0.28198513 0.39285567 -0.27847698
000070 71 2e cb be 04 6a 84 3d 6e 60 94 3b 2e 03 01 3e
       -0.3968387 0.064655334 0.004528097 0.12598869
000080 d1 04 0e be a4 d6 51 3e d8 a2 2e 3e bd 93 da 3e
       -0.13869025 0.20492035 0.17054307 0.4269084
000090 af 9e 96 3e 28 4a 96 be fd e0 a6 be ac a6 1f be
       0.2941794 -0.29353452 -0.32593527 -0.15590924
0000a0 a0 dc 2c be cb 85 ea bd e6 c5 d9 bd 26 d5 7d be
       -0.16881037 -0.114513 -0.10633449 -0.24788341
0000b0 58 77 fb 3d c3 7e 20 3e 4d 6c 1a be d0 0c 6f 3d
       0.122786224 0.15673356 -0.15080376 0.05836183
0000c0 f1 34 d5 3e d4 b7 b4 3e e5 58 31 be 50 77 be bd
       0.41641954 0.352965 -0.17319067 -0.09300101
0000d0 0c a0 ce be 16 17 58 3e 41 83 53 3d ff b1 a0 3d
       -0.4035648 0.21102557 0.051638845 0.0784645
0000e0 10 bf 60 3e 77 99 01 3e 1a 25 50 bd 13 39 e6 3e
       0.21947885 0.12656198 -0.050816633 0.4496542
0000f0 e2 9c 4e 3d a7 cc e7 bd e8 92 bc 3e c5 05 b5 be
       0.050442584 -0.11318331 0.3683083 -0.35355964
000100 40 bc ba 3e 59 8d 63 be 27 eb fc b9 86 59 65 bd
       0.36471748 -0.22221889 -0.00048240388 -0.05599358
000110 1a ce ae 3e cc 7e 53 3e 80 c4 0c be 53 46 04 3e
       0.34141618 0.20653838 -0.13746834 0.12917452

button_cnn.0.0.bias f4 [8]
000000 82 36 63 bc 86 b6 a9 3d da f6 b8 bd f5 a3 3d 3e
       -0.013867976 0.08286767 -0.09031458 0.18519576
000010 7e 18 2b 3e 34 77 9a 3d f9 f9 44 be 9a a0 0a bd
       0.16708562 0.075422674 -0.19235982 -0.033844568

button_cnn.1.0.weight f4 [16, 8, 3, 3]
000000 2a e7 e6 bd 74 41 07 3d de d5 b9 bd 43 e2 1d 3d
       -0.1127456 0.033021405 -0.09073995 0.038545858
000010 ba 7b 30 3d a0 5e 55 be 0a 18 2e be 32 4f 4d 3e
       0.043086745 -0.20836878 -0.17001358 0.20049742
000020 4f 3c 6b be e0 5a ca bc 61 68 9f bc 5c 6e 37 be
       -0.22972225 -0.024701536 -0.019458951 -0.17913193
000030 ef 28 01 3d fa 3c be bc 19 3b fd 3c 11 3f c9 3c
       0.031533178 -0.023222435 0.030911969 0.024566205
000040 4a 04 ef 3d e9 c5 16 be e9 82 97 3d 95 bd 2a be
       0.1167074 -0.14723934 0.07398016 -0.16673882
000050 40 f3 30 be a6 32 c4 bd ea b1 45 bd 5f 6e ce 3d
       -0.17280293 -0.09579973 -0.048265375 0.10079645
000060 3c 1a 27 be 98 23 96 3d 11 10 02 3d 2b f0 0d be
       -0.16318601 0.07331008 0.031753603 -0.13861148
000070 e5 84 23 be 31 e5 7f 3d 8f f5 b6 3d 5a 83 b5 3d
       -0.15968664 0.062474433 0.08933555 0.08862944
000080 00 9b 78 3d d0 27 02 be 6e 46 f1 bc 4d 0a ee bd
       0.060694695 -0.127105 -0.029452529 -0.116230585
000090 e5 62 44 bd 1d 0a 0e be ac cc ab bd 83 92 3d 3c
       -0.047945876 -0.13871045 -0.083886474 0.011570576
0000a0 15 39 a6 3d 28 73 87 3b 4d 9d 75 3d 0d 25 06 be
       0.08116356 0.0041336007 0.059964467 -0.13100071
0000b0 fe 82 99 3d 69 16 d1 bd 6b a1 df 3d da 8e 07 be
       0.07495688 -0.102093525 0.1091946 -0.13238087
0000c0 ad a7 25 3d 9b 0d c0 3d cb cb c3 bd 2b 59 b2 bd
       0.04044311 0.09377595 -0.09560355 -0.08708414
0000d0 9f ed 93 3d 58 6e 0e 3e 00 6f d5 3c 01 0a 46 3d
       0.07223057 0.1390928 0.026053905 0.048349384
0000e0 dd 43 6c 3b 5a 77 96 3b 10 a4 af 3d 02 55 ee 3d
       0.0036051192 0.0045918645 0.08576214 0.11637308
0000f0 ce 75 99 3a a8 94 41 3e b3 60 7f bd bf bd c7 3d
       0.0011708082 0.18904364 -0.06234808 0.09752988
000100 42 f6 05 bd bf 12 fa bc 08 50 ae bd d2 25 58 be
       -0.032705553 -0.030526517 -0.085113585 -0.21108177
000110 69 de fd 3d fc 64 81 3c dc b2 4a 3e 65 46 3d 3c
       0.12395937 0.015795223 0.19794792 0.011552428
000120 aa e1 8e bd 2f 10 90 3d d8 dd 25 be 95 bb 05 3e
       -0.06976636 0.07034337 -0.16197908 0.13059838
000130 5d 3c 42 3e 90 00 5d be 68 07 81 be 83 ea 40 bd
       0.1896834 -0.21582246 -0.25200963 -0.047098648
000140 48 ae 88 bd cd 21 88 bd 00 b1 d1 3d 21 4b 80 3d
       -0.066738665 -0.06647072 0.10238838 0.0626433
000150 8c f0 da 3d b3 bb 3d 3e 5d dc b1 bd fb 6c f3 bd
       0.10690412 0.18528633 -0.08684609 -0.11886021
000160 ad fa 5b bd 63 45 6e bd 53 41 a0 be b9 ce c6 bd
       -0.05370586 -0.05817164 -0.31299838 -0.09707398
000170 71 5d b2 3d 17 41 62 bd 10 c7 8d bd 2b d5 56 3e
       0.08709229 -0.055237856 -0.06922734 0.20979755
000180 42 e2 36 be 2a 28 b3 3d af 19 51 3d 98 48 2a bd
       -0.17859748 0.08747895 0.051049884 -0.041573137
000190 bf fb 0a bd 70 00 72 bd 4a 6a d4 3d 33 4c 8d 3c
       -0.03393149 -0.05908245 0.103718355 0.017248249
0001a0 ff 36 06 be ac 68 f8 bd 35 e0 8e bc 4a 15 bf 3d
       -0.13106917 -0.121293396 -0.017440895 0.093302324
0001b0 28 48 ef 3c 4f 26 b7 3d d9 fa 6f 3d 6e 4d 79 bd
       0.029209211 0.08942854 0.058588836 -0.06086486
0001c0 18 fe 5e be d8 2c 09 bd e3 27 86 bd 51 ab 01 3e
       -0.21776617 -0.033490032 -0.065505765 0.12663008
0001d0 b8 1a 0c be 7e de 37 bd c1 72 02 be fb e0 ea 3d
       -0.13682067 -0.04488992 -0.12739088 0.11468693
0001e0 ba 19 9c 3d 91 d6 ca 3d 20 7e 87 3d 1f f5 2d bc
       0.076220945 0.099042065 0.06615853 -0.010617523
0001f0 a0 64 02 be 9c ad 39 bb 24 a1 8c 3b 05 9b 73 3d
       -0.12733698 -0.002833224 0.0042916704 0.05947401
000200 cd e3 ca 3b 2b 48 02 be 48 7b ab 3d a4 00 08 be
       0.0061917068 -0.12722842 0.083731234 -0.13281494
000210 42 24 a1 bd 57 7f 25 3d 84 e3 a7 3d 43 9e 29 be
       -0.07868244 0.040404644 0.08197692 -0.16564278
000220 ec dc e0 bd a4 59 c6 3d 92 38 9a 3d b8 4e 26 3e
       -0.109796375 0.09685066 0.07530321 0.16240966
000230 f2 1b 42 3e 31 37 a8 bd c6 bb 42 3d 7d 63 32 be
       0.18955973 -0.08213652 0.047542356 -0.17420764
000240 72 83 00 bc 98 d4 90 bd 3f 0c 1a 3e f7 ed 49 bd
       -0.007843839 -0.07071799 0.15043734 -0.049299207
000250 92 77 16 3c 31 bd ea bd 91 f9 33 3d 4b 7b 00 bd
       0.009183781 -0.11461867 0.043939177 -0.03136758
000260 56 b4 9b bd 05 78 49 3d 72 c8 02 be d7 7c 13 3c
       -0.07602756 0.049186725 -0.12771776 0.009001932
000270 e0 f5 28 3d e4 0e 0c b9 e1 17 52 bd bc ac 81 bd
       0.04125011 -0.00013356988 -0.051292304 -0.063317746
000280 87 47 51 bb b8 fb 59 bc 45 39 59 be 6d 83 82 bd
       -0.0031933503 -0.013304643 -0.21213253 -0.06372724
000290 f9 e5 f7 3d 63 7a 83 3d 77 5d 07 3e f5 59 fb bd
       0.12104411 0.06419828 0.13219248 -0.12273017
0002a0 b4 8c 3f 3e cd 55 89 bd 3b ce 7d be 1c c8 02 be
       0.18706018 -0.06705818 -0.24785702 -0.12771648
0002b0 2f 30 52 bd a1 e1 ca ba 85 61 28 3e d8 c0 81 bc
       -0.051315483 -0.001547862 0.16443451 -0.015839025
0002c0 e5 00 8a 3d 12 1a 08 3e d2 bb 2c bc 93 b7 43 be
       0.06738452 0.13291195 -0.010542827 -0.19112997
0002d0 2a c9 09 bc 54 dc 7d bc 8a bb 89 3c 96 ed 34 3d
       -0.008409778 -0.015494425 0.016813058 0.044171892
0002e0 dd 7b cc bd 21 9c b9 bd 61 e3 eb bd df f3 61 3d
       -0.099845625 -0.09062982 -0.115179785 0.055164214
0002f0 ea db c0 ba aa 69 93 bd d4 41 7a bc 02 aa 0d be
       -0.0014713977 -0.07197888 -0.015274484 -0.13834384
000300 ca 69 55 3d 0f 6d 4a 3d 99 74 64 3d 8a 8a e1 3d
       0.05210284 0.049420413 0.05577526 0.11012752
000310 bc 20 d6 bd 19 8a 6c bd 7f 8d 0a bc 3f f3 a6 3b
       -0.10455462 -0.057748888 -0.008456587 0.005094915
000320 86 b0 23 3e 0d 68 0a bc e5 af b5 bd 47 e4 62 3c
       0.15985307 -0.008447659 -0.0887144 0.013848371
000330 f7 4a 1c 3e 17 a7 b3 bd fc 03 3a be 93 7b c2 3d
       0.15262972 -0.08772104 -0.18165582 0.09496226
000340 f2 82 20 bc 2b f1 91 3d a5 2c 9d bb 63 d9 3b bd
       -0.009796845 0.07126077 -0.004796582 -0.045861613
000350 6d fb 9b bd ee 35 99 3c 6b ff 24 be bf d6 84 be
       -0.07616315 0.018702473 -0.16113059 -0.25945088
000360 13 2b 24 3e 52 07 12 3d ab 9a bb 3d 98 c0 92 3d
       0.16032057 0.035651512 0.0916036 0.071656406
000370 2b 3d 6a be 98 e4 13 bd 20 92 de 3d 52 10 ae bd
       -0.22874896 -0.036106676 0.10867715 -0.084992066
000380 f5 16 cc bd 67 fc 31 bd bf 46 8b 3d e5 d6 5a 3e
       -0.09965316 -0.0434536 0.06800603 0.21371038
000390 3e 0c e7 3c 47 8d 2b bd 9c 2b bc 3d 15 f7 d3 3d
       0.02820408 -0.04188278 0.09188005 0.103498615
0003a0 c8 13 d5 bc 27 76 0c be 42 3f 95 3d 11 1b 96 bd
       -0.026010409 -0.13716947 0.07287456 -0.07329381
0003b0 b6 06 c5 bd e2 89 8a bd d4 3f 95 bd 34 55 3e be
       -0.09620421 -0.0676458 -0.07287565 -0.1858719
0003c0 ed 32 83 3e ab 1c 05 be be fb a9 bd 61 11 39 bb
       0.2562479 -0.12999217 -0.08299969 -0.0028239118
0003d0 d9 38 c5 3d 81 e8 a0 3d 9b f4 0b be bc af 33 be
       0.096299835 0.078568466 -0.13667528 -0.17547506
0003e0 60 ad a2 bd 5b f8 93 3c 23 1f 50 3c 62 10 47 3d
       -0.07943225 0.018062761 0.012702736 0.04859961
0003f0 58 8a 1b bd e1 f9 29 3e cd 8c 72 3e 21 d7 26 be
       -0.03797373 0.16599227 0.23686524 -0.16293003

button_cnn.1.0.bias f4 [16]
000000 d4 26 a6 3c c8 bb ab 3c db b8 ac 3d 82 71 7b bc
       0.020282187 0.020963565 0.08433696 -0.015346887
000010 6f 2e 19 3d 6b ce 1c 3d 9e 0b d7 bd ae fa 11 be
       0.0373978 0.038282793 -0.10500263 -0.14255783
000020 7c 03 3a 3d f7 37 2d 3d ea d6 67 bd 03 18 14 bd
       0.04541348 0.0422897 -0.056601442 -0.03615571
000030 86 ab f3 bd 76 de e2 bb dc 6c a9 3d 31 66 a0 3d
       -0.1189795 -0.006923492 0.082727164 0.078319915

fc.0.weight f4 [256, 240]
000000 1b f0 82 bd 3b 80 bf 3b 3a 25 67 3d 6f d0 63 bd
       -0.06393453 0.0058441437 0.056431986 -0.0556187
000010 74 13 f2 ba d2 6a d9 bc 90 52 ad 3c 71 d6 8a bd
       -0.0018468932 -0.026540194 0.021157533 -0.06779183
000020 5d 37 e1 3c 05 7d 2b 3d 17 43 09 3d 2b fa 6a bd
       0.02749222 0.041867275 0.033511247 -0.057367485
000030 20 e5 39 3c 5f 2f 3a bb da 3a e0 3c 81 f1 79 bd
       0.011346132 -0.0028409583 0.027371813 -0.06102133
000040 41 6c ad bc 74 7f 74 bd af 17 fb 3c cc ed 4e bb
       -0.021169784 -0.05969186 0.030650942 -0.0031574843
000050 50 69 d3 bc 02 9e 11 bd cc bc 73 bb 00 cf 61 bd
       -0.025807053 -0.03555108 -0.003719139 -0.05512905
000060 ac 1b c7 3c 7b 64 bd bc c9 41 3f 3d 92 35 82 bd
       0.024305187 -0.023119202 0.046693597 -0.06357874
000070 73 c9 86 3c d1 87 f6 bc a4 93 f1 3c e1 e6 37 3c
       0.01645348 -0.03009406 0.029489346 0.011224479
000080 45 5d 20 bd b7 70 8c 3c 95 93 fc bc 05 00 92 bd
       -0.03915145 0.01714359 -0.030832091 -0.0712891
000090 ec a3 b1 ba c2 05 04 bd de f3 a8 bc 26 40 24 bd
       -0.0013552881 -0.032232054 -0.020624097 -0.04010024
0000a0 dd 4f 3b bc 7b 42 35 bd 07 7e d3 bb 6a 9a 4e bc
       -0.011432615 -0.044252854 -0.0064542326 -0.012610057
0000b0 20 22 5d bc 5c 8a 12 bc f9 85 b8 bc b4 8a 90 bd
       -0.013496906 -0.00894412 -0.02252482 -0.070577055
0000c0 43 72 4f 3b 5e e4 68 3d 2f e0 79 bd 8c 57 57 3c
       0.0031653799 0.056858413 -0.061004814 0.013143431
0000d0 7e 59 e5 3c 5a 40 81 bd 5c ab 58 bd e9 06 67 bd
       0.027996775 -0.06311102 -0.052897796 -0.056403074
0000e0 be 89 b9 3c a1 81 4f 3d 67 f0 53 bc 0b b2 03 bd
       0.022648688 0.050660733 -0.012935734 -0.032152217
0000f0 ac d4 4f 3d 10 56 4d bd 84 05 31 3d 3c e9 79 3c
       0.05073993 -0.050130904 0.04321815 0.015253361
000100 10 f1 4f 3d 8f 07 4f bd 16 04 1d 3d af 67 6f bd
       0.050767004 -0.050544318 0.038333975 -0.05844849
000110 57 7a 83 3a c3 de 1f bc 52 cc 17 3d e5 4c 5c bd
       0.0010030967 -0.0097577 0.03706009 -0.05378427
000120 50 ee 03 3d 56 64 0a bd 07 6c 4e bd f4 99 37 bd
       0.032209694 -0.033787094 -0.05039599 -0.044824556
000130 17 c4 89 3c fd 04 5d bd 31 75 6e bc 89 9b 17 bd
       0.016817136 -0.053959835 -0.014554308 -0.037013564
000140 03 5b 5f bd c4 45 b3 bc 32 f7 59 3d 8c bf 75 bd
       -0.054530155 -0.021883853 0.05321426 -0.059997126
000150 c5 b8 f4 3b b5 88 20 3d 7f f9 2d 3d 3c 55 82 bd
       0.0074683153 0.039192874 0.042474266 -0.063639134
000160 7f e1 81 bd 60 bc 38 bd 22 31 08 bd bd 44 c2 3c
       -0.06341838 -0.045101523 -0.03324998 0.023714418
000170 3c 9d 40 3d 85 e2 05 bd f7 09 03 3c d8 77 43 bd
       0.04702495 -0.03268673 0.007997981 -0.047721714
000180 f9 5a 81 bd 94 08 82 bd 12 fd 1c 3d 4a 14 3a bc
       -0.0631618 -0.063492924 0.038327284 -0.011357376
000190 ae 32 ed bc c7 30 90 bd d9 96 7b bd 1f cd 29 3c
       -0.02895483 -0.070405535 -0.061423156 0.010363846
0001a0 44 60 01 bc c1 75 92 3c 23 75 93 bd 42 1d b6 3c
       -0.007896487 0.017878415 -0.072000764 0.022230748
0001b0 6d f2 a3 bc 38 bd 66 3d 6a b2 12 3d 58 70 64 3d
       -0.020013059 0.056332797 0.03581468 0.0557712
0001c0 0d c7 3a 3d 43 3c 42 bd aa 5d f7 3b 90 88 b9 bc
       0.045599986 -0.04742075 0.0075490074 -0.022648126
0001d0 5f c4 4d bd ad 19 1c 3d 5f f0 e1 bc 66 8b 83 bd
       -0.050236102 0.038110424 -0.027580438 -0.064230725
0001e0 f9 18 fb 3c ca 61 4c 3d 28 bf d7 3b 42 3d 60 3d
       0.030651556 0.049897946 0.006584067 0.05474592
0001f0 0e ff ae bc d6 dc 37 3c be f4 48 bc 8f a7 21 bb
       -0.021361854 0.011222085 -0.012265382 -0.0024666523
000200 50 0e cf bc 69 16 1e bd 82 27 c0 3c 37 76 4a 3c
       -0.02527538 -0.03859559 0.023456339 0.012357286
000210 4a 83 96 3c 0a 27 88 bc cb bc 16 3d 18 72 a0 3b
       0.01837315 -0.016620178 0.03680114 0.0048964135
000220 16 a2 e4 bc 70 ad a0 bb 97 ab ea bc 31 4c 00 bd
       -0.02790932 -0.004903488 -0.028646274 -0.03132266
000230 6c 28 48 3d 93 f1 07 bd 59 76 17 bd c6 90 6c bd
       0.048866674 -0.033189368 -0.0369781 -0.057755254
000240 f8 e9 e7 bc ed 14 b2 3c 7a b3 85 bd 65 c7 e2 3c
       -0.028309807 0.021738494 -0.06528373 0.02768297
000250 ac 34 13 3c 1f ac c4 bb b8 66 f7 3c 5c 92 08 bd
       0.008984726 -0.0060019637 0.030200347 -0.033342704
000260 db 20 40 bd 84 9c 16 3d c6 20 13 3d 58 aa 8a bd
       -0.046906333 0.03677036 0.035919927 -0.06770772
000270 5a e0 56 bc e2 78 88 3c 56 30 89 bc be b4 8e bd
       -0.013115013 0.016659204 -0.016746681 -0.069680676
000280 73 77 87 bd e5 10 b8 3c a2 c3 1a 3d 34 13 27 bd
       -0.0661458 0.022468993 0.037784226 -0.040789798
000290 c1 60 3b 3d fd ce a8 bc 90 99 2c 3d ad 56 83 bd
       0.04574657 -0.020606512 0.042138636 -0.064130165
0002a0 ca 83 a4 bc a8 86 58 bd 21 6a f2 bc e4 ed 19 3c
       -0.020082373 -0.052862793 -0.029591622 0.009395096
0002b0 df 74 9d 3b 7d e5 fa 3c af fd 81 bc 93 61 1b 3c
       0.004805192 0.030627007 -0.015868036 0.009483713
0002c0 e9 c6 3f 3d 58 fb 07 3c 7f 2e 4c 3d 55 cc 9e bb
       0.046820555 0.008299671 0.04984903 -0.0048461356
0002d0 93 4a 88 bb e2 24 2d 3d 4a 58 06 bb 92 e3 2b bd
       -0.0041592806 0.042271502 -0.0020499402 -0.041965075
0002e0 f5 5d d6 bc d6 8a 15 3d 8c 38 b5 3b 11 44 86 bc
       -0.02616785 0.036509357 0.0055304226 -0.016389878
0002f0 9b 98 c3 3c 7a 0f 33 bd 85 5d 24 3d d4 66 2d bd
       0.023876479 -0.04371593 0.04012825 -0.042334393
000300 a9 86 4f 3d 87 d2 88 bb 37 82 c3 3c 1e 48 06 bd
       0.05066553 -0.0041754874 0.023865802 -0.03278362
000310 e6 6c b4 bc 64 06 84 bd 4f 58 fb b9 49 09 fa bc
       -0.022024583 -0.064465314 -0.00047940246 -0.030522006
000320 7b 96 5e bd 47 83 84 bd 0f 91 23 3b 1c 15 59 bd
       -0.054342728 -0.06470352 0.0024958288 -0.052998647
000330 6d 66 92 bc bf a9 2a bd e2 b7 0c bd 74 8f c1 bc
       -0.017871106 -0.04166579 -0.03435505 -0.023627974
000340 e6 78 9f 3c 7e 76 05 3d 65 0b 48 3d 40 16 55 bd
       0.019466829 0.032583706 0.04883899 -0.052023172
000350 9f c5 a8 bb 86 49 67 bd e5 e9 50 bd b5 ab 54 3d
       -0.0051505114 -0.0564666 -0.05100431 0.051921565
000360 0e da 25 3d 81 20 c6 bc 43 09 59 bd 4d bc b2 3c
       0.040491156 -0.024185421 -0.05298735 0.021818304
000370 7f 78 57 3d 83 5a 91 bd 11 06 82 3b 53 61 3c 3d
       0.05260515 -0.07097342 0.0039680083 0.045991253
000380 81 75 79 3d 16 9f 55 bc 2d 1a 4f bd fa ed 50 3d
       0.060903076 -0.013038417 -0.050562073 0.051008202
000390 2f c5 e9 bc 38 91 08 bd 39 e0 68 bd f4 d1 fd bb
       -0.028536407 -0.033341616 -0.05685446 -0.0077459756
0003a0 fe e8 72 bd 3f 8f 1f bd b4 ba 72 bd 9c 68 e2 3c
       -0.05930423 -0.03895497 -0.059260085 0.027637772
0003b0 91 02 5e bd af eb 82 bd 48 63 4c 3d 57 72 83 3b
       -0.054201666 -0.06392609 0.04989937 0.004011433
0003c0 92 b2 0a 3d 63 22 62 3d 10 65 6c 3d 27 00 3c bc
       0.033861704 0.055208575 0.05771357 -0.011474646
0003d0 6c a3 1c 3d 6e e9 dd 3b 0f 1e 53 bd f9 d2 76 bd
       0.03824179 0.0067722118 -0.051542338 -0.060259793
0003e0 5b a6 fd bc a6 a9 8d bd b5 ae b0 3c b9 c4 2e 3b
       -0.030963114 -0.069171235 0.021567682 0.0026667549
0003f0 f4 02 54 3c 3c c2 30 3d b3 d1 c4 bc 49 52 0f bd
       0.012940157 0.043153986 -0.024025774 -0.034990583

fc.0.bias f4 [256]
000000 95 3b ec 3c c8 e5 52 3b 75 af 43 bc 0d 2d 37 bc
       0.028837005 0.0032180417 -0.011943688 -0.011180175
000010 91 f9 83 bd 59 3f cd bc 15 df 93 bd 8d c0 a4 bd
       -0.064440854 -0.02505462 -0.07220284 -0.08044539
000020 90 a7 c3 bc a5 51 7f bc c4 38 7b 3c 7c d2 5b 3d
       -0.023883611 -0.01558343 0.015333358 0.05366753
000030 f6 fa dd 3d 10 35 e4 3a c6 65 ef bb 49 2e cb 3d
       0.108388826 0.0017410833 -0.0073058335 0.099209376
000040 43 0f c9 bc 46 c8 34 3a 5e 48 8b 3d 15 ae ee ba
       -0.02454341 0.0006896298 0.06800912 -0.001820984
000050 5c b0 59 3d 23 b0 26 bd 74 be d9 bc 11 63 33 bd
       0.053146705 -0.04069532 -0.026580073 -0.04379565
000060 5a ec 90 3d ce 40 7c bd 7b b9 5a bd 81 04 26 bd
       0.070763305 -0.06158524 -0.053399544 -0.04053164
000070 16 ad 95 3d c7 76 a7 3c b6 c2 96 bc 15 4f 07 bd
       0.07308404 0.02044238 -0.018403392 -0.033034403
000080 26 6c b5 3c f4 d1 23 bd d4 e3 3a 3d 9b f6 02 3d
       0.022146296 -0.03999515 0.04562743 0.031973463
000090 27 8f 7d bd 46 28 2d 3d 32 24 5d 3d c6 11 ac 3c
       -0.0619041 0.042274736 0.053989597 0.021004569
0000a0 0b 10 7c 3d e0 d4 b5 bc 32 8a 77 3b 8e cd 1c 3c
       0.061538737 -0.022196233 0.003777158 0.009570492
0000b0 96 8c 26 bd b1 11 4e 3c 5c 29 63 3d 9b de 2e 3a
       -0.040661417 0.01257746 0.055459365 0.0006670744
0000c0 73 6c 1b 3c 67 1d 25 bd c2 2e dd bc 62 6a 15 3d
       0.0094863055 -0.040311243 -0.026999835 0.036478408
0000d0 7b dd ee bc 0c da 86 3d e4 43 68 3c ab 52 14 bd
       -0.029158344 0.06584558 0.014176343 -0.03621165
0000e0 7e d9 1d 3d 1e a2 9e bc 2f 84 07 3d 7c bf b2 3d
       0.038537495 -0.019364413 0.033085044 0.08727929
0000f0 97 95 31 bd 9b ce b3 bd 9d e5 95 3c 91 57 8f bd
       -0.04335555 -0.08779641 0.018297965 -0.06999124
000100 19 03 bc 3c 44 80 ba 3b ce 97 0b 3d 83 5b fc 3c
       0.022950696 0.00569156 0.03408032 0.030805355
000110 a9 e0 1c bc 44 a8 fc bc 89 f7 a7 3d 98 6f 8b bc
       -0.0095750475 -0.030841954 0.082015105 -0.017020985
000120 de ec 3d bd 94 b5 33 bd 3c ed 80 3d 45 33 0a bd
       -0.046368472 -0.04387434 0.06295249 -0.0337403
000130 d9 df ac bb f3 70 3f 3d d5 bd 7f 3d d2 ba df 3c
       -0.005275708 0.046738576 0.062436897 0.027310763
000140 62 50 ea 3c 29 48 90 bd 35 37 fe 3c 3d 8b 5e bd
       0.028602783 -0.070450135 0.031032184 -0.054332007
000150 b4 d3 66 bb bd 67 f1 3c ce 82 d0 bc 6f 2d 0b 3d
       -0.00352214 0.029468412 -0.025452998 0.033978876
000160 aa 6c 14 3b 98 54 2f bd 2d 03 90 3d eb a6 2b 3d
       0.0022647777 -0.042805284 0.07031856 0.041907232
000170 79 9b 4c bd 5b a7 e6 3c 89 e9 8f 3c b9 36 25 bd
       -0.049952958 0.028155973 0.017567413 -0.04033539
000180 d5 99 d3 3b 6a 67 2b bc a2 fc 30 bd 60 b4 c0 bc
       0.006457547 -0.010461668 -0.04320968 -0.02352351
000190 b2 47 3c bd f3 cc 63 bc 45 91 1a 3c 4b 38 e9 3c
       -0.04596681 -0.013903844 0.009434049 0.028469225
0001a0 88 a4 82 bd 6f e0 22 3d e8 97 4e 3d 87 63 38 bd
       -0.06379038 0.039764818 0.050437838 -0.04501679
0001b0 1c 9e 30 3a a3 62 91 bc d2 14 23 3d 81 bb 45 3d
       0.00067374273 -0.017747229 0.039814778 0.04827452
0001c0 1d 80 09 3d e2 06 cf 3c 59 68 fd 3c 36 d4 6f bd
       0.033569444 0.025271837 0.030933546 -0.05855199
0001d0 f0 a8 dc 3c e4 56 72 3b ef f3 e2 3c 30 eb 7f bd
       0.026936024 0.003697806 0.027704207 -0.06248015
0001e0 f0 b2 71 3c 19 33 47 3d b9 b6 21 3d 4e 96 45 bd
       0.014752135 0.048632715 0.0394809 -0.048239045
0001f0 29 a6 cf 3c f3 b2 d5 bb 26 9b 0c bd dd bb 6e 3c
       0.025347786 -0.0065215765 -0.03432765 0.014571157
000200 02 0f 5d bd 87 e7 5d bd 74 f1 c1 3d 9d 09 39 3d
       -0.05396939 -0.05417588 0.09469882 0.045175184
000210 3c dd 11 3d a8 aa 6a 3d 5f 85 1f 3d bf 10 82 ba
       0.035611376 0.057291657 0.038945552 -0.0009923204
000220 28 65 ab bb 7e e5 40 3d bd ef a7 3c 08 f0 6d bc
       -0.0052305646 0.04709386 0.020500058 -0.01452256
000230 40 f0 39 bd 48 c5 a7 3b d2 ed d5 3c 13 18 e4 3c
       -0.045395136 0.0051199533 0.026114378 0.02784351
000240 e7 65 77 bd 7e 24 0a 3d 8e 6b 00 3d a2 53 57 3d
       -0.060399916 0.033726208 0.031352572 0.052569993
000250 3e 6c d5 bc 9c ea 24 3d 13 d2 8d 3d a0 be 4e bd
       -0.02605259 0.040262803 0.06924834 -0.050474763
000260 27 78 1b bd 1a d5 36 3d dc 95 69 3d 80 0a 22 3d
       -0.037956383 0.044636823 0.057027683 0.039560795
000270 b9 88 09 3d 93 42 10 bd 42 f1 8a 3d ab 8c 64 3d
       0.033577655 -0.03521974 0.067842975 0.055798214
000280 05 30 06 bb a1 bb c2 3c 25 14 90 3c ec 65 5a bd
       -0.00204754 0.023771109 0.01758773 -0.053319857
000290 6c a1 4e 3d 4f 6a 25 bd a8 86 51 bc 32 26 d2 bc
       0.050446913 -0.040384587 -0.012788452 -0.025652979
0002a0 48 fc 25 bd ad 3c ee bc 0a 3c 6c bd 4a cf 75 bc
       -0.040523797 -0.029081667 -0.057674445 -0.015003035
0002b0 af bf 6b bd d5 2d 43 bd ad e8 95 bd 18 83 49 bd
       -0.05755585 -0.04765113 -0.0731977 -0.049197286
0002c0 7b d6 4e 3c 78 03 57 bd 18 35 79 bd c7 05 ca 3c
       0.012624378 -0.052493542 -0.06084165 0.024660958
0002d0 f5 62 37 3d 6a 73 74 bc 8d 15 97 bd 66 d3 06 3d
       0.044772107 -0.014920095 -0.07377157 0.03291645
0002e0 2d a6 a5 3d c2 58 96 3c 33 bb 99 3d a3 f1 4d bd
       0.08088336 0.01835287 0.075064085 -0.05027927
0002f0 b1 17 28 3d c8 4a d1 bc 0e f0 97 bd 01 0b ce b9
       0.04103822 -0.025548354 -0.07418834 -0.0003929958
000300 41 3d 23 bd 6c a4 27 3d 12 9d 87 bc 37 17 34 bd
       -0.03985334 0.04092829 -0.01655439 -0.043967452
000310 dd 2a d8 3c 6d 0a ce 3c e1 3e 9e bb 9f 52 ce 3c
       0.026387626 0.025151456 -0.004829273 0.025185881
000320 cf b4 57 bd c5 60 7f 3a 76 65 7d bd 59 2e 06 3d
       -0.052662667 0.0009741898 -0.06186434 0.032759044
000330 7e 72 18 3d 76 d9 9b ba c0 35 de 3c a8 db 8e 3c
       0.037218563 -0.001189037 0.02712524 0.017438725
000340 12 27 95 bc 7c 35 b4 3c 19 b1 8c bd e2 33 a0 bd
       -0.018207107 0.02199816 -0.06869716 -0.07822396
000350 2d 91 8d 3c 23 64 2f 3d 07 e6 c8 3c d2 f3 01 bd
       0.01728114 0.042820107 0.024523748 -0.031726666
000360 ea 62 4a 3b 44 6b 47 bc fd dc 6b 3c 8c ae ff 3c
       0.0030881711 -0.01217157 0.014395949 0.03121116
000370 10 5a a4 3d 54 32 60 bd 38 1e dd bc 2a d9 81 3d
       0.080249906 -0.054735497 -0.026991948 0.06340249
000380 84 bf c0 bc 10 97 08 3d 0f 9f 3f 3d dc ef da bc
       -0.023528822 0.03334719 0.04678255 -0.026725702
000390 e9 45 05 3d 89 6a b8 3c 1d cc e3 3c 90 fc 1a bd
       0.032537375 0.022511737 0.02780729 -0.03783852
0003a0 44 52 61 bb 7d db bd 3c ea 73 9c 3d b2 66 b1 3c
       -0.003438131 0.02317595 0.07639296 0.021655414
0003b0 6f 9b 04 3d 00 c6 1a 3d ba 59 c1 3c b3 2c f0 bb
       0.032374796 0.037786484 0.023602355 -0.0073295473
0003c0 86 57 54 3c 90 1d 4a bd 71 dd 53 bd ef 4a 8c bc
       0.01296032 -0.0493446 -0.051724855 -0.017125575
0003d0 ca a0 74 bb ec 68 14 bd b4 95 62 3c 0f ca 03 3b
       -0.0037327283 -0.036232874 0.013829637 0.002010945
0003e0 f2 0e 47 bd 41 45 5d bd 7c 00 81 bc 2e 00 10 3d
       -0.048598237 -0.054021124 -0.015747301 0.03515642
0003f0 97 5d 5a bc 7e 79 55 3d 7c 3c 26 3d b5 8d 73 bd
       -0.013327978 0.052117817 0.040585026 -0.059461314

fc.3.weight f4 [12, 256]
000000 39 9c 71 bd 6e 94 0f 3d 4a 06 b0 3b 7d f6 2f 3d
       -0.058986876 0.035053663 0.0053718435 0.04295968
000010 2a c2 0b be f8 0c 0e be cd 18 28 3d a8 75 de 3c
       -0.13648286 -0.13872135 0.041039277 0.027155712
000020 f4 36 aa bc cc 77 1c 3d bb 09 05 3d d2 22 e1 bd
       -0.020778157 0.038200185 0.032479983 -0.109929696
000030 a5 b5 ca bd 33 0c 04 be 13 2c 90 bc 94 47 a7 be
       -0.09897927 -0.12895279 -0.017599141 -0.32671797
000040 30 77 60 bd 4a a9 17 bd 9c ea 6f bd d1 88 22 3d
       -0.054801166 -0.03702668 -0.05857335 0.03968126
000050 bd 9c 3e 3d a8 ca 12 bc b1 0a ba bd e7 0f 41 bf
       0.046536196 -0.00895945 -0.090840705 -0.7541489
000060 11 6e e2 bd 57 41 da bd 80 c0 6a bc 51 1a 4b 3c
       -0.1105615 -0.10656994 -0.014328122 0.012396411
000070 84 e8 c9 bd c8 6b bf 3b 83 25 2a 3c a7 e7 39 bd
       -0.09858802 0.005841706 0.01038492 -0.045386937
000080 2a ff 2d 3d a9 a5 07 bd 37 8e d0 3c ec 6b 67 bc
       0.04247967 -0.03311697 0.025458438 -0.014124852
000090 1a 5c 62 bf 56 11 8f bd 39 f1 60 bd 8c 59 15 be
       -0.88421786 -0.069857284 -0.054917548 -0.1458494
0000a0 ca 82 51 bd 11 2a 3b 3d b4 66 0a bd cb f6 34 bd
       -0.05115012 0.045694415 -0.03378935 -0.044180673
0000b0 e7 7e 5e 3d 8e 66 0e be cd 2c 31 bb 7c d4 39 3c
       0.054320242 -0.13906309 -0.002703476 0.011342164
0000c0 61 ed dc bd 12 46 b4 3c 74 5c 38 be eb 88 5b bf
       -0.10787464 0.022006068 -0.18004018 -0.85755795
0000d0 b3 fa 54 bc fa 9d f1 bd c3 7d 34 3d 13 42 8f 3c
       -0.0129992245 -0.1179771 0.04406525 0.017487561
0000e0 1a 59 52 bd 5d 7f be 3c bf fb 33 bd 39 f0 ac bd
       -0.051354505 0.02325409 -0.043941256 -0.08444256
0000f0 ce d7 01 be d7 f6 64 3d 54 ed 19 bd 95 45 ef bb
       -0.12679979 0.055899467 -0.03757985 -0.007301996
000100 d2 3e 04 3d 48 b8 b5 3c 4e 9d b1 bd 98 5c 64 3d
       0.032286473 0.022182599 -0.086725816 0.055752367
000110 0e 7b 9e bd cf 35 3f bc f6 28 25 be 7c ed 30 bd
       -0.077383146 -0.011670544 -0.16128907 -0.043195233
000120 b1 a1 69 bd 1b 1c 30 bd 9f 9d 8f bd 33 3d 3f bd
       -0.057038967 -0.042995553 -0.07012486 -0.046689223
000130 68 da 61 3d 49 8d 80 3c 3c aa db bc 89 70 a9 bc
       0.05513993 0.01569237 -0.026814573 -0.020683544
000140 14 5c 62 bd 2c ee ce 3c 43 51 da bd e1 38 cd bc
       -0.055263594 0.025260054 -0.10660031 -0.025051536
000150 47 c0 ad bc 94 51 50 be e8 e2 03 bd 7f 29 5f 3c
       -0.021209849 -0.2034362 -0.032198817 0.013620733
000160 3f 39 9c bc 81 75 fd bd cb 69 23 be ea db 60 bd
       -0.019070266 -0.12375928 -0.15958326 -0.054897226
000170 f5 43 18 3d 5a 1f d8 bb 96 c9 cb bd 7a 87 28 bd
       0.037174184 -0.0065955343 -0.09950559 -0.041144826
000180 fd f4 6b bd 40 30 11 bc b5 48 91 bc b5 3d 0e bd
       -0.057606686 -0.008861601 -0.017734865 -0.034726817
000190 13 4b 56 bf 91 19 8b bd af 6d e5 3c 9c ae e1 bc
       -0.83708304 -0.06791986 0.028006403 -0.02754908
0001a0 4d 9c 21 3d 28 29 73 bf 82 c9 f4 bd 1a 7b 51 bd
       0.0394557 -0.94984674 -0.11952497 -0.05114279
0001b0 f5 8f 71 bd 9d c4 1c be e3 66 1b bd 02 64 47 3d
       -0.05897518 -0.15309377 -0.037939917 0.04867936
0001c0 ea c0 cc bc 87 f0 38 3d 55 2c 1b bd 4d 10 27 3d
       -0.024994332 0.04515126 -0.037884075 0.04078703
0001d0 46 2f 22 bd e1 59 05 be 73 b7 1d bd 77 8d f2 bc
       -0.039595865 -0.13022567 -0.03850503 -0.029608471
0001e0 8d 41 33 bc eb 57 86 bc 1e f6 1d 3c 1e 74 1f 3d
       -0.0109409215 -0.016399344 0.009641198 0.038929097
0001f0 04 64 3c bc 8f dd 82 bd 45 a8 99 3c 98 d4 40 be
       -0.011498455 -0.06389915 0.018756995 -0.18831098
000200 86 c4 e5 bd d4 e4 a2 bc 9d 49 e6 be 04 a7 9f 3c
       -0.112191245 -0.019884504 -0.44978037 0.019488819
000210 4a 49 c2 bd d2 8c 3e 3c 4a b1 29 bb b4 d6 e2 bd
       -0.09486635 0.011630254 -0.0025893026 -0.110761076
000220 b0 f2 e2 bd 18 93 07 39 65 ee 0e 3d 10 60 62 bd
       -0.11081445 0.000129294 0.03489532 -0.055267394
000230 33 7f f5 bc 3b 1b 58 3d 38 1c 97 bc 6e f9 74 bd
       -0.02996788 0.052760344 -0.018446073 -0.059808187
000240 fb 97 38 be 27 b4 32 3d 0f ad 29 3d f6 05 be 3c
       -0.18026726 0.043628838 0.041424807 0.023196202
000250 bd b7 2d 3d a0 37 cf 3b f7 bb fa bd ae f8 1e bc
       0.042411555 0.0063237697 -0.12242883 -0.009702845
000260 07 3a b7 bd a4 7d 6d bd 26 70 5c 3c 5d 07 2c be
       -0.08946615 -0.05798115 0.013454473 -0.16799684
000270 c8 91 67 bd 0a 1a 94 bc 4e 92 66 ba 63 86 ba bc
       -0.056535512 -0.018078823 -0.0008795605 -0.022769159
000280 a6 ac a4 bd a9 a2 0a be c9 35 1b bd 17 36 0c 3d
       -0.080407426 -0.13538612 -0.03789309 0.03423127
000290 50 e7 e7 be 80 6c 49 3d e0 e7 23 3c 3e 98 34 3d
       -0.45293665 0.04917574 0.010004014 0.044090502
0002a0 60 df b6 bd 09 de da bb 3e b3 7a bd 5e 16 d3 3c
       -0.08929324 -0.0066793007 -0.061206095 0.025767501
0002b0 f2 97 db be a6 2e 86 3a 03 6f 34 3d d8 e6 e2 bc
       -0.42889363 0.0010237291 0.04405118 -0.027697966
0002c0 40 99 89 bd 2c d5 5e 3b 51 26 14 3d 4c 70 ae 3b
       -0.06718683 0.0034001572 0.036169354 0.0053234454
0002d0 39 a0 1e be aa 9b 76 bc 63 67 ac bd 5c 8d f1 bc
       -0.15490808 -0.015051762 -0.08418157 -0.02948635
0002e0 95 4d ac 39 a5 49 16 3d 97 09 42 be d9 e7 03 be
       0.000328642 0.036691327 -0.1894897 -0.12881412
0002f0 0a 50 72 bd 05 54 82 3c f6 b4 e0 bc 6c 94 00 bd
       -0.059158362 0.015909204 -0.027430039 -0.031391546
000300 cc bb 5f bf f3 ca 1b bd de 14 29 bf 86 32 9f bd
       -0.8739593 -0.038035344 -0.66047466 -0.077733085
000310 56 cf 38 bd c1 09 8a bc 6d dd 97 bd fb 52 36 3d
       -0.045119606 -0.016850354 -0.074152805 0.04451273
000320 34 44 9a bb 91 2c bb bd 36 b5 4c bd 7f 93 3d bd
       -0.0047078375 -0.0913936 -0.049977504 -0.04628324
000330 69 e4 44 bc 83 b1 7c bd 74 d9 ff bd bf a5 8a bd
       -0.012017348 -0.061692726 -0.12492648 -0.06769895
000340 4f df 90 bc da c8 e0 bd 5a 3d 22 3d fd 81 a0 bd
       -0.017684607 -0.109758094 0.03960929 -0.07837293
000350 40 64 17 3d 91 ae 0a bd 20 12 fd bc fa 71 e3 bb
       0.03696084 -0.033857886 -0.030892432 -0.0069410773
000360 7a 4a da bd 76 a1 a0 bd 1b ec 0f be e6 32 6a bd
       -0.106587365 -0.07843296 -0.14054911 -0.057177447
000370 dc 58 aa bf 9f b7 7c bd 06 b7 67 be 3e d5 cc bd
       -1.3308368 -0.061698552 -0.22628412 -0.1000161
000380 b4 f9 2f bd 7f ba 56 3c ee 3a 47 bd 2d 6e e1 bc
       -0.042962745 0.013105988 -0.048640184 -0.027518356
000390 36 86 ac 3c 31 18 96 3c ff 45 f1 bc cd 89 ef bd
       0.02106009 0.018322082 -0.029452322 -0.11696205
0003a0 05 8b 2b bd 20 b3 42 3d b1 71 7a bf c7 85 11 bd
       -0.041880626 0.04753411 -0.9782973 -0.03552797
0003b0 c7 bf cf be e1 38 8a bc 2a e2 4b 3d 40 fa 0b bd
       -0.40576002 -0.016872825 0.049776234 -0.034174204
0003c0 16 dd 9d bd 93 86 d2 3c e6 69 5b 3d 83 e2 c2 bd
       -0.077081844 0.025698936 0.05356779 -0.0951586
0003d0 04 42 13 bd 4b 4c 09 3c 56 0a 20 bd 76 d6 fb bc
       -0.03595163 0.008380006 -0.039072357 -0.030741911
0003e0 3a 3b 1b 3d 30 9b 98 ba 9a 2c aa bd 1b 53 ea bd
       0.03789828 -0.0011642929 -0.08309288 -0.11441632
0003f0 9b 7a 0d be 0a 6d 8e bd 77 19 b7 3c d3 15 fb bd
       -0.13816302 -0.06954391 0.02235101 -0.12260022

fc.3.bias f4 [12]
000000 2e 25 e1 bc 6c 1e 83 bd ff 63 1b bd 60 9b 63 bb
       -0.027483549 -0.06402287 -0.03793716 -0.0034730062
000010 2a 42 d6 3b 35 07 a6 3b ec af a8 3c ec 5a 98 bc
       0.006538649 0.005066777 0.020591699 -0.018598042
000020 33 09 cc 3c 5b 31 2c bd 52 fd 61 bd 20 a8 a3 3b
       0.02490673 -0.042039257 -0.055173226 0.0049944073
