cnn_fighting_agent_starter/outputs/20251017_204640/model.pt (torch, 287835 bytes, 12 tensors)

state_cnn.0.0.weight f4 [16, 1, 3, 3]
00000000: 5261 81be 1fa8 e1bd 624b 453e 3022 083e
00000010: 8c29 69be 84fb 583d d480 eebd c22e 83bb
00000020: da6d f0bc f076 20bd 9ca2 b7bd 7670 093e
00000030: 828d 72be 104a 8ebe bec2 47bd dad1 5d3e
00000040: 3061 543e ae55 32be c55b 943e eb75 d53d
00000050: 4830 8dbe 9bb5 203d bee4 193d 6917 28be
00000060: 998f 3bbe 5910 393e d493 583e da20 d7bc
00000070: ef65 7dbe 46b7 8bbe f24e a73d 7079 9dbe
00000080: 5477 a2be d860 acbc 2d4f 353d affd 6dbd
00000090: e0fc 2cbe 425d 913e 5280 483e 4a7e 203e
000000a0: 545a 033e daba 99bd de43 303c b7e2 2e3e
000000b0: db31 60be b632 443e f0b4 1d3e 0768 d53d
000000c0: 2a93 f2bd 5b8c 94bd 9a91 5cbe 26c1 663e
000000d0: 4bc8 24be d3c2 44be 884d ce3b 12d6 a73e
000000e0: 94d4 06be e61b d3bd 8bb6 6abe 5274 823d
000000f0: 48dd ffbc 6ede 103e 69f3 98be 8a7c bb3c
00000100: 3105 5c3e 5289 cbbb ab28 563e ec1e 293e
00000110: ea8d 973e 146c b4bd 2a88 173e cecd 0d3d
00000120: eae7 f3bd 39de 983e b686 4cbe 4e9d 8bbd
00000130: 35b1 c5bd 38f0 523e 06b9 aa3e 201d 86be
00000140: 99c5 c33d ff91 f83d f240 16bc 0356 1cbe
00000150: 3727 b33c b9a9 92bc 4314 80be 6e22 373e
00000160: d4ad 433e 3676 4e3e d049 2fbe 96da 453d
00000170: eb2c 323e f0f8 5c3e 6ce0 8cbe 6376 43be
00000180: e480 033e fa47 84be add9 8abe 607e 6dbe
00000190: f73b f9bc dcd6 9fbe 7dc5 94be 059f 873d
000001a0: c830 0ebe 6707 c7bd b6d4 7d3c 58dc b03d
000001b0: e2dd 3dbc f5cd 79bd b1d7 f03e 3ef0 223e
000001c0: f5de 073f 945f 8d3d 5e8a 8d3e fc3f cf3d
000001d0: 7833 243e a530 913e 81d5 a53e ca40 dcbd
000001e0: 6e13 a83e e936 2a3e 9002 82be 618e 5abe
000001f0: 57ea 203e 8831 a0be a89e a6be 06d4 143e
00000200: 0873 9f3e 491f 633d 2e8e 33be 3d5c 673e
00000210: 49ee 95be 5d6e 843e 4882 50be ec6b 9fbd
00000220: 5911 fc3c 0ecb 473d be76 2abd 6c74 273c
00000230: 207a 98bd 2f56 b93d e3f2 b0bc 2f75 b33c
-0.25269562 -0.11018395 0.19267038 0.13294291 -0.22769755 0.05297424 -0.11645666 -0.0040033767
-0.029349256 -0.039175928 -0.08966562 0.13421807 -0.23686793 -0.2779088 -0.048769705 0.21662083
0.20740199 -0.17415497 0.28976265 0.10422882 -0.27575898 0.039235692 0.03757166 -0.1641518
-0.18316497 0.18072642 0.21150142 -0.026260782 -0.24745916 -0.27288264 0.081693545 -0.30756712
-0.31731665 -0.021042272 0.04426496 -0.05810326 -0.16893339 0.28391463 0.195802 0.15673175
0.12827426 -0.07506342 0.010758368 0.17078672 -0.21894018 0.1915997 0.15401053 0.10420232
-0.118444756 -0.07253333 -0.21539918 0.22534618 -0.1609203 -0.19214945 0.0062958635 0.3278051
-0.1316703 -0.103080556 -0.22921197 0.063698426 -0.031233445 0.1414735 -0.29873207 0.022886533
0.21486355 -0.006211438 0.20913951 0.16515702 0.2960046 -0.08809677 0.14798036 0.0346201
-0.119094685 0.29857042 -0.19973263 -0.06817113 -0.0965294 0.20599449 0.33344287 -0.26194096
0.09559173 0.121372215 -0.009170758 -0.15267186 0.021869285 -0.017903196 -0.25015458 0.17884228
0.19109279 0.20162281 -0.17118001 0.048304163 0.17399947 0.21579337 -0.2751497 -0.1908813
0.12842137 -0.25836164 -0.27119198 -0.2319274 -0.030424101 -0.31218612 -0.29056922 0.066221274
-0.13885796 -0.09718209 0.015492609 0.08635777 -0.0115885455 -0.06098743 0.4703956 0.15911958
0.5307458 0.06902996 0.27644628 0.10119626 0.16035259 0.28357425 0.32389453 -0.10754545
0.32827324 0.16622509 -0.2539258 -0.21343376 0.15714394 -0.3128779 -0.3254292 0.14534006
0.3114245 0.055449758 -0.17534706 0.2259378 -0.2928336 0.2586545 -0.20362198 -0.07784256
0.03076999 0.048777632 -0.041617148 0.010220628 -0.074451685 0.09049641 -0.021600192 0.021906463

state_cnn.0.0.bias f4 [16]
00000000: 7474 52be b8a7 38be cd28 5cbe a4d0 5dbd
00000010: 903b 883d 5abc 8cbd 2387 873e c884 65bc
00000020: e53b 7cbe b44b 7b3e f117 223e 357b 9d3e
00000030: cb09 16bd 28e8 1bbe 2960 c73d cfe7 a83e
-0.20552236 -0.1803273 -0.2149994 -0.054154053 0.06651986 -0.06871863 0.2647029 -0.014008708
-0.24632223 0.24540597 0.15829445 0.30758062 -0.036630433 -0.1522528 0.09735138 0.32989356

state_cnn.1.0.weight f4 [32, 16, 3, 3]
00000000: 82dd ae3b 4252 2d3d f89c a7bc 5d60 273d
00000010: e29e 7b3d 08ef 853d 4f7c 4c3d af04 433b
00000020: 3cb7 6bbd 3cd5 65bb 3c3d 363d ba9d 033d
00000030: f2a5 83bc 4e5b cd3c 1fcd 68bd d2d6 38bd
00000040: fa84 0fbd 5a2d 603b e160 0f3d e7dd 59bc
00000050: c83f 14bc 9180 96bd fd61 99bd 78c4 fc3b
00000060: 5b24 2a3d b573 6bbc c0e9 f83c 6f7f 74bd
00000070: 18f3 2ebb c158 a4bd 1d1a a2bc 57ef 62bd
00000080: 2560 20bd 6dea 8c3c 279c 4cbd 623d 74bd
00000090: a415 053d bf71 143d 7a8c 77bd 2ade 563d
000000a0: 6d2e 383d f304 10bd 984e 413d dbaa 93bd
000000b0: 667c 85bd 430e acbc 1cd6 40bd db7a 86bd
000000c0: 2004 893d 9ef6 aa3c 16cd 823d 34b0 4fbc
000000d0: 8b36 b73d 1d20 ff3c f4e8 cabd 0149 2f3d
000000e0: 11c8 6dbd 9f09 503d c118 0ebc 79c3 8dbd
000000f0: 7e8c 703d 8038 383c 73ec 9b3c 1acd c3bd
00000100: 3f89 bcbd 5781 293d f4dd ab3d 5347 47bc
00000110: 5b5b 0ebd 399c 5fbd e733 3c3d 8f81 3e3d
00000120: 7fd9 54bd 8306 ddba 936c 56bc 10da b8bd
00000130: 77a7 3b3d 50f1 943c b918 a2bd aa76 b03d
00000140: 4459 63bc 66c3 8fbd a337 c2bd 5d0a f83a
00000150: 8d8e 173d 6f53 5d3d c3d9 02bd b1ca 273c
00000160: ccab 553d ce3a 25bd 0fb0 0b3d 5ff3 abbc
00000170: bbcb 093d b1cd 8b3c e2bc e3b6 ddb3 923c
00000180: 95ff 9dbd 3429 8fbc 9970 5bbd 8986 c63c
00000190: 3d27 663d c5c7 ae3d db1a 75bd 976b c63d
000001a0: 6ad2 9e3d b01b aa3d c52d 1cbd 68e7 e13c
000001b0: 6abf 83ba 0cc6 abbd 9f32 d8bd 7ca2 bdbb
000001c0: 7cae 69bd d1fa 64bd 10f6 f5bd 9832 9ebd
000001d0: b862 d8bd e313 d33c af87 c1bd e155 363d
000001e0: 693d cbbc 1b3d 1b3d cf93 18bd baa4 0f3d
000001f0: 22a4 073d 2eb8 7bbd 7f55 bebd f8ac 413b
00000200: 2748 04bc 83ff e43c d67f 923d 273a 92bd
00000210: 0138 10bc 79fb 483d 6884 19bd 03ba 8abd
00000220: b337 babd 7c06 273d 1886 253d afb1 0abd
00000230: 2d8a f93b a4e3 b6bc 4d3e 6d3c 48db 73bd
00000240: c9ff a73d afb5 efbb 7c4f 7dbd c89f 923d
00000250: 58a7 263c 74e7 64bd 29d1 8ebd df78 d43c
00000260: 24a6 763d d99a be3c 9ecc 34bd 7db7 103d
00000270: a121 673c bd6c 333b f084 173d 0788 25bc
00000280: 135b 503c 7505 2bbd 284f a93d 540c 663d
00000290: bd61 493d e16c 593d ec87 b53c ebe0 b43d
000002a0: 71bd c73c bf54 d73c f97f 2dbd bc98 5fbd
000002b0: edc3 993d 024d 2f3c 0283 3e3c 4d38 81bc
000002c0: 580e abbb ea83 073d 2f24 5a3d 98d5 163d
000002d0: 27e6 473d cace b83c 1e39 b7bb e2fc 35bd
000002e0: 5ddc 413d 4bf2 08bd 3c33 dcbc 50e4 373c
000002f0: 0c69 b73d fe50 ad3d b035 ca3d 0d28 ef3c
00000300: 73fc 873d 44ba 9f3d 57f8 6bbd a3cd 813d
00000310: ca33 863c e9f9 65bd bdd2 a63d 0fd2 073d
00000320: aa1e 52bd 7202 7f3d 8776 6f3d 713f a93d
00000330: 9b8c 39bd c82c 8fbc 1d09 833d 17fc cebc
00000340: b801 0f3c 2d13 893c 2193 8f3a 3244 473d
00000350: 1a82 3dbb 0227 8f3d 33ed febc c1ed e53c
00000360: 10f2 e53b 7098 a0bc a748 33bd f913 aabd
00000370: b800 2d3d ddda ab3d ab39 9bbc 6158 4abd
00000380: a0ce 8dbb c443 b53c 9463 083d 0d37 46bd
00000390: 5fc8 9a3d 8b28 983d 02a4 7b3c 8952 b6bc
000003a0: 2335 0b3d ae83 8e3c baf4 f73c fc86 45bd
000003b0: 877d 08bc bf7d 64bb 6013 21bd 36d5 6cbd
000003c0: 359a c73c 293c 743d 0512 b23d 396a cf3d
000003d0: f79f 71bd 4a3d d63c 6a4b 9d3d 0991 69bc
000003e0: 34b7 bb3d d115 bcbc 42ff f3bc 9496 2c3d
000003f0: aefc 873e 9639 663e 6ce7 2b3a 6b7e 9d3d
0.0053364644 0.042314775 -0.02046059 0.040863384 0.06143082 0.06539732 0.049923237 0.002975743
-0.057547793 -0.0035069725 0.04449199 0.03213284 -0.01607034 0.025067952 -0.056836244 -0.045126744
-0.035038926 0.003420672 0.0350045 -0.013297535 -0.00904841 -0.07348741 -0.07489393 0.0077138506
0.041538578 -0.014370848 0.030384898 -0.059691843 -0.0026695188 -0.08024741 -0.019787842 -0.055404034
-0.03915419 0.017201627 -0.049953606 -0.05962885 0.03249134 0.03624129 -0.060436703 0.052457966
0.04496615 -0.03516097 0.047194093 -0.072103225 -0.06517868 -0.021002894 -0.04707919 -0.065664016
0.0669024 0.02086955 0.06386773 -0.012676287 0.0894595 0.031143242 -0.099077135 0.04279423
-0.058052126 0.050790425 -0.008672894 -0.06922049 0.058727734 0.011243939 0.019033646 -0.095606044
-0.09205865 0.041383114 0.083919436 -0.012163001 -0.034755092 -0.054592345 0.045947935 0.046510275
-0.051965233 -0.0016862903 -0.01308741 -0.09025967 0.045814004 0.018181473 -0.07914872 0.086163834
-0.013876263 -0.07019691 -0.09483268 0.0018923987 0.03700118 0.054034647 -0.031945955 0.0102411965
0.05216579 -0.040339284 0.03410345 -0.020990072 0.03364156 0.017065855 -6.787116e-06 0.017908031
-0.07714764 -0.017475702 -0.05357418 0.024234073 0.056189764 0.08534197 -0.059840064 0.0968849
0.07754977 0.08306062 -0.038129587 0.027576163 -0.0010051553 -0.08387384 -0.1055653 -0.005787192
-0.057051167 -0.05590326 -0.12009823 -0.07724494 -0.10565704 0.025766319 -0.09449708 0.044515494
-0.024809556 0.03790007 -0.037250336 0.035069205 0.033115514 -0.061454944 -0.09293651 0.002955256
-0.008073843 0.027953869 0.07153289 -0.07139998 -0.008802415 0.049067948 -0.037479788 -0.0677376
-0.09092655 0.04077767 0.040411085 -0.03386086 0.007615349 -0.022325344 0.014480186 -0.059535295
0.08203084 -0.0073153595 -0.06184338 0.07159382 0.010171734 -0.055884793 -0.06973488 0.025936542
0.060217038 0.023267196 -0.04414045 0.035331238 0.014107139 0.0027378045 0.036992013 -0.010103232
0.012717026 -0.04175325 0.08267051 0.0561641 0.049165476 0.05308235 0.02215954 0.08831962
0.024382325 0.026285527 -0.042358372 -0.05458902 0.07508073 0.010699512 0.011627914 -0.015773917
-0.005220216 0.033084787 0.053257164 0.036824793 0.048803475 0.022559542 -0.0055915257 -0.04443062
0.047329295 -0.033434194 -0.0268799 0.011223868 0.08955583 0.08462714 0.09873521 0.029193902
0.06639948 0.07799199 -0.057609882 0.0633805 0.016382117 -0.056146536 0.08145664 0.03315931
-0.051298775 0.06225819 0.058462646 0.082640536 -0.045300107 -0.017477408 0.063982226 -0.02526669
0.008728437 0.016732777 0.0010953882 0.04864902 -0.0028916658 0.06989862 -0.031118965 0.028067471
0.0070173815 -0.019603938 -0.04377046 -0.08304591 0.042237014 0.08391354 -0.018948397 -0.04940069
-0.00432761 0.02212704 0.03329809 -0.048392344 0.07557749 0.07429608 0.015358927 -0.022256153
0.033986222 0.017396774 0.030268062 -0.048224434 -0.008330709 -0.003486499 -0.039325118 -0.05782052
0.024365524 0.059627686 0.08694843 0.10127682 -0.058990445 0.026152272 0.076804 -0.0142557705
0.091658026 -0.022959622 -0.029784802 0.04213579 0.26559967 0.22482905 0.0006557617 0.07690128

state_cnn.1.0.bias f4 [32]
00000000: df33 473d 747f 0dbc 77ff 46bd 86c5 bf3d
00000010: 4a22 3f3d ffbb 5abd 175b babc 315c d6bc
00000020: a315 a13d 8cb5 6abd 3d91 81bd bcac aa3d
00000030: 948d db3b e553 c53d 822e 363b 91e1 ee3c
00000040: 43f8 153c bff0 0e3d 008a 483d b488 42bc
00000050: 4139 e43c edd6 7fbd 4645 853c 85c2 32bc
00000060: 98ba 13bd 580d 7f3d 7168 153c 5184 8a3c
00000070: ae59 7b3c f144 3fbd 2233 24bd 5cbe 883d
0.048633453 -0.008636344 -0.048583474 0.093638465 0.04666356 -0.053401943 -0.022748513 -0.026167007
0.07865455 -0.057302043 -0.0632653 0.08333728 0.006700227 0.09635142 0.0027798717 0.029160293
0.0091534285 0.034897562 0.048959732 -0.011873413 0.027859332 -0.06246083 0.016268384 -0.010910635
-0.03606662 0.062268585 0.009119139 0.016908797 0.0153412055 -0.046696607 -0.040087827 0.06676933

button_cnn.0.0.weight f4 [8, 1, 3, 3]
00000000: 2312 233e 5872 9b3c 14f7 143d 8573 823e
00000010: ef8f 54be 7a73 02be 77da 50be 1a98 81bd
00000020: 123b 52be 2f55 30be c02b 873e 4d99 4dbe
00000030: 175c 8d3e 8b4b 9ebe 722a a3be 103e d3bb
00000040: 34fa 36bd 58b5 413d 7351 343e 6cb4 583c
00000050: 6e0e 913e 3b72 953e 7d06 873e e40e 193e
00000060: 7aaa 163e 687a 613e c575 83be 49ba 7bbe
00000070: b01c 963e 9577 35be 60a6 02be e4c9 db3d
00000080: cc1c a53e 1439 f33c aaab 5ebd e4f5 c5bd
00000090: 3113 5bbe 73a5 e33d 21f5 993d d515 c43d
000000a0: 62d9 a7bc b713 a93d c3c1 0fbb a22f 7b3e
000000b0: 5001 a9bd 409b b0be 954e 2bbd 4913 983e
000000c0: 3ab4 7ebe c93a 1f3d ee3b 09bd 60ee ad3e
000000d0: c759 a13e 39b3 3a3e f397 b43d a177 4ebe
000000e0: e2ee 8bbd d7f3 603c f16e acbe 9016 3e3d
000000f0: f29b 9f3e 3bf3 783e 3a7f 88bd 54b2 063e
00000100: 460e 643d 9212 1c3e b9ea 8cbe bd03 9b3e
00000110: f917 413d 865f 88be a73d 9a3e eeb8 263e
0.15924887 0.018975422 0.036368445 0.2547876 -0.20758031 -0.12739363 -0.20395838 -0.06327839
-0.20530346 -0.17219995 0.26400566 -0.20078011 0.2760932 -0.3091701 -0.3186832 -0.0064466074
-0.044672206 0.047292084 0.17609195 0.01322661 0.2833132 0.29188713 0.26372138 0.14947087
0.14713469 0.2201935 -0.2567579 -0.24582781 0.29318762 -0.17721398 -0.1275878 0.10731867
0.32248533 0.029690303 -0.05436293 -0.096660405 -0.2139404 0.11115541 0.07517458 0.09574477
-0.020489398 0.082557134 -0.002193556 0.24529889 -0.082522035 -0.34493446 -0.04182299 0.29702213
-0.24873438 0.03887442 -0.03350442 0.33970928 0.31513807 0.1823243 0.088180445 -0.20162822
-0.06832673 0.013730011 -0.33678392 0.046408236 0.31173664 0.24311535 -0.066648915 0.13153964
0.055677675 0.15241459 -0.2752283 0.3027629 0.047142003 -0.2663538 0.30125162 0.16281483

button_cnn.0.0.bias f4 [8]
00000000: b334 a2be bf39 673e e79a 363e b45b 903d
00000010: 3546 8c3e 2146 0e3e 6f23 273d 3f0f 983e
-0.3168083 0.22580622 0.17832528 0.07048741 0.27397314 0.1389394 0.040805276 0.29699132

button_cnn.1.0.weight f4 [16, 8, 3, 3]
00000000: 41ee c8bd 3921 e0bd 8002 7b3d 5bef 413d
00000010: 469e ea3d 72ce afbc 36a7 9a3d 6854 703d
00000020: 3c08 e2bd c8eb 84bd f012 853d fc10 c4bb
00000030: ee2d 13bd aa8e e2bd 6f8c 2e3c d9c4 58bd
00000040: 198a f73c a3c2 7abd 681d e2bd bf42 e53d
00000050: 4f98 3bbd cc94 b8bd abd0 80bc db03 e73c
00000060: 1b09 ebbd 35c9 b43d e4e3 a43d 05f9 3d3d
00000070: acb7 f83b fecb d13d 2c7c d23d ccd7 48bc
00000080: d7f8 94bd 6ed8 e0bc 245d cf3c 7324 e23d
00000090: dd8a 603d 9d69 e93d 5769 debd 4d7c 59bd
000000a0: ffc1 403c c9cc 2abd b856 293d 76ea b53d
000000b0: 385e a5bd b43a 7f3d 9d7d ac3c 3424 973d
000000c0: 7e0e 8abd 6022 05bd 0b00 0b3d 0d76 bd3d
000000d0: 42f5 9a3c 5773 8b3d afae 163d 1600 903d
000000e0: 3e1e 563d e489 cc3d 89c2 4cbd 331f a13d
000000f0: c225 e0bd 54c6 423d 2974 803d 67ba 4e3d
00000100: 41c2 a13d 4718 d43d 1cd3 673d e4f8 7bbd
00000110: 8fba 633c cc38 3dbc e062 ebbd 004b bc3c
00000120: 7818 e63d a1ca 7cbc 6ab8 a7bd ac37 d339
00000130: 7bcc 1dbd ecfe 363d 62fa b8bd 806d 313d
00000140: 7025 41bd 27eb d13d f8fc 333b 6b67 c23b
00000150: f039 ac3d fd0f 23bd a534 8f3d b852 99bd
00000160: e9d2 b43b d106 1e3d b3ea a63d f78b d7bd
00000170: 7a59 573d 3073 d73d ecf5 a03d cbf8 a43d
00000180: bc2e f63a 4a0c 68bd b2aa b83d cc1d b9bd
00000190: 9d65 853d 4e1a 9abd 00b4 d13d 7ae8 763d
000001a0: b314 c4bc e0bc 3b3d fdb7 c6bc c702 c33d
000001b0: 74f4 e53d 2a9c 4b3d b8af fc3d 307c d23d
000001c0: f90f 57bd 9565 cfbc fdd3 a3bd 6487 fb3d
000001d0: 7866 933d 3731 dfbc b8d4 9b3d 3520 873d
000001e0: fdb1 96bc 58ce b0bd d0ff 823d 1f7f f7bc
000001f0: a2d9 ebbc cabc 12bd fb69 733d 8d7e 9a3d
00000200: 1466 ccbd dbf7 3f3d f61c b4bd 0565 8abd
00000210: 4930 ddbb fd86 8cbc 7ec5 bc3d 78e0 d2bc
00000220: c3a7 98bd 0ddb 2e3d 9b2d 5d3c 9488 0cbd
00000230: 0e5d 77bd 2b4f bb3d 72f4 a33c 3ebf b03c
00000240: 1404 a33d 964d 8a3d 4f00 cf3d c963 cd3d
00000250: a854 a4bd ba21 81bd 7698 c43d 1509 51bd
00000260: 0f7f 90bd 1f94 cdbd b3fd 763d a750 e6bd
00000270: 3157 9dbc 7775 94bc 5ec9 d1ba d86f 06be
00000280: 9865 65bc fa0e cc3d 3f79 08be e319 5f3d
00000290: 3119 0b3d cf1c ffbd c729 9b3d 288f 24bd
000002a0: 5b55 12be 97a2 d8bb 84a7 be3c 5a4a d4bd
000002b0: 8e6e 6cbd eedd b83d 2cc6 4b3d 6925 d43d
000002c0: 1b8d b93d 91d0 c5bc ef61 45bc b243 1cbd
000002d0: 5245 43bd 38bf 66bd 9fbd 06bd 8a5f 033d
000002e0: 3b2e bd3d e926 c13d 6a84 44bd 7c11 9dbc
000002f0: 594c f6bc 9bbb 5d3d a5ff 5a3d 335d 9f3d
00000300: 6ae1 bebd 0a01 16bc 04c3 5dbd 0f74 dabd
00000310: 3d27 573d ebe4 85bd 431b 053d d16f 6bba
00000320: 711b ef3d 526f ff3c 6422 b0bd 1200 3d3d
00000330: fbc0 bbbd cbdf 3bbc 3af4 0fbd ebc0 01be
00000340: 9cd4 d9bd d25b 6bbd c10f 2f3d 35e1 d93c
00000350: b9fb 84bc dd74 36bd 797c 61bd 6699 8dbd
00000360: c86e ffbc 1bbc 433d 5e33 023e ff88 04bb
00000370: 4c96 9a3d aeb3 dabc a434 043d 2ab2 af3d
00000380: 9f20 0dbd d8ef fa3c 0611 983d 5392 003e
00000390: ccb6 d63c a2b2 4b3d 6f7b ccbd f94d 86bb
000003a0: b377 c23d f9fb a03d 3fbe 583d 7077 be3a
000003b0: 5955 2b3c 3f12 683d 7ea9 59bd eaca 2e3d
000003c0: d4df 86bd cd57 8a3d 1858 babb 0ef7 abbd
000003d0: e075 74bd fe0a 8cbd 3edf 95bd ad77 d13d
000003e0: b7a1 19bd 8540 d6bd af4c b73d 5a0e 8abd
000003f0: 113e e3bc 0982 a0bd 1562 553d e9df 1c3d
-0.09811068 -0.10943837 0.06128168 0.047347408 0.114559695 -0.021460745 0.07551424 0.058674246
-0.11036727 -0.06490284 0.06497753 -0.00598347 -0.035932474 -0.11062367 0.010653599 -0.052922104
0.030217217 -0.061220776 -0.11040765 0.111943714 -0.04579955 -0.09012756 -0.0157245 0.02820008
-0.11476346 0.0882744 0.08051279 0.04638006 0.007590255 0.102439865 0.1027759 -0.012258481
-0.07274025 -0.027446952 0.025312968 0.110421084 0.05481993 0.11397097 -0.10859936 -0.053097058
0.011765002 -0.041699205 0.041342467 0.088826105 -0.080746114 0.062311843 0.02105599 0.07379952
-0.067410454 -0.032503486 0.033935588 0.09251032 0.018915776 0.06809109 0.036787685 0.070312664
0.052274935 0.09987238 -0.04999021 0.07867279 -0.10944702 0.04755242 0.06272156 0.050470736
0.07898379 0.10356193 0.056597814 -0.061516657 0.0138994595 -0.011549186 -0.11493468 0.022984982
0.11235136 -0.01542917 -0.08189471 0.00040286535 -0.038525086 0.044676706 -0.09032132 0.043317318
-0.047154844 0.1024993 0.0027464014 0.0059327385 0.08409488 -0.03981017 0.06992463 -0.074864805
0.0055183065 0.03858072 0.08150234 -0.10524743 0.052575566 0.10520017 0.07859406 0.08055266
0.0018782238 -0.056652345 0.090169325 -0.090388864 0.06513522 -0.075245485 0.102394104 0.0602803
-0.023935651 0.045834422 -0.024257654 0.09522014 0.11228266 0.049709477 0.12338203 0.10277593
-0.052505467 -0.025316993 -0.07999418 0.12281683 0.07197279 -0.027245147 0.07608932 0.0659794
-0.018395418 -0.08633107 0.063964486 -0.030211983 -0.028790299 -0.035824575 0.059427243 0.07543669
-0.09980407 0.046867233 -0.08794586 -0.06757549 -0.006750141 -0.017154211 0.09217356 -0.0257418
-0.07453873 0.04268937 0.013499643 -0.03430994 -0.06039148 0.091459595 0.020014022 0.021575566
0.07959762 0.067530796 0.10107481 0.10028798 -0.080239594 -0.06305261 0.09599392 -0.051034052
-0.070554845 -0.100380175 0.06030054 -0.11245852 -0.019206615 -0.018122418 -0.0016005447 -0.13128603
-0.014001273 0.09963794 -0.13327502 0.054468047 0.03395957 -0.12456667 0.07576328 -0.040175587
-0.14290373 -0.006611179 0.023273237 -0.10365744 -0.05772262 0.09026705 0.04974954 0.10358698
0.09060117 -0.024147304 -0.012047275 -0.038150497 -0.04767353 -0.056334704 -0.03289568 0.032073535
0.092373334 0.0943125 -0.047977842 -0.019173376 -0.030065702 0.054133993 0.053466458 0.07781448
-0.09320338 -0.009155521 -0.05414106 -0.10666668 0.052527655 -0.06537803 0.032496702 -0.00089812005
0.11675156 0.031181011 -0.086003095 0.046142645 -0.091676675 -0.011466931 -0.035145022 -0.12671249
-0.10636255 -0.057460614 0.042739633 0.026596645 -0.016233312 -0.044545043 -0.055050347 -0.06914024
-0.031180754 0.047786813 0.12714908 -0.0020223258 0.07548198 -0.026697006 0.032276765 0.08578904
-0.034454938 0.030631945 0.07425122 0.12555818 0.026210211 0.049730904 -0.099844806 -0.0040986505
0.09495487 0.0786056 0.052915808 0.0014531445 0.01045736 0.056658026 -0.053140156 0.042673983
-0.065856606 0.06755028 -0.005686771 -0.08396731 -0.059682727 -0.06838034 -0.07317971 0.102279045
-0.03750774 -0.10461525 0.08950173 -0.067410186 -0.027739557 -0.07837302 0.05209549 0.038299475

button_cnn.1.0.bias f4 [16]
00000000: 2f34 17bc 8582 8a3b 1092 1ebd 2bcb 723d
00000010: 4f22 5f3c 0966 bcbd b1ba ad3a e98d f43d
00000020: dcf2 9b3d 746b 893d 511d c23d 3077 973c
00000030: 89c1 843d 9405 f93d 3471 f83d 7583 97bd
-0.00922875 0.004226985 -0.038713515 0.059275787 0.01361902 -0.09199149 0.0013254491 0.1194113
0.07614681 0.06709948 0.09478248 0.01848945 0.064822264 0.12159267 0.12130967 -0.0739812

fc.0.weight f4 [256, 240]
00000000: 5a84 3a3d 63cf 22bc cf54 5c3a 4944 0abd
00000010: 1167 023c 330f e9bc f6dd 2e3c 8ebb d8b9
00000020: 61dd b63c 220d 4ebc ba90 473d 027d b63b
00000030: 4e64 5d3d 97c7 c0ba 3a95 483d 80b5 c43c
00000040: 23e2 f23c 734b 713d 0628 febb c66c 43bd
00000050: f178 2dbd 1d4f 32bd 00f9 1b3d de9f 333d
00000060: ad5a 5a3c 7f83 80bd 5640 37bc 42b4 f63c
00000070: a1c8 1fbb 7409 24bd 162b 103d 68ad 40bd
00000080: 1481 6ebd 5c17 083d 8e13 563d cf9c 573d
00000090: 29f8 5ebc 3605 0cbd 5850 edbc 9018 b53c
000000a0: 4263 5fbd c5a6 d8bc d25d e23c 2ab7 6d3d
000000b0: b096 673d 92ed b3bb acb5 4ebd cf1d 5bbb
000000c0: 970f 7b3d 6ee3 13bc 4a87 943c 8fd6 c63c
000000d0: 3c23 0a3d e821 573d 9a81 39bb 57d6 e7bc
000000e0: e51f 583c 55ff 083c dcf6 b6bc 6cc2 ed3c
000000f0: 88e8 4d3c d593 5abd b8de 303d 6f83 67bd
00000100: 1d3e b1bc c2ee 433d 370b 23bd 1d57 e73c
00000110: f133 2f3d adf8 6b3d ea1c 89bc cdc1 11bd
00000120: 883e 383d 45fb e8bc f19a 3c3d aa4d 423c
00000130: 57ca 82bd 7e9e aabc 0f78 fc3b bcdc c9bb
00000140: 4bc9 d5bc 7f3e f8bc a033 fdbc 0b0d 20bd
00000150: 06c4 633c 853c 46bd 563e c33c 42fe 343c
00000160: 5dc1 1ebd 9286 3cbd 00a3 85bc 0646 4ebd
00000170: 2ab5 36bc 3ff8 03bc ec55 84bc ff61 7abd
00000180: 47aa 7e3d 8238 2bbd 7baf db3c 64fa 44bd
00000190: fe48 223d ac22 683d c84a 403d 0058 463d
000001a0: 97fd 54bd 1ca7 a33c 8c73 033d f8d4 543c
000001b0: 367c 44bb 234c 6e3c c43a a7bc 8785 5ebd
000001c0: a1a2 95bc 73da fcbc 872a 043c 76f6 443d
000001d0: dff6 1cbd cd50 08bd 707c e33c 1a42 5dbd
000001e0: fd2e 243c 9fce de3c ae9d 383c 5e18 06bd
000001f0: 80e6 70bd ec39 5abd 6ecd 703d 080d 7f3d
00000200: ab7b 3a3d 5248 7d3d c9cd cf3b 5f8d 53bd
00000210: cb5f 83bd 66ba d93a c5e6 173d de6c 1e3d
00000220: 6444 083d 0fa1 29bd 9c2b b6bb cc4c 79bb
00000230: bae9 f73c 9562 063d 78ff 893b 0734 45bd
00000240: 1e8d 65bd e710 7dbd f3a6 dc3c ad24 9cbc
00000250: e40d 843d 87a2 dc3b 6292 5bbd cfb0 51ba
00000260: 73e2 c23b 8932 c9bc 97f6 833d 3f42 22bc
00000270: aaa8 053d e8d6 373d 8723 803d 4713 573d
00000280: cf32 6ebd 3385 6abd aeaf 4b3d faa0 11bd
00000290: d897 5abd 97a4 ef3c d1d6 07bd 8558 6bbd
000002a0: 0fff 97bc 1ee4 cf3c 458f 2bbd b345 223c
000002b0: 9525 21bb d619 53bc 6a17 99bb 786a 61bd
000002c0: 5526 823d 6515 b0bc 18b0 40bb 5584 b63c
000002d0: b446 b23b 15eb babb bac7 ff3c 2d6d e4bc
000002e0: d9fe 0fbd c3aa 4a3d cfb8 d73c adf1 ad3b
000002f0: d8e4 043d a007 d1bb b8a6 ccbc b09e 703d
00000300: 3938 6ebc 609b 97bc f047 7ebd 527e 4ebd
00000310: 6d14 6dbd d87b 603c 68d9 ebbc 130e 6cbd
00000320: 685c 9a3c 85e0 e2ba 340b 353d 456d ccba
00000330: f6db 623d 317d 043d b6bf bc3c 0a04 413c
00000340: c764 493d da2e dcbb 60b0 743c 4f65 1d3c
00000350: dfa1 5fbd 5e30 57bd 1f8b 0e3d 9b69 9eb9
00000360: caf2 44bc 66dd 21bd dd35 c63b ace2 49bd
00000370: 4485 d7bc f554 183c 8ea9 0ebd 6f3e 99bc
00000380: 54d0 18bd 31e2 03bd 4320 03bc 949a debc
00000390: 2151 7f3d 2d7d 95bc c377 34bd 2e2d f43c
000003a0: 4bab 57bd 1664 963b 0e9f 41bb 0b82 21bd
000003b0: 7947 403d 8140 dbbc ab4d 1fbd a72b 703d
000003c0: f6b5 b03d d397 b9bc feda fb3b 2db6 86b9
000003d0: d380 fd3c 15f6 9a3d 334e 9fbd 633b 7d3c
000003e0: 9ec5 11bd 1808 a7bc 72a8 803c dc63 593d
000003f0: d8ed e2bc 2b62 083d 00af d73c 71c8 9e3d
0.045536377 -0.00993714 0.00084049714 -0.033756528 0.007959143 -0.02844963 0.010673037 -0.0004133847
0.022322359 -0.012576373 0.048722006 0.0055691013 0.054050736 -0.001470792 0.04897044 0.024012327
0.029648846 0.058909845 -0.007756236 -0.047711156 -0.042351667 -0.04353248 0.03807926 0.043853633
0.013327283 -0.06275081 -0.0111847725 0.03011525 -0.0024381059 -0.040048078 0.03519734 -0.047040373
-0.058228567 0.033225402 0.052264743 0.05263978 -0.013608971 -0.034184657 -0.028968975 0.022106439
-0.05453802 -0.02644671 0.027632628 0.058036007 0.05654019 -0.005490967 -0.050466225 -0.0033434515
0.061294165 -0.009026391 0.018130917 0.024272231 0.03372501 0.05252257 -0.0028306008 -0.028300447
0.013191198 0.008361657 -0.022334509 0.029023372 0.012567647 -0.05336364 0.04318115 -0.05652183
-0.021636063 0.04783512 -0.039805617 0.028239781 0.042774145 0.057610203 -0.01673742 -0.035585213
0.04498151 -0.028440127 0.0460462 0.011859337 -0.063862495 -0.020827528 0.007704742 -0.006160347
-0.02609696 -0.030303238 -0.030908406 -0.03907494 0.013901716 -0.04839756 0.023833435 0.011046948
-0.038758624 -0.046026774 -0.016313076 -0.05035975 -0.011151591 -0.008054792 -0.016154252 -0.061128613
0.062174108 -0.041801937 0.026817074 -0.048090354 0.039620392 0.05667369 0.046946317 0.048423767
-0.051999655 0.019977145 0.032092616 0.012990229 -0.0029981262 0.01454452 -0.020413764 -0.05432656
-0.018266024 -0.030865883 0.00806678 0.048086606 -0.038321372 -0.033280183 0.027769297 -0.054018117
0.0100209685 0.027198134 0.0112680625 -0.032738082 -0.058813572 -0.053277895 0.058789663 0.062268287
0.045528095 0.06183655 0.00634167 -0.051648494 -0.064147554 0.0016611337 0.037085313 0.038678043
0.033268347 -0.041413363 -0.005559398 -0.003804016 0.030262817 0.03280886 0.0042113625 -0.04814532
-0.056042783 -0.061783697 0.026935076 -0.019060457 0.06447962 0.006733242 -0.0536064 -0.0007999064
0.005947405 -0.02456023 0.06443518 -0.00990349 0.032631554 0.044882685 0.06256776 0.05250862
-0.058153924 -0.057255935 0.049728088 -0.03555391 -0.053367466 0.029253287 -0.03316385 -0.057457466
-0.018554239 0.02537733 -0.04188468 0.009904313 -0.002458905 -0.012884578 -0.0046719806 -0.055033177
0.063549675 -0.021494577 -0.0029401835 0.022279898 0.0054405574 -0.0057042935 0.031223167 -0.02788409
-0.03515515 0.049479257 0.02633324 0.005308351 0.032444805 -0.006379083 -0.024981841 0.058745086
-0.014539772 -0.018506706 -0.062080324 -0.050413437 -0.057880808 0.013701402 -0.02879019 -0.05763061
0.01884289 -0.0017309344 0.044200137 -0.001559653 0.055385552 0.032345954 0.023040634 0.011780748
0.049168374 -0.0067194523 0.014934629 0.009606673 -0.05459773 -0.05253636 0.034800645 -0.0003021479
-0.012020776 -0.039517783 0.0060489015 -0.049288437 -0.026308663 0.009297599 -0.03482967 -0.018706528
-0.037308052 -0.032198135 -0.008003297 -0.027173318 0.06233323 -0.018248165 -0.044059526 0.0298067
-0.052653592 0.004589568 -0.0029544267 -0.03943066 0.04694316 -0.026764156 -0.03889243 0.05863538
0.08628456 -0.022655403 0.007686018 -0.00025694203 0.030945217 0.07566468 -0.07778587 0.015456053
-0.035588853 -0.020389602 0.015705321 0.05307375 -0.027701303 0.033296745 0.026328564 0.07753075

fc.0.bias f4 [256]
00000000: 96b8 6bbd f2d1 083d 29fb ae3c cdbf a53d
00000010: 4383 2fbd aa0c 39bc e446 62bd 84b9 15bd
00000020: 5d22 9fbc 934b 65bd 9d62 1cbd 0450 efbc
00000030: 02e4 0ebd 8a19 1abd 88f5 4ebb 52dc 483d
00000040: d91f 31bd 82a9 9a3c a7bc 1ebd 5899 afbc
00000050: a3ad 8e3d 501c 283c 2fa5 423d 3110 9e3d
00000060: afd1 5c3d 3434 4c3d abd4 883b 9a57 993d
00000070: feff 403d 1df2 0ebc b99e 4bbd 2cfe b8bc
00000080: 42a9 193d 6c20 b93c 98e0 793c 11fe 413d
00000090: a484 0fbc 948c 22ba 8be0 a83d 3e5c 03bd
000000a0: 8ca5 3d3d 1050 f0bc e379 833d f301 68bb
000000b0: 67bd 1a3d ed76 513c 95a5 c2bc e9db 8d3d
000000c0: c8f8 d5bc 8ac9 8ebd 2f06 313d 3d5c 43bd
000000d0: 0c26 91bd 773f 67bc 5c48 403d a2cc 613d
000000e0: eba8 96bc baf3 fabc edc2 b23d ffdb 69bd
000000f0: 9a02 aabc 9687 763c c0e4 3a3d 935a 933d
00000100: 8abc 2dbd 698e 06bb 94fd 26bd fffd 563d
00000110: 58cf b3bc acd5 17bd b1d7 62bd 2f8a 8f3d
00000120: 1912 6a3d 3efd 00bd 3f97 443d e2b7 a8bc
00000130: 3b27 7ebc 60a0 5dbd 99e9 3a3d a46b b538
00000140: 08e8 233c 8637 3b3d 69bc 2e3a 011f 56bc
00000150: 3c12 6d3d 60af 03bd eb13 853d fb86 083d
00000160: ac19 9b3d 38b5 773c b3f5 6d3d ab6d 95bc
00000170: ecfa 33bd 7ad5 0bbb 1987 e0bb 10c1 113d
00000180: 298b ccbb 18ba 8abd e342 373c f4fd 833d
00000190: 7fc6 4e3d 4b21 b23c 9ad1 563d 763d 8bbd
000001a0: 3466 153c 335b 11bd 89b5 b9bc 0170 abbc
000001b0: 61e9 753c e3e8 a2bc a852 9b3d fa79 a1bc
000001c0: 963e 5fbc 2c77 60bd 5732 c1bb a07c 09bd
000001d0: 16d2 80bd ae99 cc3a 6e64 8c3b 71e5 4bbd
000001e0: 6813 653c ff60 fc3c 1257 583d 29b3 66bd
000001f0: e7cf 12bd 2d7c 11bd 0d2e 973d ab17 8c3d
00000200: fefb 473d e10e d7bb b926 5cbd c055 c43c
00000210: 2439 483d d932 783d 9c1d 05bd 1702 01bd
00000220: 93f7 bc3c 885d c7b7 3825 f2bc fd15 033d
00000230: 7a76 9d3c bf5f 92bc d638 5d3d b424 49bc
00000240: 0731 b9bc cbe5 ed3b 445d 683d 13bd c5bc
00000250: edc1 4f3b 8d03 2dbd 3b96 893d 5c9a ea3c
00000260: c953 8a3c 9dfb c7bc 6471 a73c 136d 7dbd
00000270: 761c 01bd 17d0 943d ec0d acbb 4784 7f3d
00000280: fcd8 683d 4d28 96bb be05 523d ca8f 7abd
00000290: 9eda a2bc 6b01 85bd 04ce 523d 5c45 96bd
000002a0: 4087 2c3d 7ae9 b1bc 141a 683c 9428 343d
000002b0: 18e6 45bd 900a 2fbd f15b c1bc 446c 1c3d
000002c0: 7168 4c3d c080 293c 9f40 543c 20e5 243d
000002d0: 41cd 1e3d e85d 55bd ac53 31bc 0306 09bd
000002e0: 78bf 0f3d 27ca 753c 5866 63bc 64bd 393d
000002f0: de39 353d cb12 803c 87b8 6cbd bb3d ea3c
00000300: 3613 ce3c 68ae 503d 4a88 fa3c 2b0f 5dbd
00000310: 53d5 c63c 656d 193d 38c2 823d c0fa 1f3d
00000320: 1d28 50bd 95f3 933c 9f28 edbc 45a9 0abd
00000330: 909b 8cbc 111b 383c 5752 d4bc f4de 083d
00000340: ba0c a0bc 1022 103d 1fcd 43bd c372 edbc
00000350: 85c6 3b3d f4bf 15bd bb54 993c 7805 a83c
00000360: f4b9 d33c 5072 683d e561 7f3c e587 56bd
00000370: c936 5cbd fb60 1bbc a366 893d af41 323d
00000380: bd73 353d 230b adbc 41ef 28bb 9c59 ca3b
00000390: f60c 833c c177 593d 7cdc 1d3d 1203 00bd
000003a0: 8fc4 ce3b c8a9 2d3b a503 4b3d 3ba4 d33b
000003b0: ebce f43c b1fa 243d c667 f93b 83f1 d2ba
000003c0: f7e6 4bbd a8bd c8bc 1a15 42bc 95f0 a1bc
000003d0: 4fc2 0d3d 07c1 64bc dff6 1c3d 51b1 88bd
000003e0: 5cbf 07bb 67e9 0dbd 5cc9 0a3d f173 63bd
000003f0: 8a2b 2e3c 3d4d f3bc d372 a63c 42c3 81bd
-0.05754908 0.033403344 0.021359997 0.08093224 -0.04284979 -0.011294523 -0.055243388 -0.036553875
-0.019425565 -0.055980276 -0.038179982 -0.02921296 -0.034885414 -0.037622012 -0.0031579453 0.04903824
-0.043243263 0.018879656 -0.03875413 -0.021435425 0.06966712 0.0102606565 0.047520813 0.07717932
0.053910907 0.049854472 0.0041757426 0.07487412 0.047119133 -0.0087247165 -0.049711917 -0.022582136
0.037514932 0.022598468 0.015251301 0.047361437 -0.008759651 -0.00062007573 0.08245953 -0.03207039
0.046300456 -0.029335052 0.064197324 -0.0035401552 0.037778284 0.012784702 -0.023760596 0.0692671
-0.026119605 -0.06972034 0.043218788 -0.047695387 -0.07087335 -0.014114252 0.046944007 0.055126794
-0.018391093 -0.030633796 0.087285854 -0.05709457 -0.020753194 0.015046975 0.04562831 0.0719501
-0.042416133 -0.002053166 -0.040769175 0.052488323 -0.021949455 -0.037069008 -0.05538148 0.07008778
0.057146166 -0.03149151 0.047995802 -0.020595495 -0.015512283 -0.054108024 0.045632932 8.650802e-05
0.010004051 0.04570725 0.00066656485 -0.013068915 0.057878718 -0.032149673 0.0649794 0.033331852
0.07573256 0.0151188895 0.058095645 -0.01824077 -0.04394047 -0.0021336959 -0.0068520424 0.03558451
-0.006242175 -0.06773776 0.011185381 0.06444922 0.05048227 0.021744391 0.052445985 -0.06798832
0.009118605 -0.035487365 -0.02266957 -0.020927431 0.015009255 -0.01988644 0.07584125 -0.019711483
-0.0136257615 -0.05480115 -0.0058958936 -0.033566117 -0.06290071 0.0015609765 0.004284433 -0.04977936
0.013981678 0.03080797 0.05281741 -0.056323204 -0.035842802 -0.035518814 0.0738183 0.06840452
0.048824303 -0.006563053 -0.053747866 0.02396667 0.04888262 0.060595367 -0.03249894 -0.031496134
0.023067271 -2.3766203e-05 -0.029558763 0.03200339 0.019221533 -0.01786792 0.05400928 -0.012276817
-0.022606386 0.0072600595 0.05672957 -0.02413801 0.0031701282 -0.042239714 0.06718107 0.028638057
0.016885655 -0.02441197 0.020439811 -0.0618716 -0.031521283 0.072662525 -0.005250683 0.06238201
0.056847557 -0.004582441 0.051275007 -0.061172284 -0.019879635 -0.06494411 0.051466003 -0.07337448
0.042121172 -0.021717776 0.014166374 0.04398401 -0.048315138 -0.042734683 -0.023603411 0.038189188
0.04990429 0.010345638 0.01295486 0.040257573 0.038769964 -0.05209151 -0.010823172 -0.033453
0.03509471 0.01500181 -0.013879381 0.045346633 0.04424464 0.015633961 -0.057793166 0.028593889
0.025155645 0.050947577 0.030582566 -0.053969543 0.024271643 0.037457842 0.063847005 0.039057493
-0.050819505 0.018060485 -0.028950034 -0.033852834 -0.017164022 0.011236922 -0.025918169 0.03341575
-0.019537318 0.035188735 -0.04780304 -0.028985387 0.04584362 -0.036560014 0.01871716 0.02051042
0.025845505 0.056749642 0.015587305 -0.052375693 -0.053763185 -0.009483571 0.067090295 0.043519672
0.04429983 -0.021123474 -0.0025777372 0.006175233 0.015997391 0.05309272 0.03854035 -0.031252928
0.0063100527 0.0026498903 0.049564023 0.006458787 0.029883822 0.04027814 0.0076112477 -0.0016093705
-0.049780812 -0.024504498 -0.011845851 -0.019768039 0.034609135 -0.013962037 0.038321372 -0.066744454
-0.0020713424 -0.034646418 0.033883438 -0.055530492 0.010630498 -0.029699916 0.020318424 -0.063360706

fc.3.weight f4 [12, 256]
00000000: a4d1 69bc 7400 8c3b 441c 9fbd b843 473b
00000010: a8c9 913c bde0 dbbc a2f2 fe3c 764c 4ebc
00000020: 7411 9abd b2fe 08bd 9790 25bd 8499 b03c
00000030: 48f2 8f3c ee80 573d bac0 2abc 8f4e 413c
00000040: 7263 7abd 8bd3 a8bd 4111 4abb c17a 15bc
00000050: ba07 4cbd df74 abbd fa1d 513d 2ddf 8fbd
00000060: 3771 2dbd 7b7e 80bd 9e6d 143d 1527 ccbc
00000070: cc82 a6bd 3337 0dbd 611b 373d a8fe 2e3c
00000080: 9bf0 74bd c21d 87bc 677d 42bd e0c1 113d
00000090: b764 a3bc 8f1b d23c aac0 4bbd e7df 71bb
000000a0: 5395 8cbd 3cbb 353d 4118 903c 6252 b2bc
000000b0: d272 60bd 150f 133c d842 293d bed7 90bd
000000c0: 8b09 3f3c 09c6 15bc bfb0 41bb 130c 273c
000000d0: 2f19 58bc 79d1 aebc a768 083d 6425 383d
000000e0: ac94 2a3c 2c3d 29bc f868 8ebd 7a75 a1bc
000000f0: fed5 b6bd ced0 453b 8c5f 85bd d0e1 9dbd
00000100: 66f2 50bd 34f1 073d d252 153c 6d74 39bd
00000110: 3eb1 303d 32ab 78bd 6648 da3c a498 89bc
00000120: 14ad 6dbd fcb8 7c3d 7979 bcbc b6b0 a73c
00000130: b3a2 24bc 407b fbbc a83f 52bc ba86 ad3c
00000140: 8dc5 ea3b f402 633c 23e7 ce3a dcc9 b9bd
00000150: 7910 18bd 317a 40bc 9896 7a3c 4f0e 45bd
00000160: 6b2b 103c 035d 3d3d dc92 0e3d 32eb 11bd
00000170: 2ed6 b9ba 9345 a1bc 0a5d fbbc 853b 693c
00000180: 94ff 6cbd ecad 2bbd 3d99 973c b41e 16bd
00000190: 4188 8bbd 8aef f5bb 0242 d23c 3c5c 0e3d
000001a0: 5155 7abd c476 46bd f018 1dbd 94ea f7bc
000001b0: 26b0 2dbd 1e46 1a3d c98c a4bd fee3 35bc
000001c0: fc2d 163d a560 8ebd cb02 d23c 7705 243d
000001d0: c668 9dbc b602 a03c e889 3ebd 9dd2 91bd
000001e0: 99e5 b7bd 4d88 8fbb d84c f83c 258d 96bd
000001f0: fcaf 57bd b2c1 83bd 8839 6fbd ea09 8bbc
00000200: 1925 573c 04a2 eeba 096c 8ebd 0e94 ff3c
00000210: 216f c83c 79d2 7bbc 2485 883c 2f1c 323c
00000220: 77ed ee3c f306 393c 28bf 86bd 1985 50bd
00000230: 0214 9b3b 1a86 9a3c 7aad 48bc 02b4 113c
00000240: 887f 303d 976c 5ebd 6d48 99bd 7b71 253d
00000250: f4d4 febc 2106 143c 0933 773b 7976 08bd
00000260: 7a62 e73c e937 b0bd 5a49 50bc 2cd9 30bd
00000270: 7e7f 61bd d883 2bbd 3c36 28bd 7937 77bd
00000280: 64b8 32bd 0e53 b23c 31ae 083d 22d0 a93c
00000290: 9a3b babc 9898 dd3c d691 45bd 2793 5dbd
000002a0: 9978 e13b a527 c33c 4a51 1ebd 7cb8 b9bc
000002b0: 6ebb 6a3d 5ce8 a4bc 3eb7 81bc c34c 8fbd
000002c0: 2069 ff3c cf56 cdbc 5154 e0bc 8a56 3fbc
000002d0: 146a c9bc 02bd 293b 4879 85bd dd21 7ebd
000002e0: d0bb da3c 1718 893c 9a9a bcbd 0838 96bd
000002f0: 8ae9 d13c a986 2e3c ea9e 3c3b a5db 80bc
00000300: 0142 abba 7942 13bd 693e d13c 66ba 99bd
00000310: 4133 4dbd 2ad4 aebc 27ab 8f3c a87a 983c
00000320: 8459 da3a 7389 cfbd 3598 693a fba9 073d
00000330: 1171 0d3d b852 efbc 0796 b6bc ee79 8f3c
00000340: 9a42 193d 6ea2 a3bc 583c 98bd d597 2dbd
00000350: 0c70 573c e28a 96bd 4c4b 62bd d583 bebb
00000360: 3268 4dbd ad7a 713a c4b8 c53b 1a67 4abd
00000370: 724f 183d 6e5a 473d d9ea d3bc 18fe f13c
00000380: 4d31 5a3b 96f3 9fbb 77d4 58bc 1e75 7ebd
00000390: 98e8 fb3c 90b3 643c 3281 9f3b 22c8 0b3d
000003a0: af32 b8bd 756b 50bc a8b3 62bd d4dd 5abd
000003b0: f3eb 423c d284 15bd 4ee5 6bbd af66 69bd
000003c0: c7ee 3b3d 8682 15bc 48dc 723c 7f4c 75be
000003d0: 12ab 973c 942c ce3c b233 85bc d9fa b0bc
000003e0: 98aa 773d 7306 d3bb 6d6e 7dbd c075 e9bd
000003f0: 17fe 10bd b415 ddbb b707 243d d40e 613d
-0.014271174 0.004272515 -0.07769063 0.0030405354 0.017796353 -0.026840562 0.031121556 -0.012591472
-0.0752286 -0.03344602 -0.040421095 0.021557577 0.017571583 0.05261319 -0.010421926 0.011798515
-0.061129995 -0.082434736 -0.0030833038 -0.009123505 -0.049812056 -0.08371901 0.05105398 -0.07024989
-0.0423443 -0.06274124 0.03623735 -0.02492098 -0.08130416 -0.03447647 0.044703845 0.010680832
-0.05979977 -0.016493682 -0.047482874 0.035585284 -0.019945486 0.025647907 -0.049744286 -0.0036907138
-0.06864419 0.044368014 0.01758969 -0.021767799 -0.054797 0.008975764 0.041323513 -0.070723996
0.01165999 -0.009141454 -0.0029554812 0.01019575 -0.013189598 -0.021340119 0.03330293 0.044957533
0.010411423 -0.010329526 -0.06953615 -0.019709338 -0.089275345 0.0030184272 -0.06512365 -0.07709086
-0.05101242 0.033189014 0.009113984 -0.045277048 0.04313778 -0.06071014 0.02664585 -0.016796418
-0.05802639 0.061699852 -0.023007141 0.020470005 -0.010048556 -0.030698419 -0.01283256 0.021182407
0.007164663 0.013855685 0.0015785437 -0.09071705 -0.037125085 -0.011747883 0.015294693 -0.04810935
0.008799414 0.04623128 0.034808025 -0.03562469 -0.001417821 -0.019686496 -0.030684013 0.014235382
-0.057860926 -0.04191391 0.018505687 -0.036650375 -0.06813098 -0.007505362 0.02566624 0.03475593
-0.06111652 -0.048453107 -0.03835386 -0.030263223 -0.042404316 0.037664525 -0.08034665 -0.011101721
0.036664948 -0.06952027 0.025636097 0.040044274 -0.019214999 0.019532543 -0.046518236 -0.071202494
-0.08979339 -0.004380262 0.03031008 -0.0735114 -0.052658066 -0.06433429 -0.058404475 -0.0169725
0.013131403 -0.0018206243 -0.069542 0.031198528 0.024467053 -0.015370005 0.016665049 0.010870977
0.029165966 0.011293161 -0.06579429 -0.05090818 0.0047326097 0.018862773 -0.012248391 0.008893015
0.043090373 -0.054302778 -0.07484517 0.040391427 -0.031107403 0.009034664 0.0037719628 -0.03331611
0.0282452 -0.08604414 -0.012712801 -0.04317586 -0.055053227 -0.041873783 -0.041067347 -0.060355637
-0.04363288 0.02176812 0.033369247 0.020729128 -0.022733498 0.027050301 -0.048234783 -0.054095414
0.0068808314 0.023822615 -0.038651742 -0.022670977 0.057307653 -0.020130329 -0.015834447 -0.06997063
0.031178057 -0.025065808 -0.027383955 -0.011678347 -0.024586715 0.002590001 -0.06517273 -0.062044013
0.026700884 0.01673512 -0.092091754 -0.07334906 0.025624055 0.010652223 0.0028781244 -0.015729735
-0.0013065935 -0.035952065 0.025542455 -0.07506256 -0.050097708 -0.021341402 0.017537666 0.018613175
0.0016658758 -0.10133638 0.0008910925 0.03312109 0.034531657 -0.029214248 -0.022288335 0.017514195
0.03741703 -0.019974913 -0.07433385 -0.042381126 0.013149273 -0.073507085 -0.05524759 -0.0058140554
-0.050148197 0.00092117005 0.0060339887 -0.04941473 0.03718514 0.048670225 -0.02586882 0.029540107
0.0033293546 -0.0048813326 -0.013234249 -0.06212341 0.030750558 0.013958827 0.004867696 0.03412641
-0.08994042 -0.012720932 -0.055347115 -0.053434208 0.011897075 -0.03650362 -0.05759173 -0.056982692
0.045882013 -0.0091253575 0.014823027 -0.23954962 0.01851419 0.02516774 -0.016260002 -0.021603988
0.060465425 -0.006439978 -0.06187289 -0.11399412 -0.03539857 -0.006746972 0.04004642 0.05494578

fc.3.bias f4 [12]
00000000: a740 67bd 115b 3d3c 02b8 8ebd 7296 97bd
00000010: 1f60 f63a f0ce 96bd f93b 29bd 231d 80bd
00000020: f0ad 91bd 88ae 1cbd 13ac 923b 9cff 9fbd
-0.05645814 0.011557356 -0.069686905 -0.07401742 0.0018796957 -0.07363689 -0.04131696 -0.062555574
-0.07113254 -0.038252383 0.0044760793 -0.078124255
