cnn_fighting_agent_starter/outputs/20251017_200756/model.pt (torch, 287835 bytes, 12 tensors)

state_cnn.0.0.weight f4 [16, 1, 3, 3]
-0.16105875 -0.009674714 -0.0920676 0.12959835 0.35090733 -0.25975922 -0.32608196 0.30357155
0.28686327 -0.10011491 -0.09732664 -0.5219698 0.52833444 0.20907557 -0.42492646 0.12993066
-0.05005481 -0.41976047 -0.27970544 0.20590523 0.353232 -0.40311897 -0.11308199 -0.046122123
-0.2138968 -0.124183446 -0.122917764 0.25443265 0.31440064 0.31992856 0.13893676 0.20135115
-0.24075614 0.39674133 -0.19072692 -0.24338897 -0.2751021 -0.15358977 0.13157679 0.024782147
0.13849835 0.046751387 -0.17674287 0.32348725 0.21217445 -0.12949218 0.0065735495 -0.2449094
0.30586073 -0.36473334 -0.5226255 0.3059347 0.26095814 -0.6537639 -0.09195904 0.11613556
-0.014210809 -0.14618549 0.16341361 -0.14047307 -0.005695682 0.13717826 -0.21602923 0.04661321
-0.23080274 -0.19658624 -0.32903752 0.189642 0.31200615 0.19016321 -0.25362056 0.14313309
-0.078344405 0.050694812 0.3004997 0.043030694 0.06162087 -0.2727911 -0.25394633 0.152021
0.22005808 -0.21337327 -0.3202797 0.21966952 0.38303536 0.32445404 0.35650107 -0.14884593
0.32644996 -0.26028425 -0.23649725 0.2808549 0.3808778 -0.42365855 -0.15307061 0.3134635
0.39487392 -0.04299836 -0.24563226 0.2727711 0.36842862 -0.0074848807 -0.28217712 0.03601432
0.13217676 -0.11105041 -0.015120947 0.14956981 0.046246625 -0.32311475 -0.120842956 -0.12093151
0.15592507 0.1027315 0.30762666 0.15548672 -0.006259181 -0.24419235 0.006873693 7.2566734e-05
-0.28007367 0.23427583 -0.04698227 -0.004826676 0.20019388 0.26278886 0.062920086 -0.044220433
0.22931278 -0.11107751 0.22169837 0.31848434 0.23276682 -0.26662368 -0.068538494 0.24094224
0.104977414 0.32574132 0.36184555 0.14123705 0.18363382 0.13485336 -0.34812978 0.06898295
00000000: 96ec 24be b182 1ebc f08d bcbd 6eb5 043e
00000010: 20aa b33e 29ff 84be 37f4 a6be bb6d 9b3e
00000020: bedf 923e 0c09 cdbd 3053 c7bd d09f 05bf
00000030: ed40 073f e817 563e f68f d9be 8b0c 053e
00000040: 4606 4dbd d8ea d6be 8d35 8fbe d2d8 523e
00000050: d3da b43e 9c65 cebe 8897 e7bd 8dea 3cbd
00000060: c307 5bbe e453 febd 4fbc fbbd ff44 823e
00000070: 1ff9 a03e adcd a33e 7045 0e3e ff2e 4e3e
00000080: c788 76be ae21 cb3e eb4d 43be f53a 79be
00000090: 2fda 8cbe a346 1dbe 11bc 063e ee03 cb3c
000000a0: 83d2 0d3e 627e 3f3d 15fc 34be 1fa0 a53e
000000b0: 4244 593e 9999 04be ee66 d73b 88c9 7abe
000000c0: c799 9c3e 54be babe c9ca 05bf 79a3 9c3e
000000d0: 4e9c 853e 125d 27bf 0555 bcbd 7bd8 ed3d
000000e0: 74d4 68bc a6b1 15be e655 273e 2cd8 0fbe
000000f0: d8a2 babb 7578 0c3e c436 5dbe 7eed 3e3d
00000100: 8e57 6cbe e74d 49be 9b77 a8be 8331 423e
00000110: 45bf 9f3e 25ba 423e 8eda 81be 7b91 123e
00000120: 0873 a0bd 5da5 4f3d 19db 993e f440 303d
00000130: 2a66 7c3d 46ab 8bbe 4105 82be 65ab 1b3e
00000140: e856 613e 867e 5abe b3fb a3be 0cf1 603e
00000150: 361d c43e d71e a63e 4f87 b63e 116b 18be
00000160: 7324 a73e fa43 85be 562c 72be 37cc 8f3e
00000170: 6a02 c33e c6e9 d8be 8bbe 1cbe 4a7e a03e
00000180: ea2c ca3e 0c1f 30bd 0687 7bbe a7a8 8b3e
00000190: ada2 bc3e bb43 f5bb 8579 90be c083 133d
000001a0: 5859 073e 666e e3bd d9bd 77bc d428 193e
000001b0: 1a6d 3d3d 4c6f a5be 837c f7bd f1aa f7bd
000001c0: d2aa 1f3e e564 d23d 3e81 9d3e e937 1f3e
000001d0: d119 cdbb 8f0d 7abe b73c e13b f82e 9838
000001e0: d165 8fbe 01e6 6f3e 7b70 40bd 1829 9ebb
000001f0: a0ff 4c3e 438c 863e 3fdc 803d 7c20 35bd
00000200: f8d0 6a3e 9b7c e3bd e604 633e 6110 a33e
00000210: 6d5a 6e3e e682 88be e95d 8cbd 90b9 763e
00000220: 66fe d63d 91c7 a63e d243 b93e 72a0 103e
00000230: 810a 3c3e 0017 0a3e 113e b2be ef46 8d3d

state_cnn.0.0.bias f4 [16]
0.11109338 0.26020202 0.29171854 -0.15829627 0.25501782 0.3304284 -0.21623982 0.074069306
-0.022285344 -0.32962984 -0.17808732 -0.20930883 0.18897244 0.041059606 -0.088283435 -0.052020174
00000000: ed84 e33d 3339 853e 225c 953e 6b18 22be
00000010: b291 823e e92d a93e f96d 5dbe a6b1 973d
00000020: c18f b6bc 3ec5 a8be 865c 36be 0e55 56be
00000030: fe81 413e 1e2e 283d f2cd b4bd 1b13 55bd

state_cnn.1.0.weight f4 [32, 16, 3, 3]
0.02313591 0.05253754 0.020958455 -0.02110067 -0.05428849 -0.029741537 0.026379991 0.0327446
0.07418739 -0.28464848 -0.0031514403 -0.12360989 0.013556687 0.053146992 -0.21104442 0.2014128
0.02642843 -0.13160023 -0.02593374 -0.085457064 0.027283154 0.11223131 0.05494407 -0.08928607
-0.06150135 0.043974683 0.07954936 -0.04550815 0.062026203 0.0013174915 -0.16056947 -0.002176196
-0.051533643 -0.14468679 0.049169067 -0.10816558 -0.03890601 0.036676113 0.02855184 0.0013231519
-0.029891819 0.08992169 0.090378314 0.018952342 0.022333262 -0.18603285 0.0059199147 -0.117546104
-0.054341607 0.03036296 -0.07855225 0.30141017 -0.059144635 -0.05350331 -0.00659463 -0.03821022
0.034678515 -0.061149407 -0.032243066 -0.05549751 -0.064033136 -0.13419865 0.0028857735 0.0027140894
-0.16890214 0.1745287 0.13787821 -0.030385982 0.15513249 0.35930327 0.19974546 0.38148046
0.120201625 -0.07647306 0.045392662 -0.029280927 0.010948046 0.03974475 0.059223097 0.06532046
-0.019881418 -0.17604873 -0.09017455 0.10530775 -0.093897365 -0.014779362 0.016755098 0.12179918
-0.008023948 0.2993597 -0.018601011 0.010790333 -0.12411146 -0.017532105 -0.038781565 -0.075591505
0.2260856 0.1325864 -0.07014823 0.016175883 -0.0057299775 0.20696655 -0.038917948 0.02968653
0.21319124 -0.07133946 -0.032933235 0.27963892 -0.09362324 -0.041000318 0.0020596073 -0.04185509
-0.00290899 0.02544084 0.07629377 -0.04326511 0.029000616 -0.011588452 -0.004988174 0.20399305
0.018388165 -0.027157027 0.05216754 0.045719672 0.06030434 0.20122635 -0.040863026 -0.014892788
-0.02165256 -0.123823896 -0.061745282 0.03474235 0.059932694 -0.048103787 0.04368072 -0.041584305
-0.07118079 0.10739328 0.015834864 0.00425057 -0.007471612 -0.1272588 0.037019018 0.020387128
-0.029203508 0.034018666 -0.07580266 0.041745402 0.0012091991 -0.05695567 0.064319305 0.017314686
-0.0008223383 0.099800706 -0.16387984 0.050748803 0.0576769 -0.19221173 -0.09597642 0.08035265
-0.18665542 0.017101694 0.019482275 -0.04185129 -0.13314623 -0.06506853 -0.0268945 -0.10206916
-0.03385795 0.109274894 0.05789802 -0.05590663 -0.12803437 -0.08251613 0.032959975 -0.10329434
0.011781984 0.12287535 -0.14886062 -0.116562806 0.024542727 0.055343185 -0.035396047 -0.036546502
0.0630234 -0.09201209 0.0827685 0.029872444 0.072847016 0.034957673 -0.17978843 0.066993594
0.08324282 -0.115167804 0.009916752 0.022922657 -0.19009662 0.0011862093 0.121699594 -0.021577256
0.036824342 0.037527774 -0.06329023 -0.04078109 0.04659181 -0.027009599 -0.057118267 -0.09931804
0.057448946 -0.04603839 0.0069729257 0.12989156 -0.0030711773 0.24854632 0.25426406 0.16208836
0.07886181 -0.033913065 -0.08769028 0.037874013 0.0989684 -0.0992857 0.0502631 0.059480913
0.016906984 -0.01310931 -0.1179535 -0.13592774 0.06604481 -0.12375675 -0.28539923 0.14377345
0.23845789 0.10622292 0.010074552 -0.13662156 -0.11963867 -0.003127685 -0.15960076 -0.16288893
0.11902368 0.046615567 -0.03637368 -0.033559695 0.07885861 -0.1140043 0.04829775 0.07612538
-0.0024122773 -0.010035025 0.16937149 0.101431325 0.057928987 -0.05913105 0.041739292 -0.0070407493
00000000: 8587 bd3c 9b31 573d 11b1 ab3c 50db acbc
00000010: 9c5d 5ebd 86a4 f3bc da1a d83c 341f 063d
00000020: 8fef 973d 72bd 91be 6588 4ebb 2f27 fdbd
00000030: de1c 5e3c a9b0 593d 071c 58be 283f 4e3e
00000040: 6f80 d83c 36c2 06be ff72 d4bc 1d04 afbd
00000050: ec80 df3c 87d9 e53d 080d 613d 9ddb b6bd
00000060: d7e8 7bbd cc1e 343d c6ea a23d c166 3abd
00000070: 300f 7e3d aeaf ac3a 536c 24be 839e 0ebb
00000080: f114 53bd c628 14be 8165 493d ea85 ddbd
00000090: e95b 1fbd b139 163d 8ce5 e93c 9c6d ad3a
000000a0: b0df f4bc dd28 b83d 4418 b93d f141 9b3c
000000b0: 3ff4 b63c 657f 3ebe d8fb c13b 03bc f0bd
000000c0: 4e95 5ebd bebb f83c 01e0 a0bd 6f52 9a3e
000000d0: a541 72bd 4926 5bbd c417 d8bb 5282 1cbd
000000e0: 0f0b 0e3d cd77 7abd 4e11 04bd 5b51 63bd
000000f0: ce23 83bd 5f6b 09be 3f1f 3d3b ddde 313b
00000100: aff4 2cbe a7b7 323e f22f 0d3e 06ec f8bc
00000110: 0ddb 1e3e 99f6 b73e 138a 4c3e 6851 c33e
00000120: 452c f63d e89d 9cbd a8ed 393d 8ede efbc
00000130: 6f5f 333c 64cb 223d eb93 723d bcc6 853d
00000140: 5bde a2bc 1e46 34be 6fad b8bd 97ab d73d
00000150: 434d c0bd 2325 72bc fd41 893c d971 f93d
00000160: e176 03bc ad45 993e 2661 98bc f0c9 303c
00000170: 262e febd 7d9f 8fbc 6bd9 1ebd b8cf 9abd
00000180: fc82 673e bbc4 073e e0a9 8fbd 4983 843c
00000190: 89c2 bbbb 0aef 533e 6d68 1fbd 2a31 f33c
000001a0: ce4e 5a3e 6c1a 92bd 00e5 06bd d52c 8f3e
000001b0: 8bbd bfbd f3ef 27bd 7afa 063b 3e70 2bbd
000001c0: c1a4 3ebb 4f69 d03c e83f 9c3d c236 31bd
000001d0: b392 ed3c 7edd 3dbc d673 a3bb 8ee3 503e
000001e0: c7a2 963c 6a78 debc a1ad 553d 8d44 3b3d
000001f0: af01 773d 480e 4e3e fd5f 27bd e100 74bc
00000200: b660 b1bc 6297 fdbd 9fe8 7cbd ff4d 0e3d
00000210: fc7b 753d 7a08 45bd 8eea 323d 4e54 2abd
00000220: 3cc7 91bd 02f1 db3d 1eb8 813c 5e48 8b3b
00000230: 6dd4 f4bb 2250 02be 41a1 173d e802 a73c
00000240: 323c efbc 2857 0b3d 6d3e 9bbd 3afd 2a3d
00000250: fd7d 9e3a 594a 69bd d7b9 833d 87d7 8d3c
00000260: 3092 57ba 5064 cc3d 1ed0 27be fadd 4f3d
00000270: 9d3e 6c3d 27d3 44be 498f c4bd ee8f a43d
00000280: 9922 3fbe da18 8c3c 4b99 9f3c 426c 2bbd
00000290: 7c57 08be a642 85bd db51 dcbc a309 d1bd
000002a0: a2ae 0abd 84cb df3d 7926 6d3d 5afe 64bd
000002b0: 711b 03be 37fe a8bd 0a01 073d fc8b d3bd
000002c0: 3909 413c 12a6 fb3d eb6e 18be 7bb8 eebd
000002d0: d40d c93c 89af 623d 72fb 10bd c9b1 15bd
000002e0: 6a12 813d d670 bcbd 8882 a93d 0eb7 f43c
000002f0: d130 953d c72f 0f3d 751a 38be f033 893d
00000300: 367b aa3d 19dd ebbd df79 223c 4cc8 bb3c
00000310: b0a8 42be 947a 9b3a a33d f93d c9c2 b0bc
00000320: 1fd5 163d b9b6 193d 4f9e 81bd 120a 27bd
00000330: 0ed7 3e3d 3c43 ddbc d8f4 69bd 4267 cbbd
00000340: 964f 6b3d c092 3cbd 247d e43b 4b02 053e
00000350: ce45 49bb ed82 7e3e e62e 823e 7efa 253e
00000360: 4d82 a13d 6de8 0abd f696 b3bd c821 1b3d
00000370: f2af ca3d 4d56 cbbd aee0 4d3d 42a2 733d
00000380: 8480 8a3c 6ec8 56bc 9b91 f1bd a430 0bbe
00000390: 8042 873d 2e74 fdbd d91f 92be 5939 133e
000003a0: 4e2e 743e 678b d93d bc0f 253c 86e6 0bbe
000003b0: 1e05 f5bd d9f9 4cbb 626e 23be 5bcc 26be
000003c0: b0c2 f33d f7ef 3e3d 91fc 14bd e475 09bd
000003d0: 9f80 a13d 167b e9bd ddd3 453d a0e7 9b3d
000003e0: 4c17 1ebb f269 24bc b86f 2d3e 3abb cf3d
000003f0: f246 6d3d 6633 72bd d2f6 2a3d 16b6 e6bb

state_cnn.1.0.bias f4 [32]
-0.015853759 0.0326275 0.024894152 0.03202919 -0.012198678 -0.013537881 -0.083932675 -0.06912269
0.04855689 -0.04301838 0.050738495 0.0105143795 -0.07002413 0.0528597 -0.072256215 0.039420746
0.03471835 -0.034453817 -0.08851995 -0.009660051 0.023872754 -0.03406233 0.052836798 0.005907901
-0.07349907 -0.040379617 -0.09348458 0.0005121999 0.06484855 -0.027695324 0.08837166 -0.01163655
00000000: bedf 81bc 6aa4 053d d2ee cb3c 0a31 033d
00000010: f7dc 47bc fdcd 5dbc e5e4 abbd 3290 8dbd
00000020: 97e3 463d 0a34 30bd 2bd3 4f3d 8144 2c3c
00000030: d068 8fbd 6a83 583d 11fb 93bd a677 213d
00000040: d434 0e3d 721f 0dbd f349 b5bd 3145 1ebc
00000050: cb90 c33c f184 0bbd 666b 583d 1197 c13b
00000060: ae86 96bd 1965 25bd d874 bfbd 2745 063a
00000070: 51cf 843d 4ee1 e2bc 33fc b43d 3aa7 3ebc

button_cnn.0.0.weight f4 [8, 1, 3, 3]
0.08094908 -0.12129886 0.039857935 -0.1209469 0.011568522 0.4810126 0.08664526 -0.32208017
0.4052723 0.051331844 -0.034724608 -0.022966404 0.2251026 0.13061607 -0.27568126 -0.16951329
0.36321166 0.55126345 -0.20165366 -0.0027606813 0.31417495 -0.06088986 0.4986818 0.1424995
0.085312955 0.08742151 -0.2575031 -0.17228715 -0.28951463 0.2580781 0.38268676 -0.25379092
0.40652636 -0.39606273 0.2778517 0.27690384 -0.13418694 0.02678593 -0.20798202 0.07634772
0.022486696 -0.36548808 0.4620875 0.053206097 -0.27259505 -0.094790675 0.09535216 0.28419
0.40129784 -0.18636231 -0.00032805817 0.18750693 0.25562957 -0.09534356 0.22982502 0.20889908
-0.11199629 -0.033008177 0.32348096 0.013467001 0.14003427 0.2885005 -0.3527471 0.07815893
-0.3329479 0.15750098 -0.021057718 0.018104944 0.121995576 0.3070538 0.3358718 0.10479607
00000000: a2c8 a53d 896b f8bd 1342 233d 02b3 f7bd
00000010: e689 3d3c 4947 f63e 1273 b13d b1e7 a4be
00000020: da7f cf3e 5741 523d 643b 0ebd 0a24 bcbc
00000030: 4c81 663e 38c0 053e 1826 8dbe e494 2dbe
00000040: e1f6 b93e 9a1f 0d3f 4c7e 4ebe 8cec 34bb
00000050: 8adb a03e a567 79bd 3953 ff3e 64eb 113e
00000060: 8fb8 ae3d 0c0a b33d 72d7 83be 0b6c 30be
00000070: 433b 94be d022 843e 85ef c33e e2f0 81be
00000080: 3924 d03e bcc8 cabe 9442 8e3e 57c6 8d3e
00000090: 4d68 09be 2b6e db3c 3df9 54be 325c 9c3d
000000a0: 0536 b83c 4121 bbbe bc96 ec3e a3ee 593d
000000b0: 9491 8bbe 9d21 c2bd fe47 c33d 5a81 913e
000000c0: e976 cd3e c3d5 3ebe 39ff abb9 d101 403e
000000d0: e1e1 823e 7c43 c3bd 4057 6b3e a4e9 553e
000000e0: 505e e5bd 9533 07bd 4c9f a53e b2a4 5c3c
000000f0: 2565 0f3e 56b6 933e 459b b4be ca11 a03d
00000100: 2678 aabe f047 213e 3c81 acbc d250 943c
00000110: d1d8 f93d 2836 9d3e 63f7 ab3e 529f d63d

button_cnn.0.0.bias f4 [8]
0.01265226 -0.14114113 -0.130091 0.18346187 -0.13683555 0.0005511613 0.00449163 0.17753929
00000000: 6d4b 4f3c 4d87 10be 9336 05be 6edd 3b3e
00000010: 9e1e 0cbe cf7b 103a 862e 933b dccc 353e

button_cnn.1.0.weight f4 [16, 8, 3, 3]
0.13026932 0.050782565 0.092779905 -0.016137287 -0.07540122 -0.045574017 0.052175935 -0.03270392
-0.056560278 -0.10922441 0.0038382031 0.22037673 -0.15386961 -0.0049806996 -0.3310179 0.0738356
-0.0046564313 -0.105183765 -0.010719853 -0.054238424 0.08773144 -0.055258717 0.16271517 -0.2041884
-0.032882378 -0.09990097 -0.23529553 0.108832784 -0.04018603 0.022594517 -0.032189794 0.08026824
-0.026234822 0.14511766 -0.11821753 -0.052043352 0.041129716 -0.006568113 0.02803375 0.0493815
-0.08305673 0.09519865 0.21079473 -0.0769131 0.15550764 0.09215244 -0.08136485 0.13025014
0.08827051 0.08403068 0.1448894 0.05013873 -0.044987816 -0.052159652 -0.07489495 0.11088654
0.035543457 0.11855796 0.14109723 -0.07940069 0.05720291 0.0448524 -0.16077174 -0.04347346
0.0044198465 0.17495432 0.108777 -0.109758094 0.14521833 -0.05370416 -0.108189926 -0.10360313
-0.15390193 -0.035906866 -0.04128538 -0.05443697 0.017940052 0.070076816 -0.2349193 0.055314943
0.16574155 -0.04823172 0.06881959 0.07849845 -0.110235065 0.11068815 0.06858213 -0.23982477
0.0019012459 0.0925267 0.07905386 0.046022374 0.030618545 -0.04622232 0.1533545 0.0137660345
-0.10634103 0.17324544 0.12920457 0.038046226 0.05048231 0.10103878 -0.07819928 -0.0015199743
0.1413048 -0.136459 0.08542082 -0.057590727 0.035032324 0.023362568 0.10585282 -0.12622091
-0.22010379 0.22038288 -0.17466384 -0.35991672 0.15172851 -0.009649656 -0.045649756 0.07080597
-0.08551692 0.09261449 0.15580252 -0.201927 -0.052342843 0.0625744 0.04175408 -0.08105316
0.056921024 -0.103064016 0.059823878 0.029629149 -0.23491813 -0.045430325 0.0666508 0.029218417
0.09803736 -0.04988717 -0.030969743 -0.056210212 -0.0063113505 -0.09529508 -0.02036113 0.03149116
0.014713926 -0.039381444 -0.04724599 -0.08675231 -0.058610756 -0.07036533 0.024822049 -0.08620051
0.09310681 -0.32714835 0.11691627 -0.026400698 -0.15792638 0.03411897 0.025189023 -0.057914518
-0.12305616 0.15967967 0.07381452 0.042935297 -0.00611028 -0.009510845 -0.045297965 -0.0710318
-0.15201765 0.14202657 0.095195204 -0.07540109 0.0014347419 -0.03662013 -0.042158935 0.12227942
0.041747455 -0.016857494 -0.059642483 -0.091155164 -0.1856339 -0.059062697 -0.10320337 -0.020589586
-0.17242004 0.07228943 -0.22473583 0.108070776 0.13118085 0.08411161 0.10464161 -0.10695159
-0.042929906 -0.09633976 -0.090512566 -0.23626904 0.14322633 0.0077582505 -0.12538093 0.048935886
0.040894486 0.06392816 -0.12213761 0.018747471 -0.059894614 0.07874185 0.116444744 -0.039913505
0.10681315 0.057308633 0.07406386 -0.037088305 -0.14176206 -0.044153146 0.03574417 0.12108753
-0.11293876 -0.1698908 0.10177696 -0.11917883 -0.07941612 0.04524319 0.06660505 -0.10158987
0.12278806 -0.11369756 -0.1370675 0.085979365 -0.10568229 -0.15137571 0.05750853 0.028341873
-0.21217415 -0.16642429 -0.035345055 -0.17892364 0.07506526 0.00944999 -0.04118307 0.019140376
-0.07521863 0.002523811 -0.059935503 -0.025016349 0.030824818 0.012629868 -0.07155212 -0.138275
0.06894914 0.12877336 -0.051828884 -0.033282038 -0.080861285 -0.1450665 -0.20838483 -0.010096912
00000000: 5265 053e 6101 503d 6403 be3d 5832 84bc
00000010: f46b 9abd d2ab 3abd 6fb6 553d 8cf4 05bd
00000020: c0ab 67bd 0cb1 dfbd 5d8a 7b3b 70aa 613e
00000030: ff8f 1dbe 2335 a3bb 2e7b a9be 1e37 973d
00000040: fa94 98bb 966a d7bd 53a2 2fbc 1c29 5ebd
00000050: 8bac b33d f756 62bd ce9e 263e c416 51be
00000060: acaf 06bd e198 ccbd 50f1 70be b9e3 de3d
00000070: 1b9a 24bd 2318 b93c 72d9 03bd ad63 a43d
00000080: 69ea d6bc b999 143e 081c f2bd 692b 55bd
00000090: a277 283d 5339 d7bb 09a7 e53c 4144 4a3d
000000a0: a619 aabd 83f7 c23d 93da 573e 9e84 9dbd
000000b0: 653d 1f3e 6bba bc3d 9da2 a6bd 4b60 053e
000000c0: 2bc7 b43d 4718 ac3d e35d 143e 455e 4d3d
000000d0: 2545 38bd 5ca5 55bd 8662 99bd 7b18 e33d
000000e0: 0496 113d 84ce f23d cb7b 103e d49c a2bd
000000f0: 994d 6a3d 26b7 373d 59a1 24be 3a11 32bd
00000100: 5cd4 903b 3a27 333e 7ac6 de3d dac8 e0bd
00000110: 1db4 143e e5f8 5bbd ae92 ddbd e12d d4bd
00000120: 7898 1dbe 1413 13bd dc1a 29bd 4df9 5ebd
00000130: 04f7 923c 6f84 8f3d af8e 70be ec91 623d
00000140: 27b8 293e a08e 45bd 49f1 8c3d ccc3 a03d
00000150: ecc2 e1bd 78b0 e23d ca74 8c3d a094 75be
00000160: 3a33 f93a a37e bd3d fde6 a13d f581 3c3d
00000170: bed3 fa3c 9e53 3dbd f608 1d3e ef8a 613c
00000180: 53c9 d9bd 4167 313e 344e 043e 5cd6 1b3d
00000190: 8ac6 4e3d 6bed ce3d f226 a0bd e039 c7ba
000001a0: 35b2 103e e8bb 0bbe 1cf1 ae3d 41e4 6bbd
000001b0: 0e7e 0f3d db62 bf3c 5dc9 d83d 0e40 01be
000001c0: e362 61be 0dac 613e 14db 32be 0147 b8be
000001d0: b85e 1b3e 9719 1ebc 3dfb 3abd b802 913d
000001e0: 7f23 afbd aaac bd3d b28a 1f3e f4c5 4ebe
000001f0: 7365 56bd 0227 803d 5406 2b3d 33ff a5bd
00000200: 0526 693d 3a13 d3bd e209 753d d4b8 f23c
00000210: 618e 70be 2615 3abd 3780 883d 765b ef3c
00000220: d0c7 c83d 7d56 4cbd 42b4 fdbc ae3c 66bd
00000230: 72cf cebb 112a c3bd 62cc a6bc e0fc 003d
00000240: ae12 713c 704e 21bd 0385 41bd 32ab b1bd
00000250: d511 70bd b31b 90bd 9c57 cb3c e589 b0bd
00000260: c8ae be3d fd7f a7be cc71 ef3d 4746 d8bc
00000270: 74b7 21be 55c0 0b3d 3659 ce3c c637 6dbd
00000280: de04 fcbd 1183 233e 112c 973d ecdc 2f3d
00000290: be38 c8bb 60d3 1bbc 5c8a 39bd 1f79 91bd
000002a0: 84aa 1bbe 6a6f 113e b4f5 c23d e36b 9abd
000002b0: f30d bc3a fdfe 15bd d9ae 2cbd a26d fa3d
000002c0: 61ff 2a3d ba18 8abc ad4b 74bd 8faf babd
000002d0: d016 3ebe baeb 71bd 4a5c d3bd 7eab a8bc
000002e0: e18e 30be 7b0c 943d 2621 66be 3654 dd3d
000002f0: 4654 063e b542 ac3d 574e d63d 6f09 dbbd
00000300: 45d7 2fbd c84d c5bd a75e b9bd 83f0 71be
00000310: eca9 123e ec38 fe3b dc63 00be ff70 483d
00000320: fa80 273d c4ec 823d 4923 fabd 4c94 993c
00000330: 0e54 75bd 6843 a13d 957a ee3d 587c 23bd
00000340: dac0 da3d 75bc 6a3d cbae 973d e8e9 17bd
00000350: 132a 11be eed9 34bd 7b68 123d bdfc f73d
00000360: 704c e7bd dbf7 2dbe 7070 d03d 0814 f4bd
00000370: eba4 a2bd ec50 393d 3a68 883d 5a0e d0bd
00000380: 4e78 fb3d 44da e8bd 6c5b 0cbe f315 b03d
00000390: f56f d8bd 3c02 1bbe 108e 6b3d 372d e83c
000003a0: 2e44 59be 216b 2abe fac5 10bd c237 37be
000003b0: d1bb 993d 21d4 1a3c 94af 28bd 47cc 9c3c
000003c0: 3a0c 9abd 8666 253b ee7e 75bd 16ef ccbc
000003d0: 5484 fc3c 82ed 4e3c eb89 92bd f697 0dbe
000003e0: 3535 8d3d 2add 033e 864a 54bd bf52 08bd
000003f0: 9a9a a5bd 508c 14be d562 55be 856d 25bc

button_cnn.1.0.bias f4 [16]
-0.13470924 0.085069366 0.051903587 0.065303735 0.045484796 0.030162413 0.08468251 0.02328161
0.19025473 -0.023831997 0.06481307 0.013660661 0.048334632 -0.09547566 -0.096352726 -0.024350028
00000000: 38f1 09be d938 ae3d db98 543d f7bd 853d
00000010: 444e 3a3d 2a17 f73c 066e ad3d 13b9 be3c
00000020: 23d2 423e 523b c3bc b7bc 843d f7d0 5f3c
00000030: 89fa 453d be88 c3bd 9454 c5bd b679 c7bc

fc.0.weight f4 [256, 240]
0.078371644 -0.030845081 -0.03836933 -0.081931986 -0.092514604 -0.08761127 0.008017076 -0.009315495
-0.09609539 0.0045628813 -0.032895725 -0.06340854 0.045108553 0.0065067736 -0.016723562 -0.033016346
-0.063918985 -0.109160155 0.006860649 -0.085950494 -0.0691697 -0.0001585458 -0.06267399 -0.012225165
-0.008571317 0.044667635 -0.066504024 -0.028640892 0.05870355 -0.008980507 0.018333146 0.016823692
-0.07660241 0.052220356 -0.05627168 -0.06694628 -0.08866481 -0.084415555 -0.12370376 0.0114779705
0.0034824172 -0.009832903 -0.07065687 -0.03839089 -0.07027326 -0.0002885025 -0.0490141 0.0123749245
-0.010826619 0.038491737 -0.033189155 0.023113089 -0.011036537 0.007046494 -0.04584051 -0.04737311
-0.024091266 -0.05793107 0.0521166 -0.044614498 0.0682139 0.16903786 0.19418871 0.004819974
-0.091976196 -0.0817272 -0.069440044 0.0114964 -0.05187726 0.026392072 -0.034449402 -0.07254183
0.04806008 -0.016902076 0.008964939 0.051197506 -0.032745045 0.037588764 0.013137494 -0.0016916593
0.00927256 0.0079524815 -0.067276 -0.12543078 0.031174326 0.02005039 -0.03484043 -0.020044887
0.020323392 -0.03459482 -0.009902593 0.06738292 -0.02797164 0.055797897 0.060310394 -0.037838038
-0.044395644 -0.008377518 0.0020814734 0.019440066 0.004582735 0.044472445 -0.03099092 0.048863817
0.09837136 -0.022386527 0.05424342 0.020095486 0.073867165 0.11294324 -0.032656543 -0.011904848
0.1594237 0.020526504 0.009397729 0.116058916 0.046072867 -0.018726006 0.015456163 0.0137905665
0.016627949 0.076571465 0.03208503 -0.019686515 -0.017110499 -0.021573892 0.114356846 -0.017132428
0.030146686 0.025497694 0.010698436 0.07088544 -0.031321686 -0.027002 0.10917034 -5.6631252e-05
0.069375426 0.004142825 0.039118417 0.048645426 0.12655213 -0.011777694 -0.047539514 0.097623765
-0.0016289914 -0.054259345 0.054365404 -0.026533289 -0.042464383 0.05799895 -0.07816193 0.03545144
-0.005587651 -0.09256877 0.058902554 0.10001087 0.008112967 0.006008954 0.055431362 0.024188785
0.019540165 0.07461316 0.0030651682 0.06356756 0.021727178 0.05437552 0.06020329 0.10201777
0.13133872 0.0048293574 -0.009176148 0.11339376 0.022883985 -0.039972816 0.11770529 -0.052487478
0.10023831 -0.017416846 0.096358575 0.07676642 0.043585364 -0.00693758 0.0054486515 0.025357287
0.01823393 0.11565297 0.051669452 0.06084885 0.10165084 0.03381524 0.003490253 0.09749681
-0.014481793 -0.032982673 0.05690889 -0.001724382 0.027627675 0.0424979 -0.02006031 0.033864755
-0.06749233 0.048925966 0.24137364 -0.052977912 0.07694469 -0.050762173 0.06605806 0.013048924
0.10090264 -0.011115263 -0.08901556 0.0025741 0.13719092 -0.035751577 0.07266257 0.0033724501
-0.07066384 0.06488059 -0.0012037944 0.015182717 0.024722219 0.08174333 0.032726 0.06913284
0.0530765 -0.050008915 0.08396624 -0.039173804 0.020910386 0.08967623 -0.11215544 0.0154818045
0.09394463 0.056226235 0.017315783 0.068324454 -0.034328084 0.026217861 0.10353683 -0.053713363
-0.02456052 0.049394455 0.010196718 -0.04590037 -0.048715834 0.0070863706 0.020552235 -0.019092198
-0.050784137 0.057715654 0.055596285 -0.06715139 0.013388062 -0.039177585 0.051407274 -0.045544
00000000: 5081 a03d d3ae fcbc 2929 1dbd f5cb a7bd
00000010: 4c78 bdbd 8a6d b3bd 0e5a 033c 05a0 18bc
00000020: a9cd c4bd 3984 953b abbd 06bd 56dc 81bd
00000030: bfc3 383d c636 d53b daff 88bc 263c 07bd
00000040: f5e7 82bd 5c8f dfbd 4ccf e03b d006 b0bd
00000050: d8a8 8dbd 503f 26b9 395b 80bd 0f4c 48bc
00000060: b66e 0cbc 69f5 363d 4333 88bd 4ea0 eabc
00000070: 2273 703d fa22 13bc 652f 963c d7d1 893c
00000080: b9e1 9cbd 03e5 553d 227d 66bd 221b 89bd
00000090: e595 b5bd 10e2 acbd 6658 fdbd 190e 3c3c
000000a0: 4439 643b 2f1a 21bc 8db4 90bd c43f 1dbd
000000b0: 6deb 8fbd 2642 97b9 02c3 48bd 32c0 4a3c
000000c0: 2262 31bc 83a9 1d3d 5af1 07bd a957 bd3c
000000d0: 97d2 34bc 47e6 e63b 42c3 3bbd 4e0a 42bd
000000e0: 0c5b c5bc 2149 6dbd 3778 553d b1bd 36bd
000000f0: bbb3 8b3d 4318 2d3e 68d9 463e dff0 9d3b
00000100: 045e bcbd 9760 a7bd 9536 8ebd 665b 3c3c
00000110: 407d 54bd 3034 d83c d11a 0dbd d090 94bd
00000120: a5da 443d 3976 8abc aee1 123c 7ab4 513d
00000130: ab1f 06bd adf6 193d a53e 573c abba ddba
00000140: efeb 173c 204b 023c 00c8 89bd ed70 00be
00000150: 4d61 ff3c b740 a43c d7b4 0ebd 2d35 a4bc
00000160: 3e7d a63c 4cb3 0dbd 7c3e 22bc 0e00 8a3d
00000170: c824 e5bc 568c 643d 0808 773d 0ffc 1abd
00000180: 35d8 35bd db41 09bc 5469 083b c640 9f3c
00000190: c42a 963b bd28 363d abe0 fdbc 6d25 483d
000001a0: ec76 c93d f363 b7bc 592e 5e3d 4a9f a43c
000001b0: ab47 973d c94e e73d dec2 05bd 8d0c 43bc
000001c0: f73f 233e 3327 a83c eff8 193c 4cb0 ed3d
000001d0: e7b6 3c3d 4867 99bc d93b 7d3c d4f1 613c
000001e0: 5637 883c 80d1 9c3d 986b 033d 9d45 a1bc
000001f0: 512b 8cbc bbbb b0bc ec33 ea3d 4e59 8cbc
00000200: 2ff6 f63c 8ae0 d03c 7e48 2f3c 632c 913d
00000210: 2b4b 00bd 4c33 ddbc b394 df3d 5887 6db8
00000220: b414 8e3d 89c0 873b a23a 203d 6d40 473d
00000230: e296 013e 3bf7 40bc cbb8 42bd f8ee c73d
00000240: e283 d5ba 0c3f 5ebd 42ae 5e3d 575c d9bc
00000250: 22ef 2dbd 4f90 6d3d 5d13 a0bd 8735 113d
00000260: 9d18 b7bb b294 bdbd ce43 713d 80d2 cc3d
00000270: 40ec 043c c2e6 c43b ff0b 633d 8f27 c63c
00000280: b212 a03c c9ce 983d fde0 483b b52f 823d
00000290: 32fd b13c deb8 5e3d ba97 763d b1ee d03d
000002a0: a87d 063e 963f 9e3b 8e57 16bc fd3a e83d
000002b0: 3277 bb3c 89ba 23bd 790f f13d 1cfd 56bd
000002c0: be49 cd3d c6ad 8ebc a557 c53d b637 9d3d
000002d0: 9186 323d a454 e3bb 9a8a b23b 16ba cf3c
000002e0: 535f 953c 77db ec3d 59a3 533d a53c 793d
000002f0: 512e d03d d981 0a3d babc 643b 68ac c73d
00000300: 0b45 6dbc d718 07bd 4c19 693d a904 e2ba
00000310: 6f53 e23c 4712 2e3d 8555 a4bc c5b5 0a3d
00000320: 6b39 8abd 9866 483d a72a 773e 5eff 58bd
00000330: 2d95 9d3d ffeb 4fbd 7349 873d 27cb 553c
00000340: 0ba6 ce3d cb1c 36bc ca4d b6bd 3bb2 283b
00000350: c77b 0c3e 3f70 12bd 1dd0 943d 5304 5d3b
00000360: 34b8 90bd 1de0 843d a3c8 9dba eec0 783c
00000370: 4086 ca3c 0c69 a73d b30b 063d 8595 8d3d
00000380: be66 593d 26d6 4cbd 7ef6 ab3d b674 20bd
00000390: 424c ab3c 2ca8 b73d c0b1 e5bd 65a7 7d3c
000003a0: 0b66 c03d 7b4d 663d d4d9 8d3c b1ed 8b3d
000003b0: 9b9b 0cbd d7c6 d63c 1e0b d43d 8b02 5cbd
000003c0: 2533 c9bc d751 4a3d 2310 273c 0702 3cbd
000003d0: 418a 47bd c934 e83b 295d a83c 3e67 9cbc
000003e0: 0703 50bd 4067 6c3d eeb8 633d ab86 89bd
000003f0: 9a59 5b3c ad78 20bd 6f90 523d 588c 3abd

fc.0.bias f4 [256]
0.014647334 -0.06470488 0.014457565 0.038751688 -0.03726946 -0.04364336 -0.0107211 -0.026644114
-0.018107878 -0.046469275 -0.07093997 0.032264102 -0.01226108 -0.044536147 0.027102498 -0.022989059
-0.04810727 0.028743662 -0.04548829 -0.0016149761 0.02748384 0.04361986 -0.057567246 -0.010010928
-0.04126584 -0.013026717 0.04716598 0.003120638 0.009024814 0.031856116 0.07010984 -0.0152129065
0.05917822 -0.050102398 -0.059513427 -0.09075768 -0.06796928 -0.034660816 0.025923077 0.058861673
0.0619513 -0.032253914 -0.0056407964 0.059191603 0.0020752554 -0.0053076055 -0.0511522 -0.0052193557
-0.05795504 0.050243635 0.025320569 -0.08145596 -0.014096855 0.057733305 0.048221298 0.06855843
-3.2499724e-05 0.04483829 -0.011157557 -0.028115766 -0.029713824 -0.0030910363 -0.041442838 0.024952672
0.011212906 -0.057554625 -0.04467868 -0.008302585 -0.031152 0.048893053 -0.025208654 0.048686486
-0.03821884 -0.07293843 0.054708615 -0.06425554 0.0028039343 -0.03403487 -0.032464888 0.0065925936
-0.026094025 0.050944246 -0.061377477 -0.026087675 -0.05940039 -0.04764247 0.07105552 -0.05552469
-0.011685245 -0.06331453 -0.047457222 0.08822818 0.021565558 0.016276473 -0.025788281 -0.06363016
0.038369607 -0.00096226326 0.020648453 0.026589846 -0.0100625185 -0.07256625 -0.0053015403 0.045779232
-0.0057200263 0.035423804 0.07459051 0.03183513 -0.028921714 -0.012715808 0.07189254 0.045959707
-0.0017608196 0.033654984 -0.06288723 -0.03667772 0.002243545 0.0797925 -0.07010651 0.022368344
0.04718536 -0.04629411 -0.0008939293 0.021363694 -0.01090925 0.016000098 -0.03943063 0.027976071
0.02118678 -0.033409115 0.0060948436 -0.030944763 -0.047603693 -0.023846515 0.05622749 -0.042686928
0.0839382 -0.08258981 0.005405887 -0.040176727 -0.009406318 0.042241693 -0.0049897786 0.015288065
0.0758784 0.058215864 -0.001010643 0.06529124 -0.04853559 -0.023317026 0.0058169453 0.068708375
0.002517185 -0.016050609 0.08398869 -0.036839753 0.04939788 0.032586325 -0.03000291 0.074488156
0.031155722 0.06839038 -0.03873653 0.011845683 0.03354552 -0.0019597495 0.028888822 -0.0061587826
-0.0331226 0.041341312 -0.003171281 -0.004807769 -0.06860515 0.0064125825 0.05617504 0.012232759
0.045050364 0.005331853 0.00411538 0.025478754 0.010637936 0.032738335 -0.057478964 -0.065534785
-0.018995827 0.0036880951 0.067868344 -0.040908046 -0.0023341135 -0.014665145 -0.06412564 -0.068766266
-0.009096374 0.049427748 0.029944642 0.018647095 0.0139107155 0.041066043 -0.015934056 0.0010226535
0.030127821 0.023306541 -0.039492205 -0.018275898 0.03875296 0.025022808 0.013971387 -0.047834065
-0.001204328 0.023119207 0.033417847 -0.0043383255 -0.048821926 -0.056607164 0.0007118053 0.07066859
-0.065457575 0.011907244 -0.001169242 -0.0029884167 0.013391736 -0.06174628 -0.007214592 -0.048637826
0.035658043 0.010258299 0.032596614 -0.055912342 -0.046686206 -0.023068948 -0.05104139 -0.045972202
0.057905186 0.003741189 -0.0060847285 -0.007867321 0.069700114 -0.028997816 -0.044114664 -0.011144746
0.0407897 0.061427105 -0.036466233 0.024135295 -0.042629402 -0.028651308 -0.031517677 -0.02019529
0.044753592 0.040674206 -0.03160546 0.029626312 0.022600424 0.01585219 0.017173804 -0.06725713
00000000: 5ffb 6f3c fe83 84bd 6cdf 6c3c 17ba 1e3d
00000010: dca7 18bd 61c3 32bd 8da7 2fbc c244 dabc
00000020: f956 94bc 9156 3ebd fa48 91bd 5d27 043d
00000030: b2e2 48bc 896b 36bd 0f06 de3c 8d53 bcbc
00000040: 210c 45bd d477 eb3c ee51 3abd 9bad d3ba
00000050: ca25 e13c bdaa 323d a2cb 6bbd e004 24bc
00000060: 5f06 29bd 036e 55bc 1d31 413d 9e83 4c3b
00000070: d0dc 133c 8f7b 023d bf95 8f3d 8e3f 79bc
00000080: dc64 723d 2c38 4dbd 5ac4 73bd 2adf b9bd
00000090: 7a33 8bbd 80f8 0dbd a25c d43c f018 713d
000000a0: a5c0 7d3d ae1c 04bd 6ed6 b8bb e572 723d
000000b0: 0201 083b 6ceb adbb f884 51bd 2107 abbb
000000c0: 4462 6dbd 45cc 4d3d 156d cf3c 62d2 a6bd
000000d0: 7ff6 66bc c279 6c3d b283 453d 5d68 8c3d
000000e0: 5050 08b8 5ba8 373d 30ce 36bc 0953 e6bc
000000f0: 686a f3bc fc92 4abb f7bf 29bd 8c69 cc3c
00000100: 56b6 373c 66be 6bbd fe00 37bd 9107 08bc
00000110: 7b32 ffbc 1544 483d 6182 cebc 7b6b 473d
00000120: 5c8b 1cbd be60 95bd 2416 603d 6998 83bd
00000130: 36c2 373b 2668 0bbd e7f9 04bd af06 d83b
00000140: 23c3 d5bc eaaa 503d f366 7bbd d2b5 d5bc
00000150: d34d 73bd c024 43bd 8e85 913d db6d 63bd
00000160: 7873 3fbc 0cab 81bd 8162 42bd fab0 b43d
00000170: 41aa b03c 3d56 853c f241 d3bc 8850 82bd
00000180: 7329 1d3d 6540 7cba f226 a93c f3d2 d93c
00000190: 43dd 24bc 9d9d 94bd 8bb8 adbb 0183 3b3d
000001a0: 0f6f bbbb 8d18 113d e9c2 983d 8e65 023d
000001b0: 3bed ecbc f755 50bc 653c 933d 3f40 3c3d
000001c0: 4dcb e6ba cfd9 093d 05cb 80bd 603b 16bd
000001d0: 7008 133b 406a a33d 0094 8fbd d13d b73c
000001e0: 7045 413d e59e 3dbd 9456 6aba ea02 af3c
000001f0: b6bc 32bc a312 833c 0382 21bd 132e e53c
00000200: e68f ad3c ffd7 08bd 41b7 c73b df7f fdbc
00000210: 17fc 42bd c459 c3bc cc4e 663d 7dd8 2ebd
00000220: cae7 ab3d d924 a9bd de23 b13b 5a90 24bd
00000230: f51c 1abc a005 2d3d 4c81 a3bb cb7a 7a3c
00000240: 2266 9b3d c273 6e3d 8d77 84ba 6ab7 853d
00000250: 41cd 46bd 5903 bfbc 139c be3b fab6 8c3d
00000260: 5bf7 243b 917c 83bc 4302 ac3d 48e5 16bd
00000270: 6e55 4a3d 3d79 053d aac8 f5bc 3f8d 983d
00000280: 493a ff3c 4110 8c3d 32aa 1ebd 6514 423c
00000290: 0767 093d 246f 00bb 40a8 ec3c 9dcf c9bb
000002a0: 90ab 07bd 8255 293d 44d5 4fbb 7d8a 9dbb
000002b0: db80 8cbd a420 d23b cc17 663d e96b 483c
000002c0: bb86 383d d3b6 ae3b 4fda 863b d2b8 d03c
000002d0: bd4a 2e3c a218 063d 106f 6bbd 1a37 86bd
000002e0: 239d 9bbc f8b3 713b 8ffe 8a3d 328f 27bd
000002f0: edf7 18bb 1446 70bc 4e54 83bd 54d5 8cbd
00000300: f508 15bc c074 4a3d 774e f53c cbc1 983c
00000310: c5e9 633c de34 283d 2388 82bc 8f0a 863a
00000320: 9fce f63c 5ced be3c 94c2 21bd 56b7 95bc
00000330: 6cbb 1e3d a2fc cc3c 3fe8 643c a7ed 43bd
00000340: 8bda 9dba 7e64 bd3c 27e1 083d 8328 8ebb
00000350: 80f9 47bd eadc 67bd 7298 3a3a b2ba 903d
00000360: 9f0e 86bd 9a16 433c 4041 99ba 50d9 43bb
00000370: 0369 5b3c abe9 7cbd 6268 ecbb 7538 47bd
00000380: 2b0e 123d 6d12 283c 0784 053d 5704 65bd
00000390: 093a 3fbd 17fb bcbc c710 51bd 594d 3cbd
000003a0: fd2d 6d3d bc2e 753b 6762 c7bb f0e5 00bc
000003b0: efbe 8e3d d48c edbc 94b1 34bd 7498 36bc
000003c0: 1a13 273d fd9a 7b3d 9e5d 15bd 62b7 c53c
000003d0: 2b9c 2ebd 26b6 eabc ae18 01bd 9870 a5bc
000003e0: 8b4f 373d ff99 263d ba74 01bd e1b2 f23c
000003f0: 8624 b93c 74dc 813c 14b0 8c3c 1bbe 89bd

fc.3.weight f4 [12, 256]
-0.4617628 -0.08814768 0.024380311 -0.12581044 -0.0063331863 -0.08896417 -0.02589093 0.015803184
-0.045387004 -0.0021623047 0.029824527 0.029739428 -0.056991294 -0.09246013 -0.0510433 -0.032818418
-0.02866354 0.03497877 -0.10669561 0.024853876 -0.14473549 -0.014159761 -0.2815113 0.0039213747
-0.0059108236 -0.08535392 -0.11727758 -0.07770811 -0.045245003 0.029548109 -0.11667019 -0.02903771
-0.15549737 -0.09353055 0.032778084 0.016245432 -0.027138894 0.03672159 -0.08792857 -0.059921443
-0.0051950933 -0.057779726 0.021632869 -0.24191876 -0.027493307 -0.060177207 -0.08610029 -0.018512161
-0.014894336 0.005980655 -0.09492622 0.014734004 0.042195693 -0.15490219 0.029828547 -0.271614
-0.034163553 -0.04299143 0.028730005 -0.04488127 -0.10756411 -0.0013375141 -0.057865556 -0.07608179
-0.053992447 0.04569333 -0.025370266 -0.004639205 0.008220796 -0.17079528 -0.033475302 -0.055840656
-0.9069006 0.008206252 -0.15236953 -0.053341247 -0.06037083 -0.11930826 0.021140855 0.014650583
0.0040408066 -0.06836369 -0.03971441 -0.0038877565 -0.03717859 -0.06779484 -0.05458405 -0.11336379
-0.069256015 0.026391642 0.04238761 -0.15903845 -0.084584214 -0.05834173 0.0026579618 -0.062306494
0.0014912431 -0.036918346 -0.014459397 -0.08166917 -0.06299769 -0.0054234406 -0.017899865 -0.05540748
0.02149154 -0.085988395 -0.11738066 -0.07057696 -0.012068131 0.037551325 -0.0849182 0.014305742
-0.05966612 0.02062048 0.037961546 -0.13501683 -0.039952897 -0.17118879 0.041968692 -0.054054745
-0.116071485 0.011725532 -0.17031297 -0.1284487 -0.07160459 0.008165514 -0.0043680663 -0.0058912802
0.042356983 0.030518822 -0.018863225 -0.025082167 0.045174528 -0.024496231 -0.09500171 0.0007316274
-0.13548478 0.026292643 0.0177549 -0.026563164 -0.03760793 -0.021219255 -0.0855663 -0.034231625
-0.23461635 -0.11568469 0.04646928 -0.034524366 0.022282766 -0.11921304 -0.19149245 -0.22510138
-0.11115776 -0.08503884 -0.25563633 -0.20511582 -0.02807098 -0.101875976 0.005899323 -0.26836854
-0.103877895 -0.11615051 -0.940199 -0.11354312 0.042629085 0.045426287 -0.021857738 -0.07938366
0.014717123 -0.03352961 -0.1500659 -0.12958625 -0.048445713 -0.077749625 -0.091537595 -0.018004563
-0.061769467 -0.39564916 -0.017439112 -0.03782924 -0.20273238 -0.056038354 0.029595016 -0.095336825
-0.021375887 -0.2773123 -0.07167278 -0.054430567 -0.15874667 0.0008854989 -0.020960644 -0.027683951
-0.02113958 0.010708726 0.042944722 -0.030971287 -0.054360956 -0.15467802 -0.05375565 -0.0911234
-0.057222236 -0.015960524 0.028792268 -0.03608578 -0.3830175 -0.01723601 -0.03305378 0.023967689
-0.0035004867 0.0057676304 -0.0738892 0.0004463383 -0.051127534 -0.054869004 -0.10344863 -0.053016327
-0.095865294 -0.1500672 -0.0689118 -0.024344755 -0.04908621 -0.026482774 0.023618821 -0.09538909
-0.1574222 -0.11216931 -0.11033144 -0.026638843 -0.07335751 -0.25220093 -0.0034572252 0.044577956
0.010038726 0.008210191 -0.096729346 -0.025249522 -0.08696561 -0.036870643 -0.10111728 -0.061963476
-0.07363379 -0.08658751 0.02107429 -0.056319848 -0.024038877 0.05240372 0.015096249 -0.07356098
-0.06867165 -0.11462439 0.019330923 -0.049183406 -0.11187623 0.006972357 -0.024756119 -0.01819952
00000000: 2c6c ecbe c586 b4bd 38b9 c73c 74d4 00be
00000010: 9e86 cfbb d932 b6bd 3719 d4bc ae75 813c
00000020: b9e7 39bd 74b5 0dbb 9152 f43c 1aa0 f33c
00000030: b46f 69bd bd5b bdbd c812 51bd 9b6c 06bd
00000040: cdcf eabc e645 0f3d 3a83 dabd 5b9a cb3c
00000050: 8a35 14be 58fe 67bc 4022 90be e07e 803b
00000060: 95af c1bb 09ce aebd 3a2f f0bd 6e25 9fbd
00000070: d352 39bd e00e f23c c8f0 eebd 7ee0 edbc
00000080: b43a 1fbe f28c bfbd 5042 063d 2415 853c
00000090: 6352 debc 6169 163d e513 b4bd 3070 75bd
000000a0: 9a3b aabb 6faa 6cbd 6a37 b13c 8db9 77be
000000b0: a539 e1bc 607c 76bd 5955 b0bd d1a6 97bc
000000c0: 6007 74bc 5ff9 c33b ae68 c2bd e466 713c
000000d0: 64d5 2c3d ae9e 1ebe ff5a f43c fd10 8bbe
000000e0: 15ef 0bbd c817 30bd 305b eb3c 6cd5 37bd
000000f0: 924a dcbd 874f afba 6f04 6dbd c5d0 9bbd
00000100: 2f27 5dbd ee28 3b3d 4ed5 cfbc 7904 98bb
00000110: 84b0 063c f5e4 2ebe 661d 09bd 2cb9 64bd
00000120: a32a 68bf 8473 063c c206 1cbe 5a7c 5abd
00000130: 6747 77bd e457 f4bd 962f ad3c 0009 703c
00000140: be68 843b 4302 8cbd 94ab 22bd bbc9 7ebb
00000150: 9448 18bd 05d8 8abd 8693 5fbd 462b e8bd
00000160: 19d6 8dbd 4933 d83c a19e 2d3d fada 22be
00000170: 7d3a adbd bdf7 6ebd 3331 2e3b 1835 7fbd
00000180: d175 c33a b137 17bd 1be7 6cbc 2a42 a7bd
00000190: ef04 81bd 1eb7 b1bb bda2 92bc f4f2 62bd
000001a0: 070f b03c af1a b0bd 4565 f0bd a78a 90bd
000001b0: 69b9 45bc 6bcf 193d 98e9 adbd a262 6a3c
000001c0: 7664 74bd 48ec a83c 917d 1b3d da41 0abe
000001d0: a6a5 23bd 1d4c 2fbe 5de7 2b3d 8268 5dbd
000001e0: e3b6 edbd 721c 403c 8666 2ebe 0e88 03be
000001f0: 6da5 92bd a6c8 053c ff21 8fbb a40b c1bb
00000200: 847e 2d3d 9c02 fa3c 0d87 9abc 1e79 cdbc
00000210: ed08 393d 52ac c8bc 4290 c2bd afca 3f3a
00000220: 86bc 0abe ab63 d73c b972 913c fe9a d9bc
00000230: c60a 1abd 01d4 adbc 623d afbd 7636 0cbd
00000240: 453f 70be 18ec ecbd 9256 3e3d 6c69 0dbd
00000250: 598a b63c f725 f4bd 9916 44be fa80 66be
00000260: aea6 e3bd d828 aebd c4e2 82be e209 52be
00000270: 1df5 e5bc 5aa4 d0bd 1c4f c13b 9a67 89be
00000280: efbd d4bd 52e0 edbd e2b0 70bf 4c89 e8bd
00000290: d69b 2e3d ea10 3a3d 000f b3bc e693 a2bd
000002a0: 1620 713c 5856 09bd e0aa 19be 42b2 04be
000002b0: 036f 46bd 323b 9fbd 1078 bbbd 4e7e 93bc
000002c0: fb01 7dbd 8792 cabe 78dc 8ebc d5f2 1abd
000002d0: 1499 4fbe 7988 65bd 3f71 f23c f43f c3bd
000002e0: 7c1c afbc e1fb 8dbe 2ec9 92bd 96f2 5ebd
000002f0: 7d8e 22be d320 683a a8b5 abbc 74c9 e2bc
00000300: ea2c adbc a773 2f3c cee6 2f3d 7fb7 fdbc
00000310: 98a9 5ebd ea63 1ebe e22e 5cbd e89e babd
00000320: dd61 6abd a5bf 82bc c3dd eb3c afce 13bd
00000330: df1a c4be 8832 8dbc 6763 07bd e357 c43c
00000340: 6c68 65bb 64fe bc3b 3953 97bd 8302 ea39
00000350: 1b6b 51bd 52be 60bd e0dc d3bd a627 59bd
00000360: 0655 c4bd 37ab 19be a121 8dbd a76e c7bc
00000370: 9f0e 49bd 67f2 d8bc 427c c13c 5b5b c3bd
00000380: 4933 21be 06b9 e5bd 73f5 e1bd b439 dabc
00000390: 763c 96bd 7b20 81be 9d92 62bb 6097 363d
000003a0: 7879 243c 0984 063c 091a c6bd 16d8 cebc
000003b0: 071b b2bd ac05 17bd 9416 cfbd 6acd 7dbd
000003c0: 50cd 96bd cb54 b1bd fda3 ac3c a4af 66bd
000003d0: 2eed c4bc 48a5 563d 4256 773c 24a7 96bd
000003e0: b9a3 8cbd 31c0 eabd e25b 9e3c 8a74 49bd
000003f0: 5d1f e5bd 5f78 e43b 58cd cabc 2917 95bc

fc.3.bias f4 [12]
-0.016692076 -0.032718852 0.06170449 -0.018955665 -0.07915834 0.031466365 0.06480874 0.00094653317
0.038537107 0.016683964 0.017791893 0.057127558
00000000: d2bd 88bc 3404 06bd d9bd 7c3d e948 9bbc
00000010: c51d a2bd e0e2 003d 72ba 843d c420 783a
00000020: 16d9 1d3d cfac 883c 4ec0 913c 96fe 693d
