cnn_fighting_agent_starter/outputs/20251017_194643/model.pt (torch, 287835 bytes, 12 tensors)

state_cnn.0.0.weight f4 [16, 1, 3, 3]
000000 13 a1 4a 3e 50 20 38 be d1 d0 3d 3e e7 17 ae be
       0.19788007 -0.17981076 0.18536688 -0.3400261
000010 df 37 bb bc f7 74 8e 3a 52 7d 7b be 87 1e 58 3d
       -0.02285379 0.0010868598 -0.24559525 0.05276349
000020 bb 8f a0 3e 36 68 3b bc 2e b7 78 be a5 61 08 3e
       0.31359658 -0.01143842 -0.24288628 0.13318498
000030 49 d9 3a be 76 e9 3f be 17 be 10 be 46 a7 3b bf
       -0.1824695 -0.18741402 -0.14135014 -0.73302114
000040 7d 7c fd 3d 67 7b a6 3d 5c 60 b9 bd 84 a0 02 be
       0.1237726 0.08129006 -0.09051582 -0.12756544
000050 de 28 fd bd 91 20 ce 3e e7 df 3a 3e df 84 87 3e
       -0.123613104 0.4025922 0.18249474 0.2646856
000060 13 03 48 be 08 78 a4 be e5 b0 e0 bd b0 2d a3 3d
       -0.19532423 -0.32122827 -0.1097124 0.079676986
000070 7f 3c ab bd 80 7f a5 3d 9e 73 2b be 42 70 c5 be
       -0.08361148 0.08080959 -0.16743323 -0.38562208
000080 06 de a7 be b6 d7 14 bf 9f a7 98 3e 88 d4 9d 3d
       -0.32786578 -0.5814165 0.29815385 0.07706553
000090 9f ee 9b bd a0 81 8b 3e 79 56 4a 3e 69 6b cf be
       -0.07613873 0.27247334 0.19759549 -0.40511635
0000a0 a0 1c 8f 3e d8 06 a5 3e 9a 86 c1 be 76 8d 6d bd
       0.27951527 0.32231784 -0.37798005 -0.057996236
0000b0 eb e8 3b be a8 06 53 3e 98 9f 9e be 1f ce 3c be
       -0.1835057 0.20608008 -0.30981135 -0.18438004
0000c0 a6 50 91 3e 34 e7 45 be 17 6c a4 3d ef 42 63 be
       0.28381842 -0.19326478 0.08028429 -0.22193502
0000d0 6f e1 96 be c1 24 84 3e 67 21 e3 3d d3 b7 5b 3d
       -0.29468867 0.2580929 0.11090355 0.053642105
0000e0 69 98 95 be 8c 86 11 3e 50 3a 6d 3e de 3c d2 3d
       -0.29217842 0.14211482 0.23166776 0.10265516
0000f0 b7 78 9e bb 73 15 35 be 30 4e 5f 3e 6a 15 b4 3e
       -0.0048361677 -0.17683963 0.2180717 0.35172588
000100 10 a0 b4 3e 9c 7b 7b be a0 3b 53 3d 26 52 7d be
       0.35278368 -0.24558872 0.051570535 -0.24738368
000110 d7 e3 e0 be 53 a3 9c bc 11 7d b1 3e eb 0b 05 bf
       -0.43923828 -0.019120848 0.3466573 -0.5197131
000120 7d c0 95 be 8e 34 31 be fc 51 6d 3e 82 a3 4d 3e
       -0.2924842 -0.17305204 0.23175806 0.20081905
000130 23 fd 46 3b 15 6a 17 3e c7 e0 96 3e 5c 47 44 bb
       0.0030363284 0.14786561 0.29468367 -0.002994976
000140 12 5b 85 be 85 f2 98 be bf 28 3b 3e 50 e1 a1 3e
       -0.26046044 -0.29872528 0.18277262 0.31617212
000150 3d d5 26 3e db b5 c2 3d d4 c7 64 be b3 41 5a be
       0.16292281 0.095073424 -0.22341853 -0.21314125
000160 bf 13 57 3e d3 b0 08 3c 09 96 e1 3b 5f d0 bc be
       0.21003626 0.008342939 0.0068843407 -0.36877725
000170 fa 5c 2e 3e 12 72 6a 3e e4 7a be be 9c 7a cb bc
       0.17027655 0.22895077 -0.37203133 -0.024838738
000180 3c 5f fe 3d 88 12 b6 bd 11 1f 14 be 23 89 ce 3d
       0.12420508 -0.08890253 -0.14464976 0.100847505
000190 ec 53 7e bd 70 aa a4 3e fc ec 30 3d 68 ce 85 be
       -0.062091753 0.32161283 0.043194756 -0.26134038
0001a0 a7 9d bd 3d 78 bf 1d be ab 05 9f 3e 25 f0 57 bd
       0.092585854 -0.15405071 0.31059012 -0.052719254
0001b0 72 9f a1 3e 1d 90 51 be df de b6 be f2 f5 7d 3e
       0.3156696 -0.20465131 -0.35716912 0.24800852
0001c0 f4 f2 7a 3d 3f af 4c be fd f1 94 be 71 47 7c 3c
       0.061266854 -0.19988726 -0.29090872 0.015397892
0001d0 d5 a2 36 3c c4 47 9a 3e 29 a0 95 bd 79 8b 4f 3d
       0.011147221 0.30132878 -0.07305939 0.05067012
0001e0 7a 52 c1 3d 26 89 5a 3e d2 b2 de be 18 4f 91 3d
       0.09439559 0.2134138 -0.43495804 0.07095164
0001f0 31 6b 92 3e 29 33 e0 3c d4 b1 08 bd 68 ff c5 bd
       0.28597406 0.027368145 -0.033372715 -0.096678555
000200 dc 97 85 be 2e 8e e8 bd 62 a7 a2 be df e3 17 bc
       -0.26092422 -0.113552436 -0.31768328 -0.009270637
000210 8f db 02 3e 8c b1 8b be 88 ce 66 be b2 bc 8f bd
       0.12779067 -0.27283895 -0.22539723 -0.07018413
000220 c4 5d 6c 3d bd fb 8a 3d 29 33 54 bd 4b 43 79 3e
       0.05770661 0.067862965 -0.051806603 0.24342076
000230 28 27 90 3e 94 bd a4 be 9f 19 47 3d 42 77 88 3d
       0.28154874 -0.32175887 0.04860842 0.066633716

state_cnn.0.0.bias f4 [16]
000000 17 d2 b1 3d 87 98 45 3e 60 cb 16 be a5 d6 76 3e
       0.086826496 0.19296466 -0.14726019 0.24105318
000010 e6 ea ec 3d 29 6c cb bb 5c f7 a1 bc a9 19 17 3d
       0.11568241 -0.006207962 -0.01977127 0.036889706
000020 a4 fa 54 be c8 86 ec bd 61 37 9e 3e a2 b4 33 be
       -0.20798737 -0.11549145 0.30901626 -0.17549375
000030 b4 6f a4 3d 54 fc 6e 3e 24 68 0e be bf 81 84 bd
       0.08029118 0.23338443 -0.13906914 -0.064700596

state_cnn.1.0.weight f4 [32, 16, 3, 3]
000000 8d d1 87 3c a4 e9 99 3c e5 50 a7 3c 1d 59 8b 3d
       0.016579414 0.018788166 0.020424316 0.068041064
000010 2a 63 1b bd f2 04 90 bd a0 c4 8f 3b bf 4f 26 be
       -0.037936367 -0.07032193 0.004387453 -0.16241358
000020 9e 06 b0 bc 7c 29 8e 3d 09 b1 bd 3d 7d 95 2f 3d
       -0.02148753 0.06941506 0.092622824 0.042867173
000030 66 12 9b 3e c8 fc 1c 3f 7c e7 41 bd cb 26 67 3c
       0.30287474 0.61323214 -0.0473399 0.01410837
000040 64 6e 91 bd 2b 2e 47 bc 67 3a 6c be 63 1a 07 bd
       -0.071011335 -0.012157003 -0.23069154 -0.03298415
000050 26 56 5e bd b7 83 82 3d 36 89 f7 3d d3 a8 ff 3c
       -0.054281376 0.06372779 0.12086718 0.031208431
000060 52 5b 2c be 2a 39 80 bd b4 f4 80 bb 34 5b 54 bd
       -0.16831711 -0.06260903 -0.003935421 -0.05184479
000070 f9 40 1a 3e 58 b7 da bd a0 d2 2e 3e d5 54 f8 3e
       0.15063848 -0.10679501 0.17072535 0.48502222
000080 cf 9c b3 3c 0d 14 b2 bd 2a ee 91 3d bb fc 88 bd
       0.021925358 -0.08695231 0.07125504 -0.066888295
000090 e3 f7 4e 3d 8e 96 42 bd 96 ef fe bd 22 d6 bd 3d
       0.050529372 -0.04750686 -0.12448041 0.09269358
0000a0 10 04 bf 3d 66 61 8b bd 8e 70 02 3d 52 1e a0 bd
       0.09326947 -0.06805687 0.03184562 -0.07818283
0000b0 bb 6b fd bd 5e 29 31 be 46 c2 22 3e 32 5a 35 3d
       -0.123740636 -0.17300937 0.15894422 0.04427547
0000c0 cd 50 5b 3c d7 61 01 bd b3 8b 0a 3d 4f 46 cb bd
       0.013385964 -0.031587448 0.033824634 -0.0992552
0000d0 ae fe 6a 3d 76 4a 49 3d 24 92 f1 3c 82 91 bd bc
       0.057371788 0.049143277 0.02948863 -0.023140673
0000e0 68 8c 08 be 57 7e 25 3c 98 0b a3 3d 7a ae 04 be
       -0.1333481 0.010100923 0.07961196 -0.12957183
0000f0 ed 38 bb 3c 85 3f 7f bd 00 dc b6 bc c3 7b ae 3d
       0.022854293 -0.062316436 -0.022321701 0.085196994
000100 17 6e 18 be 04 84 f3 3c 73 b2 8b 3d 7a a0 08 be
       -0.14885746 0.029726036 0.06821146 -0.13342467
000110 2c a1 85 bd 8f cc cb 3c 9d 83 9f 3c bf cc b2 bd
       -0.06524882 0.024877815 0.019471938 -0.087304585
000120 06 c0 71 bb a7 b7 db 3d 96 20 3d bd ac 12 ae 3d
       -0.0036888137 0.10728388 -0.046173654 0.08499655
000130 b9 0b 81 3e 91 9a 0c 3e 78 20 8c 3d 6e d2 00 3e
       0.25204256 0.13730837 0.068421304 0.12580273
000140 3b b5 79 3d 54 a9 b5 3d b9 66 f6 3d a6 c8 de bd
       0.06096385 0.088701874 0.120313115 -0.108781144
000150 49 77 26 bd 9e 2b 9b 3d 33 22 98 bd 42 21 5a 3d
       -0.040641103 0.07576679 -0.07428398 0.053254373
000160 a2 01 a0 bd c3 39 7b bd 35 a5 e1 3c 52 c3 a0 3d
       -0.078128114 -0.061334383 0.027544597 0.078497544
000170 72 1e a5 bd 9a 9e e7 3c ae a1 f2 3d a8 72 8d bd
       -0.080624476 0.02827387 0.11847244 -0.069066346
000180 23 66 0d be 9a 93 51 bc a4 44 26 bd f6 9b 27 3d
       -0.13808493 -0.012791539 -0.040592805 0.04092022
000190 be 08 ba 3d 42 21 f0 bd c2 52 88 3d ce 72 9b 3d
       0.09083699 -0.117250934 0.0665641 0.07590257
0001a0 03 5a ee 39 37 1b d1 3c 0c 82 fc bc 81 33 ee bc
       0.0004546196 0.025525672 -0.03082373 -0.029077293
0001b0 90 71 b9 3c 51 28 26 be bc 6e 8a bd 88 fa 04 bd
       0.022637159 -0.16226317 -0.06759402 -0.032465488
0001c0 5e 37 49 be cd 76 b6 3c 5f 8f 0d bd ae 40 f6 bd
       -0.19650027 0.022273446 -0.034560557 -0.120240554
0001d0 15 ea 25 bd 6a 69 1a bd 57 81 71 3d 61 81 71 bd
       -0.04050644 -0.037698187 0.05896124 -0.058961276
0001e0 2c 7b 7c 3c 31 09 8f bd 32 9c 35 bd 6a 4a 8c 3d
       0.015410226 -0.06984175 -0.044338413 0.06850131
0001f0 af 60 a6 bd 75 ed 58 bc 34 3c 8f 3b 5b bd 64 bd
       -0.0812391 -0.013240208 0.0043711904 -0.055844646
000200 8b a3 4f bd bf d9 a6 bd d8 85 58 bd fc 0a 07 3d
       -0.050693076 -0.081470005 -0.05286202 0.03296946
000210 2b 41 6f bd 78 15 76 bd 2c 1e 1f 3d f1 67 9e 3b
       -0.05841176 -0.060079068 0.038847134 0.004834168
000220 c6 72 cc 3d 93 79 67 bd 31 dc 0c 3d 6f 06 a6 bc
       0.09982829 -0.056512427 0.03438968 -0.02026674
000230 ee cd f1 bd d0 9b 77 3d a2 90 b1 bd 8a 70 2f bd
       -0.11806856 0.06045133 -0.08670165 -0.042831935
000240 a1 e6 8c 3d 80 92 eb bc 80 2a 5c 3d 0a c4 a1 ba
       0.068799265 -0.02875638 0.05375147 -0.0012341749
000250 a1 57 7d bc 6e 78 5e 3d bd e5 06 3e ea 3c c9 bc
       -0.015462787 0.05431407 0.13173576 -0.024565179
000260 dd e2 e8 3d b5 86 c2 3c a9 05 63 bd 40 a5 9a be
       0.11371396 0.023745874 -0.05542532 -0.302042
000270 a1 89 28 3e fe c2 5a 3d 3b 6d 4d 3e e1 29 85 3e
       0.16458751 0.053408615 0.200612 0.26008514
000280 54 91 d3 3d cd b7 b6 3e 3e c3 1a bd ee fa 65 3d
       0.103304535 0.35687104 -0.037783854 0.05614751
000290 a3 ec 55 3e b9 13 ef 3d 66 72 ad 3c 37 a4 52 3d
       0.20891051 0.11673684 0.021172713 0.05142614
0002a0 b7 17 7c 3e 9d f1 1b 3e e6 8b d6 3d f7 e0 9c bd
       0.24618421 0.15228887 0.10475902 -0.07660096
0002b0 55 29 04 be d5 ea 87 bd 15 0c 8a 3d a6 f9 10 3d
       -0.12906392 -0.066365875 0.06740586 0.035394333
0002c0 bf cc 53 3e b6 63 7a 3e 06 c4 9a 3d bb 61 80 3e
       0.20683573 0.24452099 0.0755692 0.25074562
0002d0 25 6b dc 3c cf 8a a1 3d e6 7b df 3a 7e de 22 ba
       0.02690656 0.07887804 0.0017050474 -0.00062129635
0002e0 e9 60 d5 3c f2 1a 47 3d 03 b9 74 3d 5e 73 5b bc
       0.026047187 0.04860968 0.059746753 -0.013394205
0002f0 00 e1 18 3e 59 4a 0d be 02 c0 28 bd 3e c5 e5 3d
       0.1492958 -0.13797893 -0.041198738 0.112192616
000300 0e 44 25 bd a3 41 a4 bd c8 09 28 3e 03 ee f6 bc
       -0.040348105 -0.08020332 0.16409981 -0.03014279
000310 bb c5 29 3d b0 c5 6b 3d 32 4b c0 bc 2b 42 b2 bd
       0.041448336 0.057561576 -0.023473356 -0.08704027
000320 a8 3d 80 3c 32 9a 32 3d c4 4b 12 bc 48 f5 16 bd
       0.0156544 0.043604083 -0.008929197 -0.036855012
000330 67 26 27 3d 96 93 38 3d 91 68 76 3b 22 ce 12 bd
       0.040808108 0.045062624 0.0037598948 -0.035841115
000340 8b f5 59 bd ae 0a 16 be 21 e1 89 bd f3 54 91 3d
       -0.053212684 -0.14652511 -0.06732393 0.07096281
000350 14 fd db bd 80 86 d1 bd 53 bc 34 bd 64 4d 4d be
       -0.1074163 -0.10230732 -0.044124912 -0.20049053
000360 c4 b0 83 3d 65 d6 80 bd a8 c6 be 3d 87 98 1a bd
       0.064302 -0.062908925 0.093152344 -0.037743118
000370 84 5c ff bc d2 db 29 3d 49 05 be 3d 4e 94 22 3d
       -0.031172045 0.041469403 0.09278352 0.039692216
000380 c7 a2 26 3e 88 44 86 3c d9 6b 27 3b 60 8b 14 3e
       0.16273032 0.0163901 0.002554646 0.14506292
000390 4d a2 8c bd cd fe e6 39 b5 42 21 3e 1c e8 3d 3c
       -0.06866894 0.0004405886 0.15748103 0.011590984
0003a0 29 8c 1e 3d 59 ed 46 3e 35 6c 92 bd e6 eb bd 3c
       0.038707886 0.19426478 -0.07149545 0.023183774
0003b0 86 a8 27 3e 2a 47 92 3d 5b cb c0 3c a1 a5 15 3e
       0.1637288 0.0714248 0.023534467 0.14613964
0003c0 2f 8a 44 bd 4c 28 94 bd 9d c5 3f 3d 7a 09 ad bd
       -0.047983345 -0.072342485 0.046819318 -0.08449073
0003d0 cc ed a2 bc 78 4f a4 3d 59 0a 84 bb 72 ce 31 3d
       -0.019888781 0.0802297 -0.004029554 0.043409772
0003e0 83 da 12 3d ac 71 f0 3d 56 66 65 bd f0 54 c8 3d
       0.03585292 0.11740431 -0.0560058 0.097818255
0003f0 15 ef 7a bd 07 77 e9 bc bb 41 52 be 72 07 9c bd
       -0.061263163 -0.02849914 -0.20532887 -0.076186076

state_cnn.1.0.bias f4 [32]
000000 76 f5 10 bd 53 91 3a 3d 22 73 56 bd a3 0d ed bc
       -0.03539034 0.04554875 -0.052355893 -0.028937167
000010 80 ac 0c 3d 13 00 92 bd 62 73 9c bd 66 af 8f bd
       0.034344196 -0.071289204 -0.07639195 -0.070158765
000020 36 bd 3d 3d 1d ca 8a 3a 80 50 8d bd fc 1f 7a bd
       0.046323024 0.0010588799 -0.0690012 -0.06106566
000030 21 a8 55 bd d3 56 93 3d b4 1f b5 bd 1f db 9d bc
       -0.052162293 0.07194295 -0.088439375 -0.019269524
000040 8e d3 3a 3d 34 29 4b bb 54 ec 31 3d b3 78 44 bc
       0.04561191 -0.00309999 0.04343827 -0.011991668
000050 16 42 68 3d 10 5e 0f 3d 7a 34 bb 3c df 94 07 3d
       0.05670365 0.035001814 0.022852171 0.03310096
000060 92 bf bc bd 4e e0 00 3d 0f d4 67 3d f5 5b 55 bd
       -0.09216227 0.031463914 0.05659872 -0.05208965
000070 59 78 85 bd ee db ab bd 34 16 a4 ba ff 3a 29 3d
       -0.06517095 -0.08391558 -0.0012518824 0.04131603

button_cnn.0.0.weight f4 [8, 1, 3, 3]
000000 bf f9 2b bd 50 0d 00 be 7e bb bd bd 8e e5 7e 3e
       -0.041986223 -0.12505078 -0.09264277 0.24892256
000010 eb 00 53 be f4 50 e6 3d d7 25 93 3e 55 35 86 be
       -0.20605819 0.11245909 0.28739807 -0.26212564
000020 51 71 a7 3e 5e 74 6e 3d 8a 05 fd bd bb 07 f0 3c
       0.3270364 0.058216445 -0.12354572 0.029300561
000030 fa b9 ec 3e 04 86 4e bc 77 fe c8 bd fb 37 37 be
       0.4623564 -0.012605194 -0.0981416 -0.17892449
000040 d2 74 9a be 93 a0 13 3d 80 05 e0 3c bf 35 08 be
       -0.30167252 0.036041807 0.027346373 -0.13301753
000050 4a 8b c0 bd 92 1c 5f 3d a0 39 83 3e cb 49 67 3c
       -0.09401567 0.054470606 0.25629902 0.014116715
000060 00 a8 ce 3e b8 0c 15 3e 19 cb 67 bc cb 91 93 3c
       0.4036255 0.14555633 -0.014147543 0.018013855
000070 50 31 82 3e 90 07 1b 3e 2b f1 97 bd 32 93 c1 3e
       0.25428247 0.15139604 -0.07419046 0.37807614
000080 30 54 25 be b7 5e 97 be 93 18 44 bb cb 2b 69 3e
       -0.16145396 -0.2956445 -0.0029921874 0.22770612
000090 78 6d 66 3d 5e 26 71 bd 02 ef 45 3e 1c db 07 be
       0.05625674 -0.05887448 0.19329455 -0.13267177
0000a0 6c 6a a4 3e 07 8d 3b 3e 06 00 f2 bd fd 08 6f 3d
       0.32112443 0.18315516 -0.11816411 0.05835818
0000b0 e0 27 c7 3d 8c 97 21 bd 14 b5 da bd 23 37 40 bd
       0.097244024 -0.039451167 -0.10679069 -0.046927582
0000c0 1d 14 0c be 46 b6 7d 3d 09 33 d6 3d 5f 81 dd 3e
       -0.13679548 0.061941408 0.10458953 0.43262765
0000d0 ee 73 73 be b6 c5 4c be 7e 0e e4 bd a9 74 84 bd
       -0.23774692 -0.19997296 -0.11135577 -0.06467564
0000e0 e2 53 b0 3d 07 3a 62 3e 5f ba 43 3d 73 66 76 bd
       0.086097494 0.22092448 0.04778516 -0.060156297
0000f0 b4 a5 ca 3e 7a ae ee 3e 9a 0e 47 bd 90 65 82 3d
       0.39579546 0.4661749 -0.04859791 0.06367028
000100 7c a2 3e 3e 1f af 85 bd ac 62 6d 3e 01 65 cd bb
       0.1861667 -0.06527542 0.23182172 -0.006268144
000110 2f 60 6c 3e 63 b3 32 be 60 fa 04 3e 0c a5 f9 3e
       0.23083566 -0.17451243 0.12986135 0.48758733

button_cnn.0.0.bias f4 [8]
000000 70 2f 7e 3e 2b 1c a4 bb a5 5e 10 3e 40 22 f8 b9
       0.24822783 -0.0050082407 0.14098604 -0.00047327764
000010 e8 0b 98 3e 75 6f 18 bb f8 42 c6 bd 0e d1 c1 bd
       0.29696584 -0.0023259793 -0.09680742 -0.09463702

button_cnn.1.0.weight f4 [16, 8, 3, 3]
000000 99 20 a4 3c ed 34 a5 bd 94 27 e5 bc 98 f1 9e 3d
       0.020035075 -0.080667354 -0.027972974 0.07760924
000010 2b 4a 56 bd 0c 74 e1 3d cf 29 be bd cd cd da 3d
       -0.052316826 0.11008462 -0.09285318 0.10683785
000020 6d 8a d5 ba 80 c3 96 3d b9 1d 04 3d 55 f4 14 be
       -0.0016291864 0.073615074 0.03225491 -0.1454633
000030 c5 4e 88 be 56 20 14 3d 28 67 aa be 8d 09 14 be
       -0.26622596 0.03616365 -0.33281827 -0.14456768
000040 62 43 53 bd 3b f9 97 3e 94 5a 23 3d 60 da 8b bc
       -0.051577933 0.29682335 0.039881304 -0.017071903
000050 79 15 06 be 53 b1 f9 bb f4 d3 cd 3d 24 0c 2f bd
       -0.13094129 -0.0076200156 0.100501925 -0.042736188
000060 ed 76 44 bc 09 ed d9 3d c4 cb a9 ba de ab 55 bc
       -0.011991245 0.10640914 -0.0012954404 -0.013041465
000070 22 e5 73 3d 9a 01 02 bd a4 72 59 be 02 02 dd 3d
       0.05954469 -0.03173981 -0.21235138 0.107913986
000080 a6 4c 0a be ac 88 c2 bd 1f 23 7e 3d 50 f2 22 bd
       -0.13505802 -0.09498724 0.062045213 -0.03978187
000090 1c 96 d4 3d cb 8c 0e 3d 2d 26 22 3d 39 14 70 bd
       0.103801936 0.03480224 0.03958719 -0.058613036
0000a0 19 f0 cc 3d 13 43 c3 bc 33 59 a0 3d e3 e7 18 bc
       0.100067325 -0.023835694 0.078295134 -0.00933263
0000b0 b6 23 b1 bd 79 0b 46 be 7a d9 75 be 29 f6 b3 3c
       -0.086493894 -0.19340314 -0.24008742 0.021967964
0000c0 d6 2c d4 bb a4 f2 90 bc e8 75 f6 3d 7c 82 64 be
       -0.0064750714 -0.017693825 0.120342076 -0.22315401
0000d0 cd 5d 46 bd 28 f8 0a 3e a4 40 9c bc 63 66 a0 bd
       -0.0484293 0.13571227 -0.019073792 -0.07832029
0000e0 2b 53 77 be e7 ae 14 be b2 9e 0c be 46 4a 4b 3c
       -0.2415282 -0.14519845 -0.13732412 0.012407845
0000f0 20 a6 94 be 68 b7 75 3e 5e 27 97 3e e6 14 bf bd
       -0.29032993 0.23995745 0.29522222 -0.09330158
000100 39 fc ab bc a8 d1 aa 3d dd dd dc bd 5f 12 c4 3b
       -0.020994293 0.0834077 -0.107845046 0.0059836353
000110 d9 06 e5 bd 33 1d 71 be 8b 2a 95 3d 63 f9 13 bc
       -0.11182947 -0.23546295 0.07283505 -0.009031626
000120 b3 61 a3 3c 86 70 c7 3d 6b bc 00 3d 21 23 fc 3d
       0.019944048 0.09738259 0.03142969 0.12311388
000130 c2 97 b5 bd a7 3f 14 be ca 3f 35 bc 3f 99 dd bc
       -0.08866836 -0.14477406 -0.011062572 -0.027050612
000140 e8 0a 06 3d 78 98 65 3e 43 d2 61 3d ba 1d 77 3e
       0.032725245 0.22421443 0.05513216 0.24132434
000150 0a 33 8b 3e 77 ed 3a 3e 17 1e b6 be cf 54 c2 3d
       0.27187377 0.18254648 -0.35569832 0.09488832
000160 0e 9e 73 3d 09 22 91 bd 8f a7 cc bd 80 3e 24 3d
       0.059476905 -0.0708657 -0.09992897 0.040098667
000170 fb ff 2b 3e 0f 07 de 3d 5b 12 e3 3c e2 c6 d6 bc
       0.16796868 0.1084119 0.027718714 -0.026217882
000180 fe c0 c4 bd bc 7e b0 bd 79 fa 0d be f0 3e 52 bc
       -0.09607123 -0.08617923 -0.13865079 -0.012832388
000190 ae 07 1c 3e c5 79 60 3d f4 94 be bc e7 fb a5 bd
       0.15237305 0.05480363 -0.023264386 -0.08104687
0001a0 1e 53 d3 bd 00 44 36 be eb 6a 31 3d 0b 48 79 be
       -0.10318588 -0.17799377 0.043314856 -0.24343888
0001b0 fb 30 dd 3d 2f fa 02 3e 1c 73 0a 3e ec 2d d9 39
       0.10800358 0.1279075 0.13520473 0.0004142368
0001c0 fe a4 85 3d 6b b2 a2 bd 97 45 3b be 40 b3 fa bd
       0.065256104 -0.07944187 -0.18288265 -0.122412205
0001d0 95 09 ca bd b3 9f 19 bd 93 75 41 3e 5b df 0b 3e
       -0.09865109 -0.037505817 0.18892507 0.13659422
0001e0 82 50 75 3e e0 7e c7 3d 64 aa 64 bd d5 88 83 3e
       0.23956493 0.09740996 -0.05582656 0.25690332
0001f0 c8 b5 03 be e7 72 62 be b3 81 85 3d cd b4 3a 3e
       -0.12862313 -0.22114144 0.06518879 0.18233033
000200 23 8e 16 3e e7 46 01 3e ff 75 97 be 0c ed b2 be
       0.14702658 0.12624703 -0.2958221 -0.34946477
000210 91 8a 0f 3e e5 43 91 bd 9c 99 a5 be f4 2a 59 bb
       0.14017703 -0.07093028 -0.32343757 -0.0033137174
000220 3e 9c 2f bc 6b 1c 2d 3e 8e 86 54 3d 88 c9 db bd
       -0.010718403 0.16905372 0.051886134 -0.107317984
000230 54 30 07 be 91 83 86 3c a3 e2 81 be af 2b 85 be
       -0.1320203 0.016420158 -0.25368223 -0.2600989
000240 f6 5e c1 3d 28 67 23 3d 43 73 37 3b 75 e0 2e 3d
       0.094419405 0.0398933 0.0027992285 0.042694528
000250 29 e6 83 3d ff bd 61 bd a0 59 b9 3d a6 44 1f 3d
       0.06440384 -0.055112835 0.09050298 0.038883828
000260 11 d4 a7 bc a4 35 87 bd 1a 79 03 be b9 1d d2 bd
       -0.020486863 -0.06602028 -0.12839165 -0.102595754
000270 89 72 11 be d5 4c a1 bd d0 96 3b bc f7 d6 40 3e
       -0.14203848 -0.07875983 -0.011449531 0.18832003
000280 2d 7b a0 3d de e7 6c 3e ca 91 d3 3d 6e 1c dc bd
       0.07835994 0.23135325 0.103305414 -0.1074761
000290 6c 31 36 bd f3 cf 86 3d 56 a4 8e 3d c5 3f af 3d
       -0.044480726 0.06582632 0.06964938 0.08557085
0002a0 61 29 25 3e c1 95 d1 3d d7 55 e7 bd eb f8 14 be
       0.16129066 0.102336414 -0.112956695 -0.1454808
0002b0 55 2a a3 bd c6 01 91 bd 40 fc 6e bd 46 e1 a5 3d
       -0.079670586 -0.070804164 -0.058346033 0.08099608
0002c0 92 ae f4 bc cc db d2 bd eb 8e 04 be e4 ff a5 bb
       -0.029868398 -0.10295829 -0.12945144 -0.005065905
0002d0 e7 d2 a5 3d c2 2c 65 bb 4a f0 5c bb 81 99 c7 3d
       0.08096867 -0.0034969305 -0.003371256 0.097460754
0002e0 66 4f 1d be a2 f3 70 3d f3 2c a8 3d d5 ae 58 bb
       -0.1536232 0.058826096 0.082116984 -0.0033063192
0002f0 31 60 d1 bd bc 5a db bd f1 ad 6a bd 46 a9 b3 3b
       -0.10223425 -0.107106656 -0.05729479 0.0054828255
000300 0a 4e e1 bd 5f 75 99 bd d3 f3 b6 3d a4 22 c5 3d
       -0.11001213 -0.0749309 0.089332245 0.09625748
000310 84 90 9b bd 69 8c a4 bd b5 2e 7e 3d f4 a7 97 3c
       -0.075959235 -0.080345936 0.062056262 0.018512703
000320 a9 d4 9f bd ae da 10 3d 25 1d e4 bd 1e 60 58 bc
       -0.078042336 0.0353648 -0.111383714 -0.01320651
000330 99 b0 ff 3d 14 21 46 bc 73 82 14 3d 0f 90 92 3d
       0.12484855 -0.012092847 0.03625722 0.07156383
000340 20 90 9b bd 25 a1 dd 3c 98 dd f8 bd d6 04 b8 3b
       -0.07595849 0.027054379 -0.12151641 0.005615811
000350 be 68 a0 bd b8 99 dd 3d 58 f5 ac bd 3c 85 72 bc
       -0.07832478 0.10820335 -0.08445233 -0.014802273
000360 5c 81 8b 3d 3e 0e 89 bc 28 c5 c4 bd 66 8f 54 3c
       0.06811783 -0.016730424 -0.09607917 0.012973642
000370 0d 8c b9 3d 06 58 cf 3d d2 7d fa bc a3 2a 99 bc
       0.09059916 0.10124211 -0.030577574 -0.018697089
000380 ab a7 60 3d c6 01 37 be 78 88 ed bd 31 bd 28 be
       0.0548474 -0.1787177 -0.11598295 -0.16478421
000390 78 ac c2 bd 23 b6 f8 bd e6 c4 07 be b8 73 8c 3d
       -0.09505552 -0.12144115 -0.13258705 0.06858009
0003a0 30 b1 aa bd 89 c4 1a 3e 8d 53 28 bc 82 5d 8b bd
       -0.08334577 0.15114035 -0.010273826 -0.068049446
0003b0 2a 06 ef 3d 9c 59 32 3d cc 4a 8e 3d 46 df 7a bd
       0.116710976 0.04354249 0.0694786 -0.061248086
0003c0 b1 bb 26 3e b8 95 c8 bd dd 81 91 bd da f3 f0 bd
       0.16282536 -0.097941816 -0.071048476 -0.11765261
0003d0 4e 73 12 3c 48 4b 3f bd b3 99 79 bc 30 ac 18 be
       0.008938624 -0.046702653 -0.015234399 -0.14909434
0003e0 20 eb 40 bc d9 2c d6 3c 55 37 b2 bd e2 a5 27 be
       -0.011774808 0.026144432 -0.0870196 -0.16371873
0003f0 b6 ad 95 3d c8 e1 f0 bd fb 0c 0b 3e 20 de 3b 3d
       0.07308523 -0.11761814 0.1357917 0.04586613

button_cnn.1.0.bias f4 [16]
000000 1d 19 08 3e 33 3b 0f bd 09 df a7 3d a7 7f 90 3d
       0.1329083 -0.034968566 0.081968375 0.07055598
000010 a5 dc a2 3d 4a a3 97 bd 1e 1d 7f bd 94 bf 46 3d
       0.07952241 -0.07404192 -0.062283628 0.048522547
000020 fc 61 85 bd 5a 58 9c bd 17 44 de bb a7 e8 f5 bd
       -0.0651283 -0.07634039 -0.0067830193 -0.120072655
000030 8e a6 58 bd 0e 62 f3 bd 53 70 3d 3d 93 f8 22 3d
       -0.052893214 -0.11883937 0.0462497 0.03978784

fc.0.weight f4 [256, 240]
000000 07 8e 1b bc 40 53 a0 bc 63 78 63 3d 1e 68 88 3d
       -0.009494311 -0.019570947 0.05553473 0.06660484
000010 0f e3 c9 3b d3 4a 8f 3d 4f 87 76 bd dd 13 41 bd
       0.0061611007 0.069966935 -0.060187634 -0.047138084
000020 4a f2 36 bd 78 29 58 bd c3 97 df 3c 85 0c bb 3d
       -0.04466466 -0.052773923 0.027294045 0.09133247
000030 6c 78 02 3c f7 68 1f bd 08 92 42 bd 01 8d 37 3d
       0.007963281 -0.03891846 -0.047502548 0.044812206
000040 50 65 c9 bc c8 6e 31 3c e6 c2 29 bb 01 52 b4 3b
       -0.024584442 0.010829635 -0.0025903522 0.0055029397
000050 15 27 21 3c 5a 48 66 3d 6f 4a 2c 3d 96 61 37 bc
       0.009835978 0.056221344 0.042063173 -0.0111927
000060 80 75 23 3d 5e 09 61 ba ab 13 8f 3d d6 53 35 bd
       0.03990698 -0.00085844647 0.06986173 -0.044269405
000070 ba 56 56 3d cb 81 8a 3d 03 0b 50 3d 85 a2 03 bd
       0.052328803 0.06763037 0.05079175 -0.032137413
000080 a1 03 99 3d d2 70 73 bd 63 52 16 3d 20 c3 21 3d
       0.07471395 -0.059433766 0.036699664 0.039492726
000090 87 df df 3c 04 15 67 bd bd 72 07 3d 69 e4 19 be
       0.027328266 -0.056416526 0.033068407 -0.15028538
0000a0 1f 1f 0b be b2 9d fd bd 8f ba 54 3d 74 bd 44 3b
       -0.1358609 -0.123835936 0.05193573 0.003002015
0000b0 95 8a b4 bb 88 4a 94 3c 19 a1 92 bc 45 2a d6 3c
       -0.0055096843 0.018101946 -0.017899083 0.026143203
0000c0 78 db 89 3b c2 7b 10 3d a1 07 e5 bd a3 0d 89 3d
       0.004207071 0.035274275 -0.11183096 0.06692054
0000d0 2b ec 1f bb 6e 1d 87 3b 44 93 13 bd dc 4a 0d bd
       -0.0024402242 0.0041233813 -0.036029115 -0.03449522
0000e0 77 c1 34 bd b7 e3 ca 3c 32 d3 bf bc 11 74 72 bc
       -0.044129815 0.024766786 -0.023416135 -0.01479818
0000f0 ba f8 8a 3c cb ce 41 3d 76 8c 0c 3c 9b a2 48 3d
       0.016964305 0.047316354 0.00857841 0.048983198
000100 54 48 10 3d b0 25 fb 3c bc c6 b2 bc 1e f5 97 3c
       0.035225227 0.03065762 -0.02182328 0.018549498
000110 7d d8 95 3d c7 2c 04 bd f2 7e 81 3d 17 11 6d 3c
       0.073166825 -0.032269266 0.06323041 0.014469407
000120 26 07 07 bd 57 d3 5d 3d fe ad 97 3d 95 17 af bc
       -0.0329658 0.054156628 0.07406233 -0.02137355
000130 b1 64 eb 3a ae 03 8d 3d 2b 1d 4b 3d 26 f9 2b bd
       0.0017959086 0.068854675 0.049588364 -0.041985653
000140 ed 2c 55 bd 68 3b 0e bd 1e 74 67 bc 6f 75 2a bd
       -0.052044798 -0.034724623 -0.014126806 -0.0416159
000150 d4 4e 69 3b 43 ae 6e 3d a8 71 18 bd 7a 52 18 bc
       0.0035599964 0.058271658 -0.037217766 -0.009297008
000160 33 bb 62 3c bb fe 2d 3d 09 96 a5 bd d9 81 38 3d
       0.013838577 0.042479258 -0.080852576 0.045045707
000170 12 45 07 bc b2 9a 98 bc 07 a0 43 3d 1c e9 2c 3d
       -0.008256214 -0.018628452 0.047760036 0.042214498
000180 ab 70 01 bd d2 33 51 bd 88 a3 12 bd f1 1b 86 bd
       -0.03160159 -0.05107481 -0.035800487 -0.06548298
000190 da bd 81 3d bc 29 35 3d ce f8 2f bd 32 91 85 3d
       0.063350394 0.044229254 -0.042961888 0.065218344
0001a0 4b dc bd 3c 59 4e 8c bc 82 b3 1f 3c cf e8 03 be
       0.023176333 -0.017127203 0.009747388 -0.12881778
0001b0 4f 7c 24 3d 5b 83 ca bc 88 c2 e2 bc 8b df 13 be
       0.040157612 -0.024720838 -0.02768065 -0.14440744
0001c0 3c a5 75 bd f9 9b 26 bd e7 a2 7e 3d 6e 8b 83 3b
       -0.059972033 -0.04067609 0.062167075 0.004014424
0001d0 3f c0 61 bd 25 66 71 bd 48 49 70 ba 94 12 e8 bb
       -0.05511498 -0.058935303 -0.0009166193 -0.007082293
0001e0 21 e8 3a bd b0 ab 57 3c d0 99 57 3d 89 fe 38 3d
       -0.04563153 0.013163492 0.05263692 0.04516462
0001f0 d6 da a6 3c e4 79 49 3c b8 5e 7e 3d 4c 4d 05 3d
       0.020368021 0.012297127 0.06210205 0.03254442
000200 b6 b1 37 3c c8 be f7 3b a2 7b 84 3d 29 5e d3 bc
       0.011211803 0.0075605847 0.064688936 -0.025801735
000210 bf 1c 86 3d 6a 6d 7e bd 76 be 19 bc f6 3c 81 bd
       0.06548452 -0.062116064 -0.009383788 -0.063104555
000220 b5 ac ae bc ae 8e 31 3d 60 3f 24 3d 02 cc 92 bd
       -0.021322588 0.04334896 0.0400995 -0.07167818
000230 52 20 34 3d b0 a3 6a 3d 9f 29 73 bd 82 c9 91 bd
       0.043976136 0.05728501 -0.059365865 -0.07118513
000240 41 4e 88 3b 1b 71 d9 bc 18 bd c5 bd f9 dc b6 3c
       0.004159719 -0.02654319 -0.096552074 0.022322165
000250 8c 52 b3 3c 93 5b 11 3c 07 a9 51 3c ad 7f a8 bc
       0.021889947 0.008871931 0.012796647 -0.020568693
000260 0a 62 33 3d b7 d4 8d 3a 62 7e 83 bd 1a b8 85 bd
       0.04379467 0.001082084 -0.0642059 -0.06529255
000270 22 48 54 3d aa cc a3 bb 3e 60 84 bd b0 67 54 bd
       0.051826604 -0.004998763 -0.06463669 -0.051856697
000280 ce 2e 59 bd 85 e2 47 3d e0 da 42 3c e3 d1 7e bb
       -0.053023152 0.04880001 0.011893004 -0.0038882426
000290 52 30 f1 bc eb ba 23 3c db 33 47 ba 54 d3 28 bd
       -0.029441986 0.009993295 -0.00075989746 -0.041217163
0002a0 f0 62 7d 3c 2d 5c de bc ba 1c 7a bd 6a d0 0a 3c
       0.015465483 -0.027143562 -0.061062552 0.008472541
0002b0 8c 2b 4a bb ab ea 01 bd 7b b3 28 3c 42 96 0c 3d
       -0.003084871 -0.031717937 0.010296698 0.034322985
0002c0 5b db 7e bd af 53 15 bd f1 20 3d bc 06 e5 5d bc
       -0.062220912 -0.03645676 -0.011543498 -0.013543373
0002d0 4d 2f 7c bd bd 2d 7a bd 46 ee 6b bd 40 ce 66 3d
       -0.061568547 -0.061078776 -0.057600282 0.05634904
0002e0 16 2d fa bb 4a 73 8f bd 41 f3 02 bc bf 55 a3 bb
       -0.007634769 -0.070044115 -0.007992567 -0.004984587
0002f0 76 af 30 bd 80 33 82 bd e0 9b 1b bd b4 1b 6b 3d
       -0.043136083 -0.06357479 -0.03799045 0.057399467
000300 8d 3e 93 3b fe 4b 0b bc ee 32 d0 bc d3 82 f0 3c
       0.0044935406 -0.008502005 -0.02541491 0.029359257
000310 a4 f6 ad bd a7 67 50 bc a9 4f b4 bc ed 9b 8d bd
       -0.084943086 -0.012720025 -0.022010641 -0.06914506
000320 9d ae e4 3c 2a db 24 3c 7c 9d 0e 3c 1b 75 46 3c
       0.027915293 0.010062018 0.008704539 0.012112881
000330 57 f6 4e bd a5 40 43 3c 17 6c 7d bd 4c 49 49 bd
       -0.050527897 0.011917268 -0.06187066 -0.049142167
000340 f9 61 e6 3c 18 76 ea bb 49 7f 22 3d 75 9d f7 3c
       0.028122889 -0.007155191 0.03967217 0.030226449
000350 f0 69 70 bb 4d ba d9 3c 38 5e 29 37 a6 33 77 3b
       -0.0036684237 0.026578093 1.0095122e-05 0.0037719994
000360 62 09 09 bd 1f 69 b9 bd d0 eb b9 39 5d 37 3a 3c
       -0.033456214 -0.090532534 0.00035461644 0.011365739
000370 ee 07 bb bd 01 8f 38 bd 77 ed 2d 3b 80 b3 00 bd
       -0.09132372 -0.045058254 0.0026539245 -0.031421185
000380 d1 6f 93 bd 25 c7 2f 3c 52 f0 6f 3b a5 e8 40 bd
       -0.07199062 0.010728632 0.0036611748 -0.047096867
000390 75 c2 9e bc 6d cc 54 3d a5 bd fb 3c a6 b4 98 3c
       -0.019379834 0.051952768 0.030730078 0.018640827
0003a0 02 d5 b9 3c f5 3d 6f bc 50 98 27 3d 5c ab 53 bd
       0.022684578 -0.014602174 0.04091674 -0.051677093
0003b0 40 45 54 bd ee 3f d2 3b 96 6c 93 3b 62 90 ab 3c
       -0.051823854 0.0064163124 0.0044990284 0.02094287
0003c0 80 b4 bc 3c ac 35 cd 3c ab 1d 43 3d 43 ad 82 bc
       0.023035288 0.025050007 0.047635715 -0.015951758
0003d0 83 15 04 3d 43 50 b4 bc d6 c1 c6 bc 90 7f 93 bd
       0.032247078 -0.022010928 -0.02426235 -0.07202065
0003e0 8b 93 9c bc 87 f8 bc bb 3d 7e 43 3d 0a 74 ac bc
       -0.019113323 -0.0057669315 0.047727812 -0.021051425
0003f0 ad e1 b8 bc 90 03 01 bd b4 73 2e 3d 7f 79 86 bd
       -0.022568548 -0.031497538 0.04259081 -0.06566142

fc.0.bias f4 [256]
000000 d9 bd f4 3c e4 89 d8 bc 14 e0 4a bd d5 8d 70 bd
       0.029875683 -0.026432939 -0.049530104 -0.05872901
000010 70 40 27 bd 30 c8 cf b6 a9 91 75 3d 45 6f 45 3d
       -0.040832937 -6.1923856e-06 0.059953365 0.048201818
000020 79 4a 61 3d c5 83 a4 bc 4f 37 da bc b2 10 25 3d
       0.055002663 -0.020082364 -0.026637701 0.040299125
000030 56 87 34 bd 30 02 14 bd c6 6c a0 3b f4 3f 5d bc
       -0.04407438 -0.0361349 0.0048957793 -0.013504017
000040 fa 76 5f bd 47 96 0f 3c cc 21 42 bc 34 cf 4a 3d
       -0.054556824 0.008763856 -0.011848878 0.04951401
000050 98 25 ed bc e9 74 9a bd fb 84 14 bd 1c e8 7d 3d
       -0.02894859 -0.0754183 -0.036259633 0.061988935
000060 6e 58 8e 3d 8c 50 05 3d 05 0b 84 bd cb c9 04 3d
       0.069504604 0.03254752 -0.06447414 0.032419007
000070 64 16 a7 bc 0b 51 6e bd e6 c6 db bb 8b 2c 3c bd
       -0.020396419 -0.058182757 -0.00670706 -0.045940917
000080 f0 73 44 bc bb 32 7d bc 39 25 8d bd 55 35 44 3c
       -0.011990532 -0.01545399 -0.06891865 0.011975606
000090 b8 d6 66 bd 74 42 8e 3b bb 2c 8d bd a7 51 47 3d
       -0.056357116 0.004341418 -0.06893297 0.048661854
0000a0 60 67 26 bd cb e1 74 3a ed d3 8e bd 5d 98 62 ba
       -0.04062593 0.0009341507 -0.069740154 -0.000864392
0000b0 2f 02 53 bd 65 51 85 bd c3 f6 5a 3d ec 7f 7b bd
       -0.051515754 -0.065096654 0.053457987 -0.061401293
0000c0 cd d7 90 3c bb 11 8c bc 8b f4 97 bc 34 a8 6f bd
       0.017681027 -0.017098298 -0.018549224 -0.05851002
0000d0 f3 13 5d bd 06 b3 66 bd 80 4a 1a 3c 85 87 fe 3c
       -0.053974103 -0.056323074 0.009417176 0.03107048
0000e0 b8 63 70 bd 2c 80 2f bc 1c 7c c7 bb 9e 0e d9 bb
       -0.05868885 -0.010711711 -0.006087793 -0.006624057
0000f0 4f 14 43 3d 0d 5c fd bc 5d 42 89 bd 5b 00 14 bd
       0.04762679 -0.030927682 -0.06702111 -0.03613315
000100 37 4e 3a 3c 43 c0 6b 3b eb f2 a7 3b 07 5a 23 3d
       0.011371187 0.0035972751 0.0051253936 0.03988078
000110 f2 cc af 3c 71 d8 34 bd 65 fb 5a 3d b5 c2 01 bd
       0.02146003 -0.044151727 0.053462405 -0.031679828
000120 60 08 8e 3d e1 32 20 bc 1b 25 31 3d fb 62 78 bd
       0.06935191 -0.0097777555 0.043248277 -0.06064127
000130 8e c7 33 bd 71 17 98 bc c5 05 ce bc 1e 04 90 bc
       -0.043891482 -0.018565865 -0.025149236 -0.017580088
000140 97 82 91 bc 91 ac 0b 3d c9 76 40 3d 22 83 cd bb
       -0.017762465 0.03410012 0.046988282 -0.0062717358
000150 b3 45 4b bd b7 53 7a bb a3 70 61 3d fa d1 3b bd
       -0.049627017 -0.003819687 0.05503906 -0.045854546
000160 ad bc 6b 3d ab 4a 0c bd e2 77 94 bd 7f 1b b3 3c
       0.057552982 -0.034250896 -0.07249428 0.021863697
000170 cd 42 09 3d b7 d1 69 3d 80 4c a7 bc 9b 7e 2c 3d
       0.03351097 0.057084765 -0.02042222 0.042112928
000180 e2 a6 a6 3c c3 74 a3 bc e9 2e 37 3a 27 be d7 3c
       0.020343248 -0.019953137 0.0006987886 0.026335789
000190 bc 90 04 3c b4 c4 80 bd 1c a2 ce bc a5 8e 06 3d
       0.008091148 -0.06287518 -0.025223784 0.03285088
0001a0 5f 31 88 3d d5 5d 02 3c a2 08 95 3d eb 4f df 3c
       0.06650042 0.007956942 0.07277037 0.027259788
0001b0 7a 79 b5 3c b1 0b a4 3b 70 9c 13 bd c0 4c 13 bd
       0.022152651 0.0050062765 -0.036037862 -0.035961866
0001c0 2f 86 9b 3d e4 80 ac 3d 78 53 18 bd 4d e1 8a 3d
       0.07593953 0.084230214 -0.037188977 0.06781254
0001d0 cc b2 12 bd f7 03 ad 3d df 66 d4 3c db 67 fa 3c
       -0.035815045 0.08448022 0.025927959 0.0305671
0001e0 34 69 24 3d 1f 20 75 bd d4 06 72 ba f4 30 35 bd
       0.040139392 -0.059845086 -0.0009232585 -0.04423614
0001f0 a4 9d 6c 3c 3e 50 52 3d 98 e7 b1 bc 58 3f 20 3d
       0.014441881 0.051346056 -0.021716878 0.03912291
000200 b1 ef 5e bd c2 77 08 bc 8f 4a 6c 3b 29 7d 3f 3d
       -0.054427806 -0.008329334 0.0036055183 0.04675022
000210 d4 d3 f2 3c 30 12 60 bd b1 a6 15 3a 2a be 3f bc
       0.029642023 -0.054704845 0.0005708738 -0.0117030535
000220 5f be 0e 3d 09 6c e6 3c 22 bb 27 bd d2 78 ae 3c
       0.03484952 0.028127687 -0.040949948 0.021297846
000230 d1 76 32 3d fb 4a 5c 3c d7 bc 8b 3c c9 82 97 3d
       0.043570343 0.013445611 0.01705782 0.07397992
000240 d8 a8 11 3c 7b cf 1f bd 60 a1 89 bd e8 43 90 3d
       0.008890353 -0.03901623 -0.06720233 0.07044202
000250 27 58 33 3d 5b e7 4a bb f4 26 4a 3d 40 40 22 bd
       0.04378524 -0.0030960653 0.049353555 -0.039612055
000260 08 1e 69 bd 74 b6 8e bd f0 b1 ae bc 71 aa 7b bc
       -0.056913406 -0.06968394 -0.021325082 -0.015360461
000270 13 44 8d bd bf 48 18 bd f8 d6 aa 3c cd 3b 01 3d
       -0.0689775 -0.03717875 0.020854458 0.03155117
000280 ba 0b 5d 3d d9 8f 79 bc 3b 56 11 3d 81 d0 6d bd
       0.05396626 -0.01523205 0.035482626 -0.058060173
000290 05 a0 97 3c 27 27 d1 bb 72 87 33 3d 26 ed e2 bc
       0.01850892 -0.006382841 0.043830343 -0.027700972
0002a0 8a 7a 97 bd 67 ce 78 bd 94 8f 4f 3d 4b 26 8e bd
       -0.07396419 -0.060743716 0.050674036 -0.069408976
0002b0 ac 02 a5 bd 98 a3 79 bd 9d 66 e4 bc 83 54 8c bd
       -0.0805715 -0.06094703 -0.027880961 -0.06852057
0002c0 57 0f 42 bd 52 fa 6c bc 2a bf 96 bd 51 25 a0 bc
       -0.04737791 -0.014463978 -0.073606804 -0.019549044
0002d0 33 c0 0c 3d e7 17 3f 3b 9f 36 4a 3d 76 be e2 bc
       0.034362983 0.0029158534 0.049368497 -0.02767871
0002e0 47 99 29 3c 7b d2 5e 3d 39 16 2c 3c 6a 1e 3c bd
       0.010351486 0.05439995 0.010503345 -0.045927443
0002f0 d0 02 b2 3c b5 7e 4f bd e5 02 d8 3b cb aa cc bc
       0.021729857 -0.050657947 0.006592142 -0.024983784
000300 ef 64 68 bd 15 c6 27 bc 40 3c ca 3a 33 be 90 bd
       -0.056736883 -0.0102400975 0.0015429333 -0.070675276
000310 bd fc 23 bd 3f 13 27 3d 75 9c e4 3b 66 bc 77 3d
       -0.040035952 0.04078984 0.006976659 0.060482405
000320 9b b7 27 bd b2 97 89 3b 09 1b e6 bb 4a 9c 14 3a
       -0.040946584 0.0041989917 -0.007022266 0.0005669041
000330 47 27 5c 3d 40 3a 70 3d 02 18 18 3b ce b6 36 bd
       0.053748395 0.0586493 0.002320767 -0.04460793
000340 39 db 5c 3d a6 7a 63 bd c6 70 2d 3d ae e6 e5 bc
       0.053920005 -0.05553689 0.042343877 -0.028064098
000350 76 99 30 bc 81 7e be 3c 1f 4e 76 bd 4e 0f 2a bc
       -0.010778775 0.023253681 -0.060133096 -0.0103796255
000360 34 f5 d5 bc 62 80 9b bc 47 10 d8 3b 58 71 78 bc
       -0.026117899 -0.018982116 0.0065937373 -0.015163742
000370 3f c6 56 3d b3 2a b5 bc 51 29 1d bd 5d bb f5 3b
       0.052435156 -0.022115087 -0.03836948 0.007499142
000380 7c 25 68 bd 55 cb 42 3d bb 0b a4 3c 62 22 38 bc
       -0.056676373 0.047557194 0.020025125 -0.011238666
000390 af f9 05 3c 81 4e f4 3b f3 4b 63 bd 38 40 58 3d
       0.008177205 0.0074556475 -0.055492353 0.05279562
0003a0 1d 19 40 bd 37 14 ae 3c 4d 56 a5 3d e9 70 73 bc
       -0.04689895 0.021249874 0.08073101 -0.014858463
0003b0 23 18 21 bd 04 c7 16 bd 3e d4 dc 3a fb 2e b3 3c
       -0.03932966 -0.03681089 0.0016847921 0.021872988
0003c0 7e e3 8c bd fa 3b 44 3d fe 4e 66 bd 6b 76 a9 3c
       -0.06879328 0.04790876 -0.056227677 0.020686349
0003d0 00 00 8a 3d f9 43 d2 bc 77 34 3d bc e3 d7 63 bd
       0.06738281 -0.025667178 -0.011548153 -0.055625807
0003e0 1f 21 93 3d 90 aa 8e bd 55 61 05 bd 96 68 50 bd
       0.07184052 -0.06966126 -0.032563526 -0.05088099
0003f0 4b ca e4 3c ab f0 8f bd 1a 5a 26 bd 38 66 2f 3d
       0.027928492 -0.07028326 -0.04061327 0.042822093

fc.3.weight f4 [12, 256]
000000 63 0e 1e bd 1f c2 80 bd ca 0a 29 be f1 5d 29 3d
       -0.03858794 -0.06287026 -0.16508022 0.041349355
000010 59 f9 c5 bb 60 99 f1 bd 04 ef 81 bd 11 6f 25 3d
       -0.0060416874 -0.11796832 -0.06344417 0.040389124
000020 43 7c a5 bd be 0c 77 bd cc c3 2a bd 12 6b eb 3c
       -0.08080342 -0.060314886 -0.041690633 0.028737579
000030 5b 2c 58 bd fc aa 2d bf a7 4a c1 bc ab e1 40 bc
       -0.052776676 -0.67839026 -0.023595167 -0.011772553
000040 f9 fc 19 be df 88 82 3a d0 3b fd 3c 1a d5 03 3d
       -0.15037908 0.0009959004 0.03091231 0.03218565
000050 65 04 1d 3d 2f a2 2f bb 45 35 1a bd b9 e7 19 be
       0.03833427 -0.002679955 -0.037648458 -0.15029801
000060 41 50 f3 3b f8 15 5f 3d 34 63 9b 3c 74 9e c0 3c
       0.0074253385 0.05446431 0.018968202 0.023513056
000070 9f 39 03 be 58 15 4d bc ad 91 1c bc b4 d2 be bc
       -0.1281495 -0.012517296 -0.009556216 -0.02329383
000080 1e 3d 2d bd 5c 99 02 be 7f 7c a8 bd 51 b5 bf bc
       -0.042294614 -0.12753814 -0.08226871 -0.023401888
000090 a7 f5 11 bd c4 4a c5 bc 91 30 ef bc 0f ba c7 bd
       -0.035634663 -0.024083503 -0.029197963 -0.09752285
0000a0 b4 17 5f bd 6c 9a 24 3d b3 13 20 3d d2 6d 57 3d
       -0.054465964 0.04018633 0.039081287 0.052594967
0000b0 eb 5c c8 3c f2 2f 6c bd 72 e6 4b bd 16 b5 64 bd
       0.02445837 -0.05766291 -0.049780317 -0.05583676
0000c0 ba fb 03 bd 0a 1c ec bc de 5f bb be a2 7c 1c 3d
       -0.032222487 -0.028821964 -0.36596578 0.038204797
0000d0 d0 63 49 3d af 96 9a ba fc ec 1e 3d 09 9c f2 bd
       0.049167454 -0.0011794175 0.038800225 -0.118461676
0000e0 73 eb 04 bd e8 07 35 3b b4 0b 1a bd 04 a0 80 39
       -0.032451104 0.002762312 -0.037608817 0.00024533283
0000f0 06 01 3d bc a1 a1 84 3b a4 9b 1e bc 05 f4 6b 3b
       -0.011535889 0.004047588 -0.009680662 0.0036003601
000100 8c 22 12 3d cc 8e 6e bd 9e 22 d7 bc 7a ab ef bc
       0.035677478 -0.05824165 -0.026261624 -0.029256571
000110 90 5f fc bc b9 97 03 be 73 ed 41 3d e5 66 e0 3b
       -0.030807287 -0.12850846 0.04734559 0.0068482035
000120 e7 56 00 be 55 fc e2 3c b8 1f 0a bd 6f 39 e6 bc
       -0.1253315 0.027708212 -0.033721656 -0.028103558
000130 b7 c0 34 bc 2a a9 13 3d 6e c5 e4 be 5c 27 d8 bd
       -0.011032275 0.03605 -0.44681877 -0.10554382
000140 50 fa ff bc 1d fa 9f 3b 13 82 88 bb cb 24 d4 bb
       -0.031247288 0.0048821107 -0.0041658967 -0.0064741126
000150 10 d6 ff bd 63 91 ae bd c6 f2 c1 3c 49 8a cc bc
       -0.12492001 -0.08523824 0.023675334 -0.024968283
000160 03 2d 03 bd eb 0e c0 3c 25 bc 08 3c 5e fe cd bd
       -0.03202535 0.023444613 0.008345638 -0.10058282
000170 91 e5 02 bd 09 84 af bc 1e f7 d8 bd 37 43 66 3c
       -0.031957213 -0.021425264 -0.10594009 0.014054111
000180 a7 3e dd 3c 6a cb bc be 32 cd e1 3c c2 6c c2 bc
       0.027007414 -0.36873943 0.027563665 -0.0237335
000190 3e c6 0f 3d 5e ef e2 bd f1 2a 35 3d 41 d4 f0 bd
       0.035101168 -0.11080812 0.044230405 -0.11759234
0001a0 e6 ca f5 bd dc 8d af bc c4 9f 3d bd 7b c7 82 bd
       -0.120015904 -0.021429949 -0.046294942 -0.06385704
0001b0 29 87 05 bc d8 70 ce 3c f9 29 10 be 73 da aa bd
       -0.0081499005 0.025200292 -0.14078511 -0.08342447
0001c0 ef 92 d9 bd 6e 44 09 be 81 fa 01 3d a0 7b 8d bc
       -0.106237285 -0.1340501 0.03173304 -0.017270863
0001d0 42 fc 31 3d 39 1a a7 bd 72 cf 55 3d b5 8e 86 3b
       0.043453462 -0.081592984 0.05219979 0.0041063675
0001e0 ca f3 e9 3b 2b e8 6d bd a4 0c 0e 3d 5c 8a af bd
       0.0071396576 -0.05808274 0.034680024 -0.08571312
0001f0 87 6c 97 3a a1 ec 21 bf 3e ea e4 3b fb bb 94 bd
       0.0011552729 -0.6325169 0.0069859317 -0.07262417
000200 9e e1 bf 3c 3b 4d 07 3d 6f b1 77 bd 7b ec 2a be
       0.023423012 0.033032637 -0.06047195 -0.16691773
000210 a2 5d 2d be f7 2f 2e bd be 23 5f bc 72 ce 0a bd
       -0.1693025 -0.04252621 -0.013619361 -0.033888288
000220 db 87 8f be 91 2a e1 3c c8 09 02 bf 94 1a 30 3b
       -0.28033337 0.027486118 -0.50796175 0.002687131
000230 60 34 bb bd 14 cd 39 bd 90 05 c0 bd ca 69 27 bd
       -0.09140849 -0.045361593 -0.09376061 -0.040872373
000240 78 56 c6 39 05 47 ac 3c 32 28 f8 3c 56 f8 b3 bd
       0.00037829927 0.021029959 0.030292604 -0.08787601
000250 27 2b 61 bd 21 b0 99 bd c7 3c 8a 3c a9 e1 1e 3d
       -0.054972794 -0.07504297 0.016874684 0.038789425
000260 41 50 ad 3c f5 00 a4 3c 12 47 b7 bc f0 b7 36 bb
       0.021156432 0.020019988 -0.022372756 -0.0027880631
000270 0a ce 2e bc bd 6d 41 bd 2a 3e 3c 3d 37 1e 17 3c
       -0.010669241 -0.047223795 0.04595772 0.009223512
000280 6f 30 3c 3d f7 82 11 bd 44 5d 9e 3c 17 d3 0a bd
       0.045944627 -0.03552529 0.019331582 -0.033892717
000290 eb 6d 26 3d 56 bd 86 3c dd 19 ff bc 31 47 0d 3d
       0.04063217 0.016447704 -0.031140262 0.03449172
0002a0 28 88 16 3c c6 73 55 bd ac 74 b8 bd 66 c9 2e bd
       0.009187736 -0.052112363 -0.090066284 -0.042672537
0002b0 cf 6b cc 3c e6 c6 bb 3c 39 ae cf bc 7a 62 33 3d
       0.02495375 0.02292199 -0.02535163 0.043795086
0002c0 cb 88 c2 bc f7 74 94 bd 91 36 ca 3c 50 14 4b 3c
       -0.023746869 -0.07248872 0.024684222 0.01239498
0002d0 b9 64 68 bb 80 ba 36 bd 76 58 db 3c 1d 2e d1 3c
       -0.0035460426 -0.044611454 0.02677558 0.025534684
0002e0 db 04 94 bd d5 23 71 bd 47 77 13 bc 8f 9f 76 bd
       -0.072274886 -0.058872063 -0.009000606 -0.06021076
0002f0 91 f1 ac bc 4e e6 03 bd 78 de 67 ba 52 8c 49 bc
       -0.021111282 -0.032202058 -0.0008845101 -0.012301521
000300 a9 09 63 3b 23 d2 f0 bc eb 2b 93 bd d2 6f 70 bd
       0.003464321 -0.029397076 -0.07186111 -0.05870039
000310 29 cc 2c 3c f3 a2 20 bd 6a c9 21 bd 79 09 e7 bd
       0.010546722 -0.0392179 -0.039498724 -0.11281104
000320 98 7c 5a bc 85 3f 01 3d 3e 21 27 3d f3 0c dd bb
       -0.0133353695 0.031554718 0.040803187 -0.0067459284
000330 11 86 73 bd c4 74 41 bd 3c b2 fe bc e1 7e 80 bd
       -0.059454028 -0.047230497 -0.031090848 -0.062742
000340 09 c7 8c bd 68 a2 2a 3d 17 90 5b bd c5 ef 09 bf
       -0.068739004 0.04165879 -0.05360421 -0.53881484
000350 9e 97 33 3d 23 fc d4 3c 6a 74 51 3d 0b 2c 1e 3c
       0.043845765 0.025999134 0.05113641 0.009654055
000360 73 45 85 bd 62 e5 01 be 14 81 36 3c e0 9e fc bc
       -0.06507387 -0.12685159 0.011139173 -0.030837476
000370 5f f5 5b 3b 84 94 35 bf 0a 06 b3 3c 09 9d 59 3c
       0.0033563 -0.7092974 0.021853466 0.013282069
000380 e9 f6 f5 be d9 a7 20 bb dc 78 b6 bb a0 94 e3 bd
       -0.4803994 -0.0024514107 -0.005568607 -0.11112332
000390 12 d6 57 bd 2c c1 e7 bd 74 b7 94 3a f4 da f8 bc
       -0.052694388 -0.113161415 0.0011346177 -0.030377842
0003a0 0c 63 40 bd ba 1e e6 bd 62 9c e8 bd 03 63 4b bd
       -0.04696946 -0.112363294 -0.11357953 -0.04965497
0003b0 ad 1c 61 bd 87 55 dc 3c c9 36 09 bc 9d a1 72 bf
       -0.054958988 0.026896251 -0.008374878 -0.9477785
0003c0 fd bf 17 bd f1 f0 6b bc 36 90 ae 3b 5c 95 85 3c
       -0.03704833 -0.014400707 0.00532725 0.016306572
0003d0 3f cf c1 bc 62 81 35 3d 0c 70 8f bc f9 5c 27 3d
       -0.023658393 0.044312842 -0.017509483 0.04086015
0003e0 fe c1 f5 bd 5e a7 4a be 92 60 47 3d d5 eb 36 bc
       -0.11999892 -0.19790408 0.04867608 -0.011164625
0003f0 b5 46 fb bd 35 bf 89 bd 15 94 ef bd 0d ca 18 bc
       -0.12269346 -0.06725923 -0.11698166 -0.009325516

fc.3.bias f4 [12]
000000 e2 69 b9 bd 3d ed 7b bd 84 68 a2 3c 8c 7d 26 3a
       -0.09053399 -0.061505545 0.019825228 0.00063511054
000010 db 4b b3 bd 3e d8 14 3d 1d d6 5b 3d 74 c2 11 3d
       -0.08754703 0.036339037 0.05367099 0.035585836
000020 0b 83 1a 3d 01 fc 04 3b d8 e5 2b 3b 53 4e 51 3d
       0.03772263 0.0020291808 0.0026229527 0.051100086
