cnn_fighting_agent_starter/outputs/20251017_202201/model.pt (torch, 287835 bytes, 12 tensors)

state_cnn.0.0.weight f4 [16, 1, 3, 3]
000000 1e ff 98 bd 26 0c 68 bd 95 0a 1c bd 86 af 50 bd
       -0.07470535 -0.05665221 -0.03809603 -0.050948642
000010 be 47 83 be a3 5a 67 be 7e 6a ba 3d 0a 0f 4e 3e
       -0.25640672 -0.22593169 0.09102343 0.20122924
000020 5a 84 e5 3d fe 2b 17 bd cc 57 93 bc 9e b9 d5 3d
       0.11206885 -0.03690719 -0.0179862 0.10435794
000030 c9 1e 33 be 96 f2 49 3e f2 db 1a 3e 92 69 94 3e
       -0.17492212 0.19721445 0.15122965 0.28986794
000040 74 bd bf 3d b1 52 12 3e db e6 d4 bd 40 0b 11 bc
       0.09362307 0.14289357 -0.10395595 -0.00885278
000050 88 5f 29 3e 13 bd 0e be 90 53 08 3e 3b 1b 4a bd
       0.16540349 -0.13939314 0.13313127 -0.049342375
000060 d3 b6 bc bd 0c d1 0a be 04 66 63 3e 41 cc 29 3c
       -0.092145585 -0.13556308 0.22206885 0.010363639
000070 26 9b 5a 3e 35 23 f1 bd 10 56 9c 3e 49 d0 96 be
       0.21348247 -0.11774293 0.3053441 -0.29455784
000080 9d 68 23 3e 89 71 a1 3e 2a 6d 0c be 73 a8 29 be
       0.15957876 0.31531933 -0.13713518 -0.16568165
000090 ca fb 1c 3d dc 38 b4 3e e9 0e 42 bd 26 0c 6e 3e
       0.038326062 0.3519963 -0.0473775 0.23246822
0000a0 15 77 7f 3e 47 78 87 3e ef 7a 92 bb 58 f3 98 bd
       0.2494777 0.26458952 -0.004470221 -0.07468289
0000b0 04 e6 ba 3d 35 8f 54 be 0a 3a 97 3d eb 62 ed 3d
       0.09125903 -0.20757754 0.07384117 0.11591133
0000c0 ea cb 73 3d a5 5a c3 bd 21 52 a7 bb 65 3c dd 3e
       0.05952064 -0.095387734 -0.005106226 0.4321014
0000d0 c6 91 00 3e 07 0a 0a be f2 f4 31 3d e8 76 38 3c
       0.12555608 -0.13480388 0.04344649 0.011258818
0000e0 bd a6 99 3d 17 3b ce 3d ee fa 93 3e ee 41 25 3c
       0.07502506 0.10069864 0.28902382 0.01008652
0000f0 d3 af 44 be 79 74 23 3e 43 f6 59 be a0 67 56 3e
       -0.19207697 0.159624 -0.21285348 0.20937967
000100 2b ee 8c 3e d1 6d c4 3d 6b ea ae 3e fb 07 fb 3c
       0.27525458 0.09591258 0.34163222 0.030643454
000110 01 31 39 3e e5 c8 9c be 40 5e 7b 3e 0c f1 95 3e
       0.180851 -0.3062202 0.24547672 0.29285467
000120 d1 09 81 3e 16 a0 ef bc eb a3 28 be 35 2e 7b be
       0.25202802 -0.02925114 -0.1646878 -0.24529345
000130 f3 6f 46 3e a8 9d b3 bc 39 a0 56 3e d5 dc ba 3d
       0.19378643 -0.021925762 0.20959558 0.091241516
000140 35 4c 24 be 32 c9 a4 3e 8a 4e 0d be 41 5c a7 bb
       -0.16044696 0.3218475 -0.13799492 -0.005107433
000150 24 9f 5a be e5 1f 07 3e 54 14 17 3e 38 ee 8f be
       -0.2134977 0.1319576 0.14753848 -0.28111434
000160 61 85 ff 3d 02 94 01 b9 d8 96 9c 3e bf cc 64 be
       0.12476612 -0.00012357536 0.30583835 -0.2234373
000170 b2 22 0b be 01 81 2e 3d 17 6b 06 3c 73 af e2 bd
       -0.13587454 0.042603496 0.008204243 -0.110686205
000180 3d 7f 40 be cb ac a2 3e 6e 33 3e be a4 d8 93 be
       -0.18798538 0.31772456 -0.18574306 -0.2887622
000190 e2 99 f5 3d 21 80 d0 3d 62 20 6b 3d b9 47 07 be
       0.119922414 0.10180689 0.05740393 -0.13210954
0001a0 3e 2f 08 be ff 97 1a 3e 72 d8 60 3e c8 03 52 bd
       -0.13299271 0.15097044 0.21957567 -0.051273137
0001b0 cf 97 a9 3e 73 f4 c4 bb 79 06 93 be 7a 03 72 3e
       0.33123633 -0.006010586 -0.28715876 0.23634139
0001c0 37 cf 84 3e ef b2 91 be 63 3d 97 be cc 7a 84 3e
       0.25939342 -0.28456828 -0.29539022 0.25874937
0001d0 53 00 d1 3d 99 71 6e be cc 42 fd bd b3 40 98 3d
       0.1020514 -0.23285522 -0.12366256 0.074342154
0001e0 8d f7 87 be 6c c0 57 be cb 66 87 be 8c 3f 88 be
       -0.26556054 -0.21069497 -0.26445612 -0.26610982
0001f0 3e 27 ad 3c e2 a9 8f 3e 31 47 74 3d 8e cd 66 3e
       0.021136876 0.28059298 0.059638206 0.2253935
000200 f2 75 dd bc 11 2e 9d be b7 fa 30 3e 3b b2 a0 3e
       -0.02703378 -0.30699208 0.1728314 0.3138598
000210 0e 62 7d be 83 3f 66 3e c2 14 1b 3e 09 4f 03 3e
       -0.24744436 0.22485165 0.15144637 0.12823118
000220 0e bc 58 be 9d ad 95 3e 83 08 2b 3d f1 4c cd bc
       -0.21165487 0.2923402 0.041756164 -0.025061103
000230 15 07 96 be c6 29 58 bd f1 1d f6 3b d3 5c 00 3e
       -0.29302278 -0.052774213 0.0075108935 0.1253541

state_cnn.0.0.bias f4 [16]
000000 a0 1f 88 be b8 30 28 be c5 3b 8d bd 79 3d 98 bd
       -0.26586628 -0.16424835 -0.06896166 -0.074336
000010 d1 e4 cc 3c 80 0e 31 3e 91 4f 31 bd 24 5a 7b 3d
       0.025011452 0.17290688 -0.04328877 0.06136526
000020 eb 5e 97 be f0 3f 62 3d 70 6c 90 3c 73 d6 7d be
       -0.29564604 0.055236757 0.017629832 -0.24788837
000030 05 e3 1b 3e b9 94 3b bc 0e 4d 2b be b3 c1 9f be
       0.1522332 -0.011449032 -0.16728613 -0.31202468

state_cnn.1.0.weight f4 [32, 16, 3, 3]
000000 83 bc 2a bd b6 4f 0a bd 31 93 3a 3d 73 80 cf 3d
       -0.041683685 -0.033767425 0.04555053 0.101319216
000010 b9 9d b7 bb fb 99 97 3d 68 72 cc 3d cd 4a 9c bd
       -0.005603519 0.07402416 0.09982759 -0.076314546
000020 ff ed 85 3d 3c 65 19 bd 7f 18 18 bd e4 14 03 3d
       0.06539535 -0.03745006 -0.037132736 0.032002345
000030 a8 64 b0 3d 9c 06 b6 3d 7a 2f b4 3b ac 9a 66 3d
       0.08612949 0.088879794 0.0054988237 0.05629985
000040 68 37 5e bd 31 37 82 bd ca 02 21 3c 69 00 9f 3d
       -0.05425206 -0.06358183 0.009827325 0.0776375
000050 21 f5 03 3d 71 48 2b 3c 4d 1f c8 3d e9 36 e3 bd
       0.032216195 0.010454283 0.09771595 -0.11094458
000060 9e 78 86 3d 68 35 a6 3d 07 cd 26 3d 59 26 a8 bc
       0.06565975 0.08115655 0.040722873 -0.020526098
000070 6d 00 0c 3d 4c bd b4 bd 8f 80 8a 3d a9 f9 7a 3d
       0.034180094 -0.08825168 0.06762802 0.06127325
000080 3a 7e 79 3c aa 81 fb 3c e2 45 c6 3c 21 9b fe 3c
       0.015227849 0.030701477 0.024203245 0.03107983
000090 01 32 8b bc 39 d8 3e 3a e9 e7 9c bd 0c 7d 74 3d
       -0.016991617 0.00072801445 -0.07661421 0.059689566
0000a0 4c 4c b3 3c 33 14 3f 3b 93 5f 97 3c 23 35 1d 3d
       0.021886967 0.0029156327 0.01847819 0.038380753
0000b0 0c 62 1f bd 61 4e 52 3c 18 83 23 3f 14 55 50 bc
       -0.038911864 0.01283607 0.6387191 -0.012715597
0000c0 6e e2 99 3c e4 8c 72 3d df 2e 4a 3d 09 01 86 bd
       0.018784728 0.059216395 0.049361106 -0.06543166
0000d0 99 4d 03 3b 8b 99 9c 3c 6d 38 bf 3d 69 94 8b 3d
       0.0020035265 0.019116184 0.09336934 0.06815416
0000e0 ea 5e 9d bd 77 1e 0b bc a5 96 8b 3d 47 ca 60 bd
       -0.07684119 -0.00849115 0.068158425 -0.054880407
0000f0 80 c7 95 3d 71 d0 2d bc d4 3c 72 3d 47 92 2a 3d
       0.07313442 -0.010608778 0.05914004 0.041643407
000100 a8 55 1d 3c 13 70 53 3c 35 4e f7 3c 27 8e 4f 3d
       0.009602942 0.012905139 0.03018866 0.050672676
000110 c9 a9 e4 bc 7e dc 85 ba 31 8e 35 bd db ef 22 3d
       -0.027912991 -0.0010212807 -0.044325057 0.039779525
000120 96 52 18 3c 5c aa 86 3c e6 13 28 bd 43 02 36 3d
       0.009297034 0.016438656 -0.0410346 0.04443575
000130 cf 87 df bc 99 ad 87 bc 5a e7 a7 3d 19 94 0c bc
       -0.027286438 -0.01656227 0.08198424 -0.008580231
000140 f1 12 4e bc ac 3b 59 3d 3a ea a8 3d 41 37 21 bd
       -0.012577758 0.053035423 0.082478 -0.039359335
000150 dd 36 53 3c 90 93 84 3d 36 56 4b 3d 2d 41 cc 3d
       0.012891498 0.06473458 0.049642764 0.09973369
000160 74 81 e8 3c ab 3d 72 bd b5 8f b0 3d 88 3a 4c 3d
       0.02838204 -0.059140842 0.0862116 0.049860507
000170 28 be b3 bd e7 97 2f bd 00 3a 6d bc 58 3a a1 bd
       -0.08776504 -0.042869475 -0.01447916 -0.07872456
000180 ce e1 90 bc 56 9e f0 bc f6 c2 14 bd 4b f3 0e bd
       -0.017685797 -0.029372375 -0.03631874 -0.03489999
000190 20 d8 b4 3d e6 c5 7c bc 7e dd 50 3d df 14 e9 bb
       0.08830285 -0.015428042 0.05099248 -0.0071130837
0001a0 8e 99 44 bd 85 db 8b 3c 30 52 09 3d 0e 80 03 bd
       -0.047998004 0.017072449 0.033525646 -0.032104544
0001b0 11 da 3f 3d 6f 64 d2 3d f6 39 11 bc 5d 65 dd bc
       0.046838824 0.102730624 -0.008863917 -0.027025873
0001c0 17 1c 0a bd 3b b2 8d bd 20 8d 83 3d eb 16 a9 3d
       -0.033718195 -0.069187604 0.06423402 0.082563244
0001d0 c3 e4 01 3d f1 16 26 bc c6 b0 4c 3d 59 d2 98 3d
       0.031712305 -0.010137306 0.04997327 0.07461996
0001e0 7e e8 ab bc 29 01 0c bd 06 f9 89 3d 1b 70 35 bd
       -0.020984884 -0.034180794 0.067369506 -0.044296365
0001f0 fe 8d a9 bc fc cd 44 bc 91 22 72 bd b6 a2 eb bc
       -0.02069759 -0.012012001 -0.059114996 -0.02876411
000200 2c 6d 65 bc 54 3c 51 3d 60 16 9f 3d dd 79 9c bd
       -0.014003079 0.051082924 0.077679396 -0.07640431
000210 96 8a 8e 3d 7f d7 63 bc da de 39 bd 1a e9 a7 bd
       0.06960027 -0.013906359 -0.045378543 -0.081987575
000220 05 50 8d 3d be dc 46 bd 01 b8 16 3d 0e 92 88 bc
       0.06900028 -0.04855036 0.036796574 -0.016671207
000230 b9 fc 21 3d fc 38 53 3d 06 9a 82 3d 22 a9 9b bd
       0.039547656 0.051568016 0.06377034 -0.07600619
000240 91 2c 75 3c 71 62 a4 3c d9 9c 18 bc df c7 8b 3d
       0.014964239 0.020066472 -0.009314739 0.06825232
000250 57 09 be 3d d5 41 99 3d ec d5 44 3d a5 45 99 3c
       0.09279125 0.074832596 0.048055574 0.018709967
000260 82 8d 90 3d cf 13 8c 3d 45 35 9e 3d de 2f 3e bd
       0.070582405 0.06839716 0.07725004 -0.04643237
000270 81 6b c0 bc 83 bb 12 bb 32 7b a5 3d 7c 09 dd bc
       -0.023488762 -0.0022389598 0.08080138 -0.026982062
000280 ac a0 bd 3d 54 ae a8 3d d7 5b 85 bd 1b aa c1 3d
       0.09259161 0.082363755 -0.06511658 0.09456273
000290 c2 c8 13 3d bd 9e a9 bd b3 80 c1 3c 6b 08 b8 3b
       0.03608013 -0.0828223 0.023620939 0.005616238
0002a0 79 73 9f ba 0e 14 1f 3c ce 67 72 bc a3 10 38 3c
       -0.0012165151 0.009709371 -0.014795257 0.011234435
0002b0 12 9b 83 3d dd eb b2 bc b1 47 5b bc 84 7e cf bc
       0.06426062 -0.021840984 -0.013383792 -0.025328882
0002c0 23 22 de 3c 6b fd 8f bd 49 98 16 3d 00 5c d1 3c
       0.027115887 -0.070307575 0.036766324 0.025556564
0002d0 69 c6 51 bd 35 f4 3c bd a0 74 28 bd 91 12 ef 3c
       -0.05121461 -0.04613133 -0.041126847 0.029183658
0002e0 f8 d8 de 3b ef 9e d4 bb de 97 53 bd 58 07 6d bd
       0.006800767 -0.006488673 -0.051658504 -0.05786833
0002f0 a6 fc 66 3d 0e 4f 71 3d bb b9 00 3e ff d6 ff 3e
       0.056393288 0.058913283 0.1257085 0.49968717
000300 1e dc 90 bd 18 f2 a3 3c 3f 07 ba 3e dc f0 f3 3b
       -0.07073234 0.0200129 0.36333653 0.007444484
000310 1a ff 56 bd 2a be a8 3c c6 00 80 bd 46 65 c7 3d
       -0.052489378 0.02059849 -0.062501475 0.09736113
000320 36 3e e5 39 99 4e 97 3d 65 96 af 3d a8 b9 90 bc
       0.00043724634 0.07388038 0.08573607 -0.017666653
000330 d1 7d d5 bc ae 57 f1 3c bf b5 b1 3d 3e a4 9d bd
       -0.02606097 0.029460754 0.086772434 -0.07697342
000340 d8 cb 24 3d 12 9f 81 bc 3b 4d 83 bd 8d 09 6f 3d
       0.040233463 -0.015822921 -0.06411215 0.058358718
000350 8e cf a1 3c 7e e2 9d bc 0a fb 97 3b c4 de 9f 3d
       0.01975229 -0.019273039 0.0046380805 0.07806161
000360 89 b0 20 3d bd 47 18 bd c7 89 89 bb d9 8a 3b 3c
       0.039230857 -0.03717779 -0.0041973325 0.011446678
000370 57 f2 83 3c 38 0f 51 3d 71 e0 eb 3b da 7f a3 3d
       0.016106768 0.051039904 0.0071983864 0.0798337
000380 39 83 9f 3b 9c 4a ea 3c 48 ff 6f bd ab e6 83 bb
       0.004867938 0.02860003 -0.058593065 -0.0040253005
000390 06 50 44 bc 0d 81 b2 3d af 78 b1 bc d5 42 9f bd
       -0.01198197 0.08716021 -0.021663992 -0.07776419
0003a0 af 8c 5f 3d b3 4b 91 3d e3 3f a0 3c d2 06 c2 bc
       0.054577526 0.070945166 0.019561714 -0.023684893
0003b0 da 2e 2b 3c a3 28 19 bb 9e f5 98 bd 6e d4 57 3b
       0.010448182 -0.0023370169 -0.07468723 0.0032933014
0003c0 f9 75 1c bb 33 80 5e 3d d2 82 13 3d 7b 06 9d 3d
       -0.0023874028 0.05432148 0.03601343 0.07667252
0003d0 6a 72 76 bd f6 f2 01 3c 59 11 0e 3c aa 6c f7 bb
       -0.060167708 0.007931462 0.008671128 -0.0075507956
0003e0 3f ab ad 3d 51 57 75 bc d0 c4 94 3d d3 95 76 bd
       0.08479928 -0.014974431 0.072641015 -0.060201477
0003f0 c6 41 65 3c 96 2c 6f bd ac b0 14 bd 21 d9 7d bd
       0.013992732 -0.05839213 -0.0363013 -0.06197465

state_cnn.1.0.bias f4 [32]
000000 ab 8c 3b bd 56 b5 27 3d 93 2a 37 bd 79 21 7c 3c
       -0.04578845 0.04094442 -0.044718336 0.01538884
000010 af 33 6b bd c6 72 86 3d 2a 5c 84 3d 3b 55 83 3c
       -0.057422336 0.0656486 0.064628914 0.016031852
000020 98 c7 83 3c b2 46 a1 3d e9 81 c7 3d c4 37 9f bd
       0.016086385 0.07874812 0.09741575 -0.07774308
000030 92 1a 96 b9 83 4c 2f bd c7 03 8d 3d 0b 53 9f 3d
       -0.00028630026 -0.042797577 0.06885486 0.07779511
000040 c7 6c 8b bd 70 e7 15 3c 8e be d1 3c ae 63 43 bd
       -0.06807857 0.009149417 0.025603559 -0.047702484
000050 4c 46 48 3d be de f7 3c 37 05 69 3d fd cc 0b 3b
       0.048895165 0.030257579 0.05688974 0.00213319
000060 9c 98 e3 3c 2a d2 d7 bc 47 db 06 bd 5e 9f 0c 3d
       0.02778273 -0.026345331 -0.032923963 0.034331672
000070 05 67 02 bd 31 b7 8e bc 91 4c 33 3c da af da bc
       -0.03183653 -0.017421337 0.010943548 -0.02669518

button_cnn.0.0.weight f4 [8, 1, 3, 3]
000000 c5 ed 12 bd 92 82 d6 bc 9a 57 01 be e3 b2 ac 3e
       -0.035871286 -0.026185308 -0.12631074 0.3373023
000010 be 7d 19 be ad 0f 49 be b7 94 16 be 19 fe 52 3d
       -0.14989373 -0.19634886 -0.14705168 0.051511858
000020 72 9c 80 be e0 48 13 3e 6f 3a 63 3e 4e 79 34 3e
       -0.25119358 0.14383268 0.2219026 0.17624399
000030 41 f4 4a 3d 4a 40 a2 3e 01 2c 92 3d 93 c8 6a be
       0.049549345 0.31689674 0.07137299 -0.22928075
000040 bd 26 5d be 22 4a 79 be 82 23 a2 3d fb 84 5c bc
       -0.21596809 -0.24344686 0.07916929 -0.013459439
000050 7f 94 cc 3d d9 25 54 be f0 8a f6 3d eb da 80 be
       0.09989261 -0.20717563 0.12038219 -0.2516702
000060 21 6d d5 3d 6f 7f 21 3e d3 47 33 3e 2f 4b 94 3e
       0.10421205 0.15771268 0.17507868 0.2896361
000070 b2 e7 a5 3e 12 61 88 be 01 6c f6 3d ee 8a 53 3e
       0.32403332 -0.2663656 0.12032319 0.20658466
000080 0d 10 9e bc c1 f1 79 3d 8e dd e9 bb 38 f1 81 3e
       -0.019294763 0.06102157 -0.007137007 0.25379348
000090 57 65 4d 3e 3b 4c 13 3e 8a 2a ef bc ae 2e 22 3d
       0.2005819 0.14384548 -0.029195089 0.0395953
0000a0 ff 53 ad 3e af e4 91 3e f4 7c 6b 3e e3 2b 86 be
       0.33853146 0.28494784 0.22996885 -0.26205358
0000b0 94 47 a4 3d 20 73 ad 3e 5f bb 67 be 73 a6 f3 3d
       0.08021465 0.33876896 -0.2263007 0.11896982
0000c0 66 7f 6e 3d 82 42 46 3e a2 ef ae 3d ff d4 e5 bc
       0.058226965 0.19361308 0.085418 -0.028055666
0000d0 9d 6e b2 3e 67 aa 87 be bd 42 88 be 79 87 a6 bd
       0.34850016 -0.26497194 -0.26613417 -0.08131308
0000e0 fe 6d 3c be 96 12 e9 3d 0e b5 a1 be 72 28 52 3e
       -0.18401334 0.11380498 -0.31583446 0.20523241
0000f0 51 64 2e 3e 51 7b 44 bd d3 ff 9a bd 4c 94 ad 3d
       0.17030455 -0.047969166 -0.07568326 0.08475551
000100 e8 19 62 3e 67 c5 8c be 5f 95 90 be b8 c4 99 3c
       0.22080195 -0.27494356 -0.2823896 0.01877056
000110 2b 9b 37 3e 4e 10 1b bd b2 4a 99 3e 6a 7e 23 3d
       0.17930286 -0.037857346 0.299398 0.03991548

button_cnn.0.0.bias f4 [8]
000000 d9 5f 3c 3e 71 45 77 be 06 a1 94 be eb b7 a5 3e
       0.18395938 -0.24147584 -0.290291 0.3236688
000010 34 12 40 bd 06 57 33 bd 56 ff a6 be 03 c0 66 3e
       -0.04689236 -0.043784164 -0.3261668 0.22534184

button_cnn.1.0.weight f4 [16, 8, 3, 3]
000000 0b c9 c5 3d e9 92 86 3d 8e 04 d3 bb 7b b6 c6 bd
       0.096574865 0.0657099 -0.006439752 -0.09702774
000010 70 9b bf bd bc 5a ec 3c e5 fe 41 3d 71 31 88 3d
       -0.09355819 0.02885186 0.047362227 0.06650055
000020 c7 1b f5 3c cf d6 cc 3d 63 7e bb 3d b9 cb be bd
       0.029920472 0.10001909 0.09154966 -0.09316201
000030 99 b6 98 bd ee f8 83 3d 62 af 71 bc 2c 58 62 bd
       -0.07456703 0.06443964 -0.014751287 -0.05525987
000040 5c 82 ee 3c ae 8e fd bc 34 7c 4f 3d 58 83 8c bd
       0.029114895 -0.030951824 0.05065556 -0.06860989
000050 a8 d8 82 bc 12 b0 6a bd 7a a5 f6 bd da fd 9a bd
       -0.01597245 -0.05729682 -0.12043281 -0.075679496
000060 a2 f3 62 bc f4 7b 94 bc d4 0e f9 bd 92 9c 48 3d
       -0.013852032 -0.018125512 -0.12161031 0.048977442
000070 81 ab d5 bd 64 e4 11 bd e7 15 83 3d bb 24 87 bc
       -0.104331024 -0.0356182 0.06400662 -0.016497007
000080 61 1c 87 bd 88 80 d8 3d c3 d9 44 bd 64 b7 a3 3d
       -0.0659721 0.105713904 -0.048059236 0.07993963
000090 ee 57 57 bc fc 8d b6 bd 62 ec 6e 3d aa 94 b1 bd
       -0.013143523 -0.089138 0.0583309 -0.086709335
0000a0 16 a4 dc bb c3 38 ec bd ca 3c 3f bd fb 58 bd bd
       -0.0067334278 -0.11534264 -0.046688832 -0.09245487
0000b0 79 55 84 3d ca ef 59 bd 65 cf b4 3d 0c 2f df bd
       0.06461615 -0.053207196 0.0882862 -0.10897645
0000c0 b5 5d 15 3b f1 4c 76 3d da 58 b7 bd 31 b5 4d 3d
       0.002279145 0.06013197 -0.08952494 0.050221626
0000d0 67 58 db 3d bb eb b3 3d a4 75 cd 3d 40 c1 bb bd
       0.10710221 0.087851964 0.10032204 -0.09167719
0000e0 f5 8c 96 3d fb 8c 3f 3d 75 34 08 3d e6 a5 57 3d
       0.07351104 0.04676531 0.033253152 0.052648447
0000f0 1a 6b ac 3c 40 ce cc 3c ca 07 e3 3d e1 57 b5 bd
       0.021047164 0.025000691 0.1108547 -0.08854652
000100 aa 34 d2 bc 77 10 9f 3d ee f5 dd bd 71 03 1c bd
       -0.025659878 0.07766812 -0.10837923 -0.03808922
000110 c2 90 6c bd 92 bf 59 bc 33 28 7d bd 6b a9 57 bc
       -0.05775524 -0.013290303 -0.061805915 -0.013162951
000120 bd 1d fe 3d 04 e7 5f bd 57 b2 97 bd a8 b9 f7 bc
       0.12408016 -0.054663673 -0.074070625 -0.030239895
000130 b6 f8 f9 3c 46 ec b3 bd f6 a5 25 bc 13 56 8c bc
       0.030514102 -0.087853 -0.010110369 -0.017130887
000140 eb 46 53 3d 06 43 97 3d ed 94 e7 3d d1 df c6 bc
       0.051581305 0.073858306 0.11307702 -0.024276646
000150 ff aa f1 3d 5d 93 8b bd 7d f8 f8 3d 59 ac 9e 3d
       0.11800193 -0.06815217 0.121567704 0.077477165
000160 72 80 ee 3d 4d ab bb bd 66 48 b1 bb 73 4f ce 3d
       0.11645593 -0.091635324 -0.005410242 0.100737475
000170 52 15 87 bd 60 ad ae bd d6 b5 99 bd d8 5f 54 bd
       -0.065958634 -0.085291624 -0.075053856 -0.051849216
000180 ee 44 b8 3c 33 c3 be 3d 5b 5c 7e 3d af 32 58 3d
       0.022493806 0.09314575 0.062099796 0.05278271
000190 d5 77 5b bd 5e 18 dd b8 fe a9 6b 3c e7 31 29 3d
       -0.053581078 -0.0001054264 0.014383791 0.041307356
0001a0 e1 a5 94 3d 4d 16 1c 3c 89 fa 98 3c 57 97 f7 3d
       0.072582014 0.009526801 0.018674152 0.12089413
0001b0 6e 13 79 bd 3d f6 06 3e 81 7d 10 3e 98 66 21 bd
       -0.060809545 0.1317987 0.14110376 -0.03940448
0001c0 c1 b4 93 bd 48 b4 1e bd 20 5b cc bb fa b6 81 3d
       -0.072122104 -0.03874615 -0.006236449 0.06333728
0001d0 97 19 cf bb d7 ca b1 3d e2 a9 d7 3c da 65 88 bc
       -0.006320189 0.08681267 0.026326124 -0.01665013
0001e0 77 34 80 3c c0 da 0d bd 0c 5f 59 bd b7 ba d8 3d
       0.015650017 -0.034632444 -0.05306916 0.10582488
0001f0 d6 fd d0 3d e8 b5 b0 bd 1c 8c a2 bd 31 79 0c bd
       0.10204665 -0.08628446 -0.0793688 -0.034295265
000200 c0 34 a2 3d ca b0 a4 bb 05 0d 1c 3d 90 4f 95 bc
       0.079202175 -0.0050259577 0.038098354 -0.018226415
000210 de fd 85 bb 38 27 fd 3d 2e e6 99 bc bb 5d 7e bd
       -0.004089101 0.12360996 -0.018786516 -0.062101107
000220 18 28 0e bc 8b 4c e3 3d 25 f0 5b 3d db 98 42 bd
       -0.008676551 0.11098584 0.053695817 -0.047509056
000230 1e 89 8e 3d 5a 11 4c bd f2 3b 99 3d 44 eb 98 3d
       0.06959747 -0.049821235 0.07482137 0.07466748
000240 f9 d4 a0 3c 72 a0 ed 3d 52 73 0a bc 6c 25 ca bd
       0.019632803 0.11602868 -0.008450346 -0.09870419
000250 f8 ec 81 bb a9 ed 81 bd c6 ea 92 3d d3 25 ad 3c
       -0.0039650165 -0.06344158 0.07173686 0.0211362
000260 01 63 0d bd 9d db 54 bc 39 7b a2 bd c3 91 d3 bd
       -0.034518246 -0.012991813 -0.07933659 -0.10330536
000270 ee 21 72 3d 6a cd 99 bd 3d 4f fd 3d ad 6b 40 bd
       0.05911439 -0.07509883 0.12368629 -0.046977688
000280 2a ad 19 bd 37 67 28 bd 89 35 a4 bd 64 45 05 3d
       -0.037518658 -0.04111406 -0.080180235 0.03253688
000290 da c1 25 bc 1f e8 ea 3d 98 67 c9 bd a0 38 b6 bc
       -0.010117019 0.11470055 -0.09834212 -0.022243798
0002a0 c4 12 98 bd e8 3a ce bd 92 7c fa 3d c9 ad 89 3d
       -0.07425454 -0.10069829 0.12230791 0.067226
0002b0 37 df b9 3d 53 8e c7 bd 11 07 c7 3d 46 76 93 3d
       0.09075778 -0.09743943 0.09718145 0.07200293
0002c0 83 8f 68 3d 12 06 d4 bc a5 e1 e6 3d 1c 19 73 bd
       0.05677749 -0.0258818 0.11273507 -0.059350118
0002d0 d5 e7 86 3d 69 0f 8b bc f7 aa e7 bb 5f b9 cc bd
       0.06587187 -0.016975122 -0.007069941 -0.09996294
0002e0 72 0e e8 3c 85 e4 76 bd 98 dc 4f bc 64 9a e3 3d
       0.0283272 -0.060276527 -0.012686871 0.11113432
0002f0 29 d6 c1 bd ba f1 1d bd f3 30 43 3d 88 cb c5 bc
       -0.09464676 -0.038560607 0.047654103 -0.024144903
000300 c0 2b 81 3c b9 ed 5a bd 90 8c c9 3d db f0 d8 3d
       0.015767932 -0.053449366 0.09841263 0.105928145
000310 c3 57 9f 3b 8f 8f b4 bd dd f0 d3 3d a7 c1 d6 3d
       0.004862757 -0.08816444 0.103486754 0.10486155
000320 44 db 5c 3c 82 90 84 bd 3b c7 45 3d 7d 82 b5 bc
       0.013480011 -0.06472875 0.048285704 -0.022156948
000330 f4 67 41 3d 96 5f 1c bd ff 86 28 3d c4 54 4a 3d
       0.047218278 -0.038177095 0.041144367 0.049397245
000340 3c 15 4d bd 71 0f 50 bd 02 a5 25 3d 26 82 13 3d
       -0.05006908 -0.050795976 0.040440567 0.03601279
000350 d4 67 1c 3d 5e 1d bc bd 17 aa c2 3d 07 f2 03 3e
       0.038184956 -0.09185289 0.09505098 0.12885295
000360 8f 65 c4 3d 45 84 04 3e 10 8d d7 bc 9b fa a2 3d
       0.09589683 0.12941082 -0.026312381 0.079579554
000370 79 be b7 3d dc 42 2e bc bc 60 d0 3d be cb 82 bd
       0.08971877 -0.010636058 0.101747006 -0.06386517
000380 e0 1a 4f 3d f1 de b5 bd 02 dc cc bd 1b 3f 26 bd
       0.05056274 -0.08880413 -0.10002901 -0.040587526
000390 4d b0 78 3b 25 83 32 bc fa aa d6 3d 36 91 09 3d
       0.003794688 -0.010895525 0.1048183 0.03358575
0003a0 cd 1d fb 3c 2b e7 f2 3d 6c c3 6b 3d df be c1 bd
       0.030653859 0.11860498 0.057559416 -0.09460234
0003b0 74 ee d1 3d 12 80 7c bd 2b 4d ba 3d 1a 7f 07 3e
       0.102505594 -0.061645575 0.0909675 0.13232079
0003c0 95 3c 0f bd 74 5c 3b 3d 8b a5 55 bd 1d 73 bd 3d
       -0.034969885 0.045742467 -0.052159827 0.09250472
0003d0 54 4a df 3d 6c 86 b4 bd b5 59 c0 3d 07 bc 5a 3c
       0.10902849 -0.088147014 0.0939211 0.013350493
0003e0 b1 c2 f8 3c fb 3f 51 3d 0b 11 ba 3d 12 03 25 bd
       0.030366274 0.051086407 0.09085282 -0.04028613
0003f0 de 43 92 3d 14 2d da bc 2a 4e 9e bc 18 d0 04 bd
       0.07141851 -0.026632823 -0.01932438 -0.032425016

button_cnn.1.0.bias f4 [16]
000000 71 64 82 bd d4 e1 ad bd 4c 19 c4 3d 1a 2d 41 3d
       -0.06366814 -0.08490339 0.095751375 0.047162153
000010 1d 75 9b bd 8a cf 17 bd 1f a7 2a 3d a7 45 6b 3d
       -0.07590697 -0.03706316 0.041663285 0.057439473
000020 82 6f 3e bd af a5 57 bb 21 48 e3 ba 35 3e cc bd
       -0.04649306 -0.0032905152 -0.0017340222 -0.099728025
000030 11 bd d2 3d 83 88 65 bd 7c 7c eb 3d e0 a2 98 bd
       0.10289968 -0.05603839 0.11498353 -0.07452941

fc.0.weight f4 [256, 240]
000000 ec 4d 5a 3c 12 2e 57 3d f3 71 78 bd 25 af 02 bd
       0.013324242 0.05253417 -0.060655545 -0.031905312
000010 6c 5b e7 3c 3f e8 ed bc 6d 06 18 3d bb d9 7a bc
       0.028241836 -0.029041408 0.037115503 -0.0153107
000020 3d 38 88 bd 18 84 bc 3c e1 93 10 bd 1c 81 65 bd
       -0.066513516 0.023012206 -0.03529728 -0.05603133
000030 8b 12 5e 3d ce 10 79 bd 8d a3 36 3b ac 50 d5 bb
       0.054216903 -0.06080704 0.002786848 -0.006509861
000040 c7 61 2a 3d 18 73 41 3d 0f df 0d bd c0 ed a5 3c
       0.041597154 0.047228903 -0.034636553 0.02025497
000050 98 8a db bc af 10 de bc 58 d9 2c bd 81 cd c4 3c
       -0.026799485 -0.027107565 -0.042199463 0.024023773
000060 65 34 24 3d f1 e3 58 3d ca 43 95 3a f4 e6 59 3d
       0.04008903 0.052951757 0.0011388 0.05319877
000070 35 a3 07 bd d6 1a 08 bc ab 12 09 bd d7 0e e6 bc
       -0.03311463 -0.008307179 -0.03346507 -0.028083248
000080 6a 4e e8 3a 28 b2 93 3c c0 86 1a bd da 23 16 3d
       0.0017723565 0.018029287 -0.037726164 0.036655284
000090 bd 62 95 bd 14 74 2f 3d 9e 8e 19 3c 9d 9c fb bb
       -0.072942235 0.04283531 0.0093723815 -0.007678582
0000a0 e9 f7 96 3c 26 6a d0 bc 86 86 c1 bc 4c 5f 58 bd
       0.01842876 -0.02544124 -0.023623716 -0.052825257
0000b0 1f 3c 5d bd 20 05 fc 3b 69 1a 64 bd e2 d2 a8 3c
       -0.054012414 0.0076910406 -0.05568925 0.02060837
0000c0 a7 4c 3e bc 3d 03 33 3d 9e 35 9f 3c 99 51 26 3d
       -0.011614955 0.04370426 0.019434746 0.04060516
0000d0 8e db 44 bd 4a 06 c7 ba 87 f9 5a bd 6d 7f 3f 3d
       -0.048060946 -0.0015184369 -0.053460624 0.046752382
0000e0 d8 2d ff 3c 0e cb 17 bd e8 4f e4 3b 4f da 00 3d
       0.03114979 -0.037058882 0.0069675334 0.031458195
0000f0 08 0b cd bc 69 d0 84 bd d9 1c 8f bd 1b 0b 7c bd
       -0.025029674 -0.064850636 -0.06987924 -0.06153403
000100 b1 8a 3b bd 0e 5d e1 bc d8 de 93 bc c3 86 93 bd
       -0.045786563 -0.027510192 -0.018050596 -0.07203438
000110 37 9c 15 3d 15 16 e0 3c 75 b2 22 b9 63 f1 17 bc
       0.03652593 0.02735428 -0.00015516004 -0.00927386
000120 76 69 d2 3c 3a c9 0a bd de 2f 5e bd f8 a0 82 bd
       0.025685053 -0.03388331 -0.05424487 -0.063783586
000130 2a 89 c6 bc 18 29 0c 3d 13 be ba 3c ed 6a 4e 3d
       -0.024235327 0.034218878 0.022795713 0.05039494
000140 dd 1c cb 3c 20 67 e2 3c 67 d8 27 bd 38 09 d6 3c
       0.024794037 0.027637064 -0.04097786 0.026127443
000150 3f 2f e0 3c 9d fc b8 bc cb c0 8a 3c 53 b9 17 bc
       0.027366279 -0.022581393 0.016937634 -0.009260493
000160 f2 1c 88 bc b5 af 9f bc 88 3d 86 bd 01 41 1e bd
       -0.016615365 -0.019492963 -0.06554705 -0.03863621
000170 9c d5 81 bd 55 e7 24 3d f5 f2 19 bd 91 d4 b3 ba
       -0.06339571 0.040259678 -0.037585218 -0.0013719966
000180 32 b8 ed 3c 6f 25 12 ba a5 49 43 3c 5c 2f 83 bd
       0.029018495 -0.0005575036 0.011919414 -0.064055175
000190 d2 18 11 3b a8 d3 89 bd 5c ab 2c bc 64 dd 06 3d
       0.0022140038 -0.06729823 -0.010538902 0.03292598
0001a0 28 d8 84 bd 7a 68 a0 3c 38 8a f7 bc 9c 4f af 3c
       -0.06486541 0.019581068 -0.030217275 0.021400265
0001b0 a6 b6 c3 3c cf 90 23 3d ce b6 89 bc 87 6c ba 3c
       0.023890804 0.039933022 -0.0168108 0.022756828
0001c0 6a be 1e 3d 1e 22 8d bd 75 21 77 3c 7d a2 50 3d
       0.03875581 -0.06891273 0.01508366 0.05093621
0001d0 92 fb f8 3c 13 92 87 bc d3 c4 3f 3d 7e 1b ae 3c
       0.030393396 -0.016549146 0.046818566 0.021253344
0001e0 d9 f0 c5 bc 89 20 30 3d 37 23 4d 3c 87 58 58 3d
       -0.024162697 0.042999778 0.012520603 0.0528188
0001f0 d8 38 67 bc 83 19 83 bb 9d d9 c3 bc 8b 1a 81 bd
       -0.014112674 -0.004000844 -0.023907477 -0.06303891
000200 fa 2e 7c bd 93 16 0f bb e8 15 ae 3c 74 eb 96 bd
       -0.061568238 -0.0021833524 0.02125068 -0.07369128
000210 08 21 91 bc a0 e7 1c bc ec fd 18 bd 2d 26 7a bd
       -0.017715946 -0.009576708 -0.037351534 -0.061071564
000220 7e 8d 59 3d 20 11 5d 3d 46 bb 98 3c 5f 03 54 bc
       0.053113453 0.05397141 0.018643986 -0.012940257
000230 ae 13 7f bd e3 1b 07 bd 8e 45 16 3d ee 76 34 bd
       -0.062274627 -0.03298558 0.036687426 -0.044058733
000240 94 f3 33 bc ef 53 8c bd 75 f9 4e bd e2 28 89 3c
       -0.0109833665 -0.068519466 -0.05053087 0.016743127
000250 21 68 70 bd 70 79 92 3c f1 a6 2d 3d ff 4b d4 bc
       -0.058693055 0.017880172 0.042395536 -0.025915144
000260 7b 65 e3 3c 0d 24 d1 bc a5 6e 45 3d 2e aa 64 bd
       0.02775835 -0.025529886 0.048201222 -0.05582636
000270 62 a6 43 3d a4 78 a4 bc 38 db 3a 3d 12 04 d1 3b
       0.047766097 -0.020077057 0.04561922 0.006378659
000280 92 cd 10 3c af dd 34 bd 7a b8 88 bc 94 d9 88 bd
       0.008838074 -0.044156726 -0.016689528 -0.06682125
000290 3c a9 be 3c da 53 a1 3c 52 3b 3f 3c 48 d8 34 3d
       0.023274057 0.019693304 0.011671858 0.044151574
0002a0 72 2f 0e 3d 23 05 4b bd 3b 38 4e bd 40 d6 32 3d
       0.034713216 -0.049565446 -0.050346594 0.043661356
0002b0 07 31 78 bd e9 72 b7 bb 3b 66 b6 3b e4 ef eb bc
       -0.06059363 -0.005598415 0.005566386 -0.028800912
0002c0 96 04 82 bc 0c 50 34 3d 98 f0 91 bd 0a 9c ff 3b
       -0.015871327 0.04402165 -0.07125968 0.0078005837
0002d0 f9 cd 87 3c f2 af fa bb 1c e3 37 bc 55 a5 55 3d
       0.016577708 -0.007650369 -0.011223581 0.052159626
0002e0 78 ac 8f bc 35 d8 f1 bc fa fb 83 bd 9d ce df bc
       -0.017538294 -0.02952204 -0.06444545 -0.0273202
0002f0 72 b1 5b 3d 5a 60 2f 3d 31 31 95 bd 62 a5 78 bd
       0.053636022 0.042816497 -0.07284773 -0.060704596
000300 d0 e1 56 bd 68 f8 04 3d 31 57 7c bd d7 17 e3 bc
       -0.052461445 0.03246346 -0.06160659 -0.027721329
000310 d0 24 80 3c e3 fd 4d 3c 14 32 1d bc f7 78 6e bd
       0.015642554 0.012572738 -0.009594459 -0.05822083
000320 1b b1 17 3d c4 4e f8 bb c2 1a 9f bc 73 23 c8 bb
       0.037034135 -0.007577749 -0.019421939 -0.0061077415
000330 62 58 04 3d 6e 60 8f bc 93 1c f4 3c b1 8f 8f bc
       0.03231085 -0.017502036 0.029798781 -0.017524572
000340 a5 52 81 bc b7 f8 31 bd 10 90 83 bd b2 49 49 bd
       -0.015786478 -0.043450084 -0.06423962 -0.049142547
000350 90 e0 01 bd cb 81 b9 3c 1b f0 05 3c 75 46 49 bd
       -0.0317083 0.022644898 0.008174921 -0.04913946
000360 85 71 3a 3d 37 af 63 3c 1e 25 90 3c 67 7f d2 bc
       0.045518417 0.013896755 0.017595824 -0.025695516
000370 6f af bc 3c 11 ef 5e bd 41 3c 5c bd bb 5c 2e 3d
       0.023032872 -0.05442721 -0.0537684 0.042568903
000380 21 6f 1c 3d 97 17 1a 3d 94 b1 d8 bc f1 76 9c bb
       0.03819192 0.037620153 -0.026451863 -0.004774921
000390 48 33 88 bd c9 b9 19 3d c0 47 07 3c a7 db 69 bd
       -0.06650406 0.037530694 0.008256853 -0.057094242
0003a0 36 84 aa 3c 4e 18 10 bd 32 16 52 3d 95 ca c9 3b
       0.020814996 -0.03517943 0.0512907 0.006158183
0003b0 13 81 c5 3c 90 c3 64 bd 82 77 42 bc 74 1d 59 bd
       0.024109399 -0.055850565 -0.011869313 -0.053006604
0003c0 ed e0 49 bc 26 9f 06 bd 35 df fe bc 13 bf 5b bd
       -0.012321693 -0.03286662 -0.031112293 -0.05364902
0003d0 dd 5f 0f 3d eb 53 01 3c 99 3f 7d 3c 96 05 c0 3c
       0.03500353 0.007893543 0.015457057 0.023440164
0003e0 d6 e6 e5 3c 05 88 d7 bb b7 dd 56 bd 24 08 86 3c
       0.028064173 -0.006577494 -0.052457538 0.016361304
0003f0 9d 79 1c 3d 4c 37 18 3a 01 70 a7 bd a8 4b ce bc
       0.038201917 0.000580658 -0.0817566 -0.02518256

fc.0.bias f4 [256]
000000 45 05 bf 3c 26 69 3e bd 08 67 07 3c a6 4d a5 bc
       0.023317942 -0.046486996 0.008264311 -0.020178627
000010 03 c1 15 3d 4b f0 7c bd 74 4d 2b bd dc a1 f4 bb
       0.036561023 -0.0617526 -0.041821912 -0.007465584
000020 41 ce 4f 3d c4 a4 2a 3d b4 3c 16 bc 9a 45 f5 3b
       0.05073381 0.04166104 -0.009169746 0.007485104
000030 67 22 c1 bc 18 a7 09 3d 37 13 a3 3d 6e b3 54 3c
       -0.023575975 0.03360662 0.07962649 0.0129822325
000040 69 c9 14 bd cf 87 80 bd 0e 1b 7b bd 79 b4 68 bd
       -0.036324892 -0.062759034 -0.0613051 -0.056812737
000050 60 e2 84 bd 9d 52 c6 3c 2c 6d 48 ba 53 56 1b 3d
       -0.0648849 0.024209315 -0.00076456624 0.037924122
000060 5f 31 1d 3b 59 ef 47 bb 2b 99 77 bd 3b 34 cd 3c
       0.0023985726 -0.0030507653 -0.060448807 0.02504932
000070 a0 f4 e8 bc eb 26 83 bc d3 57 e2 3c 65 7b 32 bd
       -0.028436959 -0.016009768 0.027629768 -0.04357471
000080 39 ae 77 3c 54 70 65 3d c8 f7 19 3d fd 5f f2 bc
       0.0151172215 0.056015328 0.03758982 -0.029586786
000090 6b 92 65 bd 99 3f 9f 3c 4f 51 82 bd 2c 18 8f 3c
       -0.05604784 0.019439505 -0.06363165 0.01746758
0000a0 f0 50 e8 bb 59 17 43 3b 71 5b a4 3d 21 81 46 3d
       -0.0070897266 0.0029768555 0.080252536 0.04846299
0000b0 4e 0c 2f bc 2a e9 2b 3d eb 29 5e 3b be 16 33 3d
       -0.010684086 0.04197041 0.0033899497 0.04372286
0000c0 d3 90 c5 bc ca 4a 28 3d c0 f2 09 3d cc 17 b1 3d
       -0.02411691 0.04108695 0.03367877 0.08647117
0000d0 77 1b 2c 3d 63 b1 12 bd 61 93 ac 3d 24 c4 d4 bc
       0.04201838 -0.0358137 0.08426548 -0.025972433
0000e0 ce 05 4c 3d ec 4f 3e 3c 30 37 94 bc 52 08 92 3d
       0.049810223 0.011615735 -0.018092722 0.07130493
0000f0 e1 2d 3a bb bf 79 32 bd f2 3a 15 3d b5 d2 65 3d
       -0.0028408694 -0.043573137 0.036433168 0.05610915
000100 e7 80 ef 3c e7 c6 27 bd 2d 81 d4 3c d5 a9 9b bc
       0.02923627 -0.040961172 0.025940502 -0.01900188
000110 f2 44 46 bc ac 67 ed 3b 71 6e 35 3d 9d 4b e5 3c
       -0.012101399 0.0072450247 0.04429478 0.027990157
000120 95 d8 81 3c d2 3f 97 bc ef cc 59 bd fc bf 56 bc
       0.015850345 -0.01846305 -0.053173956 -0.013107296
000130 19 b8 18 bc 49 33 1c 3d ca b5 c7 3c 12 2e 8c bd
       -0.009321236 0.038134847 0.024378676 -0.06844725
000140 3d ce 8d 3d a9 d2 3d 3d 7f c0 81 3c 31 ea 58 3d
       0.069241025 0.04634348 0.01583886 0.052957717
000150 47 a6 3d 3d 46 a5 17 3c fe ae 30 bd d5 7e 5b 3d
       0.046301153 0.009255713 -0.043135636 0.053587753
000160 63 02 17 3d 42 83 5f bd 86 6a 89 3d f8 a2 1c bd
       0.03686751 -0.054568537 0.06709771 -0.038241357
000170 35 85 ae ba 19 02 ac bc a5 1e 9b 3d b1 ac bb 3c
       -0.0013314845 -0.020997094 0.07574204 0.022909494
000180 03 27 b2 bb a6 35 ff bc fc e6 75 bd 61 c8 47 bc
       -0.0054367795 -0.031153511 -0.060034737 -0.01219377
000190 a4 33 82 3d 93 3c 97 3b 1e 15 68 3c 67 7a 3d 3d
       0.06357506 0.0046153753 0.014165191 0.04625931
0001a0 5b 0e a8 3d 83 9a 80 3d 7e 93 c6 3c 93 56 bb 3b
       0.08205863 0.06279471 0.024240252 0.0057171076
0001b0 d3 82 f0 39 90 1f 00 bc a9 2b 78 3d 23 6e 88 3c
       0.0004587384 -0.007820025 0.060588513 0.01665408
0001c0 e4 35 1b bd e7 85 25 3d 1e f8 5e bd 7a d7 3a bd
       -0.03789319 0.040410902 -0.05443584 -0.04561565
0001d0 22 bd a4 3d c0 4b 92 bd bf 76 2c bb f3 f9 68 bd
       0.08043887 -0.071433544 -0.0026315895 -0.056878995
0001e0 56 fc 18 bd 0b 74 a5 3b 0c 26 30 3d f2 bd 66 bc
       -0.03735002 0.005049234 0.043005034 -0.014083372
0001f0 b9 a7 22 3a 3e 9a 20 bd d5 f0 e1 3c d7 03 2b 3c
       0.0006204802 -0.039209597 0.027580658 0.010437927
000200 26 cb 2b bd 5e 3c 88 3d 87 b8 fb ba ac 72 8b bd
       -0.041941784 0.06652139 -0.0019204774 -0.06808981
000210 ab ed 8f 3c 1f d2 1e bd 64 1c 8a 3d c7 98 d7 bc
       0.017569384 -0.038774606 0.06743696 -0.026317967
000220 f1 3c aa 3d 08 2b ec bc 5f 3a 9a 3d c7 42 af bc
       0.08312405 -0.028829113 0.07530665 -0.021394147
000230 61 1a a2 bb 22 33 a9 3d 21 ff 0f 3c 66 15 f1 3c
       -0.0049469923 0.08261706 0.008788855 0.029429149
000240 6f 78 65 bd 0e 19 8a 3c 6c 00 35 3c e5 9e 21 3d
       -0.056023058 0.01685765 0.011047464 0.039458174
000250 71 25 ac 3c 5d 70 10 3d 1e 89 c6 3c 8b 7e 3f bc
       0.021013947 0.035263408 0.024235304 -0.011687885
000260 d4 ac 31 3d 63 ca 71 3c a8 78 7e 3d 1a 90 28 3d
       0.043377712 0.014757725 0.062126786 0.04115305
000270 a5 33 3c 3c e8 d4 18 3d 5f f3 14 3d 7e 8d 9b bc
       0.011486922 0.03731242 0.03636491 -0.018988367
000280 1c d0 d3 3c e8 02 53 bc ac d1 e1 bb bd b2 9c bc
       0.02585607 -0.012879111 -0.00689145 -0.019128198
000290 c4 cf 3d 3d 06 df 8e 3c 6e 63 84 3d 44 51 bd 39
       0.04634072 0.01744033 0.06464277 0.00036109437
0002a0 7d ed e8 3c 8f 63 6f bd b9 f5 1f 3d 69 60 97 3d
       0.028433556 -0.058444556 0.0390527 0.07391436
0002b0 32 8a e8 3c 68 37 cf 3c 9e 58 6a 3d d7 65 13 3c
       0.02838621 0.025294974 0.05721342 0.0089964485
0002c0 dc a4 89 3d c5 fa be 3c 44 e9 17 bc db e1 f4 3c
       0.067208976 0.023312936 -0.009271923 0.029892853
0002d0 84 37 0e 3d eb 17 5c 3d e4 0a 46 bd 6d 49 03 bd
       0.034720913 0.053733747 -0.04835023 -0.032052446
0002e0 85 65 1b bc 81 83 08 bd 3d 16 75 3d d8 72 10 bc
       -0.009484653 -0.033328537 0.05983566 -0.008816443
0002f0 3b ea 3f bb c1 ad 7e bd 67 a4 bb 3b 0a 2a 85 bd
       -0.00292839 -0.062177423 0.0057263854 -0.06502159
000300 42 08 c7 3a d5 92 0f 3d 58 09 e4 3c ec 39 f0 3a
       0.0015184956 0.03505214 0.027836487 0.0018327809
000310 e7 17 5f bd 60 23 47 3d 10 06 29 bd 62 8e ab 3c
       -0.054466154 0.04861772 -0.041265547 0.020941917
000320 5f e4 59 3d 22 fb 55 3d 2f fe 81 3c dd d7 39 3d
       0.053196307 0.052241452 0.015868274 0.04537188
000330 5a 55 97 3d 65 b5 48 3d 53 07 30 3d 8f 2a 2b 3d
       0.073893264 0.049001116 0.042975735 0.041788634
000340 b6 1f 98 bc 29 1b 2a 3d 5f 93 bf bb 90 41 4d 3c
       -0.018569808 0.04152981 -0.0058464254 0.012527838
000350 2b dd 8b 3c 7b cf f5 3c 16 7a 12 bb 3c 06 10 3d
       0.017073235 0.030006161 -0.00223506 0.035162196
000360 97 58 19 bd b4 39 63 bd a8 ba 24 bd 95 7d a7 bb
       -0.037438 -0.055474952 -0.04021707 -0.005111406
000370 29 b4 4a bc 01 f8 2c 3c 85 58 4c 3b 65 56 58 3d
       -0.012372055 0.010557176 0.0031180691 0.052816767
000380 f0 c3 0b bd 9e 43 34 bc 6b d7 27 3d f9 f7 8b bd
       -0.034122407 -0.011002449 0.040976923 -0.068344064
000390 e7 a7 a3 3c 27 6e 8d 39 d5 1e 12 bc 7b a6 a1 bc
       0.019977523 0.00026975686 -0.008918484 -0.019732704
0003a0 9e 75 b0 3b 71 5e 0b 3d 2d 85 8b bd fa c7 3e bd
       0.005385115 0.034025613 -0.06812511 -0.04657743
0003b0 56 d5 ee 3c 1c 3f 2a 3c d7 ea 81 3c 7e eb bb bb
       0.02915446 0.010391023 0.01585905 -0.00573486
0003c0 74 21 27 bb f8 35 88 3d ef 4b c5 3c 8d 47 4f 3c
       -0.0025502117 0.06650919 0.02408406 0.012651336
0003d0 ee 8b 1b bd d7 53 b4 bc b2 c1 88 bc d0 ce 7b bb
       -0.037975244 -0.022012634 -0.016693924 -0.003842283
0003e0 4c ef 6a 3d a8 db e8 bc f8 b9 79 3d 9d 11 14 3d
       0.057357118 -0.028425053 0.06096837 0.03614961
0003f0 3b 4a 67 bc f9 53 9b bc de ac 2e bd 9c 61 67 3c
       -0.014116819 -0.01896094 -0.042645328 0.014122393

fc.3.weight f4 [12, 256]
000000 91 26 90 bd f0 50 e8 3c c9 22 65 bc db 2f 8c bd
       -0.07038606 0.028358907 -0.013985344 -0.06845065
000010 36 6d 1e 3d 0f a7 65 bd 2e c0 41 bd 5b 4b 6f bc
       0.03867837 -0.056067523 -0.047302417 -0.0146053685
000020 b2 a3 98 bd f9 1e 0b bd be 77 4f 3c 12 36 7c 3d
       -0.074530974 -0.033965085 0.012662826 0.061575003
000030 67 f3 1a bd 46 c4 51 3d 78 98 89 bd ff 8d 03 3d
       -0.037829783 0.05121257 -0.06718534 0.03211784
000040 76 6d 81 3c b2 1e 2f bd 75 a1 12 3d 8e d9 50 bc
       0.015799265 -0.042753883 0.03579851 -0.012747182
000050 51 8d db 3b bd 0c aa 3c 89 7c b6 bd 06 af 64 bc
       0.006700196 0.020758027 -0.08910472 -0.013957744
000060 e9 d4 05 3d ff e2 8a be 1c b6 7d 3d 27 64 23 3d
       0.03267375 -0.2712631 0.06194125 0.039890435
000070 1a 82 92 3b eb b2 13 3c c6 59 55 3c 4c b8 ef 3c
       0.0044710757 0.009014825 0.013021892 0.029262684
000080 02 12 aa bc 4e e7 01 3b 71 38 93 3c 21 46 75 bd
       -0.02076054 0.0019821706 0.01797125 -0.059881333
000090 ad 39 23 bd 28 69 cb 3c 13 54 81 bd 2b c3 bc 3c
       -0.039849926 0.024830416 -0.06314864 0.023042282
0000a0 50 ca 60 3c ce 14 94 3b f8 51 2a 3c 5f f1 1e bd
       0.01372011 0.0045190817 0.010395519 -0.03880441
0000b0 11 84 06 bd 27 ea 63 3d ee 9f bd bd 9f 7b 77 bd
       -0.032840792 0.055643227 -0.0925902 -0.06042063
0000c0 ef a1 b4 bd 69 a7 5b bd 6e b4 84 bd 97 f1 40 bc
       -0.08819949 -0.05362645 -0.06479727 -0.0117763495
0000d0 f1 85 af bd f9 7c 80 bc 19 1b a1 bd 12 a5 c1 3c
       -0.08570469 -0.015684592 -0.078664966 0.023638282
0000e0 9f 08 6e bb 92 c8 ae bd 7c e9 4c bd 47 6e 20 3c
       -0.0036321057 -0.085343495 -0.050027356 0.009791917
0000f0 2e b7 79 3c 42 cf 7c 3b e1 0f d1 bd 3a c7 60 3c
       0.015241427 0.0038575684 -0.10208107 0.013719374
000100 db c6 7a 3c 03 03 1f bc 63 51 86 bd 63 e2 11 bc
       0.0153062 -0.009705308 -0.06558492 -0.008904072
000110 f0 dc 3a bd 72 7b 0a 3d 24 c1 1a 3d ca 9d cf bb
       -0.04562086 0.033809133 0.03778185 -0.0063359486
000120 3e ab b2 bc 9e 3b 69 3d c9 86 18 3d 5a 57 e5 bc
       -0.02181017 0.05694162 0.037237916 -0.027995754
000130 b6 c9 bf 3c 99 93 a7 bd 4c 9c 8a bc 35 b6 43 3d
       0.023411613 -0.08182449 -0.016920231 0.047781188
000140 09 e3 2b bd 39 90 8e 3c e7 98 b4 bd 7a 0c 9a bd
       -0.041964564 0.017402755 -0.08818226 -0.07521911
000150 05 d6 0e bc 10 56 c9 3c c7 fd 9b bc 90 4a 2a bd
       -0.008718018 0.02457717 -0.019041909 -0.041575015
000160 53 57 8b bd 70 b5 6e 3d c2 11 c7 3c c4 b2 b8 3c
       -0.06803765 0.0582785 0.02430046 0.02254618
000170 18 87 4b bb c1 2b 05 bc a3 b2 47 bc 34 a6 59 3d
       -0.0031055864 -0.0081281075 -0.012188586 0.05313702
000180 e2 16 44 bd 07 1b 2f 3d f2 f5 68 3c 6b 5d 14 3d
       -0.047873385 0.042750385 0.014218794 0.036221903
000190 bb bf 86 3c cb 4c 87 bc 0f b1 01 bd 2f cb 75 bc
       0.016448846 -0.01651611 -0.031662997 -0.015002056
0001a0 a5 82 05 bd 72 1f 4f bd fe b3 5a bc d8 e5 32 bc
       -0.032595295 -0.050567098 -0.013348578 -0.010919057
0001b0 82 fc 8d bd bb 17 00 bd bc 74 20 bd e6 9f e9 bc
       -0.06932928 -0.03127263 -0.039173827 -0.028518628
0001c0 76 2b e2 3c 5a 07 69 bd ed 91 00 bd be db 8c bd
       0.027608614 -0.056891777 -0.031389166 -0.0687785
0001d0 a3 64 1f bd f6 8f 6f bd 36 a3 bc bc be 3b 6d bc
       -0.038914334 -0.0584869 -0.023027044 -0.014479576
0001e0 1f 60 ad bc b4 0c 4c 3c e9 6f b8 3b 7e 74 aa bd
       -0.021163998 0.012454201 0.005628575 -0.08323
0001f0 ce e0 e2 bc 45 ae 40 3d fe a5 48 bd 73 db 1b 3d
       -0.027695086 0.047041196 -0.048986427 0.03805108
000200 8f 4a a8 bc b0 c5 39 bd 34 98 81 bd 23 24 54 3c
       -0.020543365 -0.045354545 -0.063278586 0.012948069
000210 f2 2d b2 3b a3 a8 03 bc 8a 1b bb 3c 2c cc 47 bd
       0.005437606 -0.008035812 0.02284028 -0.048778698
000220 eb c3 8a bd c7 b6 98 bc 60 53 20 bd a3 52 03 bd
       -0.0677565 -0.018641843 -0.039142013 -0.03206123
000230 ec 25 4c bd 18 8d 47 bd db 8d cf bc 86 e9 dd ba
       -0.049840853 -0.04871854 -0.025336197 -0.0016930557
000240 eb bc 8b bd b4 de 67 bd 57 89 af bd 1a 59 2d 3c
       -0.068231426 -0.05660887 -0.08571117 0.0105803255
000250 88 a5 8b bd be 0f 0e bc 4e a1 c4 3c bd 9e 93 3c
       -0.06818682 -0.008670745 0.024002697 0.018020028
000260 a9 d6 0e 3d 54 ff aa bd cf 1d d7 bc d8 94 c9 bc
       0.034872685 -0.08349481 -0.026259331 -0.024607107
000270 f5 c0 4b bd ef ad 99 bd 8c 24 eb 3c 6b 00 96 bc
       -0.049744565 -0.07503878 0.02870395 -0.018310746
000280 93 cb 29 bc 26 d1 96 bd 71 d4 2e 3d 19 c6 01 bd
       -0.010363477 -0.07364111 0.04268307 -0.03168306
000290 30 52 f4 bc f3 83 8c 3b f2 69 51 bb 90 f7 62 bd
       -0.029824346 0.0042881905 -0.0031954017 -0.055411875
0002a0 b1 37 55 bd bc b4 7c 3c 0d 08 17 bd ab 47 ce bc
       -0.052055065 0.01542395 -0.036872912 -0.025180658
0002b0 de 10 29 bc 90 92 55 3d aa d4 d1 bc 4f d7 ae 3c
       -0.010318963 0.052141726 -0.025614101 0.021342902
0002c0 0c 86 d2 3c b0 ab e1 3c a2 73 3b 3d 86 ed c7 ba
       0.025698684 0.027547687 0.045764573 -0.0015253283
0002d0 17 48 43 bd 27 ac 99 bc de e7 df 3c bf d5 ab bc
       -0.047676172 -0.018758846 0.027332243 -0.020975946
0002e0 21 67 15 3d 50 7f ca bc c8 1d 68 3c d9 f3 22 3d
       0.036475305 -0.02471891 0.014167257 0.039783332
0002f0 b9 fc 8d bd ac 23 8c bd 8b e6 e9 bc 68 7f b3 3c
       -0.06932969 -0.06842741 -0.028552314 0.021911338
000300 2d d0 84 bb 3b 5d 49 3d 73 d9 c4 bc 21 c2 00 3c
       -0.004053137 0.049161177 -0.02402947 0.007858784
000310 e0 e8 6e bd fa d9 6b bd 5b c4 a5 3c 0f 0c 28 bb
       -0.058327556 -0.057580926 0.020235231 -0.0025641953
000320 95 16 03 3d 64 17 39 bd cb e9 23 bc 89 ba 9f bd
       0.032003958 -0.045188323 -0.010004471 -0.07799251
000330 a5 d5 21 bd 06 40 8f bc a5 c0 aa bc ed 90 9d 3c
       -0.039510388 -0.017486583 -0.020843813 0.019234145
000340 b5 f6 39 3d b2 b8 f4 3c b6 5e 61 bc f5 d6 cb 3c
       0.045401294 0.029873226 -0.013755491 0.024882773
000350 b0 5e a9 bd 10 c5 d5 bc f2 5e fe bc b9 b9 54 3d
       -0.08270013 -0.026094943 -0.031051133 0.05193493
000360 5d 52 1a bc 0e 38 f4 3c 55 e6 87 bd 4a 4c e3 bc
       -0.009419051 0.029811885 -0.06635729 -0.027746338
000370 24 c7 86 bd 37 d2 d8 3c 7c 15 0c bd 3b 49 c1 3c
       -0.06580952 0.026467426 -0.034200177 0.02359449
000380 82 fd 41 3d 44 b1 0a bd dd 9b 55 bb c9 e5 bd 3c
       0.047360905 -0.03386046 -0.0032594122 0.02318086
000390 ef 45 40 bd d4 58 a3 bd fa bf ca bc 05 fe 3f 3d
       -0.046941694 -0.07975927 -0.024749745 0.04687311
0003a0 ba d9 14 bb 54 ce 93 bd 46 a0 2c 3d dd 59 f0 3c
       -0.0022712783 -0.07217088 0.042145036 0.029339725
0003b0 4c e6 36 3c be 73 e3 bc fb a9 79 3c 42 a2 d1 3c
       0.0111633055 -0.027765151 0.01523828 0.025590066
0003c0 ad 83 ce bc 39 fc a7 3c 77 74 2a bd 7b 9f f8 bc
       -0.025209272 0.020506011 -0.041614976 -0.030349484
0003d0 50 cc 36 3c e4 ee c6 39 aa 8d 06 bd 16 13 28 bd
       0.01115711 0.0003794349 -0.032849945 -0.041033827
0003e0 a1 c0 72 bd 3e 60 57 3d b7 ec 82 bd 53 ce 5d 3c
       -0.059265736 0.052582018 -0.06392806 0.013537961
0003f0 03 9c 9b bd d1 1a 55 3d 13 35 41 bd 63 43 9a bd
       -0.07598116 0.052027527 -0.047169756 -0.07532384

fc.3.bias f4 [12]
000000 bf 3c a8 bd a9 0c c8 3b cd d2 38 bd 7c 48 e1 bc
       -0.082147114 0.006105025 -0.04512291 -0.027500384
000010 d7 05 a1 3d 18 dc a0 bc 65 a6 84 bd ee f3 a1 3c
       0.07862442 -0.019636199 -0.0647705 0.019769635
000020 7a 21 a6 3c ef 1c 86 bd 5e 65 6d 3d 8c fc 82 bd
       0.020279635 -0.065484874 0.057958 -0.06395826
