cnn_fighting_agent_starter/outputs/20251017_201749/model.pt (torch, 287835 bytes, 12 tensors)

state_cnn.0.0.weight f4 [16, 1, 3, 3]
0	0x3e7ade11	0.24498774
1	0x3e1bac85	0.1520253
2	0xbe89f1df	-0.26942345
3	0x3e500e45	0.20317943
4	0x3ddc120b	0.10745629
5	0x3e91fd68	0.28513646
6	0x3daa9d24	0.083307534
7	0xbdd30873	-0.10304346
8	0xbdb32800	-0.08747864
9	0x3eb041e3	0.34425268
10	0x3de0849c	0.10962793
11	0xbe98177b	-0.29705414
12	0xbdc91095	-0.09817616
13	0x3eaddb20	0.33956242
14	0xbf023660	-0.5086422
15	0x3d181787	0.037131812
16	0xbe294448	-0.16529953
17	0xbec6ca03	-0.38825998
18	0x3e43a2f3	0.19105129
19	0xbea542ca	-0.3227752
20	0x3db047c0	0.08607435
21	0x3e1d5daf	0.15367769
22	0x3e2042c8	0.15650475
23	0x3db63ee4	0.08898714
24	0xbe96c938	-0.29450393
25	0xbe80b7bc	-0.25140178
26	0xbe2aaf12	-0.16668347
27	0xbe6320b2	-0.22180441
28	0x3e1703db	0.14747564
29	0x3e34ebc3	0.17668061
30	0xbeac1451	-0.3360925
31	0x3a81b61f	0.0009896195
32	0x3e7b289b	0.24527209
33	0x3d6d9bd7	0.05800995
34	0xbdb4cc24	-0.08827999
35	0x3e336b9b	0.17521517
36	0x3d95048b	0.07276257
37	0x3e62be54	0.22142917
38	0xbeb2f28f	-0.34950683
39	0x3e4eb7a0	0.20187235
40	0xbe61b58f	-0.22041915
41	0x3cac21dd	0.021012241
42	0x3ea949e9	0.330642
43	0x3e25f671	0.16207291
44	0xbeb504e0	-0.35355282
45	0xbea0952e	-0.31363815
46	0x3e9b405c	0.3032254
47	0xbd3edf9b	-0.046599966
48	0xbde17812	-0.1100923
49	0xbe2ce448	-0.16883957
50	0x3e2a2094	0.1661399
51	0xbe87d57c	-0.26530063
52	0x3e4514a4	0.19246155
53	0x3dd0f7cc	0.102035135
54	0xbe996dee	-0.29966682
55	0xbd675e57	-0.056486454
56	0xbe41a305	-0.18909843
57	0xbde70a2d	-0.11281238
58	0x3ecb4ee3	0.39708623
59	0x3da020e9	0.07818777
60	0xbe9a91a4	-0.3018924
61	0xbdeddd67	-0.11614495
62	0xbb0f0bd5	-0.002182712
63	0x3e5ee42b	0.21766727
64	0xbe0ca15f	-0.13733433
65	0xbe9b005b	-0.3027371
66	0xbe3a65fc	-0.18202966
67	0xbe3f7d67	-0.18700181
68	0x3e6ffdf3	0.23436718
69	0xbd828b2f	-0.063742034
70	0xbe6d482e	-0.23172066
71	0xbde3ced3	-0.11123433
72	0xbdf25eaa	-0.11834462
73	0xbe55ac40	-0.2086649
74	0x3ea2b1f0	0.3177638
75	0xbc592416	-0.013253232
76	0xbeaf7990	-0.34272432
77	0x3ea3aac9	0.31966236
78	0x3de341db	0.11096545
79	0xbe5d7fc1	-0.21630765
80	0xbd88b101	-0.06674386
81	0xbda34db1	-0.07973803
82	0xbd3b4a83	-0.045725357
83	0xbcb64b3f	-0.022252677
84	0xbda715f9	-0.08158488
85	0xbe5b8545	-0.21437557
86	0x3ec6e36d	0.38845387
87	0x3e90dd95	0.28294054
88	0xbe87ae81	-0.26500323
89	0x3e1e261b	0.15444224
90	0x3e23368e	0.1593878
91	0x3e60c0be	0.21948525
92	0xbe760ca8	-0.24028265
93	0xbe0a5aa6	-0.13511142
94	0x3d88f488	0.06687266
95	0x3ea4077e	0.32036966
96	0xbd97c163	-0.074099325
97	0x3e29fb7b	0.16599838
98	0x3c457d87	0.012053854
99	0x3d7f429e	0.06231939
100	0xbde440d8	-0.111451805
101	0xbe819fb7	-0.25317165
102	0xbe31c932	-0.17361906
103	0xbe51c5bb	-0.20485584
104	0x3e14721c	0.14496654
105	0xbe949d57	-0.2902629
106	0xbd42dfa8	-0.047576576
107	0xbe867390	-0.26260042
108	0xbd93fcba	-0.07225938
109	0xbb72d428	-0.0037052725
110	0xbc5f78d3	-0.013639647
111	0xbe9d0dbb	-0.30674538
112	0xbe3db127	-0.1852461
113	0x3d1cab11	0.03824908
114	0x3e30c0f7	0.1726111
115	0xbd98797a	-0.07445045
116	0xbd80c00a	-0.062866285
117	0x3e2c5072	0.16827562
118	0x3e800b11	0.25008443
119	0x3e513e5c	0.20433944
120	0x3ecce63b	0.40019402
121	0xbe2d51de	-0.16925761
122	0xbe9b55ba	-0.30338842
123	0x3e463ce9	0.19359173
124	0xbd63a20a	-0.055574454
125	0xbbeff9f9	-0.0073235002
126	0xbe8eadbe	-0.2786693
127	0xbe788eec	-0.2427327
128	0x3ec4a212	0.384049
129	0x3ed222f8	0.41042304
130	0x3e819cfe	0.25315088
131	0x3dade9b9	0.08491845
132	0xbd744023	-0.059631478
133	0xbe5c35f0	-0.2150495
134	0xbd32b179	-0.043626282
135	0x3dc1378b	0.09434422
136	0xbe06c7b8	-0.13162124
137	0x3da9d939	0.08293385
138	0xbe2f8f01	-0.17144395
139	0xbddd009e	-0.10791133
140	0xbe1587a5	-0.14602526
141	0x3e886e82	0.2664681
142	0xbe5b3702	-0.21407703
143	0x3eec0e44	0.46104634

state_cnn.0.0.bias f4 [16]
0	0x3e15be7e	0.14623448
1	0xbc93b135	-0.018028835
2	0x3e3a6c0b	0.18205278
3	0x3d3e0c04	0.046398178
4	0xbdd9c999	-0.10634155
5	0x3e093141	0.13397695
6	0x3dfcee41	0.12350131
7	0xbe604203	-0.21900181
8	0x3aafc09e	0.0013408845
9	0xbdaca70e	-0.08430301
10	0xbe59b01f	-0.21258591
11	0xbde9d8de	-0.11418317
12	0xbdf3e22e	-0.11908375
13	0x3c3417b6	0.010991981
14	0xbe91e55c	-0.284953
15	0xbd2d75c9	-0.042348657

state_cnn.1.0.weight f4 [32, 16, 3, 3]
0	0xbda04c50	-0.078270555
1	0xbd3ae5a0	-0.045629144
2	0xbe345bf8	-0.17613208
3	0xbc6debed	-0.014521581
4	0xbd1c2dbd	-0.038129557
5	0xbe29246f	-0.16517805
6	0x3d2b53e7	0.041828062
7	0xbd8b8a06	-0.06813435
8	0xbcbe4042	-0.023224
9	0x3ddb5f91	0.10711587
10	0xbd022997	-0.031777944
11	0xbd8e034f	-0.06934225
12	0x3dde7d0a	0.10863693
13	0xbe18f44a	-0.14936939
14	0xbc7444f4	-0.014909018
15	0x3d5d0a60	0.053964972
16	0xbe30fffc	-0.1728515
17	0xbe043142	-0.12909415
18	0xbc005330	-0.007832333
19	0x3d20295e	0.03910195
20	0xbdca8abf	-0.09889745
21	0x3dc74b22	0.09731127
22	0xbd28e5ff	-0.041234966
23	0xbde1f1ab	-0.11032423
24	0xbd084e26	-0.033277653
25	0x3bc5ad0b	0.006032591
26	0xbe226372	-0.15858248
27	0x3d53a758	0.051673263
28	0xbcdc2c71	-0.02687666
29	0xbd792fee	-0.060836725
30	0xbc1086b2	-0.008821176
31	0x3d45fa82	0.048334606
32	0xbcd34392	-0.025789056
33	0x3d2c550a	0.042073287
34	0x3e3cca43	0.18436532
35	0x3df67939	0.1203484
36	0xbd34c877	-0.04413649
37	0xbe05a1a8	-0.13049948
38	0xbe07c910	-0.13260293
39	0xbd59fc59	-0.053219173
40	0xbcee6429	-0.029100494
41	0xbd3547d9	-0.044257972
42	0x3dc8be67	0.09801941
43	0xbd55e136	-0.05221673
44	0xbe2c91d3	-0.16852503
45	0x3d029f08	0.031889945
46	0x3a5aad43	0.0008341858
47	0xbdb6308f	-0.088959806
48	0x3bd24c15	0.006417761
49	0x3de0dda4	0.109797746
50	0xbd70269e	-0.05863058
51	0x3cab74c1	0.020929696
52	0x3de3e48f	0.111275785
53	0xbd6fa088	-0.058502704
54	0xbd9b4ca3	-0.07582977
55	0xbde971ac	-0.11398634
56	0xbb1228a6	-0.002230206
57	0xbb8e3624	-0.00433995
58	0x3d4458a9	0.047936115
59	0xbd87d37c	-0.06632134
60	0x3daacee1	0.0834024
61	0x3e84728c	0.25868642
62	0x3cbdbb59	0.023160623
63	0x3c95f574	0.018305518
64	0xbd993754	-0.07481256
65	0x3d8ffc50	0.07030547
66	0x3ba9df94	0.0051841233
67	0x3ce70993	0.028202808
68	0x3d2aaa12	0.041666098
69	0xbbcfad68	-0.0063378103
70	0xbd59adae	-0.05314415
71	0x3d5206e6	0.05127611
72	0xbda39b59	-0.079886146
73	0x3e12aa32	0.14322737
74	0x3d55d4b8	0.052204818
75	0x3cf5cd9e	0.030005272
76	0x3e67d724	0.22640663
77	0xbbed5fe5	-0.0072440975
78	0x3e2cf54a	0.16890445
79	0x3ebf47cf	0.37359473
80	0x3e5a98eb	0.21347396
81	0xbdca0422	-0.098640695
82	0x3d96f0ae	0.07370125
83	0xbe2e0af0	-0.1699636
84	0xbdd331e4	-0.1031225
85	0x3dcc111b	0.099642
86	0xbe26012a	-0.16211382
87	0xbde6ae6e	-0.112637386
88	0x3e34e0fb	0.17663948
89	0xbe30c373	-0.17262058
90	0xbd5c9e81	-0.0538621
91	0x3d29e12e	0.041474514
92	0xbe0729b4	-0.13199502
93	0x3d02d672	0.031942792
94	0x3e111da9	0.1417147
95	0xbd949a1c	-0.072559565
96	0x3d035e0b	0.03207211
97	0x3e9721e2	0.29518038
98	0xbd1a4fa6	-0.037673615
99	0xbd646f23	-0.05577005
100	0x3d564b5e	0.05231797
101	0xbd3ef1f7	-0.046617474
102	0x3d6989d0	0.057016194
103	0x3d443fc0	0.04791236
104	0xbd96e4f7	-0.0736789
105	0x3d709290	0.058733523
106	0x3c303dd4	0.0107569285
107	0x3d9d5d54	0.076838166
108	0xbd2337c4	-0.039848104
109	0x3d0cd1dc	0.034379825
110	0xbd188917	-0.037240114
111	0xbba6249f	-0.0050702835
112	0x39a0006a	0.00030517887
113	0xbd88f932	-0.06688155
114	0x3cc53883	0.024074798
115	0x3d1ef052	0.038803406
116	0x3d485f6e	0.048919134
117	0xbce8308c	-0.028343461
118	0x3cbc9f85	0.023025284
119	0xbdfaa632	-0.122387305
120	0xbda08aad	-0.0783895
121	0x3d357659	0.04430232
122	0xbe2d1600	-0.16902924
123	0x3d8d3e7e	0.06896685
124	0xbdcfaa28	-0.101398766
125	0xbdef27ff	-0.116775505
126	0xbd5d97f7	-0.054100003
127	0x3db2b2eb	0.08725532
128	0xbb510d1d	-0.0031898685
129	0xbc4fa6b6	-0.012674024
130	0x3cf15a35	0.02946196
131	0xbe3350e6	-0.17511329
132	0x3e244804	0.16043097
133	0x3ea13555	0.31486002
134	0xbe304bd7	-0.1721643
135	0xbd9b2f94	-0.07577434
136	0x3dfc9a12	0.12334074
137	0xbe5f3366	-0.2179695
138	0xbe01ac36	-0.1266335
139	0x3d8bd00c	0.06826791
140	0xbe7b2d6e	-0.24529049
141	0xbd970984	-0.07374862
142	0x3e9f20b2	0.31079632
143	0xbe58a688	-0.21157277
144	0x3ddd7012	0.10812391
145	0xbcf041c3	-0.029328233
146	0xbda51e7f	-0.08062457
147	0xbca31fa1	-0.019912543
148	0x3c529858	0.012853704
149	0xbcfcd74e	-0.030864384
150	0xbd33087f	-0.043709274
151	0xbd81f29b	-0.063451014
152	0x3d835951	0.0641352
153	0xbcc4d63a	-0.024027932
154	0xbe90c3eb	-0.28274474
155	0xbd5acbaf	-0.053416904
156	0x3d578b48	0.052623063
157	0xbe8ad4af	-0.2711539
158	0xbdaa1efe	-0.083066925
159	0x3c9a1f56	0.01881377
160	0xbd429a8c	-0.04751067
161	0xbd0da051	-0.034576718
162	0x3deccf44	0.1156297
163	0xbd2000d9	-0.03906331
164	0x3d38fe18	0.045164198
165	0x3df0f935	0.117662825
166	0x3b3b18e9	0.0028548783
167	0x3d251c68	0.040310293
168	0x3c0bc5bd	0.008531031
169	0x3da91128	0.082552254
170	0xbc671689	-0.014104494
171	0x3d8eb6b7	0.06968444
172	0x3de6ba85	0.112660445
173	0xbe1eec53	-0.15519838
174	0xbdadde97	-0.08489721
175	0x3d997ac7	0.07494121
176	0xb9ca2cf4	-0.00038561935
177	0x3d85e780	0.06538296
178	0x3d2a2538	0.0415394
179	0x3dfece3f	0.12441682
180	0x3d2947ae	0.041328125
181	0xbe20b623	-0.1569448
182	0xbbf514c4	-0.007479282
183	0xbd1551a2	-0.036454804
184	0xbdf1027a	-0.117680505
185	0xbd6cd075	-0.057815988
186	0xbd043f8b	-0.03228716
187	0xbe197a47	-0.14988051
188	0xbe0b7263	-0.13617854
189	0xbbd61f92	-0.006534525
190	0xbb535864	-0.003224873
191	0xbd1dfc15	-0.038570482
192	0xbd2f4db5	-0.042798717
193	0xbbf11e28	-0.0073583312
194	0x3d976449	0.07392175
195	0x3d3d3d21	0.046200875
196	0x3df15123	0.11783054
197	0x3deabd21	0.11461855
198	0x3d06c895	0.032906134
199	0xbd644f9a	-0.055739976
200	0xbec6c404	-0.38821423
201	0x3d0bfbb7	0.0341756
202	0xbd2eb2e1	-0.04265106
203	0x3dd754fc	0.10514256
204	0xbbb19e80	-0.005420506
205	0x3deaab3b	0.11458441
206	0x3e5cddd3	0.21568994
207	0xbb893abf	-0.0041879113
208	0xbd5d0b26	-0.05396571
209	0xbd88b7b8	-0.066756666
210	0x3cf581c8	0.029969111
211	0x3da2c16b	0.07947048
212	0x3d380742	0.044928797
213	0x3d7e7086	0.06211903
214	0x3d30c55f	0.043156978
215	0x3da24f07	0.079252295
216	0xbb6b0678	-0.003586201
217	0x3e134bec	0.1438443
218	0x3c6371ca	0.01388211
219	0x3d90df4a	0.07073839
220	0x3e3560c2	0.17712691
221	0xbdbf7126	-0.09347753
222	0xbdbfadf7	-0.09359353
223	0x3e75796e	0.23972103
224	0x3ed77aa5	0.42085758
225	0x3dd6aa32	0.10481681
226	0xbcf8922c	-0.030343138
227	0xbe09473d	-0.13406081
228	0x3e0659f8	0.13120258
229	0xbacfbfc6	-0.001585
230	0xbd8de150	-0.069277406
231	0x3d4281c5	0.04748704
232	0x3e0eb23f	0.13935183
233	0x3e4e4323	0.20142798
234	0xbd0655e1	-0.032796744
235	0xbdc7f12f	-0.09762799
236	0xbe2d7e1b	-0.16942637
237	0x3c919e3e	0.017775651
238	0x3c87ddad	0.016585195
239	0x3cea3fb1	0.028594824
240	0xbd80d5d7	-0.06290787
241	0x3d928c22	0.071556345
242	0x3ec55fb4	0.38549578
243	0xbd14f002	-0.0363617
244	0xbd8d868e	-0.0691043
245	0xbc986bfa	-0.018606175
246	0xbd7f7408	-0.062366515
247	0x3d378cfc	0.044812188
248	0x3d50fff8	0.05102536
249	0xbd07450a	-0.033024825
250	0xbcbac094	-0.022796907
251	0x3d8cca9c	0.06874582
252	0xbc508073	-0.012725937
253	0x3d6a785b	0.057243686
254	0x3d732578	0.059361905
255	0xbb815654	-0.0039470587

state_cnn.1.0.bias f4 [32]
0	0xbbb5cadd	-0.005547865
1	0x3d2b0c06	0.041759513
2	0xbd8eef7f	-0.06979274
3	0x3ce59ff3	0.028030371
4	0x3ce3d8bf	0.027813314
5	0xbd67d290	-0.056597292
6	0x3ca82087	0.020523323
7	0x3c9008a7	0.01758225
8	0x3d4a5236	0.04939481
9	0xbca283e6	-0.019838285
10	0x3d8c57ad	0.0685266
11	0xbdd47b0f	-0.10375034
12	0xbdc3e42f	-0.09565007
13	0x3d266c36	0.04063054
14	0x3d522795	0.05130728
15	0x3d233409	0.039844546
16	0xbd9c5523	-0.07633426
17	0xbd1242ff	-0.035708424
18	0x3d27e281	0.040987495
19	0xba2fbea1	-0.0006704126
20	0xbd5bd0b0	-0.053665817
21	0xbcedda04	-0.029034622
22	0xbc0fb79d	-0.008771804
23	0xbd8ad07e	-0.06778048
24	0x3d57e556	0.052708946
25	0x3d7f70b0	0.062363327
26	0xbd081dea	-0.033231653
27	0xbc98336d	-0.01857921
28	0xbc993f25	-0.018706867
29	0x3b07cd40	0.0020721704
30	0xbd223117	-0.039597597
31	0x3cb8cc48	0.022558346

button_cnn.0.0.weight f4 [8, 1, 3, 3]
0	0x3e924398	0.28567195
1	0xbe86a6c5	-0.2629911
2	0xbe8f7074	-0.28015482
3	0x3ea6fabc	0.3261317
4	0xbd47be1d	-0.04876529
5	0xbcddedef	-0.027090995
6	0xbdb9f5c1	-0.09080077
7	0xbd989057	-0.07449406
8	0x3cfb3019	0.030662583
9	0xbdaa42d1	-0.083135255
10	0x3e7dcd8f	0.24785446
11	0x3e53c15c	0.2067923
12	0x3d1cb2af	0.038256343
13	0x3ee77cc1	0.45212367
14	0x3dfdf686	0.12400536
15	0xbe9de4c8	-0.3083861
16	0xbe0b6e0e	-0.13616201
17	0xbebdfee1	-0.3710852
18	0xbea83777	-0.32854816
19	0xbd6757d0	-0.05648023
20	0x3daff34c	0.08591327
21	0x3eb16a90	0.34651613
22	0x3db0c251	0.08630813
23	0xbd843b44	-0.064566165
24	0x3cc04fe6	0.023475599
25	0x3eb2ffa2	0.34960657
26	0xbcbb89f8	-0.022892937
27	0x3e9ea6cf	0.3098664
28	0xbdbf52ad	-0.09341941
29	0xbde2d1e6	-0.11075191
30	0xbd9b20d8	-0.07574624
31	0x3d8a846b	0.06763538
32	0x3d8b5005	0.06802372
33	0xbe9d02c1	-0.30666164
34	0xbdbc6aeb	-0.092000805
35	0x3f051c2e	0.51996124
36	0xbea30980	-0.31843185
37	0xbe1456b3	-0.14486198
38	0x3e8073d5	0.25088373
39	0xbed29524	-0.4112941
40	0xbe3b634c	-0.18299598
41	0x3db40517	0.08790033
42	0xbe9c8d0e	-0.30576366
43	0xbeb18b6b	-0.3467668
44	0x3ec4c891	0.3843427
45	0x3ea35338	0.31899428
46	0xbd8167a1	-0.06318594
47	0xbe02cccd	-0.12773438
48	0x3ec583b9	0.3857706
49	0x3e981959	0.2970684
50	0x3ea555c0	0.32291985
51	0x3d89cfb2	0.06729068
52	0x3e965118	0.29358745
53	0x3af1d90a	0.0018451524
54	0x3ea5a8ef	0.3235545
55	0xbeaedee8	-0.3415444
56	0xbd86d93a	-0.065844014
57	0xbba3aef0	-0.0049952194
58	0x3e9841a5	0.29737583
59	0xbda82894	-0.08210865
60	0x3e0d7409	0.13813795
61	0x3e67690f	0.2259867
62	0xbe409b2a	-0.1880919
63	0x3d90feed	0.07079873
64	0x3d2d974a	0.04238061
65	0x3e08c947	0.13358031
66	0x3eb40c85	0.35165802
67	0xbe1e7b88	-0.15476811
68	0x3e0f23f0	0.13978553
69	0xbde91634	-0.11381188
70	0xbe83ec7f	-0.2576637
71	0xbe736401	-0.23768617

button_cnn.0.0.bias f4 [8]
0	0xbb1a7f2a	-0.002357433
1	0xbe72faf6	-0.23728547
2	0x3e8c113d	0.27356902
3	0x3b4d376f	0.0031313559
4	0x3e86cfa9	0.26330307
5	0xbe0f6b7d	-0.14005847
6	0xbe355f14	-0.1771205
7	0x3e14d339	0.145337

button_cnn.1.0.weight f4 [16, 8, 3, 3]
0	0xbdd150ab	-0.10220464
1	0xbd9b8149	-0.075930186
2	0x3d415055	0.04719575
3	0xbdbbe7ea	-0.091750935
4	0xbde916c3	-0.113812946
5	0x3dfa5400	0.12223053
6	0x3e0d11f4	0.1377638
7	0x3cbe4dcd	0.023230458
8	0x3c6df20a	0.014523039
9	0xbe203eaa	-0.15648904
10	0x3deb0e84	0.11477378
11	0x3a660eae	0.0008775991
12	0x3d5c515e	0.053788535
13	0xbd02d943	-0.03194548
14	0xbe72e652	-0.23720673
15	0x3ddfd074	0.10928431
16	0xbd2e0048	-0.042480737
17	0xbc953d91	-0.018217834
18	0xbd669e6a	-0.05630342
19	0x3dec0b42	0.11525585
20	0xbe17fee2	-0.14843324
21	0x3d5c12d7	0.053728905
22	0x3df6d5e4	0.12052515
23	0x3c381582	0.011235597
24	0x3bd1e4fa	0.00640547
25	0x3cdf5590	0.027262479
26	0xbc770f22	-0.015079292
27	0xbd9c99ca	-0.076465204
28	0x3d957b44	0.07298902
29	0xbd4e37e0	-0.050346255
30	0xbe6e611f	-0.23279236
31	0x3e02875d	0.1274695
32	0xbe7f2055	-0.24914677
33	0xbcd104f2	-0.025515053
34	0xbdf33990	-0.118762136
35	0xbe86d105	-0.26331344
36	0xbbc73662	-0.006079481
37	0x3b02b709	0.0019945523
38	0x3d16f935	0.036858756
39	0x3d940670	0.0722779
40	0xbcdbd7f7	-0.026836378
41	0x3c771dff	0.015082835
42	0xbdd5545c	-0.10416481
43	0x3d999440	0.074989796
44	0xbdfb2109	-0.1226216
45	0xbddc26bc	-0.107495755
46	0xbd19cf64	-0.0375513
47	0x3d2e4cfa	0.04255388
48	0xbc345848	-0.011007376
49	0x3e184a9b	0.1487221
50	0x3cef8113	0.029236352
51	0x3d34c0e9	0.044129286
52	0xbde377b7	-0.11106818
53	0xbdfe3c06	-0.12413792
54	0xbabbde52	-0.0014333224
55	0x3d3039ec	0.04302399
56	0xbdb175de	-0.086650595
57	0xb928ceb7	-0.00016098736
58	0x3dd2bab1	0.10289515
59	0xbdad7860	-0.08470225
60	0x3e1c63f6	0.15272507
61	0xbbc1e5c0	-0.005917281
62	0x3d1c645b	0.038181644
63	0x3ce315de	0.027720388
64	0xbe163d5a	-0.14671841
65	0xbdbd0ac1	-0.09230567
66	0xbdeec30b	-0.11658295
67	0xbd381e2a	-0.04495064
68	0x3c6ce402	0.014458658
69	0xbc98a45d	-0.018633062
70	0xbc4d293d	-0.012522039
71	0xbdfab9df	-0.12242483
72	0x3dc62e1f	0.09676766
73	0xbd74f037	-0.0597994
74	0xbde813db	-0.11331912
75	0x3db7e26d	0.08978734
76	0x3d6bafe1	0.057540778
77	0x3d47a2b6	0.048739158
78	0xbd349688	-0.04408887
79	0xbdb3d5d0	-0.08781016
80	0x3d3d60e7	0.04623499
81	0xbdc4f6fc	-0.09617421
82	0xbd2af690	-0.041739047
83	0xbc989548	-0.01862587
84	0xbdd1a902	-0.10237314
85	0xbd8d8912	-0.0691091
86	0xbe490cd3	-0.19633798
87	0x3e35c7f8	0.17752063
88	0x3cf86b73	0.030324673
89	0x3d01eddb	0.031720977
90	0x3dfa6d42	0.122278705
91	0xbc00c12c	-0.007858556
92	0x3e18a8f9	0.14908208
93	0xbd8cebe0	-0.06880927
94	0x3d4edb5c	0.050502166
95	0xbcf13626	-0.029444765
96	0x3a347be5	0.0006884917
97	0xbe0003c3	-0.12501435
98	0xbdd9cd43	-0.10634854
99	0x3e00b8b8	0.12570465
100	0x3db1e6be	0.08686589
101	0x3d970cdc	0.073754996
102	0xbdf5bcae	-0.119988784
103	0x3db8eb6f	0.090292804
104	0xbe2711f4	-0.16315442
105	0x3ddf4845	0.10902456
106	0xbdcbbf16	-0.09948556
107	0xbe31a734	-0.17348939
108	0xbdd330d5	-0.10312048
109	0xbd794e09	-0.060865436
110	0x3c0a7d65	0.008452748
111	0x3d98ef1a	0.0746748
112	0xbddf731e	-0.10910629
113	0xbd84934e	-0.06473409
114	0x3c97964b	0.018504282
115	0x3d1d3cfc	0.038388237
116	0xbdd28e00	-0.102809906
117	0xbd55ef61	-0.052230243
118	0xbda401a7	-0.08008128
119	0xbd0b0f59	-0.033950184
120	0x3cb378dc	0.021908216
121	0x3dc8a39f	0.09796833
122	0x3d37e256	0.044893585
123	0xbd08b53a	-0.033375956
124	0xbd440384	-0.047854915
125	0x3ceeb0ba	0.029137004
126	0x3d9d60fd	0.07684515
127	0x3cb859f5	0.022503832
128	0x3d2ebde8	0.042661577
129	0x3c3e7ef6	0.0116269495
130	0xbca2ae50	-0.01985851
131	0x3db6fd39	0.08935017
132	0x3e3f7a96	0.18699107
133	0x3d48d407	0.04903033
134	0x3d13292f	0.035927948
135	0x3dbff2da	0.09372492
136	0xbd5b6fbf	-0.053573366
137	0xbd2a3da2	-0.041562684
138	0xbd8db7e9	-0.06919844
139	0x3dba95dc	0.09110615
140	0x3e295fd8	0.16540468
141	0xbd461f33	-0.048369598
142	0x3c56e70a	0.013116607
143	0xbde4f2cd	-0.11179123
144	0xbde91149	-0.1138025
145	0xbe406039	-0.18786706
146	0x3bce0202	0.0062868604
147	0x3d00645d	0.031345714
148	0xbecf7dbc	-0.40525615
149	0x3e3ff36c	0.18745202
150	0x3d4ea14f	0.050446805
151	0xbd816ecc	-0.06319961
152	0x3d56a4b6	0.052403174
153	0xbdaaab75	-0.08333484
154	0xbcaf3950	-0.021389633
155	0xbda31a36	-0.07963984
156	0x3d8440bb	0.06457659
157	0x3e065f73	0.13122348
158	0xbddbbf66	-0.10729866
159	0xbe13818d	-0.14404888
160	0xbc67c1a6	-0.0141452905
161	0x3e07b466	0.1325241
162	0xbbd1c85f	-0.00640206
163	0x3bef2f9c	0.0072993767
164	0xbdab6cd3	-0.08370366
165	0xbb9db259	-0.0048125205
166	0x3e47d96b	0.19516532
167	0x3d602950	0.0547269
168	0xbdb216e7	-0.086957745
169	0xbdf45023	-0.11929347
170	0xbd9dc2b1	-0.0770315
171	0xbe8ea44f	-0.27859733
172	0xbde49c7e	-0.11162661
173	0x3c01491c	0.007890966
174	0xbdbb12c3	-0.09134438
175	0x3e8f2e13	0.2796484
176	0xbd991e73	-0.07476511
177	0x3ce4a94c	0.027912758
178	0xbd027cb7	-0.03185722
179	0xbdbb05f6	-0.09131996
180	0xbdbf2548	-0.09333283
181	0x3ded879f	0.11598133
182	0x3cbfe07e	0.023422476
183	0x3bc02110	0.0058633164
184	0x3dfccc01	0.12343598
185	0xbd23e88c	-0.040016696
186	0x3d8e8534	0.06959
187	0xbe08c7c4	-0.13357455
188	0xbe247fca	-0.16064373
189	0x3cbc4191	0.022980483
190	0x3c094fa7	0.008380807
191	0x3ccb28a7	0.024799658
192	0xbd847344	-0.06467298
193	0x3d8c2044	0.06842092
194	0x3d8ff658	0.07029408
195	0xbdba7768	-0.09104806
196	0xbd984b0f	-0.07436191
197	0x3e033b08	0.12815487
198	0xbd092860	-0.03348577
199	0xbe2d82d9	-0.16944446
200	0xbdbcf9e3	-0.092273496
201	0xbd190c66	-0.03736534
202	0x3bc88ed2	0.006120541
203	0x3dab603f	0.08367967
204	0xbe304c34	-0.17216569
205	0x3d8b4dc2	0.068019405
206	0xbd4f1dbf	-0.050565477
207	0x3d9659a8	0.07341319
208	0x3d0111aa	0.031510986
209	0xbd6e3b72	-0.05816216
210	0xbc6674e5	-0.014065956
211	0xbd809b3e	-0.0627961
212	0x3e22becf	0.158931
213	0xbe06c3c4	-0.13160616
214	0xbe379113	-0.17926435
215	0xbdf31d27	-0.11870795
216	0x3e123a3f	0.14280032
217	0x3d73829f	0.05945074
218	0xbe491a21	-0.19638874
219	0xbd8cd26a	-0.06876071
220	0xbe1559b7	-0.14585005
221	0x3d443024	0.047897473
222	0xbe7c9402	-0.24665835
223	0xbe31ba0c	-0.17356128
224	0xbdee5b68	-0.11638528
225	0xbcf9d55c	-0.030497245
226	0x3e10b9f4	0.14133435
227	0x3d7dc85e	0.061958663
228	0xbdbe90f9	-0.09304995
229	0x3e2e7ac0	0.17039013
230	0x3d5bf7df	0.053703185
231	0x3c8162ec	0.01579424
232	0xbd0bbd26	-0.034115933
233	0xbd0e578c	-0.03475146
234	0x3d38af88	0.045089275
235	0x3d8dd505	0.06925396
236	0xbd986ba6	-0.07442407
237	0xbd4c933c	-0.0499451
238	0x3ddbe984	0.10737899
239	0x3e05c444	0.1306315
240	0xbe83e460	-0.25760174
241	0x3c8e9943	0.017407065
242	0xbd95f777	-0.07322591
243	0xbd93354a	-0.071878985
244	0xbdf51fd2	-0.1196896
245	0xbd88c4fb	-0.06678196
246	0x3d864588	0.06556231
247	0x3dfd21dc	0.12359974
248	0xbd9f5047	-0.077789836
249	0x3d9db266	0.077000424
250	0x3ea3a3c2	0.31960875
251	0xbd942238	-0.07233089
252	0xba904ecc	-0.0011009811
253	0x3d957e29	0.07299454
254	0x3d72fef1	0.059325162
255	0xbca3c459	-0.019991087

button_cnn.1.0.bias f4 [16]
0	0x3dbe54b2	0.09293498
1	0x3dcf4887	0.10121255
2	0x3bbe6a57	0.0058110165
3	0xbd92af66	-0.07162361
4	0x3d4953e7	0.04915228
5	0x3ca07bf7	0.019590361
6	0x3da2a10d	0.07940874
7	0x3dfef234	0.1244854
8	0xbc3397e7	-0.010961509
9	0x3b5f1095	0.0034036983
10	0x3db6d601	0.08927537
11	0x3e30be81	0.17260171
12	0x3c9fe40e	0.019517925
13	0x3cbee2ee	0.023301568
14	0xbdd2f2ae	-0.10300194
15	0x3d7857e7	0.060630705

fc.0.weight f4 [256, 240]
0	0x3cafad9b	0.021445086
1	0x3d366e3c	0.04453872
2	0x3c0edaeb	0.008719186
3	0x3c99cd69	0.018774705
4	0xbd23dea2	-0.04000724
5	0x3ae11351	0.0017171894
6	0x3d31c041	0.04339624
7	0xbc6172ad	-0.013760251
8	0x3d1dc18f	0.03851467
9	0x3d58c589	0.05292276
10	0xba22497c	-0.00061907596
11	0x3d05b1a2	0.032640107
12	0x3ba547c4	0.0050439555
13	0x3d03305c	0.03202854
14	0xbd5a9c22	-0.053371556
15	0xbd54c7ed	-0.051948477
16	0x3d66a7f2	0.05631251
17	0xbd1828f7	-0.037148442
18	0x3c9a4ba7	0.018834902
19	0x3c9290ab	0.017891249
20	0xbd8c916b	-0.06863674
21	0x3d343285	0.04399349
22	0x3c241568	0.010014869
23	0x3c8120a4	0.015762635
24	0xbd0d10b2	-0.03443975
25	0xbd2d91a9	-0.04237524
26	0xbc39917a	-0.011326188
27	0xbce9a5d7	-0.028521461
28	0xbb431216	-0.0029765419
29	0xbc65bfd6	-0.014022788
30	0xbd820eee	-0.06350504
31	0xbd8a904a	-0.06765802
32	0xbb9da20d	-0.0048105777
33	0xbcbcb004	-0.02303315
34	0x3d6277b8	0.055289954
35	0x3cd7fcf0	0.026365727
36	0xbc93e96b	-0.018055638
37	0xbc5763e4	-0.013146374
38	0xbcb99a43	-0.022656566
39	0xbb80de21	-0.00393273
40	0xbd32549d	-0.043537725
41	0x3d5ab529	0.053395424
42	0x3d6069ee	0.054788522
43	0xbd84bf60	-0.064818144
44	0xbd017911	-0.0316096
45	0x3bdf835b	0.0068210787
46	0xbd395716	-0.045249067
47	0xbd78aa5b	-0.06070934
48	0xbd6d9576	-0.058003865
49	0x3c338e09	0.010959157
50	0xbd70adf6	-0.058759652
51	0xbca2a9de	-0.01985639
52	0xbc9aad83	-0.018881565
53	0x3c96823c	0.018372647
54	0xbd895ac3	-0.067067645
55	0xbd2b15bc	-0.041768774
56	0xbc857fae	-0.016296234
57	0xbcc0c5b5	-0.023531774
58	0x3d1d14c1	0.03834987
59	0xbc508cf2	-0.0127289165
60	0xbc6cb6c3	-0.014447871
61	0x3cbd0586	0.023073923
62	0xbbae769e	-0.005324199
63	0xbc4c9986	-0.012487775
64	0xbd14069e	-0.036139123
65	0x3c309644	0.010778014
66	0xbd6dbd0e	-0.058041625
67	0x3b55d555	0.0032628377
68	0xbd5fd09f	-0.054642316
69	0x3b006f08	0.001959743
70	0xbd5f687d	-0.054543007
71	0xbd81bc80	-0.06334782
72	0xbc9296c6	-0.01789416
73	0x3befb880	0.0073156953
74	0xbd47d188	-0.04878381
75	0xbd3904c3	-0.045170557
76	0xbd1f4252	-0.038881607
77	0xbc83e8db	-0.016102245
78	0xbd004fdd	-0.031326164
79	0xbd1210a9	-0.03566042
80	0xbd38613d	-0.04501461
81	0xbce35334	-0.027749635
82	0x3c91f4ca	0.01781692
83	0xbd606f6d	-0.054793764
84	0x3d3a0a60	0.04542005
85	0x3cbb50ea	0.022865731
86	0xbd1cb602	-0.038259514
87	0x3d23c5fd	0.03998374
88	0xbd258df7	-0.04041859
89	0xbbf1f660	-0.0073841065
90	0x3ba8e92e	0.0051547503
91	0x3d8037d1	0.06260646
92	0xbbfcd242	-0.0077154944
93	0xbd53d187	-0.051713493
94	0xbd07d207	-0.033159282
95	0x3d277bc3	0.040889513
96	0x3c997d32	0.018736456
97	0x3c79c159	0.015243852
98	0xbca4c641	-0.020114066
99	0x3d45f4af	0.04832905
100	0xbd0b658f	-0.0340324
101	0x3d4c59c4	0.049890295
102	0x3caa8eae	0.020819988
103	0x3c9a1a32	0.018811319
104	0xbd92ad4c	-0.0716196
105	0xbd09929e	-0.03358709
106	0xbabb28a0	-0.0014279075
107	0xbd7bd65a	-0.06148372
108	0x3d2d5fd6	0.042327724
109	0xbd7f26dc	-0.06229292
110	0x3c85b1ea	0.016320188
111	0x3cfab0ab	0.03060182
112	0x3d5e8dae	0.054334335
113	0xbd7bf746	-0.061515115
114	0xbccf4b4e	-0.025304463
115	0xbd82b0ea	-0.063814
116	0x3d61fc23	0.055172097
117	0x3d578775	0.052619416
118	0xbd4a657b	-0.049413186
119	0x3bdda276	0.0067637516
120	0xbd5fafb0	-0.054610908
121	0xbc8c4e90	-0.017127305
122	0xbd73c45f	-0.059513446
123	0xbd7a24a8	-0.061070114
124	0xbb48cd8f	-0.00306401
125	0x3d65f8e8	0.05614558
126	0x3d00e25f	0.031465884
127	0xbb97a95a	-0.0046283426
128	0xbd5338bc	-0.051567778
129	0x3d5d9e38	0.054105967
130	0xbd18df11	-0.037322108
131	0xbd3b8816	-0.04578408
132	0x3ce8a189	0.028397338
133	0x3c36f50c	0.011166822
134	0xbd8ffc77	-0.07030576
135	0x3d5f0291	0.054445807
136	0xbd13068c	-0.035894915
137	0xbd908b8e	-0.07057868
138	0x3c90b649	0.017665045
139	0xbd8fb509	-0.070169516
140	0x3cdd1a4e	0.026990082
141	0x3d5f90b8	0.054581374
142	0x3d05b0f2	0.03263945
143	0x3c3216d6	0.010869702
144	0xbd20a232	-0.03921718
145	0x3ca5c788	0.020236745
146	0xbd286aab	-0.04111735
147	0x3c59ea3e	0.013300477
148	0xbd669d99	-0.05630264
149	0x3cd72dc3	0.026266938
150	0xbd68916a	-0.056779303
151	0xbd1cebb5	-0.038310725
152	0xbd9397e8	-0.07206708
153	0xbcb64991	-0.022251876
154	0x3d05d06c	0.03266947
155	0xbd991c27	-0.07476073
156	0xbd96498a	-0.07338245
157	0x3d304659	0.04303584
158	0x3c0bfa39	0.008543544
159	0xbae39f6d	-0.0017366238
160	0xbd8763ce	-0.06610833
161	0x3c957b50	0.018247277
162	0xbd93f7a0	-0.07224965
163	0xbd33f706	-0.04393675
164	0xbc5653ed	-0.013081533
165	0x3cacad96	0.021078866
166	0x3cd82004	0.026382454
167	0xbb7214f2	-0.0036938754
168	0x3d58091a	0.052743055
169	0xbd25fc1d	-0.040523637
170	0x3b3273aa	0.0027229586
171	0x3aa53a3d	0.0012605857
172	0xbc874abc	-0.016515128
173	0xbd3ba425	-0.045810837
174	0x3ca2a0e8	0.019852117
175	0x3c9468e9	0.018116431
176	0xbd66f81a	-0.05638895
177	0xbd7b8781	-0.061408523
178	0x3bb33cc7	0.0054698917
179	0xbca9e8f6	-0.020740967
180	0x3bc04e0c	0.005868679
181	0x3ce20c35	0.027593711
182	0xbd8a40a7	-0.06750613
183	0xb91d7e29	-0.00015019685
184	0x3d533882	0.051567562
185	0xbd3d98dd	-0.04628836
186	0xbc7ea6e4	-0.0155427195
187	0x3979249d	0.0002376013
188	0x3d608814	0.054817274
189	0xbd667ae5	-0.056269545
190	0xbd7acbdc	-0.06122957
191	0xbd77459c	-0.06036912
192	0xbcec368c	-0.028834604
193	0xbaf0d2d7	-0.0018373382
194	0xbce03afe	-0.02737188
195	0xbd683560	-0.056691527
196	0xbd215e64	-0.03939666
197	0xbc5eb577	-0.013593069
198	0x3c4d886b	0.012544732
199	0x3d19c9ac	0.037545845
200	0xbd93ea44	-0.07222417
201	0xbb7611a7	-0.0037547143
202	0xbd349899	-0.04409084
203	0x3b5ca32d	0.0033666596
204	0xbd64cf46	-0.055861734
205	0xbd132626	-0.035925053
206	0xbd2820f5	-0.041047055
207	0xbd602991	-0.05472714
208	0x3ca4e48c	0.02012851
209	0xbc8256b4	-0.015910484
210	0xbd8810e9	-0.0664385
211	0x3cb30e77	0.021857483
212	0xbd879946	-0.066210315
213	0xbd015813	-0.031578135
214	0xbcd3ca5e	-0.025853332
215	0x3d54942d	0.051899124
216	0x3cf9855b	0.030459097
217	0xbd536372	-0.05160851
218	0x3d106063	0.03524817
219	0xbcc78b9c	-0.024358563
220	0xbd594d79	-0.0530524
221	0xbd455eaa	-0.04818598
222	0x3d73a972	0.059487768
223	0x3c81bf45	0.015838275
224	0x3d0a6a43	0.033792745
225	0xbd53b898	-0.051689714
226	0x3c9cb74c	0.019130372
227	0xbd4a23c7	-0.049350526
228	0x3d256e5f	0.04038846
229	0xbd2fbeaa	-0.04290644
230	0x3c4010c8	0.011722751
231	0x3d05cec7	0.0326679
232	0x3cee2b32	0.029073332
233	0x3c39f608	0.011350162
234	0xbcf6dc3c	-0.030134313
235	0x3cd35b73	0.025800442
236	0x3d2a07f8	0.041511506
237	0x3d594b1a	0.053050138
238	0xbd079638	-0.033102244
239	0xbd8601b3	-0.06543293
240	0xbd424197	-0.047425833
241	0xbd79cd8a	-0.060987033
242	0x3c7e5324	0.015522752
243	0xbd072dd5	-0.033002693
244	0xbcd56f29	-0.026053982
245	0xbcf160bd	-0.029465074
246	0x3d4203ac	0.047366783
247	0xbd0e94ff	-0.034810062
248	0x3ca2c371	0.019868584
249	0x3bafd97a	0.0053665014
250	0x3c5de6ca	0.013543794
251	0xbd09e0f5	-0.0336618
252	0xbd786be3	-0.060649764
253	0xbcd9941a	-0.026559878
254	0xbc64655d	-0.0139401825
255	0x3ca00f6c	0.019538604

fc.0.bias f4 [256]
0	0xbc940a00	-0.018071175
1	0x3d51dcbc	0.0512359
2	0xbba8cae1	-0.005151138
3	0x3d5862bd	0.05282854
4	0xbd2214cf	-0.039570626
5	0xbd89a277	-0.06720441
6	0x3cd7049b	0.026247313
7	0x3d06fb3c	0.03295444
8	0xbd09fe25	-0.033689637
9	0x398116bf	0.00024621745
10	0x3bf62839	0.007512119
11	0x3c4ff1a3	0.012691888
12	0x3d462cae	0.048382454
13	0x3d3f8e1a	0.046766378
14	0xbcd0dd7e	-0.02549624
15	0x385c3301	5.249959e-05
16	0x3cd7b980	0.02633357
17	0xbcc2d572	-0.02378342
18	0x3af4362a	0.0018631865
19	0x3cc7ae16	0.024375003
20	0x3d0dd6a0	0.03462851
21	0x3d8482ba	0.064702466
22	0x3cbb27ee	0.022846188
23	0x3d0976d3	0.033560585
24	0x3d7ea503	0.062169086
25	0x3bb230b0	0.005437933
26	0x3cb6a838	0.02229701
27	0x3dc80256	0.097660705
28	0xbd0aadf6	-0.03385731
29	0x3c7e44e8	0.015519358
30	0x3d5e6f51	0.05430538
31	0x3ba1c565	0.0049368613
32	0x3d6eaa0c	0.058267638
33	0xbcc7717c	-0.024346106
34	0xbd7ebda1	-0.062192563
35	0x3d08a68e	0.033361964
36	0x3d73fa04	0.059564605
37	0x3d0546dd	0.032538284
38	0x3b86c001	0.004112244
39	0x3cb7f594	0.022455968
40	0xbd731d3a	-0.059354044
41	0x3bcfff1a	0.006347549
42	0x3c25f7b0	0.010129854
43	0xbce5a947	-0.02803482
44	0x3cb5ebda	0.02220719
45	0xbd2c6bb1	-0.04209489
46	0xbce47ce3	-0.027891582
47	0x3cc59379	0.024118172
48	0xbbde8447	-0.006790671
49	0xbd18fb5f	-0.0373491
50	0x3c437e00	0.011931896
51	0xbd801caa	-0.06255467
52	0x3d0788df	0.033089515
53	0x3dc31153	0.09524789
54	0x3cd7194a	0.026257176
55	0x3d19455d	0.037419666
56	0x3d3a6c82	0.045513637
57	0x3d1f0466	0.038822554
58	0x3cf5ab16	0.029988807
59	0x3d5b8def	0.053602155
60	0xbc9188fd	-0.017765516
61	0x3cb31534	0.021860696
62	0xbc3484bd	-0.011017975
63	0xbd6907a9	-0.05689207
64	0xbd2b2853	-0.041786503
65	0xbc80389f	-0.015651999
66	0x3d89c199	0.06726379
67	0xbd16f233	-0.036852073
68	0xbd8caea5	-0.06869248
69	0xbd2bf371	-0.04198021
70	0x3cb77570	0.022394866
71	0x3bc7ef04	0.006101491
72	0xbd10ae0b	-0.03532223
73	0xbcb39658	-0.021922275
74	0xbd1397f5	-0.03603359
75	0xbcbcf98c	-0.023068212
76	0xbb8c3b35	-0.004279519
77	0x3d17bb03	0.037043583
78	0xbc8c12e3	-0.01709885
79	0x3d0d0116	0.034424864
80	0xbcf8fec4	-0.03039492
81	0x3d47ce50	0.04878074
82	0xbcca24a0	-0.024675667
83	0xbc4dc11e	-0.01255825
84	0x3d44f46f	0.048084673
85	0x3d4764ec	0.04868023
86	0xbbec762c	-0.0072162356
87	0x3bf8d9d3	0.007594326
88	0xbd09e796	-0.033668123
89	0x3cdcfb72	0.026975367
90	0xbd0b95cd	-0.034078408
91	0xbd43d4e2	-0.047810443
92	0xbda2aa25	-0.07942609
93	0xbd5278ed	-0.051384855
94	0xbd641a05	-0.055688877
95	0xbd38c637	-0.045110907
96	0x3d1d391a	0.038384534
97	0xbc6a7422	-0.014309915
98	0xbb991675	-0.0046718665
99	0x3d0d3599	0.034474943
100	0xbd281d05	-0.0410433
101	0x3cec44de	0.028841432
102	0xbd111f5a	-0.03543029
103	0x3cb306d2	0.021853838
104	0x3cd8fb94	0.02648715
105	0x3c95e0ea	0.018295724
106	0x3d24958e	0.04018169
107	0x3d2348e6	0.039864443
108	0xbcbdd606	-0.023173343
109	0x3cd66d3b	0.026175132
110	0x3d8b6500	0.068063736
111	0xbd241aa1	-0.040064458
112	0xbca1acf0	-0.019735783
113	0x3ccba8c0	0.02486074
114	0x3cc9dd90	0.024641782
115	0x3cabb3eb	0.020959815
116	0xbd04b03f	-0.032394644
117	0xbd383f07	-0.044981983
118	0x3dba3332	0.09091796
119	0xbd6a55d5	-0.057210762
120	0x3d2df4f6	0.04246994
121	0x3cba3dd7	0.022734566
122	0xbcf54d38	-0.029944047
123	0xbc6c615b	-0.014427508
124	0xbd315c3d	-0.043300856
125	0x3cfd2603	0.030901914
126	0xbd66936a	-0.05629293
127	0xbd71577e	-0.05892133
128	0xbb2bd1dd	-0.0026217618
129	0x3d35f622	0.044424184
130	0xbc5f5e58	-0.013633333
131	0xbd1dea7d	-0.038553704
132	0xbd0a97de	-0.033836238
133	0x3d97df42	0.0741563
134	0x3cc25b3e	0.023725148
135	0xbd23e922	-0.040017255
136	0x3ceb3a16	0.028714221
137	0x3c181fd5	0.009284933
138	0xbc8e068e	-0.01733711
139	0xbc882e20	-0.016623557
140	0xbd53d770	-0.05171913
141	0xbca01a38	-0.019543752
142	0xbc213525	-0.009839331
143	0xbd58556b	-0.052815836
144	0x3cc98d4f	0.024603514
145	0xbd30bd41	-0.043149237
146	0x3d2a82b4	0.041628554
147	0xbd8e018f	-0.06933891
148	0x3dad5622	0.08463694
149	0x3ca14859	0.019687818
150	0x3d6f1c3e	0.058376543
151	0x3cffe4eb	0.031237086
152	0xbd20823d	-0.039186705
153	0xbd8b2b07	-0.06795316
154	0x3d2b0da8	0.04176107
155	0xbd6468b1	-0.055763904
156	0xbd70f303	-0.058825504
157	0xbd8372b4	-0.06418362
158	0x3d77d510	0.060505927
159	0xbc0511fc	-0.008121964
160	0x3d0ab162	0.03386057
161	0xba585138	-0.00082518486
162	0x3d2840fd	0.041077603
163	0x3d924db3	0.07143726
164	0x3ccbf918	0.02489905
165	0x3d36c34b	0.04461984
166	0xbd81bd51	-0.06334937
167	0x3dbbb70f	0.09165775
168	0x3bd566ba	0.00651249
169	0xbd804438	-0.06263012
170	0x3dd262b5	0.10272733
171	0xbd82d5a4	-0.06388405
172	0xbd08d254	-0.03340371
173	0xbd280f70	-0.041030347
174	0xbc829c94	-0.015943803
175	0xbd0e2c44	-0.034710184
176	0xbd39f458	-0.04539904
177	0x3ca1f507	0.019770158
178	0x3d155f8a	0.036468066
179	0x3d93172b	0.07182153
180	0xbcbbfd04	-0.022947796
181	0x3d504baf	0.050853427
182	0x3d1e3252	0.038622208
183	0xbd1bf772	-0.03807778
184	0xbd7b79db	-0.061395507
185	0xbc6d1d2d	-0.014472288
186	0x3dd5960c	0.1042901
187	0x3b8199c8	0.0039550997
188	0x3cb4ee7a	0.02208637
189	0x3bdce76f	0.006741456
190	0x3d681bae	0.056667022
191	0xbd434e36	-0.04768201
192	0x3d6dda32	0.058069415
193	0xbd519300	-0.05116558
194	0x3d42528f	0.047442015
195	0x3db83100	0.08993721
196	0xbd6a3cd6	-0.057186924
197	0x3c16c3d9	0.009201967
198	0x3d98377e	0.07432459
199	0xbd0c72a1	-0.034289006
200	0xbcd7da48	-0.026349202
201	0xbd3e9d61	-0.046536807
202	0xbcf88b76	-0.030339938
203	0x3c627bfa	0.013823504
204	0x3c68a264	0.014198873
205	0x3c129a24	0.008947883
206	0x3d352440	0.044224024
207	0xbbce1d59	-0.0062901196
208	0x3c90a5f5	0.01765726
209	0x3d00d2da	0.031451084
210	0xbcefdfe4	-0.029281564
211	0xbd53f74e	-0.05174952
212	0x3d2dea12	0.042459555
213	0xbd92689f	-0.07148861
214	0x3c5c3b5f	0.01344189
215	0xbcb1efd4	-0.021720804
216	0xbd3984f5	-0.045292813
217	0x3d305561	0.043050174
218	0x3d2259d7	0.03963646
219	0xbd2e77b5	-0.04259463
220	0x3d8d9efb	0.06915089
221	0xbd5c450f	-0.053776797
222	0x3d106fb5	0.035262782
223	0xbd88217b	-0.06647011
224	0xbd01ecf2	-0.03172011
225	0x3d1c5f58	0.038176864
226	0x3c055f7c	0.008140441
227	0x3ab042ff	0.0013447701
228	0xbc2fdae6	-0.010733342
229	0xbd823b66	-0.063589856
230	0xbd9188b2	-0.07106151
231	0x3d5bdcb2	0.05367727
232	0x3c0d01aa	0.008606354
233	0xbc985342	-0.018594388
234	0xbcf98a5c	-0.030461483
235	0xbd2e56ce	-0.042563252
236	0xbc9cd950	-0.019146591
237	0xbd136d8f	-0.035993155
238	0xbd23be49	-0.039976392
239	0xbd0a3cac	-0.033749267
240	0x3d93d276	0.072178766
241	0x3be581e6	0.0070040105
242	0xbc75c27b	-0.014999981
243	0x3d65abdc	0.0560721
244	0xbd8c92ff	-0.06863975
245	0x3d6249b7	0.05524608
246	0xbd653352	-0.055957146
247	0xbdaa5217	-0.08316439
248	0x3d402f28	0.04691997
249	0x3ca9b985	0.020718345
250	0x3daf8acc	0.08571395
251	0x3d339039	0.043838713
252	0x3d0b934f	0.03407603
253	0xbd5ccac2	-0.053904302
254	0x3c6aa717	0.014322064
255	0xbcff2a93	-0.03114823

fc.3.weight f4 [12, 256]
0	0xbc476da9	-0.012172141
1	0x3d28b2c0	0.041186094
2	0xbd40301b	-0.046920877
3	0xbd0bcd9d	-0.034131635
4	0x3b6996ba	0.0035642819
5	0xbd7fac6d	-0.062420297
6	0xbdc3fb01	-0.095693596
7	0xbdc7237a	-0.097235635
8	0xbccc0dd1	-0.024908932
9	0xbe80001c	-0.25000083
10	0x3c1b3acf	0.00947447
11	0xbb36c65e	-0.0027889232
12	0x3c3e1bf6	0.011603346
13	0xbe769ce9	-0.24083294
14	0xbcd365b2	-0.025805328
15	0xbd69ada7	-0.057050373
16	0xbe6d0fe1	-0.23150589
17	0xbf38348d	-0.71955186
18	0x3ce0caaa	0.027440388
19	0xbdb0ff18	-0.08642405
20	0x3cf4d1ed	0.029885257
21	0xbf09aa12	-0.5377513
22	0xbecf3387	-0.40469
23	0xbc1d159d	-0.009587673
24	0xbd62ece7	-0.05540171
25	0xbf0d23f7	-0.55133003
26	0x3c63f04f	0.0139122745
27	0xbe0112a8	-0.12604773
28	0xbda10d14	-0.078638226
29	0x3d45cb97	0.04828986
30	0x3d2a0c47	0.041515615
31	0x3b7ed9b8	0.0038887095
32	0xbc9262a4	-0.017869301
33	0xbd8bdad6	-0.06828849
34	0x3cf081e9	0.029358821
35	0xbdca5648	-0.09879738
36	0xbdc72dc4	-0.09725526
37	0xbd060d2b	-0.0327274
38	0xbc87e146	-0.016586911
39	0xbf04a126	-0.51808393
40	0xbd225acc	-0.039637372
41	0xbd21645d	-0.039402355
42	0xbdc84106	-0.09778027
43	0xbbe67c74	-0.007033879
44	0xbc9b475f	-0.01895493
45	0xbd86561e	-0.06559394
46	0xbd8f42cf	-0.069951646
47	0x3ccee1ec	0.025254212
48	0xbdc23cb1	-0.09484232
49	0xbc6009f9	-0.013674253
50	0x3ce2bb4f	0.027677206
51	0x3b88c684	0.0041740555
52	0x3d482883	0.04886676
53	0xbe7a2c65	-0.24430998
54	0xbbff6541	-0.007794053
55	0xbc151fc5	-0.009101813
56	0xbcbb28b6	-0.02284656
57	0x3d54c8a7	0.05194917
58	0xbd9b2dd6	-0.07577102
59	0xbda1186b	-0.078659855
60	0xbd873e64	-0.06603697
61	0xbde1bb13	-0.1102201
62	0xbd94c8c4	-0.072648555
63	0xbd854823	-0.065078996
64	0xbbe41f64	-0.00696175
65	0xbf322af6	-0.69596803
66	0xbdd78e32	-0.105251685
67	0xbca9e09f	-0.02073699
68	0x3ca39728	0.019969538
69	0xbc0f8f98	-0.008762263
70	0x3d0343f8	0.032047242
71	0xbc7adefc	-0.015311953
72	0x3d2e3efa	0.042540528
73	0xbd121e5a	-0.035673477
74	0xbe3d684a	-0.18496814
75	0xbbca29fc	-0.0061695557
76	0x3cefa26a	0.02925225
77	0x3d4e11df	0.050310012
78	0xbd136d4a	-0.035992898
79	0xbd6b2b02	-0.057414062
80	0xbc2fc3b7	-0.010727814
81	0x3d2b70e9	0.041855726
82	0xbd65d26e	-0.056108885
83	0xbdf85934	-0.12126389
84	0xbcbd5b8b	-0.02311494
85	0xbdaec5ff	-0.085338585
86	0x3c434494	0.011918206
87	0xbc82393a	-0.015896428
88	0xbe7bba5f	-0.24582814
89	0xbc0a251b	-0.008431698
90	0xbb01d4f0	-0.0019810759
91	0x3d1f5732	0.038901515
92	0xbd056172	-0.032563634
93	0xbd1b8a85	-0.0379739
94	0x3b1cbcd5	0.0023916264
95	0xbd6b937c	-0.0575137
96	0xbd65a430	-0.056064785
97	0xbd6050b5	-0.05476447
98	0xbe650c5e	-0.22367999
99	0xbd0cd93f	-0.03438687
100	0x3c2bc2f6	0.010483494
101	0xbaf53a62	-0.0018709416
102	0xbc6a6fba	-0.014308864
103	0x3d3a45f0	0.045476854
104	0xbf1044dc	-0.5635507
105	0x3d0e8180	0.03479147
106	0xbdc668a7	-0.096879296
107	0x3be29bdf	0.006915554
108	0x3d654000	0.05596924
109	0x3d3c5282	0.045977123
110	0xbdd37b00	-0.10326195
111	0xbd4e9d66	-0.050443076
112	0xbdcef711	-0.10105718
113	0xbe1d5fe3	-0.15368609
114	0xbd0b71a8	-0.034043938
115	0xbc42bde0	-0.01188609
116	0xbd8051eb	-0.062656246
117	0xbe2869b7	-0.16446577
118	0xbdffddec	-0.124935
119	0x3d6c6116	0.057709776
120	0x3b95fcc5	0.0045772516
121	0xbd82b86c	-0.06382832
122	0xbdcdc14a	-0.100466326
123	0xbd7d2710	-0.06180483
124	0x3d4d5dde	0.050138347
125	0xbd1edfad	-0.038787533
126	0xbdd28091	-0.10278428
127	0xbc1619ea	-0.009161452
128	0xbcf61849	-0.030040877
129	0xbd765155	-0.060136158
130	0x3beb0b37	0.007172968
131	0xbd2916bc	-0.041281447
132	0x3ceafbb7	0.02868448
133	0xbdee16f7	-0.11625474
134	0xbc095572	-0.008382188
135	0xbd869be9	-0.06572706
136	0xbc00e408	-0.007866867
137	0x3d247490	0.040150225
138	0x3cff8f73	0.031196332
139	0x3c95c7ea	0.018283803
140	0x3cb0d1e4	0.021584459
141	0xbdc8d869	-0.09806902
142	0x3d053e30	0.03253001
143	0xbd9ae045	-0.07562307
144	0xbd6d6000	-0.05795288
145	0x3d34ecd9	0.044171188
146	0x3d41453a	0.04718516
147	0x3d60909f	0.05482542
148	0xbde7f531	-0.113260634
149	0xbc9b76ca	-0.018977541
150	0xbd895f05	-0.06707577
151	0xbdd2c96b	-0.10292324
152	0xbd9e9b76	-0.077444956
153	0xbd4610ad	-0.048355747
154	0xbd1f2eba	-0.03886292
155	0xbc99d84a	-0.018779892
156	0x3d5fb4d0	0.054615796
157	0xbc717348	-0.014736958
158	0xbe17cd3a	-0.14824381
159	0xbde04f9f	-0.109526865
160	0xbf81c381	-1.0137788
161	0xbdcea5f7	-0.10090249
162	0xbd831bc9	-0.06401784
163	0xbd9e287d	-0.07722566
164	0xbd9ca4fb	-0.07648655
165	0xbd1e2b82	-0.03861571
166	0xbc96241c	-0.018327765
167	0x3ae2c876	0.0017302174
168	0x3cb77123	0.022392815
169	0x3d3630d4	0.04448016
170	0xbf6f37cd	-0.9344452
171	0xbce46f76	-0.02788518
172	0xbc95a57e	-0.01826739
173	0xbf0bbe86	-0.5458759
174	0xbd208ee6	-0.03919878
175	0xbd5917c6	-0.053001188
176	0xbd7bb059	-0.061447475
177	0xbd98caf5	-0.07460586
178	0xbe3b5543	-0.18294244
179	0xbcccf231	-0.02501783
180	0xbd768195	-0.060182173
181	0xbbca397c	-0.0061714035
182	0xbe857d2c	-0.2607206
183	0x3d5b4216	0.05352982
184	0x3d263f3c	0.04058765
185	0xbcd68f79	-0.02619146
186	0xbe13c5fc	-0.14430994
187	0xbca60ae0	-0.020268857
188	0xbd763676	-0.06011053
189	0xbf22490a	-0.633927
190	0xbd8e40c3	-0.06945946
191	0xbaf611e8	-0.0018773647
192	0xbdfc5d80	-0.12322521
193	0xbde84553	-0.113413475
194	0x3ca1216f	0.019669263
195	0xbd37198f	-0.04470211
196	0x3c4c8f11	0.012485282
197	0xbde2963d	-0.11063812
198	0xbcc86fa2	-0.024467293
199	0x3bd5e257	0.006527226
200	0xbe0a9642	-0.13533881
201	0x3c9b858e	0.018984582
202	0xbc4a8bc0	-0.012362421
203	0xbf65922a	-0.89676154
204	0xbdabcb62	-0.083884016
205	0xbd836ce4	-0.064172536
206	0xbd20a675	-0.039221246
207	0xbbcd5803	-0.0062665953
208	0xbde93ee1	-0.11388946
209	0xbe84f624	-0.2596904
210	0x3d46eb99	0.048564527
211	0x3cc6e96a	0.024281222
212	0xbc6aba5b	-0.014326657
213	0xbba373e4	-0.0049881805
214	0xbd88b939	-0.066759534
215	0xbc0ef8de	-0.008726327
216	0xbca620f1	-0.02027938
217	0x3d481b90	0.04885441
218	0xbe5d6fa2	-0.21624616
219	0x3ca9a7b0	0.020709842
220	0xbdbc31a5	-0.091891564
221	0xbd4b7ea9	-0.04968134
222	0xbd82daa2	-0.06389357
223	0xbc374248	-0.011185236
224	0xbd3d0182	-0.046144016
225	0x3c6b4538	0.014359765
226	0x3b80b52e	0.0039278483
227	0xbde0be77	-0.10973828
228	0xbcb01aa7	-0.021497084
229	0xbdc6a558	-0.096995056
230	0xbc687c5d	-0.014189807
231	0x3c0aa893	0.008463043
232	0x3d096db4	0.033551887
233	0xbd1e0107	-0.0385752
234	0xbdc4c699	-0.09608192
235	0xbcdecbf9	-0.027196871
236	0xbf10d16b	-0.56569546
237	0xbd65cd58	-0.056104034
238	0x3c3fe8bc	0.011713203
239	0xbc561290	-0.013065949
240	0xbd2635b7	-0.04057857
241	0x3a8b44a3	0.0010625314
242	0xbc271474	-0.0101977475
243	0xbe2a4e02	-0.1663132
244	0x3ca6e924	0.020374842
245	0xbd479773	-0.048728418
246	0xbc789278	-0.01517164
247	0x3d0b9d11	0.034085337
248	0xbd569c6c	-0.05239527
249	0xbcc2f607	-0.023798956
250	0xbdd3812c	-0.10327372
251	0xbbf72477	-0.0075421887
252	0x3d0dfbee	0.034664087
253	0x3d1b7c1f	0.037960168
254	0xbd20c438	-0.03924963
255	0xbd0bfd20	-0.034176946

fc.3.bias f4 [12]
0	0x3bcbe5fb	0.006222484
1	0xbcfc6a09	-0.03081228
2	0xbc786fc9	-0.01516337
3	0x3c8b134c	0.016976975
4	0x3a4758c0	0.00076044723
5	0x3dc961ca	0.09833105
6	0x3dbbddf0	0.091731906
7	0x3d8ff3f9	0.07028956
8	0xbc523e8c	-0.012832295
9	0x3c16bdaf	0.0092004975
10	0xbd95d39c	-0.07315752
11	0xbc901106	-0.017586242
