cnn_fighting_agent_starter/outputs/20251017_184956/model.pt (torch, 286811 bytes, 12 tensors)

state_cnn.0.0.weight f4 [16, 1, 3, 3]
000000 ae 1c f2 bd d7 51 29 3d bb 25 7d 3e 62 6f 9e be
       -0.118218765 0.041337814 0.24721424 -0.30944353
000010 73 2a fa bd 9a 9d 2f be ca 73 2e be 1c da a3 bd
       -0.12215128 -0.17149964 -0.17036358 -0.080005854
000020 ae 6e c3 3d cf 3e 0f be cf 36 1b be 46 59 43 3e
       0.09542595 -0.13988803 -0.15157627 0.19077024
000030 98 00 f6 bc b7 2f 96 be 03 eb 4e 3e 83 f0 e0 3b
       -0.03002958 -0.2933328 0.20206837 0.0068646087
000040 83 72 51 bd 36 bb a9 be 40 5f 2f bd e7 4d e1 3d
       -0.051134598 -0.33150643 -0.042815447 0.11001187
000050 11 c5 9f 3e 34 5a 30 3d 18 aa 04 3e 75 1e e3 bd
       0.31205037 0.043054774 0.1295551 -0.110897936
000060 24 3d ad 3d e8 56 11 3e 12 bb 18 be 08 1a 5d be
       0.08458927 0.14193308 -0.14915112 -0.21591961
000070 b2 02 85 3d 0c 43 20 bd 54 1b b2 3d e2 47 48 bd
       0.06494655 -0.03912644 0.08696619 -0.048896678
000080 29 eb e5 bd 04 c5 ea 3d 23 4c 2d be 2e e1 96 3e
       -0.11226494 0.11463359 -0.16923575 0.29468673
000090 b0 71 7a be c7 28 88 bd b6 83 98 3e 43 b6 f6 3c
       -0.24457431 -0.06648403 0.29787987 0.030116206
0000a0 2d 0a 89 3d e5 30 e6 3d ac 6a b2 3d d8 3c 4c 3e
       0.06691394 0.11239795 0.08711752 0.19945085
0000b0 54 b8 d8 bd 38 e5 fd 3d d0 67 9e be e6 c3 9d be
       -0.10582033 0.12397236 -0.30938578 -0.3081352
0000c0 3b a4 83 be a6 7b 7d be 1e e0 f8 bd 18 02 6d 3d
       -0.25711235 -0.247542 -0.12152122 0.057863325
0000d0 1f f5 14 be ac d0 b7 3d af 76 57 bd 13 97 05 3e
       -0.14546631 0.08975348 -0.05260342 0.13045911
0000e0 f4 64 83 be 8f 81 42 3e 6a a6 8f bc d1 c9 d4 3d
       -0.2566296 0.18994735 -0.017535407 0.10390056
0000f0 82 02 3e 3e 24 50 87 3e 25 58 7e be 7a 80 16 bb
       0.18555644 0.2642833 -0.24838312 -0.0022964762
000100 65 6e 38 3e ed 59 1a be aa ca 11 be 4a af e3 3c
       0.18010862 -0.15073366 -0.14237466 0.027793545
000110 05 2a 1a 3e 80 e7 6a be 87 d0 98 be 63 3e 68 be
       0.15055092 -0.22939873 -0.29846594 -0.22680049
000120 54 68 c9 3d f3 0f 9c 3c 75 af 91 bd 24 90 93 3e
       0.09834352 0.019050574 -0.07113544 0.28820908
000130 d9 e2 68 3d 2e 39 37 3d 69 96 9c 3e 94 6b 8c 3d
       0.056856964 0.044732265 0.30583504 0.068564564
000140 2d 5f 14 be ac 09 0b be 50 7c b3 3d 56 09 db bc
       -0.14489432 -0.13577908 0.08763945 -0.02673785
000150 90 d3 49 be 5e 3e 54 3e 3d 41 90 be 1c 61 90 bd
       -0.19709611 0.20726916 -0.28174773 -0.07049772
000160 a9 3c ad 3e cd a2 1e 3e d5 7e 9b 3e 71 6b 3c 3e
       0.33835343 0.15491791 0.30370203 0.1840036
000170 19 43 96 3e ef a3 8d be 58 2f 81 3c e1 d7 50 be
       0.29348066 -0.27664134 0.015769646 -0.20394851
000180 53 78 eb bd be 36 56 3d fe 39 95 3e f7 3b 47 be
       -0.114975594 0.0522983 0.29145807 -0.19456469
000190 b0 31 89 3e e1 5e 93 3d 70 5c 25 be f5 12 30 be
       0.2679572 0.07195831 -0.16148543 -0.17194732
0001a0 4e 0f 43 3e 8f e7 b5 3d b6 a9 6f 3d 14 6e a8 3d
       0.19048807 0.08882057 0.05851146 0.08224121
0001b0 fe 5a a1 3e 9a 68 22 3e 84 8d 86 3d 33 9a 8b 3e
       0.31514734 0.15860215 0.06569961 0.27266082
0001c0 8e e0 08 3c ef f0 3b 3e 41 71 94 be b4 34 07 be
       0.008354319 0.18353628 -0.28992656 -0.13203698
0001d0 ca d0 fe 3d e1 61 a1 be 07 0d 82 3e 21 7d 7b be
       0.12442167 -0.31519988 0.25400564 -0.24559452
0001e0 64 e6 a7 3b d2 85 02 3d 7a f5 3b be 59 c2 c5 bd
       0.0051239002 0.031865902 -0.1835536 -0.096562095
0001f0 54 de 0f 3e a9 be 84 be 4d f5 9e be 71 43 73 3e
       0.14049655 -0.25926712 -0.31046525 0.23756196
000200 27 a2 7e be e8 e2 91 3e fe 96 9a 3e 03 e1 88 be
       -0.24866544 0.28493428 0.30193323 -0.2673417
000210 e0 73 59 bd d6 63 84 3c 29 0f 98 bd d0 35 82 be
       -0.053089023 0.016160887 -0.074247666 -0.2543168
000220 8b 04 c2 bd 3b a3 7a 3e 1c b1 05 be cc 36 ba 3d
       -0.09473523 0.2447633 -0.13055843 0.09092483
000230 8c bc 1d be ef 35 af 3c ee ee b1 3d 0d 27 23 3e
       -0.15403956 0.021388022 0.0868815 0.15932865

state_cnn.0.0.bias f4 [16]
000000 58 f7 5c be a7 de 86 3d bb 91 98 be 25 f8 29 bd
       -0.21578729 0.06585436 -0.29798684 -0.041496415
000010 4d 7b 29 be 78 4d 94 be 8d f1 04 3e ad fc 5b 3d
       -0.16550942 -0.28965354 0.1298277 0.053707767
000020 13 36 5a 3e 21 57 22 be a9 3a 67 3d 3a 9c 09 3e
       0.2130969 -0.1585355 0.056452427 0.13438502
000030 52 45 a9 3e 6f 20 2e 3e d0 74 58 be 4f 98 44 3e
       0.330607 0.1700456 -0.2113831 0.19198726

state_cnn.1.0.weight f4 [32, 16, 3, 3]
000000 fb 6a aa bd 2e 8d e2 3a ba bc 94 3d 66 02 99 bd
       -0.08321186 0.0017284506 0.07262559 -0.074711606
000010 63 26 ef bc d2 f6 1d 3d 82 1e 94 bb af 24 37 3d
       -0.029193109 0.038565464 -0.0045202384 0.04471272
000020 df 98 8d bd c0 fe a7 3d 23 fb ee bc c2 4b 10 bb
       -0.069139235 0.082028866 -0.029172486 -0.0022017811
000030 03 13 cb bb ea 31 84 3d 77 26 19 3d f8 c0 fb 3c
       -0.0061973347 0.06454833 0.0373902 0.030731663
000040 8f fa 24 3d 38 26 a5 bd c4 13 36 3d b3 8a 3b bd
       0.040278014 -0.0806393 0.044452444 -0.04578657
000050 07 3d 94 bc 21 29 30 bc 54 ca 93 bd d7 7b 10 3d
       -0.018095506 -0.010751993 -0.072163254 0.035274353
000060 87 63 93 bd f1 09 05 bc d7 a5 9d bd 70 5b a9 bd
       -0.07196718 -0.008120046 -0.07697647 -0.082693934
000070 ea f8 81 bd 72 9f e8 3b e7 6e 24 bd c5 cc 0f 3d
       -0.06346305 0.0070990855 -0.040144827 0.035107393
000080 ce 18 f2 3c a7 46 01 3d 24 82 04 3d 1f d0 15 bd
       0.029552843 0.03156152 0.032350674 -0.036575433
000090 d8 10 c0 bc d0 e3 9d 3d 3f 39 23 3d b8 a7 c2 bc
       -0.023445532 0.077094674 0.039849516 -0.023761615
0000a0 2a 2c 36 bc 73 24 ed 3c 2c f8 42 3d 4a 6b 70 3d
       -0.011118928 0.028948044 0.047599956 0.05869607
0000b0 08 27 81 3d 03 a9 f2 bb 7a 6f 95 bd 2c 34 20 bd
       0.06306273 -0.0074054017 -0.07296653 -0.039112255
0000c0 ec 69 1a 3b 48 e5 5b bd cc 16 30 3d 0b bb 9d 3d
       0.002356167 -0.053685457 0.04299049 0.07701691
0000d0 0e 1c 53 3c 0f 15 08 3d df 09 0d bd dc 86 ac bc
       0.012885107 0.033223208 -0.034433242 -0.0210604
0000e0 c0 5b 3b 3d 83 0e 53 bc 94 e6 3d 3d 23 90 08 3d
       0.045741796 -0.012881878 0.046362475 0.033340584
0000f0 ed 0a 32 bd 01 d8 2d 3d 29 98 95 bd de b5 5a 3d
       -0.04346745 0.042442326 -0.07304413 0.0533961
000100 8e 32 53 bc a2 42 89 bc 06 0e 8f bd 2f 2b 22 bd
       -0.012890471 -0.016755406 -0.06985097 -0.039591964
000110 5d d5 d5 3c 16 ac 81 bd 77 b0 9a bd 4e b0 d0 3c
       0.026102716 -0.06331651 -0.07553189 0.025474694
000120 ee d2 74 3c 10 8c a1 ba 9a ae 8d bc d1 4c 71 bd
       0.014942868 -0.0012325067 -0.01729517 -0.05891115
000130 63 52 ac 3d fd e2 b0 bc 95 e8 37 3d 59 df 4b 3d
       0.084141515 -0.021592611 0.044899542 0.049773548
000140 12 d0 d4 3b dc 70 8d bc 5a 31 93 3d e2 cc 3b 3d
       0.0064945305 -0.01726573 0.071871474 0.04584969
000150 0e cc b3 bd c7 3c 71 bd 83 c1 f3 3b 7a fa 38 bd
       -0.08779155 -0.058895852 0.00743884 -0.045160748
000160 6d 4e 01 3d d7 1f 9a bd 67 9a 9e bc 89 1f 5b 3d
       0.031568933 -0.07525604 -0.019360734 0.05349687
000170 05 15 42 3d f7 31 11 bd fa 3f 8a bd bf 72 d5 3c
       0.047383327 -0.03544804 -0.06750484 0.026055692
000180 54 4c 98 bc 34 9a 11 bd 2a 80 93 3d a3 0a 5c bd
       -0.018591084 -0.03554745 0.0720218 -0.05372108
000190 9e 90 81 3d db 20 c3 bb 74 16 ad bc 2f 98 54 bc
       0.06326412 -0.0059548444 -0.02112887 -0.0129757365
0001a0 c0 60 a1 37 e8 1c 8f 3d 87 52 e6 bc f3 81 90 3c
       1.9237748e-05 0.06987935 -0.028115524 0.01764009
0001b0 ba 8a 97 3d d9 bb 14 3d 12 01 55 3c a6 8c ab bd
       0.07399507 0.036311958 0.013000743 -0.08376436
0001c0 5d d3 56 3d ba 5c f4 bc e6 bc 23 3d 12 0f 09 bc
       0.052447665 -0.029829372 0.03997507 -0.008365409
0001d0 ec f1 46 bd d8 e6 5d bd 86 d1 ed bc 5c 32 87 bd
       -0.04857056 -0.054175228 -0.029030573 -0.06601402
0001e0 4d 88 8b 3d 12 15 98 bc 75 d6 ba 3d 37 42 32 3d
       0.06813107 -0.018564735 0.09122936 0.04352018
0001f0 4c eb f8 3c 1b 7f 9d bd e7 2e a6 bc bf 07 a3 bd
       0.030385636 -0.07690259 -0.020286037 -0.07960462
000200 13 61 4f bd 17 61 99 bd a6 c2 e5 bc ec b3 96 3d
       -0.050629687 -0.074892215 -0.028046917 0.07358536
000210 ea eb 81 bb df ea 31 bd 62 72 ab bc d0 73 71 bd
       -0.0039648907 -0.04343688 -0.020928565 -0.058948338
000220 28 cc 84 bd c4 14 a2 3d ff 33 1a bd 49 26 96 bc
       -0.06484252 0.07914117 -0.037647244 -0.018328803
000230 6e e6 8c bd 14 ed e6 bc c7 55 43 bd 0e ec ed bc
       -0.068798885 -0.02818922 -0.047689226 -0.029043224
000240 d8 69 cc bc c4 af 18 3d 18 63 5f 3d ae 2f 68 bc
       -0.024952814 0.037277 0.054537863 -0.014171524
000250 52 55 94 3d d0 b3 4b 3d ae 35 f3 bb b3 51 d7 bc
       0.07242836 0.04973203 -0.0074221706 -0.026284074
000260 2e ff c3 3a ee 39 5a 3c 82 de 89 bc b8 1f 7b 3d
       0.0014953369 0.013319476 -0.016829733 0.061309546
000270 a3 48 72 bd 1c 2b 29 3d 46 f5 8d 3d f8 be a7 bd
       -0.059151303 0.041300878 0.06931548 -0.08190721
000280 7e 14 de bc 1b 68 82 3d 7c 40 b2 3d ee b2 60 bc
       -0.02710938 0.06367513 0.08703706 -0.013714535
000290 6f 7b a6 3d cc 37 48 3c 4f f3 46 3d 77 61 98 3c
       0.08129012 0.012220334 0.04857188 0.018601162
0002a0 8e a5 1e bd 5f c3 91 bd 8c 28 01 3d 03 e8 51 bb
       -0.038732104 -0.07117342 0.03153281 -0.003202916
0002b0 8b be e0 bb 96 66 82 bd e9 7d 38 bc 0c 4c cd 3d
       -0.006858652 -0.06367223 -0.011260488 0.100242704
0002c0 2b 0f 7c 3d b7 f1 30 bc 6a 34 9f 3d 73 3e e6 3c
       0.061537903 -0.010799817 0.07773669 0.02810595
0002d0 c9 e5 42 3c 5d a3 83 3d c3 01 c1 3c c6 d8 7d 3d
       0.011895605 0.064276434 0.02356041 0.06197431
0002e0 4c 3a c9 b8 97 30 05 ba 98 e0 b2 3d 1b 39 90 bd
       -9.5952855e-05 -0.0005080788 0.08734244 -0.07042142
0002f0 70 33 87 bd 82 22 0a 3c fe 65 d7 bc 07 9a 33 bd
       -0.06601608 0.008431079 -0.02629375 -0.043848064
000300 ac 94 17 bd d3 5d 64 bd 5f e7 2e bd 1e 67 dc 3c
       -0.03700702 -0.05575354 -0.04270112 0.026904639
000310 9a 1b 39 3d b6 e7 69 3d f3 af bd 3d f3 87 07 bd
       0.04519234 0.057105742 0.09262075 -0.033088636
000320 85 b3 00 bd 8e 76 19 3d 9a 61 bc 3d dc c6 bb 3d
       -0.031421203 0.03746658 0.091983035 0.09168789
000330 da 81 d1 bc a4 dd 33 bd 4a fe 20 3d 10 28 70 bd
       -0.025574613 -0.043912545 0.03930501 -0.058631957
000340 b8 54 cb bc 64 e0 a7 3d 2b 7f 74 3d d5 93 8b 3d
       -0.02482067 0.08197096 0.05969159 0.06815306
000350 f3 2b 03 3d 8e 5b 4c bc a1 db 28 3d 3c 65 28 3d
       0.032024335 -0.012473 0.04122508 0.04111217
000360 78 61 82 bd 0b 78 62 3c 5e f4 81 3d 55 14 4c 3d
       -0.06366247 0.013822566 0.063454375 0.049824078
000370 b3 15 c1 3d 54 4f 1d bd 39 b3 b1 3d 3f 7b 7a 3d
       0.09427967 -0.03840573 0.08676762 0.061152693
000380 56 3a 86 bd 1a 2b 40 bd 81 f3 a2 bc 6c db 2e 3c
       -0.065540954 -0.046916105 -0.019891502 0.010672431
000390 02 b0 62 3c d8 21 95 b9 a0 72 6c 3d 7d 9b 76 bd
       0.013835909 -0.0002844471 0.057726502 -0.06020688
0003a0 7f a2 8a 3d 20 85 4b bd 3e 71 84 bd 7e b9 af 3d
       0.06769275 -0.049687505 -0.06466912 0.08580302
0003b0 a6 17 14 3d e2 b1 a8 bc 70 4d 80 3d 99 36 3c 3d
       0.036155365 -0.020592634 0.0626477 0.045950506
0003c0 da e3 13 3d 4e ad 07 bd 52 5d af 3c c8 a7 5e 3d
       0.036105968 -0.03312426 0.021406803 0.054359227
0003d0 f4 3f 37 3d c9 6c 7a 3d 06 31 bd 3d 86 a0 c8 3d
       0.044738725 0.0611389 0.09237866 0.097962424
0003e0 43 9e 14 bd bb 24 8f 3d fd 52 4c bd c7 22 8d bc
       -0.036283743 0.06989428 -0.04988383 -0.017228497
0003f0 cd 81 d9 3b e6 e7 08 3c 0f 01 0b bd a6 b8 67 3d
       0.006637788 0.00835607 -0.033936556 0.05657258

state_cnn.1.0.bias f4 [32]
000000 2a ad 85 3d 69 6e 01 bc 79 cd 7a 3b 3a e7 48 3c
       0.06527169 -0.007899859 0.0038269444 0.01226216
000010 7a 27 87 3d b4 bd 6f 3b d0 09 7a 3d 96 b6 28 bd
       0.065993264 0.0036581578 0.061044514 -0.041189753
000020 a3 17 de 3c aa 73 dc bc 28 ef 62 3d 3e 6e c0 bc
       0.02711088 -0.026910622 0.05540386 -0.023490068
000030 f8 0b a6 3d 29 26 b2 bc 90 30 56 bc 4c 00 96 bd
       0.081077516 -0.021746712 -0.013073102 -0.073242754
000040 2e 07 94 3c 9f ab 23 bd 1b 30 57 bd b2 94 65 3d
       0.01806983 -0.039958593 -0.05253611 0.05605001
000050 67 7b 56 bd 02 e8 2a bd 67 e2 48 3d 76 09 22 3d
       -0.05236378 -0.041725166 0.04904404 0.039559804
000060 a5 9d 7a 3b 0d ef 49 bd d6 f4 1d bd 15 2a 9d 3c
       0.0038240936 -0.049300242 -0.038563572 0.019185105
000070 cc 0d df 3c 4c 39 40 3c aa 1f a2 bc 9c 2f f1 bc
       0.027228259 0.011732411 -0.01979049 -0.029441647

button_cnn.0.0.weight f4 [8, 1, 3, 3]
000000 c0 25 91 be 82 30 16 3d 4c 71 f4 3d ff e0 ee bc
       -0.28349113 0.036667354 0.11935672 -0.02916002
000010 93 e4 12 be a4 54 75 be 6e ce 92 be 12 37 16 3c
       -0.14345007 -0.23958069 -0.28673118 0.009168403
000020 e2 74 91 3e 72 98 89 3e 33 07 8d be d8 ad da bc
       0.28409487 0.2687412 -0.27544555 -0.026694223
000030 81 c4 03 be a5 74 40 3e e2 5d 89 be 9a ef 86 be
       -0.12867929 0.18794496 -0.2682944 -0.26354676
000040 4e 49 b2 3e 09 c2 38 3e 84 6c 6f 3e d4 56 29 be
       0.34821552 0.18042769 0.23381239 -0.16537029
000050 42 c2 a7 3e 44 9e aa 3e 97 79 32 bd 13 c3 8a bd
       0.32765394 0.33323872 -0.04357299 -0.06775489
000060 04 59 9c 3e 83 a1 23 3c 75 5d 2d 3b 46 19 de bd
       0.30536664 0.009987238 0.002645341 -0.10844664
000070 7c 62 8f be ce 3f 8a be 99 63 9d 3d a6 c2 02 3e
       -0.28004825 -0.27001804 0.07685012 0.12769565
000080 15 7f 7e 3e 71 38 8f bc 79 a2 db bd 07 db 81 bd
       0.24853165 -0.017482968 -0.107243486 -0.06340604
000090 35 16 87 3e ec f8 16 bd 78 d4 ed bd 28 cb 93 be
       0.2638413 -0.036858484 -0.11612791 -0.28865933
0000a0 18 65 31 bd b8 44 a0 be 17 fe b4 3c 8e af 9e 3d
       -0.0433093 -0.31302428 0.022093816 0.07748328
0000b0 43 68 df bc 1a 61 68 3d d8 33 95 be d7 2a 06 bd
       -0.027271396 0.05673323 -0.29141116 -0.0327557
0000c0 c4 df 3f 3e 91 8b 30 bd 50 85 45 be 11 b8 c2 bd
       0.18737704 -0.04310185 -0.19289136 -0.09507764
0000d0 1e b1 84 3e 46 02 47 3d 08 2f 88 be 78 2b b3 3e
       0.2591638 0.048586152 -0.26598382 0.34994102
0000e0 8d 7d de bc f7 d4 86 3d 26 bf 9e 3e b8 d8 9d 3e
       -0.027159477 0.065835886 0.3100521 0.30829406
0000f0 79 0c 10 be d1 bd 9a be 7d 92 13 be 4b a7 a6 bb
       -0.14067258 -0.30222943 -0.1441135 -0.005085861
000100 f7 3c 33 be 70 51 4f 3e 2f d6 22 3e 52 b8 17 be
       -0.17503725 0.2024591 0.15902017 -0.14816406
000110 49 a2 c4 3d 00 d5 11 be b2 f7 9f be 50 fb 98 3d
       0.09601266 -0.1424141 -0.31243664 0.07469809

button_cnn.0.0.bias f4 [8]
000000 8a 44 9a 3e 91 a4 d0 bd 98 bb e3 bd 7d a7 0c 3e
       0.30130416 -0.101876386 -0.11119765 0.13735767
000010 1c 7c eb bd 43 ea 0d be 68 c5 a1 3e b0 9b 4d 3e
       -0.11498281 -0.13858895 0.31595922 0.20078921

button_cnn.1.0.weight f4 [16, 8, 3, 3]
000000 7f 00 b9 3d 55 5d ef 3d 9f 79 f0 3d 6a 43 d9 bc
       0.09033298 0.116877235 0.117419474 -0.026521403
000010 48 96 1c 3a 7d 89 92 bd b5 32 cd bd b6 24 88 bd
       0.00059733214 -0.0715513 -0.10019437 -0.06647627
000020 37 b4 3c 3d b5 65 2e bc 8b d0 b9 bd 79 2d 36 bd
       0.046070304 -0.010644366 -0.090729795 -0.04447696
000030 1f 55 cc bd f3 b7 06 3d 58 2b bb bd 7d ef db 3d
       -0.09977173 0.03289027 -0.091391265 0.10739038
000040 c6 bf 0e bd da cb ae 3d 51 40 e1 bd 9e 2d 45 bd
       -0.03485086 0.08534975 -0.109985955 -0.048139207
000050 08 3c 7d 3d 4a 04 ee bd 33 17 c3 3d 31 e6 c3 bb
       0.06182483 -0.11621912 0.09525909 -0.0059783687
000060 34 49 b4 3d 32 e6 f1 bd f8 9b 5c 3c a4 52 f6 bd
       0.08803025 -0.118114844 0.01346492 -0.12027481
000070 26 4a 04 3e b8 cf f0 3d c4 4c 39 bd 72 1e a3 bc
       0.1291891 0.11758369 -0.045239225 -0.019911978
000080 a1 00 03 3e a6 c0 57 3d f6 50 39 bc 44 16 b5 3d
       0.12793209 0.05267396 -0.0113108065 0.088421375
000090 8e 21 0e 3d 53 1b 99 3c ca 1e b2 bc 95 fb 29 3d
       0.03469997 0.018689787 -0.021743197 0.041499693
0000a0 42 86 1a bd 91 76 a5 bd 16 85 d2 bd 54 08 79 bd
       -0.037725694 -0.08079255 -0.102792904 -0.060798958
0000b0 dc 31 b6 bd 3c fa 2d bd f3 d1 ca bd a9 b8 95 3d
       -0.08896229 -0.04247497 -0.09903326 0.07310612
0000c0 a3 d1 c5 3d 51 fa 08 3d 19 9d ab 3c c4 d1 e1 bd
       0.09659126 0.033441845 0.020948933 -0.11026338
0000d0 1e 64 ff 3c 40 de 6b bd db 9f df bd 1d 98 06 3e
       0.03117567 -0.057585 -0.10919162 0.13143964
0000e0 61 c9 98 bd 09 f9 79 bd 05 1c 48 3d 13 aa 3f 3d
       -0.07460285 -0.061028514 0.048854847 0.046793055
0000f0 ac 32 5a 3b 59 78 b7 bd 72 1f bf 3c 8b 86 e4 bd
       0.0033294363 -0.08958501 0.023330424 -0.111584745
000100 78 3c 04 3e 97 71 de bb 0d 3b d1 bd 49 eb 5c bc
       0.12913692 -0.0067884433 -0.10216341 -0.013483831
000110 80 69 a5 bd 0d 46 24 bc ea c6 b4 3d e9 01 ae bd
       -0.08076763 -0.010026467 0.08827002 -0.08496458
000120 c8 27 c8 3d 4f 47 ff 3c 93 9a 17 bd 61 51 0e 3b
       0.09773213 0.031161932 -0.037012648 0.0021715986
000130 90 0b 34 bd 84 32 38 bc ed 14 45 bd ff cb 1d bd
       -0.04395634 -0.011242513 -0.04811566 -0.038524624
000140 31 22 99 bd 6f 64 86 3c 82 29 a8 3d 9b c2 be 3d
       -0.074772246 0.016405312 0.08211042 0.09314462
000150 fe d8 e4 3d 8e f7 00 3d 5b 0d ae bc 47 2d bf bc
       0.111742005 0.031486087 -0.021246603 -0.02333702
000160 1d 16 a2 3c 32 c6 ee 3d de ca 9e bd a4 31 6b bd
       0.019785935 0.116588965 -0.077535376 -0.057420388
000170 17 85 8f 3d 21 74 f3 3d f4 7d f7 3a 18 69 4c 3b
       0.07007807 0.11887384 0.0018882141 0.003119057
000180 d1 b8 88 bd 1f 9f 08 bd 12 cf cc 3d b9 e5 8f bd
       -0.06675876 -0.033354875 0.10000433 -0.07026238
000190 1b 51 b4 bb 3c 40 a9 3d d2 2e 2b bd dc 1e 23 bc
       -0.0055028326 0.08264205 -0.0417927 -0.009956088
0001a0 95 b1 d3 bc 7b 5f b1 3d 30 9b c4 3d 89 2e 08 3e
       -0.025841514 0.086607896 0.09599912 0.13299002
0001b0 7c 50 06 3c 0e 80 b6 3d 4a d8 78 bd 45 a8 6f 3d
       0.0081979 0.08911143 -0.060753144 0.058510084
0001c0 db 6b e4 3d 42 00 cc bb cf bc cc 3d 63 56 db 3d
       0.11153384 -0.0062256167 0.0999695 0.10709836
0001d0 26 10 5c bd f3 ff 57 3b ac 3e 9a bc ac 73 44 bc
       -0.053726338 0.0032958954 -0.018828712 -0.011990469
0001e0 2d e3 93 3d 7e 4d 29 bd ad 2b 14 3d 45 78 54 bd
       0.07221065 -0.041333668 0.036174465 -0.05187251
0001f0 74 6e 73 3d fe f5 ca bd a2 41 03 3e e6 19 c7 3d
       0.05943151 -0.099102005 0.12818006 0.097217366
000200 27 22 50 3b cf 0f 3c bd db a5 fd 3d 7f 8a b7 bc
       0.0031758638 -0.045913514 0.1238515 -0.022404907
000210 fe c5 a2 bd 7e 30 cc 3d 0a 16 94 3d f1 ca 48 bc
       -0.0794792 0.09970187 0.07230766 -0.012255416
000220 98 2a d0 bd d0 76 ca 3c 26 1d ee 3d 40 80 c4 bc
       -0.10164374 0.024714857 0.116266534 -0.023986936
000230 e0 a1 12 bc 6c fe 30 3d 10 68 f3 3d 7d 39 23 3d
       -0.008949727 0.043211386 0.11885083 0.039849747
000240 4d e4 ad 3b 25 04 e1 3d cb 94 d7 bd 82 9b e5 3b
       0.0053067566 0.10987119 -0.10526427 0.0070070634
000250 97 b1 ef bd e8 3b e7 3c 7b c4 4b bd 8c 0a d4 ba
       -0.117037944 0.028226808 -0.049747925 -0.001617746
000260 e0 29 d8 3d 8e fc f0 bd f3 30 2f 3d 16 56 fd 3c
       0.10554862 -0.11766921 0.04277129 0.030924838
000270 15 1d bc 3d e4 6e 8e bd 65 36 09 3b 20 8a 57 3d
       0.091852345 -0.069547445 0.0020936963 0.05262196
000280 c7 4b 6a bd 22 8a b6 3b bc b6 97 bd b5 ca ee bd
       -0.057201173 0.005570666 -0.07407901 -0.11659757
000290 e6 1f af bd 32 6f 00 3d b3 e4 8a bc aa c5 06 bd
       -0.08551006 0.031356044 -0.016954755 -0.03290335
0002a0 4c d6 8d bd ae d0 11 3d 6d 81 d7 bd f9 e6 3e bd
       -0.069256395 0.035599403 -0.10522733 -0.04660699
0002b0 6b d5 79 3d c3 c3 e4 3d d8 4e 2a 3d e2 eb 1d bd
       0.060994547 0.11170151 0.041579098 -0.038555034
0002c0 9b b9 b2 bd 60 1c c4 bd 09 7b a2 3d 97 ab 30 bc
       -0.08726808 -0.095757246 0.07933623 -0.010783098
0002d0 55 dc 8a 3d b9 a2 e2 bc e0 73 54 bd fe 2a 85 bd
       0.06780306 -0.027665483 -0.05186832 -0.06502341
0002e0 15 8a 2c bd 55 f6 b8 3d bc e1 01 3b 9e 35 8a bd
       -0.042123873 0.09031359 0.0019818386 -0.06748508
0002f0 ef 79 3e bd ac d4 b1 3d 05 fd b4 3d 60 d1 9a bd
       -0.046503004 0.08683142 0.08837322 -0.07559466
000300 fc 16 42 bd 89 16 75 bd eb 2d 9b bc 45 5c 5f 3c
       -0.0473852 -0.059835944 -0.018942794 0.013632839
000310 19 db e9 3d 13 cc 0e 3d 09 0a 79 bd 61 a2 d3 bd
       0.11418743 0.03486259 -0.060800586 -0.10333706
000320 3f e0 08 bd 30 7f 76 bd ae 79 cd 3d 45 e9 ac bd
       -0.033416983 -0.06017989 0.10032974 -0.0844293
000330 2f 19 7c bd 51 99 b6 bd 3d 13 21 3d d4 2f 6e 3d
       -0.061547454 -0.089159615 0.039324988 0.05815108
000340 5a 94 73 bd b4 93 f4 3c 64 68 d7 bd 21 10 76 bd
       -0.05946765 0.029855587 -0.10517958 -0.060073975
000350 69 c3 13 bd e0 eb b1 bd 60 11 1f 3d b4 b9 ad bd
       -0.03607503 -0.08687568 0.03883493 -0.08482686
000360 34 94 df 3d c8 9a a1 bc bc 0c ad bd 13 3d 61 3d
       0.109169394 -0.019727126 -0.084496945 0.054989886
000370 98 b6 48 3d 99 a3 0d bd d4 d9 b3 3d 6f b3 c3 bd
       0.04900226 -0.034579847 0.08781782 -0.095557086
000380 85 10 23 3c 2b 9e de bc 0f 04 42 3d cf 72 b1 bc
       0.009952669 -0.02717503 0.04736715 -0.02166119
000390 80 fc 84 bb 09 eb b7 bd 88 80 1e 3a 22 1d d0 3d
       -0.0040584207 -0.08980376 0.00060463743 0.10161807
0003a0 8e 63 9f 3d 12 a6 a4 3d 19 fa 74 3d 17 3f 94 bc
       0.077826604 0.08039488 0.059808824 -0.01809649
0003b0 89 12 a5 3c ab 92 a0 bc 51 b3 1a 3d 65 ee c9 bc
       0.02015044 -0.019601187 0.037768666 -0.024649808
0003c0 a4 a2 ac 3d 0b d9 00 3e f1 55 61 3d 9c b6 ae 3d
       0.08429459 0.12582795 0.0550136 0.08530924
0003d0 1a 30 9a bc 1e f9 b7 bd 1f e4 d1 bc e7 82 e2 3c
       -0.018821765 -0.08983062 -0.025621472 0.02765031
0003e0 c0 80 ab bd 28 9d 9b 3c 5c 1f ec bb ba 55 2d 3d
       -0.083741665 0.018995836 -0.0072058868 0.042318083
0003f0 41 87 ff 3d 71 f0 28 3d 80 ea bf bd 78 d1 bf bd
       0.124769695 0.041244928 -0.09370899 -0.09366125

button_cnn.1.0.bias f4 [16]
000000 49 a6 a8 bd cd 3a 3c 3d c3 cd 84 3c f3 2c a5 bd
       -0.082348414 0.045954514 0.016211396 -0.08065214
000010 ae 5d dc 3b ef 1a 70 3d c9 09 4a bd 96 4a 89 3d
       0.0067250347 0.058619436 -0.049325738 0.06703679
000020 7c 56 00 3e 7b 5c 07 bb 96 e1 9f bd 7d 45 9c 3d
       0.12532991 -0.0020654488 -0.07806699 0.07630441
000030 ad f1 a2 bc 12 5c dc 3d 24 e6 a4 3c 0b 90 9a bd
       -0.01989063 0.107597485 0.02012927 -0.07547005

fc.0.weight f4 [256, 240]
000000 dc f4 2a 3d d6 84 ef bc 99 b5 92 bb 01 82 16 bc
       0.041737422 -0.029238146 -0.0044772145 -0.009186269
000010 34 42 93 bc eb c2 c9 bc d5 2c f5 bb 66 07 97 bc
       -0.017975904 -0.024629077 -0.007482151 -0.018436145
000020 32 f1 cc bc 2a 6d 16 3d 1c 4f 87 3b ac 07 0f bd
       -0.025017355 0.0367252 0.0041293036 -0.034919426
000030 85 e6 18 3d 24 a6 0b 3d 75 30 83 bd f4 03 25 3d
       0.037329216 0.03409399 -0.06405727 0.040286973
000040 03 5d 44 3d 0e 0c 4b bb 14 bf 42 bb 9a 30 42 bd
       0.047940265 -0.0030982527 -0.0029715942 -0.04740963
000050 78 16 83 3c dd 16 7c 3d 4e 39 ad bc 25 8d 63 bd
       0.016001925 0.06154524 -0.021145489 -0.055554528
000060 b8 67 ad 3c f6 56 33 3d fa cf 74 bc f0 39 48 bc
       0.021167621 0.043784104 -0.014942164 -0.012220845
000070 13 a1 1b bc ec c2 c2 bc 8c 61 0f 3d 65 a0 5f 3d
       -0.009498852 -0.023774587 0.035005137 0.054596324
000080 03 b2 67 bd 58 49 61 3d 96 9b 13 bc 19 94 93 bb
       -0.05656625 0.055001587 -0.009009263 -0.0045037386
000090 6e ee 91 bc 4f 4d 59 bb 53 f3 26 bb b2 ab 5c ba
       -0.017813887 -0.0033157652 -0.0025474622 -0.00084179186
0000a0 33 6d 2c 3d 8b b2 61 3d c2 5c 10 3d 8f ae c7 bc
       0.042096328 0.055101912 0.03524471 -0.024375228
0000b0 74 45 6d bd b6 07 d9 bc f4 2a 14 bc 5f a0 c6 bc
       -0.057927564 -0.026492935 -0.009043444 -0.024246393
0000c0 34 9a 81 3c 2e ef 5a 3d 8e 01 5f bb 59 aa 04 3d
       0.0158206 0.053450756 -0.0034028026 0.03238902
0000d0 91 93 00 3c 07 50 f9 bb 34 35 09 3d c0 6e 7e 3d
       0.007847683 -0.007608417 0.033498004 0.06211734
0000e0 94 dc dd bc 4d 75 09 bd 6e ef 4a bc 6a 8d b8 3b
       -0.027082719 -0.033559132 -0.012386186 0.0056320922
0000f0 62 34 68 bd 92 82 68 bd 5d 4a ee 3c 54 43 01 3d
       -0.05669058 -0.056765147 0.029088194 0.03155835
000100 ed 50 57 3d a6 57 80 bd ea 0c 4f 3d 95 85 d1 bc
       0.05256741 -0.062667176 0.050549425 -0.025576392
000110 2b ca 2c bd 1d 4a e0 3c 24 eb c0 3c 60 8d 3d 3d
       -0.04218499 0.02737909 0.023549624 0.046277404
000120 86 5c 77 bd 01 10 e1 bc 1d 89 81 bd 83 89 c4 39
       -0.06039097 -0.027473452 -0.063249804 0.00037486487
000130 e1 9c 93 3a 53 0b 4d bc 10 b6 43 bd b5 7e ab bb
       0.0011261964 -0.012514907 -0.04778105 -0.0052336105
000140 e7 6d 6f 3c d6 0e 59 3d 55 37 80 bd 68 68 3b bd
       0.014613605 0.052992664 -0.06260554 -0.045753866
000150 ba 0d 5c 3d 79 07 12 bc bb d6 97 ba 01 e7 70 bc
       0.05372403 -0.008912914 -0.001158438 -0.014703513
000160 c7 d8 39 3c 67 39 38 3d ac 5c 0a 3d 7d 7a 82 bd
       0.011343188 0.04497662 0.033779785 -0.06371019
000170 82 a8 06 3d 5f 7a f9 bc 49 87 83 bd 87 ed 6d 3d
       0.032875545 -0.030453859 -0.06422288 0.05808785
000180 80 29 f0 bc b8 4f 7b bd 80 80 34 bd 93 fa 25 3d
       -0.029316664 -0.061355323 -0.04406786 0.04052217
000190 1f 97 b3 bc 22 4d 74 bd 61 fa 6d bd f1 d5 00 3d
       -0.021922646 -0.059643872 -0.058100108 0.03145403
0001a0 5e 45 52 bd d6 9a 89 bc 79 e8 69 bd bf 85 5e bb
       -0.051335685 -0.016797464 -0.05710647 -0.003395423
0001b0 46 fa a4 bc b5 95 12 3c da 6b 4c bb ae 06 6d 3c
       -0.02013887 0.008946826 -0.0031192214 0.014466925
0001c0 53 aa e4 bc 7d cb d9 3c e4 7f 5c 3d 38 4e 8a bb
       -0.027913248 0.026586289 0.053832904 -0.00422075
0001d0 ae 76 59 bd b7 44 23 3d 77 08 80 3c 8e f6 43 3d
       -0.053091697 0.039860453 0.015629036 0.047842555
0001e0 b5 c2 4b 3d 22 96 2a bb fc 22 6b 3d d1 68 83 bd
       0.049746234 -0.0026029428 0.05740641 -0.064164765
0001f0 56 ba 7c bd 65 ce 6c 3d 9a fb ea bc cd a1 5f bd
       -0.06170114 0.05781402 -0.028684426 -0.054597665
000200 fe f9 cc 3c 2b 9b 54 bd e0 1c fe 3c c8 4b 3a 3d
       0.02502155 -0.051905792 0.031019628 0.045482427
000210 06 c4 e6 bc 74 7a 6e 3b 03 b4 28 bd 44 81 67 3d
       -0.028169643 0.0036388906 -0.041187298 0.05651976
000220 5d 5b e0 bc a4 23 10 ba e7 8b 30 bd 18 6f 96 bc
       -0.027387315 -0.0005498475 -0.04310217 -0.01836352
000230 93 77 31 3d 0b 1d 89 bc 68 3f c0 3c 71 86 38 3d
       0.043326925 -0.016737482 0.023467734 0.04505009
000240 32 e9 36 3d e6 09 c4 bc 6c 51 0e bd c3 a0 86 3b
       0.044655986 -0.023930501 -0.03474562 0.0041085198
000250 73 0c 4e bd cf 72 d8 3b 02 99 5a 3d ee 28 33 3d
       -0.05030484 0.006605483 0.053368576 0.043740205
000260 0a d0 4b bd 34 95 37 3d 46 18 47 3d 65 7b 3e 3c
       -0.04975895 0.044820026 0.048607133 0.011626099
000270 a8 e6 8f 3c 82 31 84 bd 18 6f 2b 3d bd bc 76 bd
       0.01756604 -0.06454755 0.041853994 -0.06023859
000280 62 3b f8 3c 9b 13 f8 bb ac 44 d0 bc b9 d3 3c bc
       0.030301753 -0.0075706965 -0.02542337 -0.011525088
000290 e3 04 69 3c a1 bc a8 bc 26 c6 03 bd 54 4b 19 3d
       0.0142223565 -0.020597758 -0.03217139 0.037425354
0002a0 de bb c6 bc 12 14 48 bd d9 8b d6 bc 43 2b 61 bd
       -0.024259504 -0.048847266 -0.026189731 -0.0549729
0002b0 63 fd 5b 3d 96 85 30 bd ae 80 6d 3c 34 4d 7b bd
       0.053708445 -0.043096147 0.014496012 -0.061352924
0002c0 e7 5b b8 3b 4b 78 9a bc 50 00 2e bd 49 fc 94 ba
       0.00562619 -0.018856188 -0.042480767 -0.0011366691
0002d0 53 64 3d 3d 4c 49 06 3c 94 44 3c bd 93 a7 7d 3b
       0.046238255 0.008196186 -0.04596384 0.0038704618
0002e0 8e 64 47 3d 70 3f 6a 3c dc e6 7c 3d 85 b9 24 bd
       0.04867988 0.014297351 0.061743602 -0.040215988
0002f0 89 2a 31 3d 4d 4e 53 bd 38 db 13 3d d0 a2 86 bc
       0.043253455 -0.051588345 0.036097735 -0.016435057
000300 c0 11 d6 bc df aa 67 3c 52 e3 7f 3c 30 21 16 bd
       -0.02613151 0.01413986 0.015618162 -0.036652744
000310 18 0e 44 bb 61 ae 5d bc e3 e3 9f bc 83 8c 80 3d
       -0.0029915627 -0.013530345 -0.019517845 0.062768005
000320 7b b2 cb bc df 38 6a bd 8d f2 0f 3c e3 26 44 3d
       -0.02486538 -0.057183143 0.008785856 0.047888648
000330 c5 01 e8 bc 08 29 3c 3d 07 7b 8d 39 65 1b 73 3c
       -0.028321156 0.045937568 0.00026985278 0.014838074
000340 73 33 3d bb 2c 0c 5f 3d fd 5f 1e 3c 7d 2d b7 ba
       -0.0028869777 0.054454967 0.00966644 -0.0013975349
000350 7e 18 f4 3c c8 09 53 bd 81 c7 18 3c 76 3d 1f bd
       0.029796835 -0.051523 0.009324909 -0.038876973
000360 04 66 1c 3c b4 2e 04 bd 5f ae 24 3d a5 00 38 bd
       0.009545807 -0.032271102 0.040205356 -0.04492249
000370 9a ea 4d bc 10 59 cb bb c7 63 7e bd 4b 01 41 3d
       -0.01256814 -0.0062056854 -0.062106874 0.047120374
000380 c8 d2 4d bd bc 22 ae 3a ec 77 d3 3c c9 37 74 bd
       -0.050249845 0.0013285498 0.02581402 -0.059623513
000390 5f a5 a0 bc 1c 32 79 bd 26 cc 68 3c c9 f2 83 bd
       -0.019610105 -0.060838804 0.014208829 -0.06442792
0003a0 24 08 3a bd 86 b2 78 3a 0e fe 83 bd 87 1f 60 bd
       -0.04541792 0.0009487051 -0.064449415 -0.054717567
0003b0 5f d6 04 bd c0 89 32 3d a9 c1 be bc b5 d8 d2 bb
       -0.032431003 0.0435884 -0.023285704 -0.006434525
0003c0 e3 57 3d bd 29 a3 5b bd 6c cb 7f ba b5 2e bc 3c
       -0.046226393 -0.0536224 -0.000975779 0.02297149
0003d0 23 f9 72 3c 3e 03 82 3c b7 ca 68 3c 3d 08 25 bd
       0.014829907 0.015870687 0.014208487 -0.04029106
0003e0 04 62 1b 3d b2 d9 15 bd 77 65 a0 bc 0e 66 7b 3a
       0.03793527 -0.036584564 -0.019579632 0.00095900975
0003f0 5d 69 68 bd 4b 9d 1a 3a 28 1a 39 bd 8e a0 05 3c
       -0.056741107 0.0005898072 -0.04519096 0.008155955

fc.0.bias f4 [256]
000000 bd 77 38 bd 77 9d 4a bd 5b 8f 0b bc cd 56 fb bc
       -0.045036066 -0.049466576 -0.008518065 -0.030681038
000010 da 48 21 3d 3b 54 7e 3d b8 2f f5 bc 64 9c 93 3c
       0.039376117 0.062092047 -0.02992998 0.018018909
000020 d2 7c 7c bd a8 a6 26 3d 48 a6 46 3d 20 90 d3 3c
       -0.061642475 0.04068628 0.048498422 0.02582556
000030 70 2f c7 39 55 b5 ec bc 6d 15 c1 3b fe 0b 59 bd
       0.00037991581 -0.02889506 0.0058924467 -0.052989952
000040 09 ce 50 bd e3 7c 50 3d 2b ba 77 3d b6 e1 ca bc
       -0.05097774 0.05090035 0.060480278 -0.02476583
000050 34 0e 2b bd 44 c2 48 3d 76 1b 00 3d dd 47 29 bd
       -0.041761592 0.04901339 0.03127619 -0.0413283
000060 b2 db 30 bd 04 1c 8e bc eb c1 59 bd e6 9c ab 3c
       -0.043178268 -0.017347343 -0.05316345 0.020948838
000070 13 ef 42 bc 8e ba 34 3d a7 ee 0e 3c 49 b3 56 bb
       -0.01189782 0.044123225 0.008723891 -0.003276067
000080 96 70 8b 3c d9 1b 4e 3d 05 17 2b 3d 3b 9e 2b bd
       0.017021459 0.050319526 0.04177 -0.041898947
000090 77 97 83 bc b0 ed 32 bd 8b 6c 1e bd 9b fd 88 3d
       -0.016063435 -0.043683708 -0.038677733 0.066889964
0000a0 00 cc 16 3d 46 8d 8c 3d cb af 93 3d 0e 87 47 3d
       0.036815643 0.06862883 0.07211264 0.048712783
0000b0 12 f2 75 3d ef 6f 4d bd f2 46 c3 bc fc fe 89 3d
       0.06004531 -0.050155576 -0.02383754 0.067380875
0000c0 2e e1 78 bd eb 6e aa bc de 7c 59 3d 62 54 2e bd
       -0.060761623 -0.020804843 0.0530976 -0.042560942
0000d0 c2 48 cb 3c aa 9a 50 3c 8e 5e 99 3d 5c 12 16 3d
       0.024814967 0.012732187 0.07488738 0.036638603
0000e0 e8 c1 45 3d c6 ab 0b bd b3 97 5a bd a3 18 c4 3c
       0.048280627 -0.034099363 -0.053367328 0.023937529
0000f0 ea 1b 4e bd ba 9d 5f 3d 67 94 27 3d fa 05 2d bb
       -0.05031959 0.05459378 0.040913012 -0.0026401267
000100 97 da 34 bd 7b fd 83 bd 30 28 73 3d ab c8 86 3d
       -0.044153776 -0.06444832 0.059364498 0.06581243
000110 ac 26 44 bd c7 1d 10 bd 84 27 ee 3c 65 f6 77 3d
       -0.047888443 -0.035184648 0.029071577 0.060537715
000120 67 e2 6e bd 31 cb d7 bc 28 10 64 bd a2 75 7a 3c
       -0.058321383 -0.026342006 -0.05567947 0.015286835
000130 26 b1 80 3d 0a 92 03 3d 23 39 fb 3c ee ef 38 3d
       0.062837884 0.032121696 0.030666893 0.04515069
000140 49 f8 39 bd 90 8c 3d 3c 37 93 b4 3c b4 fb 5c bd
       -0.0454028 0.011569157 0.022042854 -0.05395098
000150 03 87 5f 3d 3a bb b6 3c c3 33 0d bd a4 95 ac 3c
       0.054572117 0.022306073 -0.034473192 0.021067448
000160 0a 72 d7 3c fe dc 0d bd ec 94 c9 3c 1b 53 7f 3d
       0.026299495 -0.034634583 0.024607144 0.062335115
000170 a1 cf 42 3d 02 8f 0e 3c e2 bd 69 bd ad 92 03 3c
       0.04756129 0.008701088 -0.057065852 0.008030576
000180 80 18 d1 3c df c9 f7 bc fe a3 26 bd 33 9c 20 3d
       0.025524378 -0.030247627 -0.04068374 0.039211463
000190 f8 66 2f bd 82 58 11 bc 9c 27 9f bc 1b 76 94 bc
       -0.042822808 -0.0088712 -0.019428067 -0.018122723
0001a0 8f 62 fb bb 9a 41 f5 bc 60 dc 17 3d dd 83 08 bd
       -0.007671661 -0.029938508 0.0370754 -0.03332888
0001b0 11 ba 1c bc f2 43 81 3c e0 9b 7a bc 3f e9 da bc
       -0.009565846 0.01577947 -0.015295953 -0.026722549
0001c0 28 91 2b 3b 4e 9a 10 bd 88 23 5d 3c 59 30 62 3d
       0.002617905 -0.035303406 0.013497241 0.05522189
0001d0 6a 89 70 3d 93 85 61 bc b9 6a 56 bd 57 17 9c 3d
       0.0587248 -0.013764757 -0.052347872 0.07621639
0001e0 a6 68 1f bd b0 37 a5 3d da 15 a3 bc 38 b1 5d 3d
       -0.03891816 0.08067262 -0.01990788 0.054124087
0001f0 7b 56 da 3a 10 da 1e 3d cf 1a 82 bd 89 5e 53 bd
       0.0016657853 0.03878218 -0.063527696 -0.051603828
000200 9d 10 33 3d 4a b4 3e 3d d8 17 64 bd b9 37 06 3d
       0.043717016 0.046558656 -0.0556868 0.032767985
000210 32 89 e8 3c 56 7e 18 bd ec 29 f4 3c 27 70 f8 3b
       0.028385732 -0.03722986 0.029805146 0.007581729
000220 0f bd b2 bc 2d 6f 81 3d 07 a5 16 3d ff 20 d0 3c
       -0.021818666 0.06320033 0.036778476 0.025406359
000230 ab e4 4b 3d da 86 2d 3d 7a a2 74 bd 3a 36 0f bb
       0.04977862 0.042364933 -0.059725262 -0.002185239
000240 81 6a 0f bd eb 01 52 bd 81 7d 5f 3d ef 4e 2d 3d
       -0.03501368 -0.05127136 0.05456305 0.042311605
000250 f1 4e 2b bb be 33 ea bb e4 c4 a0 bb 76 dd e3 bc
       -0.0026139582 -0.0071472814 -0.0049062837 -0.027815562
000260 e6 3d 92 3c 9a 3b 2d 3c 62 98 38 3d 62 c8 8a 3d
       0.017851781 0.010573292 0.0450672 0.06776501
000270 6f 0c 47 3d 3b 0a a4 3d 89 50 09 3d 72 a9 3a bd
       0.048595842 0.08009764 0.03352407 -0.045571752
000280 f9 15 25 bd 20 d2 0a 3d 6d 8a 64 3d 0d 0d df bc
       -0.040304158 0.033891797 0.055796076 -0.027227903
000290 fe c6 2b 3d 89 a1 12 3d a6 de e0 3c 32 58 97 3d
       0.04193782 0.035798583 0.027449917 0.07389869
0002a0 f2 f2 8c 3d f8 20 35 3d 2d 85 bc 3a e1 6c 45 bd
       0.06882276 0.044220895 0.0014382951 -0.04819954
0002b0 20 02 cd bc b3 b8 fc bc e9 48 59 3d 3f eb 22 3c
       -0.025025427 -0.03084979 0.05304805 0.009943782
0002c0 3c a9 1b bd 1a ff 36 bd 9f ea 9c 3d 68 f2 bf 3c
       -0.03800319 -0.044676878 0.07661938 0.023431018
0002d0 82 58 37 3c 7b 9c 50 3c 06 82 2f 3d 64 15 87 bd
       0.0111905355 0.01273262 0.04284861 -0.06595877
0002e0 66 5c 80 bd 37 fb a7 3c 63 0f dc 3c 24 ea 2f 3d
       -0.062676236 0.02050553 0.026862806 0.042947903
0002f0 e5 21 9e 3d 23 72 e9 bb 6a 05 8e 3c 1c 57 0e 3d
       0.077213086 -0.007124202 0.017336566 0.034751043
000300 34 2b 12 bc d9 59 55 bd 83 45 76 3c 95 16 8b 3c
       -0.008921433 -0.05208764 0.015031221 0.016978541
000310 26 8c 87 bd 7e e6 40 bd d0 48 6c 3d 7a 0d bb bb
       -0.06618528 -0.047094814 0.057686627 -0.0057083936
000320 e9 68 16 3d fc 3b fd bb 0c 62 94 3d 1f 79 14 3b
       0.036721144 -0.007728098 0.072452635 0.0022655202
000330 72 05 6b 3d 7d 2a fd bb f7 42 17 3c b0 49 f8 3c
       0.05737824 -0.0077260123 0.009232274 0.030308574
000340 2e c1 c5 3c f1 e5 8a 3c 5b 38 38 3c 2d a6 2e 3d
       0.024139967 0.016955348 0.011243905 0.042638946
000350 5f 37 32 3c 5f 1c ab 3c 04 c7 a2 3c 83 d5 83 3d
       0.010877459 0.020887552 0.019870289 0.064372085
000360 ce 21 8a 3c c9 f4 05 3c 22 ce 84 3d 7c fe 26 bd
       0.016861822 0.008176037 0.06484629 -0.04077004
000370 1f 03 0f bd 04 52 91 bc b1 94 45 3c 4a 69 52 3d
       -0.034915086 -0.017739303 0.012059377 0.051369943
000380 11 b3 6d 3d 9a fe 25 bd 58 2a 1e 3d 63 91 9d 3d
       0.0580321 -0.04052601 0.0386146 0.07693746
000390 79 c4 3d bd 04 de 70 3d 20 f1 00 bd 7b 91 cf bc
       -0.04632995 0.05880548 -0.031479955 -0.025337925
0003a0 5f 5d 85 bc 38 69 91 bc 10 87 0c bb d9 6a 7a bc
       -0.016279874 -0.017750368 -0.0021442808 -0.0152842635
0003b0 43 ae 6c 3b 48 40 8d bc 9a 33 03 bc 6c 50 71 bc
       0.003611461 -0.017242566 -0.008007908 -0.014728647
0003c0 68 42 55 3d 25 72 49 3d 58 1d eb 3c 22 1f 20 bd
       0.052065283 0.049181122 0.028700516 -0.03909219
0003d0 d8 4b 26 3c 36 16 b7 3b e5 88 10 3d d6 19 09 bb
       0.0101499185 0.0055873645 0.035286803 -0.002091994
0003e0 26 0c fe bc c2 47 25 bd 77 68 fb 3b 96 52 33 3d
       -0.031011652 -0.040351637 0.0076723653 0.043779932
0003f0 3e db 87 bc 5f 66 11 bd 74 39 81 bd 56 73 34 bc
       -0.016584035 -0.03549802 -0.063097864 -0.011013826

fc.3.weight f4 [11, 256]
000000 e0 c7 70 bc f7 5d 5a bb 0c a8 09 bd 8a ea c6 ba
       -0.014696091 -0.0033320168 -0.033607528 -0.0015176099
000010 24 c8 34 3d cc c1 db bc 80 3b 46 bc 6c a4 dd 3b
       0.04413618 -0.026825808 -0.012099147 0.0067639854
000020 36 b9 73 bd 30 a5 e9 3c e8 3a 64 bd 7c b8 d9 bc
       -0.059502803 0.02852115 -0.05572024 -0.026577227
000030 6a c2 16 bd 24 97 f3 3c 18 82 94 bd 28 53 58 bd
       -0.0368065 0.029735155 -0.07251376 -0.05281368
000040 e6 e6 4b 3d 26 a3 59 3d c3 65 98 bd c3 11 3c 3d
       0.04978075 0.053134106 -0.074412845 0.045915376
000050 3d e5 8c bc cd 99 bc bb 34 b8 bd bc d6 26 5e 3d
       -0.017199153 -0.005755639 -0.023159124 0.054236256
000060 88 8f 3a 3d 58 45 d1 3b 20 12 57 bd 17 da 8d bb
       0.04554704 0.0063864402 -0.05250752 -0.004328977
000070 2c d7 11 bb ac d7 a7 3b a3 7f 17 3d dc df ad 3b
       -0.0022253497 0.0051221456 0.03698696 0.005306227
000080 03 4c 8b bd e9 74 13 bd 38 35 29 3b 10 cc a2 bc
       -0.068016075 -0.036000166 0.0025819074 -0.019872695
000090 67 38 8e bc c4 59 72 3d 7e 14 3b 3d ae 3b 75 3c
       -0.01736088 0.05916764 0.04567384 0.014967842
0000a0 d4 03 62 3c 5e d5 e7 3c 6d 0b 15 bc a5 e6 46 bd
       0.013794858 0.028299984 -0.009096962 -0.048559804
0000b0 e2 53 94 bd ca a8 6e bc 6c 83 d7 3c bf de d9 bc
       -0.07242562 -0.01456661 0.026307784 -0.026595471
0000c0 b8 0f 9c bc ce d3 67 bd b3 59 c3 bb 28 97 28 3d
       -0.019050464 -0.056598477 -0.0059616207 0.04115978
0000d0 4e 0a ce bc 9f 22 07 3d f4 e9 f3 3c 18 2c 23 bd
       -0.025151398 0.032992 0.029774643 -0.039836973
0000e0 7d f4 15 3c 46 6c 38 bd 2a 78 1b 3d f7 a0 bf bc
       0.009152529 -0.045025133 0.037956394 -0.023392184
0000f0 b0 36 32 bd 6b 04 13 3d 2c 8d 3e 3c dd 01 04 bc
       -0.043509185 0.035892885 0.011630338 -0.008057085
000100 7c 90 14 3d 94 df fe bc db ee 08 bd c9 b6 8d bb
       0.036270604 -0.03111247 -0.033430915 -0.004324768
000110 ca df 33 3d 64 b4 4d bd 36 03 65 bd b9 02 9f bd
       0.043914594 -0.050220862 -0.055911265 -0.07764191
000120 10 75 c4 bc 2e 62 68 3d dc c8 b8 3c 2c aa 20 bc
       -0.023981601 0.056734256 0.022556715 -0.009806197
000130 68 d0 57 bd d3 07 2f bd c0 9f 51 bc 48 cf cb bc
       -0.052688986 -0.04273207 -0.012794435 -0.024879113
000140 aa 8f 30 bd 8a 08 18 bd 48 d1 b8 3c 46 fe 09 bd
       -0.04310576 -0.03711752 0.02256073 -0.03368976
000150 ec d2 43 bd f4 80 8f bc 19 13 0a 3d 8f 31 2f bd
       -0.047808573 -0.017517544 0.03370962 -0.042771872
000160 26 9c 8f bd 5c c9 15 bc 31 f6 7f bd 07 5b eb 3b
       -0.07012205 -0.009142246 -0.062490646 0.007182482
000170 ab a4 b4 3c 0b 40 22 3c 9d 25 69 3d 30 cc 89 3c
       0.022051176 0.009902964 0.056920636 0.016820997
000180 f4 a9 5d bd e0 86 f2 bc b2 70 a2 bd 13 59 2f bc
       -0.054117158 -0.029605329 -0.07931651 -0.010702389
000190 50 00 72 3d df 0c 52 bd b2 33 42 bd 0e bb 36 3d
       0.05908233 -0.051281806 -0.04741258 0.044611983
0001a0 b6 2a a9 3b cb 37 70 bd ff 57 85 bd 51 90 81 bb
       0.0051625622 -0.05864696 -0.065109245 -0.0039539714
0001b0 00 f3 73 bd 88 c1 d8 bc f0 74 3e bd 49 84 00 bc
       -0.059557915 -0.02645947 -0.04649824 -0.007844039
0001c0 8c 96 a5 bd 39 40 36 bd 4d d8 57 3d 48 a8 9d bc
       -0.08085355 -0.04449484 0.052696515 -0.019245282
0001d0 08 b2 e9 ba f9 be 91 3b 5c f5 7a bd e5 f6 ae bc
       -0.0017829547 0.0044478145 -0.06126915 -0.021357963
0001e0 39 dc 51 bd 7a ae 53 bd 68 27 65 bd 9b 93 9b bd
       -0.05123541 -0.051680066 -0.055945784 -0.07596513
0001f0 28 14 5d bc c0 dc 5f bd 5e b8 66 3d 50 ba 43 3c
       -0.013493575 -0.054653883 0.05632817 0.011946276
000200 dc 83 ce 3c e8 75 f4 bc 84 ed 55 3d 54 36 3c 3c
       0.02520936 -0.029841378 0.052228466 0.011487562
000210 58 ef 59 3b 77 01 d7 3c 50 9d 7e 3d a6 30 73 bd
       0.0033254232 0.026245816 0.062161744 -0.059372567
000220 cc 9b aa bb 20 11 84 bd d3 c7 0a bd 4d 29 39 bd
       -0.0052065607 -0.06448579 -0.033881973 -0.045205403
000230 f8 0a 95 bc 26 c5 01 3d be c3 63 3d c4 f1 bd bc
       -0.018193707 0.031682156 0.055606596 -0.023186572
000240 8a d0 47 bd 18 f9 68 3b 0b 0c 2f bc d8 75 bf bc
       -0.048782863 0.0035548862 -0.010684024 -0.023371622
000250 ac 12 6c bc 00 3f 9d bd ac b2 7f 3d 90 e3 75 3c
       -0.014408749 -0.07678032 0.062426254 0.015007868
000260 ba 51 21 3d 44 5c d8 bc 77 bd 89 bd c1 21 16 3d
       0.03938458 -0.026411183 -0.06725591 0.036653284
000270 cc 5e fb 3c d9 5d a5 bd c8 83 8e bc 84 23 28 bc
       0.030684851 -0.08074541 -0.017396823 -0.010262374
000280 ca 57 60 3d c4 64 8a bc 2c 40 4e 3d 3b 0e 59 bd
       0.054771222 -0.016893752 0.050354168 -0.052992087
000290 42 91 bb 3a dc 62 3d bc cb 84 a9 bb fd 69 33 bd
       0.0014310258 -0.011559214 -0.005173301 -0.04380225
0002a0 28 3e 80 3b 74 65 22 bd ea 07 8b ba cb b3 f7 bc
       0.0039136596 -0.039647534 -0.0010607217 -0.0302371
0002b0 d8 b0 0e bd 19 56 4e bd a6 30 07 3b 6e e3 0f bd
       -0.03483662 -0.050375078 0.0020628362 -0.035129003
0002c0 e6 11 49 bd f5 9e 32 bd 7d bc 8a bb 44 89 fa 3b
       -0.049089335 -0.043608624 -0.0042338953 0.007645758
0002d0 3c 58 3d bc a5 a9 84 bd f8 f8 01 3d 5a 75 30 bd
       -0.011556681 -0.064776696 0.031731576 -0.043080665
0002e0 f5 e4 a4 bc 78 dc 0d 3d 74 22 3d bc 76 1f 5c 3d
       -0.020128706 0.034634084 -0.011543859 0.05374094
0002f0 3f 1b 94 3c e9 7f 4c 3d cd f8 2e bd 46 33 7f 3d
       0.018079398 0.049926672 -0.042717744 0.062304758
000300 8e 48 4e bd 9f c4 88 3c 7a 31 35 bd f8 70 59 3d
       -0.050362162 0.016695319 -0.044236638 0.05308625
000310 b2 fd 69 3d b4 82 53 bd 9c d8 01 3d 44 2f e0 bc
       0.05712671 -0.05163832 0.031700715 -0.027366288
000320 63 5a 4c 3d f1 b7 01 3c cb ff 3d bc 9d d7 da 3c
       0.049890887 0.00791739 -0.01159663 0.02671414
000330 1a 20 68 bd e9 a7 b0 bc a0 62 02 38 8d 6e 56 bd
       -0.05667124 -0.02156444 3.1086267e-05 -0.052351523
000340 56 11 c7 3c 24 c8 77 bd 5a 96 46 bc 3c c3 8e bd
       0.024300259 -0.060493603 -0.012120808 -0.06970832
000350 ae d7 6e 3c b2 20 02 bd 3f c8 2e 3d 5a ce 80 bd
       0.014577789 -0.031769462 0.04267144 -0.062893584
000360 85 de 8f bd ca 20 85 3a 31 17 71 bd 1e 33 6e bd
       -0.07024864 0.0010156867 -0.058860008 -0.058154218
000370 d8 9c de b9 31 06 12 bd 39 49 06 bd 06 6d 17 bd
       -0.00042459997 -0.035650436 -0.032784674 -0.036969207
000380 1a e5 81 bb a0 8f 47 bc e5 f9 57 bd 17 c4 32 bd
       -0.0039640786 -0.012180239 -0.052728552 -0.043644037
000390 2a 4b 45 bd f4 c5 44 3d 8c 13 40 3d 99 62 15 bd
       -0.048167385 0.048040345 0.04689364 -0.036470983
0003a0 95 b7 fa 3c 8c 32 89 bd 18 0c 49 3d 8a 9f aa bc
       0.030605117 -0.06699094 0.0490838 -0.020828027
0003b0 1b 2b c7 3c d1 a4 12 3d e6 62 92 3c 26 43 1a 3d
       0.024312546 0.035801712 0.017869424 0.037661694
0003c0 e6 b1 86 bd e0 02 6e bd f1 45 2e bd 38 f1 5f bb
       -0.065769 -0.05810821 -0.04254717 -0.0034170877
0003d0 69 2c 53 3c 98 0d 68 bd 74 6e f8 bc 67 f7 8a bd
       0.012889006 -0.05665359 -0.030326106 -0.067854695
0003e0 1a 27 4d 3d 2c 58 73 3c 68 e1 dd bc e8 38 18 3d
       0.05008612 0.014852565 -0.027085021 0.037163645
0003f0 2d 97 0e 3d 5e a5 06 3c 58 e6 77 3b 67 16 99 bd
       0.03481214 0.008218138 0.0037826505 -0.07474976

fc.3.bias f4 [11]
000000 de 37 d0 3c 86 57 f0 3c 93 a1 6b bc f9 c1 d9 3c
       0.025417265 0.02933861 -0.014381784 0.026581751
000010 d9 9c a8 bc 8e ef 1c 3d 07 85 bb 3c 51 25 66 bd
       -0.020582603 0.038314395 0.02289058 -0.05618793
000020 22 ea 89 bd 6e 76 6a 3d e5 fd f0 bc
       -0.067341104 0.05724185 -0.029417941
