cnn_fighting_agent_starter/outputs/checkpoints/cnn_v1.pt (torch, 287835 bytes, 12 tensors)

state_cnn.0.0.weight f4 [16, 1, 3, 3]
000000 dc 59 f4 bd a1 ca a5 bd 52 41 85 be 16 7d 8a 3d
       -0.11931202 -0.08095289 -0.26026398 0.067621395
000010 9f b8 70 3e 36 b3 96 3e 16 2a 34 be de cb aa 3e
       0.23507927 0.29433602 -0.1759418 0.33358663
000020 65 54 ae 3e 91 2e 00 3c 57 98 ff be cf 33 12 3e
       0.34048763 0.007823602 -0.49920914 0.14277576
000030 74 9f 03 be 7c 8c 22 bd 98 c5 45 3d 27 31 1d 3e
       -0.12853795 -0.039684758 0.048284143 0.15350781
000040 a6 47 b4 be 43 db 9c 3e 79 c6 b2 3e 2e e5 8d bd
       -0.35210913 0.30636033 0.34917048 -0.06928478
000050 99 e3 13 bb 78 82 69 3e d5 dc 3f bd 3c bd 6f 3e
       -0.0022566079 0.22803676 -0.04684146 0.23412031
000060 d0 a6 8d be 3a 4e 0d be aa 86 97 3e 15 91 1d 3e
       -0.2766633 -0.13799372 0.29594928 0.15387376
000070 5a 9e 9e bd a6 a8 b4 bc 44 da ef bd 66 36 9f be
       -0.07745047 -0.022053074 -0.11711553 -0.3109619
000080 b5 f9 7c be 51 aa 7d be 06 07 98 be 6d a5 a5 3d
       -0.2470463 -0.24772002 -0.29692858 0.08088193
000090 ae 3c 21 3e 59 66 ab be e9 2b 9f be 30 04 2b be
       0.15745804 -0.33476523 -0.31088188 -0.16700816
0000a0 31 28 99 3e a1 21 3c 3e a3 94 51 bc 64 2a c1 be
       0.29913476 0.18372203 -0.012791785 -0.37727654
0000b0 da 0e 75 3e 27 3e 75 be 2f b5 de bb 9f 76 e4 bd
       0.23931447 -0.2394949 -0.006796501 -0.11155438
0000c0 b2 d5 42 3e 6c b0 5d be 90 44 99 be 4a 4a 6b 3e
       0.19026831 -0.21649331 -0.29935122 0.22977558
0000d0 cd e4 26 be 64 27 f3 bd 60 02 84 bd c7 b2 ad 3e
       -0.16298218 -0.118727475 -0.064457655 0.3392546
0000e0 9f 37 35 bd 3f 08 f9 bd 83 51 d4 3d 50 c6 2a be
       -0.044242498 -0.12159776 0.103671096 -0.16677213
0000f0 20 3f 5c be 0c b0 5f be b6 b3 43 3e 2c f8 cb 3d
       -0.21508455 -0.218445 0.19111523 0.099594444
000100 f3 7f 45 3d 3d 87 87 3d 37 da b4 bd dd cb 9d 3e
       0.048217725 0.066175915 -0.08830684 0.30819598
000110 96 d3 0b bf fd 7e d4 3e b1 d8 9f be 8e 38 23 bf
       -0.5461973 0.41503134 -0.3122001 -0.6375817
000120 f8 be 45 3e 16 75 8b 3e cc 9b 88 3e 30 6d b2 be
       0.1931113 0.27237767 0.26681364 -0.34848928
000130 92 a3 92 3e 1f ba 36 bd e6 c4 97 3e b5 b9 2a be
       0.2864042 -0.044611093 0.2964241 -0.16672404
000140 6f 9a ac 3d 2f 99 29 3e 57 8c ab be c3 87 32 3e
       0.08427893 0.16562341 -0.33505508 0.17434601
000150 57 04 8e be 63 32 00 3e 08 2e aa 3d 61 c0 c6 be
       -0.27737686 0.12519221 0.08309561 -0.38818648
000160 f9 68 f0 be e1 73 0e be 89 a6 f5 3d d0 a8 9a ba
       -0.46955088 -0.13911392 0.11994655 -0.0011799578
000170 83 8a b3 be 33 05 56 3e 41 d0 13 be 7f 66 9a be
       -0.35066614 0.20900421 -0.14434911 -0.30156323
000180 e2 11 0c be ec 55 76 3e 71 15 a0 3e df 1b 24 be
       -0.13678697 0.24056214 0.31266358 -0.16026257
000190 6f 70 a6 3d e2 d8 58 3e a3 44 49 be a6 0a 8c be
       0.08126914 0.21176484 -0.19655089 -0.27351874
0001a0 b9 d7 ff 3d 30 5e 02 3d e9 8e ba bd 8b c3 07 3e
       0.12492318 0.031828105 -0.09109289 0.13258187
0001b0 1c b8 76 3d 38 5f 34 be 96 ea c9 bc eb 42 1c be
       0.060234174 -0.17614448 -0.024647992 -0.15259902
0001c0 c7 be 67 be e9 7c d6 bd 95 dc 79 be f0 bf e4 3e
       -0.2263137 -0.104730435 -0.24400552 0.44677687
0001d0 6f 36 23 3e 65 f9 31 3d 70 5a 80 bd 58 7a 32 3e
       0.15938734 0.04345073 -0.062672496 0.17429483
0001e0 ed 00 a8 be 43 97 20 3e 29 72 89 3e b7 b6 37 3e
       -0.32813206 0.15682702 0.2684491 0.17940794
0001f0 08 55 a7 3c bd 3b 9c be 6b 69 91 be 07 d9 bc bd
       0.020426288 -0.30514327 -0.2840074 -0.09221082
000200 a1 0f 3e bd d9 e8 06 3d bf 67 e9 bd 10 60 9f 3e
       -0.046401624 0.032936905 -0.11396741 0.31127977
000210 c1 0b 95 bd 43 a6 09 3e 65 f4 bc 3d 50 81 60 38
       -0.072776325 0.1344233 0.09226302 5.3526193e-05
000220 58 3c 8a be 56 e2 6a 3e 5c 4a 8e be b6 0a ae be
       -0.26999164 0.22937903 -0.27791107 -0.33992547
000230 8c 49 c1 bd ac 75 07 3d 08 e0 73 3e 66 13 08 bb
       -0.09437856 0.033071205 0.2381593 -0.0020763515

state_cnn.0.0.bias f4 [16]
000000 5d 4c 62 be c1 89 96 3e 64 26 8d 3e 65 78 8a 3e
       -0.22099443 0.29401973 0.27568352 0.2704498
000010 a9 ca 1b 3e 16 e5 96 be 79 63 e9 3d 26 0c 50 3e
       0.15214027 -0.29471654 0.11395926 0.20317134
000020 50 3d fd bd 3a 7c b3 3d 59 16 18 be 46 43 16 3e
       -0.1236521 0.08763929 -0.14852275 0.146741
000030 7f f4 89 3c d9 48 64 be b1 fa b7 3d 71 cd 87 3e
       0.016840218 -0.22293414 0.089833625 0.26523927

state_cnn.1.0.weight f4 [32, 16, 3, 3]
000000 90 d5 a2 3c 08 e6 41 3e b4 86 bc bd 44 d8 f5 bd
       0.019877225 0.18935406 -0.0920538 -0.1200414
000010 b2 ae 4b 3e e2 4d c1 bc be b7 27 bd 5e 19 23 3e
       0.1989086 -0.023596708 -0.040946715 0.15927646
000020 a0 5c 0b bd 05 b6 00 bd ae d4 2f 3b eb 35 94 3c
       -0.03402388 -0.031423587 0.0026829648 0.018092116
000030 89 2f 6a bd aa 48 9d bd d9 c7 05 bd cb e6 a8 3d
       -0.05717424 -0.07679875 -0.032661293 0.08247145
000040 bb 23 bf 3c e8 93 f2 bd 54 dd 71 3b 0c 08 a4 3d
       0.023332467 -0.11844617 0.0036905603 0.08009347
000050 04 f8 ed bd 84 b3 7d bc a8 45 73 3d de de df bd
       -0.11619571 -0.015484694 0.0593926 -0.109311804
000060 b2 c9 da bc 6e 95 26 3b 06 52 f2 bd cc 2b 1a 3e
       -0.026707504 0.0025418657 -0.11832051 0.1505577
000070 1a af 94 3d 1a 8d db 3c ba 55 8c 3d 2f 7e 5d bd
       0.072599605 0.02680068 0.068522885 -0.054075416
000080 70 a5 40 bd 74 18 c9 3d e1 54 e8 bd 1a f1 db bb
       -0.047032773 0.09819117 -0.11344314 -0.006712091
000090 f2 3a 8c bd 0e 4e ab bb a8 7e ef bc 55 f6 fc bb
       -0.068471804 -0.0052278107 -0.0292352 -0.0077197948
0000a0 5d 0d a8 3c 4b 6f 67 ba 87 32 88 3d a6 41 15 be
       0.020514185 -0.00088285346 0.06650262 -0.14575824
0000b0 c4 df 32 3d fd fe 34 3d 9d 0f 81 bc 9a 47 62 3c
       0.04367043 0.04418849 -0.015754515 0.013811016
0000c0 bf d6 66 3d f4 26 71 bd 6a ae 00 3d 02 ef 97 3d
       0.05635714 -0.05887504 0.031416334 0.07418634
0000d0 38 8d 82 3d 55 fe 35 3d 6c b4 11 3d 3a 4b 8b bc
       0.063745916 0.044432003 0.035572454 -0.017003644
0000e0 c5 fd fb bd 50 05 7b bd 38 d4 87 bc 7f 52 6c bd
       -0.12304262 -0.061284363 -0.016580686 -0.057695862
0000f0 8e c7 38 3d 25 4d 67 bd 3e f3 0f 3d e2 8b 81 bd
       0.045112185 -0.056470055 0.035144083 -0.06325509
000100 dd ee 9d bd 88 5f 02 be 32 a0 74 bd 17 15 3d bd
       -0.07711575 -0.12731755 -0.059723087 -0.04616269
000110 d1 44 ae bd 54 7a 4d 3c 23 73 bc 3d 0e a5 ee bd
       -0.085092194 0.012541372 0.09201648 -0.116525754
000120 e5 b5 ae bd 2b 9f 38 bd df 44 ce bd bd 3e 8d bd
       -0.085307874 -0.04507367 -0.1007173 -0.06896732
000130 81 d4 2d bd 7b 60 dd 3b 6f 35 48 3d ed bf e0 3c
       -0.042438988 0.006755886 0.048879083 0.027435267
000140 51 df ef bd 78 1b ac 3d f5 b3 52 3d 18 a9 bc 3a
       -0.11712516 0.08403677 0.05144115 0.0014393656
000150 76 64 9b 3d fa 2a b4 bd f6 f4 82 3b fb 07 47 3c
       0.07587521 -0.0879726 0.003996487 0.012147899
000160 b1 d8 b9 3d 04 e6 49 3c db 25 e1 3d c9 63 27 3c
       0.09074534 0.012322906 0.109935485 0.010216662
000170 b2 fc 2f bd 99 70 0a 3e 7a 29 d5 3c a7 a8 b2 bd
       -0.0429656 0.13519515 0.026020754 -0.08723574
000180 db 3a b0 3b b3 32 85 3d ba 9e 28 bd 7d 55 e9 3c
       0.00537811 0.06503811 -0.041167 0.028483147
000190 0b 80 8e 3d e2 ce 5c 3c f4 b1 00 3d f5 90 2f bd
       0.06958016 0.013477059 0.03141971 -0.04286285
0001a0 30 24 08 bd 66 3d 23 3d c6 77 0e bd fd 62 9b bd
       -0.033237636 0.039853476 -0.034782194 -0.0758724
0001b0 2d f4 a3 3c 0f 9d db 3d 48 76 22 bd 3b 52 9e 3d
       0.020013893 0.10723316 -0.039663583 0.07730528
0001c0 73 d6 bb bd b3 be c6 bc 8b 49 55 bc a5 3e f4 3c
       -0.09171762 -0.024260854 -0.013018022 0.029815027
0001d0 0f 9e 54 3d 1a e3 5f 3d 68 2c 61 3d 4c 2e 6a bd
       0.05190855 0.05465994 0.05497399 -0.05717306
0001e0 0d da 7f bd 5a 62 64 bd 74 bd fd bc fc 06 cc 3d
       -0.06246381 -0.055757858 -0.030974127 0.0996227
0001f0 b4 87 aa 3d 84 75 c2 39 10 11 57 bc d2 83 12 3d
       0.083266646 0.0003709012 -0.013126627 0.035770245
000200 c7 04 ec bd bb 02 5d 3d 41 90 97 3d 90 81 0a bd
       -0.11524349 0.053957682 0.07400561 -0.033814967
000210 72 3b 90 3d 56 e9 42 3b 40 bb 47 bd 0c ad 71 bd
       0.07042588 0.002974113 -0.04876256 -0.05900292
000220 bc 8e 27 3d 12 97 bc 3b b4 13 f9 bc 65 0a 06 3c
       0.040907606 0.0057553137 -0.030404903 0.008181189
000230 50 85 d3 bc 5e 1e 55 3b b9 20 9b 3d 9e 19 79 3c
       -0.025820404 0.003251932 0.07574601 0.0152038615
000240 c1 8d 4a bd d2 6d 1a 3c 87 97 b8 bd bd 9f ec 3c
       -0.049451593 0.009425597 -0.090132765 0.028884763
000250 12 8e 7a 3d 1a 64 19 bd 34 a6 13 3d 5c 6f ee 3d
       0.061170645 -0.03744898 0.036047176 0.11642334
000260 de 23 b2 3d 6d 01 17 3d d1 7a 1c 3d b3 e5 31 bc
       0.086982474 0.036866594 0.038203064 -0.010857987
000270 4e b6 8a bd 76 29 a5 3d d5 66 62 3d 2b 75 9d bd
       -0.06773053 0.08064549 0.05527385 -0.07688364
000280 16 f9 e4 3d 9f a9 26 bd 27 8e 07 bd 76 c3 55 3b
       0.11180322 -0.040689107 -0.03309455 0.0032617725
000290 dc 50 56 3c 09 29 11 3d 9c ea 7a 3b 03 3c ac bd
       0.013080802 0.035439525 0.003828681 -0.08409884
0002a0 e4 43 74 bd c8 39 28 3d 0c 18 c4 bd 44 d6 70 bd
       -0.059635058 0.04107073 -0.09574899 -0.05879809
0002b0 87 08 87 3e 74 ba 91 3c ef be 0e 3c 54 27 63 3e
       0.26373693 0.017789103 0.008712514 0.22182971
0002c0 d1 19 9e 3d 18 fa 08 be 1c 0f 43 3d d6 6d 02 be
       0.07719768 -0.13376653 0.04762183 -0.12737212
0002d0 fc 35 de bd 18 2a 9e 3d 1b 9b ae 3d db e2 a7 bb
       -0.108501405 0.077228725 0.08525678 -0.005123479
0002e0 c5 cc 05 3e 26 bc 77 bd 88 a5 1c bd 70 5a 4c 3e
       0.13066395 -0.060482167 -0.0382438 0.19956374
0002f0 f0 58 41 3d ed 15 8b 3d 0d 9d bf bc f8 08 2c 3d
       0.047203958 0.067912914 -0.023390317 0.04200074
000300 29 a7 a2 3d 7d 0e 3c 3d 02 58 b5 bb 88 23 94 3d
       0.079420395 0.045912255 -0.005534173 0.072333395
000310 11 d3 89 3d 8d 7d 84 bd c8 db aa 3d 07 e7 9e 3b
       0.06729711 -0.064692594 0.08342701 0.004849318
000320 8c cc dc bd e2 44 85 bc 24 d0 01 3d 5c 6e cd 3b
       -0.10781202 -0.016268197 0.03169264 0.0062692594
000330 64 ae 2b bd 49 fa 91 3c 3e 69 20 bc ab 9d b9 3d
       -0.04191436 0.01781954 -0.009790717 0.09063276
000340 d2 2f 19 be c4 fb 8d bd 59 15 98 3c 2a e0 bc bc
       -0.14959648 -0.06932786 0.018564867 -0.023056109
000350 f3 0b d3 3c a4 1c c9 3d 16 aa bc bc 7b b5 02 bd
       0.025762534 0.09819916 -0.023030322 -0.031911355
000360 3a 4f de 3d 16 ff 1e 3d 3d 1b 27 bd 68 79 9d 3d
       0.10854955 0.038817488 -0.04079746 0.07689172
000370 e0 7c a9 bd 62 c3 59 bd 21 92 3a bd f6 64 02 bd
       -0.08275771 -0.053164847 -0.045549516 -0.031834565
000380 f2 59 11 3d 12 07 ad bd d6 9d c7 3e db 56 52 bd
       0.03548617 -0.08448614 0.38987607 -0.051352363
000390 7f f0 80 bd 27 5f 00 3e 4d b8 43 3c bc 4b 10 3d
       -0.06295871 0.12536298 0.011945796 0.035228476
0003a0 63 77 e2 3c fe 0f 34 bd fa 76 e7 bb e6 6d f7 3c
       0.027644819 -0.043960564 -0.0070637437 0.03020377
0003b0 8c d0 c8 3d 86 ad 0a 3d 65 91 6f 3c 3b c2 c7 3d
       0.09805402 0.03385689 0.014622067 0.097538434
0003c0 5f aa bb 3d 14 43 0c 3e 59 f2 3e 3e a5 c0 05 bd
       0.09163355 0.13697463 0.18647136 -0.032654423
0003d0 e4 6b 4e 3d 49 91 b9 bd 04 6f 9d 3d eb 98 2d bc
       0.05039586 -0.09060914 0.0768719 -0.0105955405
0003e0 6d e4 64 bd d8 d4 dc 3c b6 49 f5 3d 37 50 09 3b
       -0.055881906 0.02695696 0.1197695 0.0020952353
0003f0 c2 d2 0e bd 64 4d 57 bd fc 48 41 bc 23 cc d8 3c
       -0.034868963 -0.05256404 -0.011797186 0.026464527

state_cnn.1.0.bias f4 [32]
000000 44 5b 33 3d 96 fa 7d bd 45 c7 38 3b e7 36 67 bd
       0.04378821 -0.062006555 0.0028194946 -0.056448843
000010 c8 81 e9 3c f0 65 11 bd f1 78 53 3d 75 f7 97 bd
       0.028504267 -0.035497606 0.05162901 -0.074202456
000020 f5 c0 ff bb 7f 28 e2 bd a7 bf 9b bd fc d1 6e 3d
       -0.0078049847 -0.1104288 -0.07604914 0.058305725
000030 88 8f 22 bd e1 b1 d5 3c 34 41 29 bd 04 50 c7 bd
       -0.039687663 0.026085796 -0.04132195 -0.09732059
000040 c3 e1 b8 3c d5 25 88 bd 69 1f 35 bd f4 14 04 3d
       0.02256859 -0.06647841 -0.04421941 0.032246545
000050 69 22 66 bd 2d ff 62 bc b2 4d 86 bd 31 be 2e 3c
       -0.05618516 -0.013854784 -0.06557788 0.010665462
000060 22 97 82 bd a8 34 e8 3b 9b ed 90 bd df 6b c2 bc
       -0.063764825 0.0070863552 -0.0707657 -0.023733078
000070 56 d6 12 3c b9 4e 89 3d ce 24 26 3b 87 cb cf bd
       0.0089622345 0.06704468 0.0025351527 -0.10146242

button_cnn.0.0.weight f4 [8, 1, 3, 3]
000000 b2 08 d8 3e 68 2d e4 3d 80 69 dc 3d 18 55 ed 3e
       0.42194134 0.11141473 0.1076231 0.46353984
000010 5d 74 bc 3d 0f 6d a5 3d 6c e9 de 3d e3 7f d0 bc
       0.09201882 0.08077442 0.108843654 -0.025451606
000020 59 a4 24 be 41 db be 3e f9 7a fd bd 7a 5f 96 be
       -0.16078319 0.37276652 -0.12376971 -0.29369718
000030 0e c2 95 be 0a 3b 2a be 05 b8 a1 3d b7 d9 3d be
       -0.29249614 -0.16624084 0.07896427 -0.18540083
000040 1a 19 a5 3e 58 2c 01 3e bc 75 2e 3e 5a 83 77 be
       0.32245713 0.12614572 0.170371 -0.241712
000050 f3 9c 8d 3e e7 33 bf 3e 9c f9 85 3e ee 02 be 3e
       0.27658805 0.37344286 0.26167 0.3711161
000060 12 1d ca 3a f4 37 25 3d d1 b5 85 bd 72 ac ee 3d
       0.001542004 0.040336564 -0.06528819 0.11653985
000070 3c 9b 5c 3d 41 e3 6a 3e 5d c4 c4 bd 00 b8 2c 3d
       0.05385898 0.22938253 -0.09607766 0.042167664
000080 2c cd 73 3e 94 22 b9 3e 35 68 98 3e 48 db d0 3e
       0.23808736 0.36159194 0.29767004 0.40792298
000090 af 43 dd 3d 5c 10 d4 3d 55 d9 5a be 2a 60 44 be
       0.10803925 0.10354683 -0.21371968 -0.19177309
0000a0 79 91 29 3c 6d b5 a7 be a1 a5 32 3c 86 b2 98 bc
       0.010349625 -0.32755604 0.010903747 -0.018639814
0000b0 e0 11 0e 3f 4e 25 32 3c 79 f5 6f 3e 3a 6b 71 3e
       0.55496025 0.010873152 0.23433484 0.2357606
0000c0 33 98 eb 3d 21 36 92 be 35 00 e4 3e c2 1e f7 bd
       0.11503639 -0.28556922 0.44531408 -0.120664135
0000d0 1c 42 23 bd 1e 97 0c be 4c 9b 33 be 07 a2 10 3e
       -0.03985797 -0.13729522 -0.1753971 0.14124309
0000e0 bf e1 90 be d9 91 82 be a9 67 4b 3e 5a d2 e3 bd
       -0.2829723 -0.25501898 0.19863762 -0.11124106
0000f0 25 24 34 be f2 01 ef bd b4 ce b6 be 0f cb 0c 3e
       -0.17591913 -0.11670293 -0.35704577 0.13749336
000100 47 ea d7 3d 0a ad 82 3d 29 4f 93 3e 56 fc 63 3e
       0.10542732 0.06380661 0.28771332 0.22264227
000110 28 9c 9c be 93 f6 8f 3d 46 87 83 3e a7 06 f8 3e
       -0.30587888 0.07029452 0.25689143 0.48442575

button_cnn.0.0.bias f4 [8]
000000 33 16 78 bc b2 f5 ba bd 2c 1c 17 be bb 80 f3 bd
       -0.015142011 -0.09128894 -0.1475684 -0.11889788
000010 2a a2 03 be f3 90 f9 bd 14 0a 32 3e 46 ed 5b 3e
       -0.1285483 -0.1218585 0.17386657 0.21477231

button_cnn.1.0.weight f4 [16, 8, 3, 3]
000000 9c 4e 14 be 00 07 5f 3d 47 2c af bd 10 f6 7d bd
       -0.14483112 0.054450035 -0.08553367 -0.06200224
000010 da a7 76 bc c4 ad 9b bd e6 36 a2 bd d2 97 1e 3e
       -0.015054667 -0.076015025 -0.07920627 0.15487602
000020 da e4 11 3d 8f 27 45 3d 5e f2 d1 3b d1 14 90 3d
       0.03561864 0.04813343 0.0064070662 0.070352204
000030 13 38 10 3c d3 af e4 3d b7 6f a8 3d 7c 5e 93 bc
       0.008802432 0.11166348 0.08224433 -0.01798939
000040 c0 5c 08 3e bd 0e 6d 3e 5a ba 9f bd 89 fd a3 3d
       0.13316631 0.23150153 -0.077992156 0.08007342
000050 78 47 85 3d 70 f2 e9 3a c6 76 60 3b fe f4 8f bd
       0.06507772 0.0017848741 0.0034250482 -0.070291504
000060 c9 8f a3 3d a8 82 bf bd 68 24 99 3d 08 e8 f9 bd
       0.07986409 -0.093510926 0.07477647 -0.122024596
000070 f6 9f db 3d fd d4 33 bd 5d e0 38 3d f5 37 a3 bd
       0.107238695 -0.043904293 0.045135844 -0.07969657
000080 d9 0d 01 3e a5 c0 28 3e 18 df eb bd 76 c3 36 3e
       0.12602939 0.16479738 -0.11517161 0.17848
000090 25 d9 93 3d 4d 84 c6 bc 9d 1a 02 bd 60 e9 c4 3d
       0.072191514 -0.024233008 -0.03176366 0.09614825
0000a0 3d b0 80 3b 58 88 0a 3e 63 f3 86 3e 7c e1 5b be
       0.0039272592 0.13528574 0.26357564 -0.21472734
0000b0 05 ea ac 3e d8 ae ea 3c c8 25 9e 3d 60 1f ee 3c
       0.33772293 0.028647825 0.0772205 0.029067695
0000c0 c5 c7 71 3c df 58 01 be 34 96 09 be 2d 57 76 3d
       0.014757101 -0.12631558 -0.13436204 0.06014173
0000d0 d5 99 63 3d e3 62 6e 3d 9d 99 39 3d 72 73 b8 3d
       0.055566628 0.058199774 0.045312513 0.090063944
0000e0 e8 9e 04 bc 71 8b da bd 3e e8 e0 bc 03 65 18 bc
       -0.008094527 -0.106711276 -0.027454492 -0.009301427
0000f0 3d e6 30 bd e8 d9 9a 3d 73 33 65 3e f7 ed 80 3b
       -0.043188322 0.075610936 0.22382908 0.0039346176
000100 94 c4 77 3b cd d7 a2 3c a8 2a 89 bd 54 77 e1 bd
       0.0037806379 0.019878292 -0.06697589 -0.11009088
000110 f5 6b 81 3d ba 25 4c bd 2d 5c f0 3c cc 9d 67 3e
       0.06319419 -0.049840666 0.029340828 0.22618788
000120 1c 87 f5 bd 90 5d 73 bd e3 49 d4 bd e9 2c d2 bd
       -0.11988661 -0.0594154 -0.10365655 -0.10262472
000130 50 c0 cf 3c af 46 71 3d bc 09 86 bd 08 6d a3 3d
       0.025360256 0.0589053 -0.065448254 0.079797804
000140 97 0c 73 bd 10 ed fd 3d bd bd 13 bb 0a 16 17 be
       -0.05933818 0.12398732 -0.0022543513 -0.14754501
000150 97 4c bc 3d 7e 5a 10 bd 20 ef e1 bd 75 54 6a 3d
       0.09194296 -0.03524255 -0.110319376 0.05720945
000160 89 97 c6 bd 42 e3 94 bd 4b a1 e6 bd 57 bd 85 bd
       -0.09696872 -0.072699085 -0.11261233 -0.06530254
000170 01 c1 99 bd 8b e4 cc 3d ea 20 7d bb ad d8 29 be
       -0.07507516 0.100045286 -0.0038624355 -0.16586562
000180 d9 3c e8 3d 27 49 d8 3c 15 5a ca bd 20 08 bd 3d
       0.11339731 0.02640207 -0.09880463 0.09230065
000190 73 03 61 bd 96 2d 18 be 25 c0 a1 bb e5 18 93 3d
       -0.05493493 -0.1486114 -0.0049362355 0.07182483
0001a0 44 05 47 be 40 48 d0 3d fa 1b fb 3c c9 13 4d be
       -0.19435602 0.101700306 0.030652989 -0.20027079
0001b0 62 5a 03 3e d1 a2 7b bc b6 0e 08 be 7a e2 9b bc
       0.12827447 -0.015358643 -0.13286862 -0.01902889
0001c0 72 19 37 be 3c e1 50 be 56 bd bf 3e 07 a2 8a bd
       -0.178808 -0.2039842 0.3744914 -0.067691855
0001d0 d6 57 e4 bd ab 69 b3 bc b4 b3 11 3d 37 31 17 be
       -0.11149566 -0.021900972 0.03557177 -0.14764868
0001e0 50 3a 03 3e a4 3a 41 39 ae ab 4c bd 28 8b 0c 3d
       0.12815213 0.0001842776 -0.049968414 0.034312397
0001f0 00 bc b0 bd 25 15 33 bb 6e 46 f0 3d f0 56 cb 3d
       -0.08629608 -0.0027325836 0.117321834 0.099286914
000200 72 48 c5 bd 0a a2 dc 3d 2d 9c 36 3d 29 18 fc bd
       -0.096329585 0.10773094 0.044582535 -0.12309296
000210 b9 c8 e1 3d 90 27 40 be 87 be 24 bd 14 cf d8 3d
       0.11024613 -0.18765092 -0.040220764 0.10586372
000220 43 99 b4 bc 47 c7 bf bd f6 ba a4 bd c7 0a ae 3c
       -0.022045737 -0.09364181 -0.080434725 0.021245373
000230 7b 46 e8 bb 08 11 bb 3d 2f 2c 96 bd 01 a8 0c be
       -0.00708848 0.09134108 -0.07332646 -0.13735963
000240 93 a5 58 3a d7 60 eb 3d f8 c6 fd bc a2 60 60 3c
       0.00082644186 0.1149308 -0.030978665 0.013694914
000250 f6 2f 11 be b0 81 a2 bd 08 44 b4 bd d4 61 8f bd
       -0.14178452 -0.07934892 -0.088020384 -0.07001081
000260 ea 49 60 3e d4 4a ba 3d 14 ce f0 bc 61 2e 42 be
       0.21903196 0.090963036 -0.02939514 -0.18963005
000270 0a 21 3c 3c 97 a7 d7 3d f7 fa 41 be 00 d8 ab bb
       0.0114824865 0.10530012 -0.18943392 -0.005244255
000280 28 20 14 3d 2b 7e 6f bd cf ff d3 3b b6 00 08 be
       0.03616348 -0.058469933 0.0064697037 -0.13281521
000290 44 5c 25 be 66 03 d8 bd c4 83 f5 3c ed ca 3d 3d
       -0.16148478 -0.10547523 0.029970057 0.046336103
0002a0 7c 64 c5 3d 60 dd bb 3d 4a 05 2c 3e 7e 87 6b 3d
       0.096383065 0.09173083 0.16798893 0.057502262
0002b0 55 99 d0 bd 14 35 3e bd 03 03 76 bc 5e 6f a3 bd
       -0.10185496 -0.046437338 -0.0150153665 -0.07980226
0002c0 34 4a 26 bd 97 a3 c8 bc d5 6a 2e 3d ba 44 68 3d
       -0.04059811 -0.024492068 0.04258235 0.056706168
0002d0 3f d8 0b 3e 56 03 8c bd 46 b8 62 3c 96 73 6f bd
       0.1365671 -0.06836574 0.0138378795 -0.05845984
0002e0 a1 f4 a6 3c ca e4 9b be 70 95 b5 3d 23 e9 0f 3e
       0.02038032 -0.3044799 0.088663936 0.14053778
0002f0 0d a8 d7 3d 32 34 02 3e 68 b3 4b be 13 51 01 be
       0.105301 0.12715223 -0.19892657 -0.12628584
000300 ee ee 37 3d b6 fd 42 bd 0d 2c 3f be 48 a5 84 bd
       0.044905595 -0.04760524 -0.18669148 -0.064768374
000310 b7 2f 9f 3d ac 7d 0d be a1 67 ad 3d bb 15 c3 bd
       0.07772773 -0.13817471 0.08467031 -0.09525629
000320 49 d5 92 bc a2 59 ec 3d 4f 9c ee bd ea a1 ba 3d
       -0.017923968 0.115405336 -0.11650907 0.09112914
000330 f4 56 03 3e 66 d6 ab bd 52 fe 28 bd be 27 2c 3d
       0.12826139 -0.08390503 -0.041258164 0.04203009
000340 67 a9 42 bd ad 9b 42 3d a5 51 89 3c 86 b4 e8 3c
       -0.047524836 0.047511745 0.016762564 0.028406393
000350 96 16 cb bc b1 5b 8d 3d 62 e7 1a 3c bc 1f e4 3d
       -0.024791043 0.069022544 0.00945458 0.11138865
000360 9d 6f 2f 3d 09 6f 92 bd 31 35 fe 3d 00 b5 8b bd
       0.042831052 -0.071500845 0.12412489 -0.068216324
000370 ed 5d aa bd c1 bb ba 3e c1 7a 80 3d e9 14 43 be
       -0.08318696 0.3647137 0.062734134 -0.19050945
000380 a7 c1 28 bb b1 ea 80 bd 67 b2 1d bc c3 86 db bc
       -0.0025750191 -0.06294764 -0.009625054 -0.026797658
000390 b1 ed b5 3b 22 6c 09 3e 2e 3c df 3b ad 9a d3 bc
       0.0055520167 0.13420156 0.006812594 -0.025830591
0003a0 00 bc 84 3c 27 f0 b7 bd ad 3d 79 3c 55 c9 04 3e
       0.016202927 -0.08981352 0.015212459 0.12967427
0003b0 e9 b1 fc bb cb 50 5f 3c 8a 5d d9 3d 28 df 21 3e
       -0.007711638 0.013630102 0.10613544 0.15807784
0003c0 9a c2 02 be 96 77 32 bd 0f b7 b4 3a f4 88 04 be
       -0.12769547 -0.043571077 0.0013787466 -0.12942868
0003d0 e3 07 9f 3d 34 21 34 3e 7b f1 c1 bd 9e 9c a2 3d
       0.07765176 0.17590791 -0.09469887 0.079400286
0003e0 ef cb f0 3d 4d 09 b7 bd 1a 49 10 3d 0e cc 52 bd
       0.11757647 -0.08937321 0.035225965 -0.051464133
0003f0 17 28 6d be f5 7a 04 3a 2a 4e a8 bd 71 fb ed bd
       -0.23159824 0.00050537224 -0.082180336 -0.11620224

button_cnn.1.0.bias f4 [16]
000000 24 51 3e bd 99 90 bd bd 17 ce 06 3d 84 67 ab bd
       -0.0464641 -0.092560954 0.032911386 -0.083693534
000010 ab e8 94 3d 3e 01 46 bd e9 98 42 3e 2b f0 81 bd
       0.072709404 -0.04834103 0.19003643 -0.063446365
000020 bf 43 f7 3d 54 ac b2 3d e0 ff d2 3d c1 31 01 3e
       0.120734684 0.08724275 0.103027105 0.12616636
000030 59 9b fe bb 40 77 b2 3d f3 5b 08 3d f7 ed 5f bc
       -0.0077699837 0.087141514 0.033290815 -0.013667575

fc.0.weight f4 [256, 240]
000000 d2 32 15 bd 3c 44 07 3d b9 45 d4 bc 3f 25 42 3d
       -0.03642542 0.033024058 -0.025912153 0.047398802
000010 de 27 28 3d d5 98 89 38 d0 f8 30 3d 44 aa 0e 3d
       0.041053645 6.561136e-05 0.043206036 0.034830347
000020 28 ab 50 3c 42 b0 f5 3c 7e 7f 24 3d a2 ea 9d 3b
       0.012736119 0.029991273 0.04016065 0.00481923
000030 5a 85 2a bd e4 48 c2 3c 3e c9 ea bb 4c 7b 81 bd
       -0.04163108 0.023716398 -0.007165103 -0.06322345
000040 37 b7 4f 3d d6 2b 94 bd 72 9f 87 bc 44 3d 84 bd
       0.050711837 -0.072349235 -0.016555522 -0.06456998
000050 7f 50 15 bd d7 e5 4a 3b 56 c9 d0 3b 3f 00 0b bc
       -0.03645372 0.003095975 0.0063716574 -0.008483945
000060 2d 50 69 bc 9f 12 2b 3d c5 0c 8c bd 67 95 e3 3a
       -0.014240307 0.041765805 -0.06838373 0.0017363251
000070 6a 38 64 bd f7 bb bc 3c d7 ea 75 bc 7c 62 da 3a
       -0.055717863 0.023038847 -0.015009603 0.0016661431
000080 e4 24 13 3c 6f ca 62 bc ce b8 83 bd e3 a9 57 bd
       0.008980963 -0.013842209 -0.06431733 -0.05265225
000090 68 79 b9 3c f0 13 90 3c 27 c4 7e 3d 0b 1f 48 bd
       0.022640899 0.017587632 0.062198784 -0.04885773
0000a0 14 12 84 3b 41 36 31 3c c1 d8 ae 3c 13 3c d4 bc
       0.0040304754 0.010816158 0.02134359 -0.025907552
0000b0 87 f4 7f bd 9d 6f 50 3d 7f ff 5b 3a 87 b1 53 bc
       -0.06248906 0.050887693 0.0008392259 -0.012920744
0000c0 8d d1 c3 3c 33 64 52 3d 73 41 3f bd 73 5a 34 bd
       0.023903633 0.05136509 -0.046693277 -0.04403157
0000d0 fb ea 2b 3c d6 d8 9f 3b 8b c5 49 bd 2d 97 28 bd
       0.010493035 0.004878144 -0.049260657 -0.041159797
0000e0 40 06 84 bd 8a ec 95 3c 80 3a c2 3b 4f 70 f8 3c
       -0.064465046 0.018301267 0.005927384 0.03032699
0000f0 98 8d 25 3d 6c 9f 82 bd 78 0c d4 3c 47 35 99 bd
       0.040418237 -0.063780636 0.025884852 -0.07480865
000100 f8 e6 65 bd 35 90 3c bd bb 5c ce bc 6a 15 e2 bc
       -0.056128472 -0.046035964 -0.025190702 -0.027598102
000110 fe 1c 10 bd c7 1c 92 bd a4 09 d2 3b 66 e2 31 bd
       -0.0351839 -0.07134395 0.0064098407 -0.0434288
000120 f2 ce 6a bd 45 f0 17 bd 6b 17 9f bc ab 56 82 bd
       -0.057326265 -0.037094373 -0.019420346 -0.06364187
000130 57 f1 93 bd 96 c4 18 3d b0 e8 0c bd 51 87 99 bd
       -0.07223766 0.037296854 -0.034401596 -0.07496513
000140 1b 65 b6 ba a7 31 ac bc 2e 7f 7d bd ae 0c 46 bb
       -0.001391563 -0.02101977 -0.061888866 -0.003021996
000150 a5 a8 9d ba d5 43 55 3c cf 1a 83 bd 6c 91 38 bd
       -0.0012028409 0.013016661 -0.06401598 -0.04506056
000160 30 ec f2 3c cc a0 e0 bc cf 25 31 bc ef 6f ef bc
       0.029653639 -0.027420424 -0.010812237 -0.029228179
000170 40 c5 00 bd 55 f0 b4 bc c8 73 a4 3a dc fe 0b bd
       -0.031438112 -0.022087255 0.0012546713 -0.0341786
000180 9c 40 81 bd 33 42 36 bd f9 9c 11 bd 29 90 13 3c
       -0.063111514 -0.044496726 -0.03555009 0.009006538
000190 ef 5a d3 3c ca 2e ca 3c ad d6 dd bc 59 66 5c bd
       0.025800196 0.024680514 -0.027079904 -0.053808544
0001a0 b2 08 4c 3d b1 36 93 bd 87 84 ef bc 63 68 66 bd
       0.04981298 -0.07188166 -0.029237999 -0.056251895
0001b0 d3 77 49 bd 54 2d c3 3a aa 60 1f bd 82 96 3b bd
       -0.04918654 0.0014890828 -0.038910545 -0.045797832
0001c0 2a 69 10 bd 2b 67 77 bd ea d3 5a 3b 55 b9 e1 3c
       -0.035256542 -0.060401123 0.003339047 0.027554194
0001d0 22 63 87 bd 36 bf 52 bc 85 e8 4c bd 50 86 30 bd
       -0.06610705 -0.012862971 -0.050026435 -0.04309684
0001e0 be 73 1f bd 8c ec 95 bc 8f be 26 3d d4 b0 8d bd
       -0.03892874 -0.01830127 0.040709075 -0.06918493
0001f0 e7 e4 0a bd fb ad 12 3c a7 b9 1d 3c 63 83 4a bd
       -0.033909705 0.008952613 0.0096267825 -0.049441706
000200 4a a6 a7 bc 0e 3a 46 3d a2 ad 2c 3d ac 02 8f b9
       -0.020465035 0.04839521 0.042157777 -0.00027277076
000210 f4 e6 07 bc b2 5e 1c 3d b8 1b 49 3b 35 80 24 3d
       -0.00829481 0.038176246 0.0030686688 0.04016133
000220 a6 19 05 bc 9e 62 5c bd 60 8d d8 3c 3a 3b 37 3d
       -0.008123791 -0.053804986 0.0264346 0.044734217
000230 f4 13 7e bd c6 88 f5 bc d3 b1 4b bd 62 8c 0b bd
       -0.062030748 -0.029972445 -0.049730133 -0.034069426
000240 de 02 40 3d 0c c1 54 bd 10 0a 92 bd c7 c7 96 bd
       0.046877734 -0.051941916 -0.071308255 -0.07362323
000250 ae fb 0a 3d a4 3a eb bc bf 28 71 bb 65 8c 17 3d
       0.033931427 -0.028714485 -0.0036797968 0.036999125
000260 8f 39 77 bb 62 eb 7c 3d 3e de 72 bd 23 10 af 3b
       -0.0037723517 0.061747916 -0.059293978 0.0053425
000270 18 8e 07 3d ff cd 4a bd d6 2b d8 bb 1a b3 82 bd
       0.033094496 -0.04951286 -0.0065970225 -0.06381817
000280 a3 d2 2f bb ae ee 4a bd a2 94 13 3d a0 15 80 bc
       -0.002682843 -0.04954403 0.03603042 -0.015635312
000290 1c f1 9c bd 3b 3d 9d bd ba 9d 0c bd 91 a2 1e bd
       -0.076631755 -0.076776944 -0.034330107 -0.038729254
0002a0 9a a9 a8 3c 11 f2 f7 3c 04 82 08 3d 7c 12 93 bb
       0.020588685 0.030266793 0.033327118 -0.0044882875
0002b0 87 38 8e bd d7 ba f5 3c d5 87 e9 3b 8b 6d 76 bd
       -0.069443755 0.029996319 0.007126788 -0.060163062
0002c0 77 cd 01 3d db eb 1d bd 56 c8 20 bd a1 de fe bb
       0.031690087 -0.038555007 -0.039253555 -0.0077780043
0002d0 48 08 db bc 6f 58 25 3d 0c 0d 05 3c 4a 4e d4 3c
       -0.026737347 0.04036754 0.008120786 0.025916237
0002e0 9c e0 66 bd 2d 7c 83 bb cf b6 87 bd 90 64 5a bc
       -0.056366548 -0.0040126056 -0.06626665 -0.01332964
0002f0 26 a9 f1 bc 52 32 f6 bb 57 d2 35 3c 38 8d 62 ba
       -0.029499602 -0.007513323 0.011097512 -0.0008642259
000300 c2 5c 85 bc 0e ff 66 bd bf 40 38 bd d9 11 f5 bb
       -0.016279582 -0.056395583 -0.04498362 -0.0074789342
000310 b9 74 44 bc 1b 66 8d bc 70 d1 e4 3c eb f7 a9 3c
       -0.0119907195 -0.017260602 0.027931899 0.0207481
000320 ef 52 4d bd f6 94 04 3d 07 ba 8f bd f8 76 0f 3d
       -0.05012792 0.032368623 -0.07017904 0.035025567
000330 05 3c 04 bd 23 af 30 bb 25 96 2a bd a6 6d ac bc
       -0.0322838 -0.0026959858 -0.041647095 -0.021048378
000340 c2 06 d6 3c 70 d1 18 3c c2 12 13 bd 31 dc 0d 3d
       0.02612627 0.009327278 -0.03590656 0.03463382
000350 29 29 56 bd 36 f0 92 bb 37 ff dc bc 9b 05 89 bd
       -0.052285347 -0.004484202 -0.026977165 -0.06690522
000360 7f 7b 24 3c d0 57 9b 3c 5c 17 fe bb 4b 2d 26 bd
       0.010039209 0.01896277 -0.0077542495 -0.04057054
000370 ef 67 cf 3c 06 14 9c bd 50 36 8e bb 24 ee 47 bd
       0.025318114 -0.07621007 -0.0043399706 -0.048811093
000380 9d 2d 3b bc 20 1d 52 bb 0c 02 28 bd a9 b2 4c bd
       -0.011424449 -0.0032060817 -0.041017577 -0.04997507
000390 a2 1d 99 3b 29 b6 04 3d f2 3a 39 3a 84 4f 99 bc
       0.004672722 0.032400284 0.00070659735 -0.018714674
0003a0 5f ba 12 bc 7e 24 81 bd 6b 68 78 bd 82 ff 40 3d
       -0.008955567 -0.063057885 -0.060646456 0.04711867
0003b0 2e 81 f6 bc 80 37 6a bd cb e8 2d 3d 27 7d d5 3b
       -0.030090895 -0.057181835 0.042458337 0.0065151635
0003c0 96 d2 61 bd 6a 30 25 3d 68 41 46 bd f2 69 3a 3d
       -0.05513247 0.040329374 -0.04840222 0.045511194
0003d0 b3 1b 67 bc ce 1a e1 3c e5 0b 2a bd cb 96 86 3d
       -0.014105725 0.027478602 -0.04151525 0.0657173
0003e0 d7 7f 69 3d 28 ca 99 3c 48 e5 7a bd 8c 96 2d bd
       0.057006683 0.018773153 -0.061253816 -0.0423799
0003f0 55 57 11 3d 56 74 86 3d 5e 9c e5 3c c7 dc cb 3d
       0.035483677 0.06565158 0.028028663 0.09954219

fc.0.bias f4 [256]
000000 88 f7 39 bd d1 fa 69 3d af 5d 04 3d 32 97 89 bc
       -0.04540208 0.057123963 0.032315906 -0.016795728
000010 79 e8 70 bd 87 73 53 bd a3 6c 88 3d 26 ec 32 3a
       -0.058815453 -0.051623847 0.06661346 0.000682535
000020 79 1f 7c bd d9 b0 41 bd 6e 48 a2 3c 1b db 36 3d
       -0.061553452 -0.047287796 0.019809928 0.04464255
000030 d5 c6 75 3d 8d 9b 4b 3d ef 19 47 bd 0d 5a d8 3a
       0.060004074 0.04970889 -0.048608717 0.0016506329
000040 bc 3f c0 3c cc 94 91 3c d5 d2 35 3b 33 a1 c9 3c
       0.02346789 0.017771147 0.0027744074 0.024612999
000050 1f 70 24 3d 94 04 69 3d 22 fe 9b 3d af 54 ea 3c
       0.04014599 0.05688913 0.07616831 0.028604833
000060 ea 57 9e 3b f1 d6 58 bd 28 59 ba bb 59 50 70 bc
       0.0048322575 -0.05293936 -0.005686898 -0.014667594
000070 67 45 8b bd 21 14 4e 3d b1 b8 8d bd 9c 50 24 3d
       -0.06800347 0.050312165 -0.06919993 0.040115938
000080 77 da 23 bd 7a 33 23 3c 2d 6c 9a 3b 5e 27 39 3d
       -0.040003266 0.009961003 0.0047126026 0.04520356
000090 ff 16 90 bd 1e 7f 4c 3b ce 26 48 3d 4f 92 6a bd
       -0.07035636 0.0031203697 0.048865132 -0.057268437
0000a0 39 49 36 3d 2b 06 05 bd 2e 91 98 3c 56 18 c2 3c
       0.044503424 -0.032476585 0.018623915 0.023693245
0000b0 a1 7b 00 bd 85 96 96 3d 23 8d 4b 3d d6 e6 04 bd
       -0.0313679 0.07352928 0.049695145 -0.032446705
0000c0 86 d0 4d 3d da 9c 2f bd 2a 61 b5 3c 6c 77 54 3d
       0.05024769 -0.042874195 0.022141058 0.051871702
0000d0 7a 68 2d bc 01 59 99 bd c2 e1 81 bd 11 b0 10 bd
       -0.010583991 -0.07487679 -0.06341888 -0.03532416
0000e0 0d 5a 0f 3d fa 27 66 bc 91 45 78 3d 06 ce 45 bd
       0.03499799 -0.014047617 0.06061322 -0.048292182
0000f0 4b 01 de 3c 55 ef dc bc 8f 80 0c bd c7 33 85 bd
       0.027100226 -0.026969591 -0.03430229 -0.06504016
000100 34 10 82 bd 61 17 37 3d 89 26 e2 bc 93 ec 1c 3d
       -0.06350747 0.04470003 -0.027606266 0.038311552
000110 7a 26 9e 3d 89 f2 41 3c a5 b1 01 bd 8d 51 3e bd
       0.077221826 0.01183761 -0.031663556 -0.04646449
000120 de 42 05 3d 38 b4 05 3d 64 9d 86 3c bb 06 26 bd
       0.032534473 0.032642573 0.016432472 -0.040533762
000130 32 11 c6 3c cc 3f 0d 3d ae 71 59 3d c0 9a 73 bc
       0.024178121 0.03448467 0.05308693 -0.014868438
000140 8b a0 a5 3d cd 47 3a bd da bb 83 3a d7 09 4c bd
       0.08087262 -0.04547863 0.0010050491 -0.04981407
000150 d2 fc 6a bc 4f b8 44 3d f0 3d 6d 3c 92 7d 07 3d
       -0.014342504 0.048027333 0.014480099 0.033078738
000160 ff a4 00 3d 39 19 b4 3b f1 c1 e7 3a fb 45 e2 3b
       0.031407353 0.005496171 0.00176817 0.006905315
000170 d2 54 58 bd 62 89 c5 3c e6 dc cb bc 70 e5 03 bc
       -0.052815266 0.02411336 -0.024885606 -0.008050308
000180 a6 8b dc bc 9e fe ee 3c 52 75 17 3d 55 58 b9 3c
       -0.026922058 0.029174145 0.03697712 0.022625128
000190 fc ed 82 3d 83 ae 53 3c 5b b2 80 3d 28 e6 6e 3c
       0.06393048 0.012920025 0.062840186 0.014581241
0001a0 a6 8f a8 3d 72 79 c1 bc b2 68 01 bd 30 13 47 3d
       0.08230524 -0.02361748 -0.031593986 0.048602283
0001b0 d0 7f 4c 3c 58 6b af bc 05 f9 94 bd d9 cd 7f bd
       0.012481645 -0.02141349 -0.07274059 -0.06245217
0001c0 d8 a3 1e 3d 0d 47 32 bd a9 7b 80 3d e2 b8 6f 3d
       0.038730472 -0.04352479 0.06273586 0.058525927
0001d0 7f 0d 9e 3c 4e e0 15 3b 37 44 88 bc d1 67 eb bb
       0.019293545 0.0022869292 -0.01663409 -0.0071840067
0001e0 16 83 96 bd d7 72 c5 3d e9 09 70 bd e7 00 1e bd
       -0.073492214 0.096410446 -0.0586032 -0.03857508
0001f0 02 42 e7 3c 18 56 8b bb f9 08 2a 3c bb c9 6c 3d
       0.028229717 -0.0042522065 0.010378116 0.057809573
000200 9f 6b 8b 3d 4c 54 07 bd b5 9f 86 bc 9d 64 a3 3c
       0.068076365 -0.033039376 -0.016433576 0.019945437
000210 f2 59 8f 3d 78 14 1c 3d 4a 5d 9b 3c b5 f1 47 bd
       0.069995776 0.038105458 0.018965382 -0.048814494
000220 c0 17 5f bd c4 1c 9d 3c 9a 6a b7 bd 3e 85 3c 3d
       -0.05446601 0.019178756 -0.089558795 0.046025507
000230 58 2a da 3c 26 56 56 ba 68 25 04 3d 46 2e f4 3b
       0.02663152 -0.0008176289 0.032262236 0.0074518053
000240 66 5f bb 3c 8d dc ee bb 68 4a 92 bb 04 f7 7d bc
       0.022872638 -0.0072894753 -0.0044644363 -0.015500788
000250 f7 e3 ec 3c 28 e1 0b bd 13 a7 7c bb 9a 14 22 3d
       0.028917296 -0.034150273 -0.0038551732 0.03957043
000260 18 cd 8d 3c 8d 52 1a 3d e0 4e 91 3c 17 fd ab bc
       0.01730971 0.037676383 0.017737806 -0.020994706
000270 7d bb d2 3c 12 89 01 3d 0a 6d a3 bb 01 e7 30 3d
       0.025724167 0.03162486 -0.0049873637 0.043189052
000280 a4 79 cf bc 3e 5c 5a bd b6 32 84 bc 74 80 3f bd
       -0.025326557 -0.053310625 -0.016137462 -0.04675336
000290 70 32 24 bd 41 fd 53 bd 95 e5 a5 3d 0c d4 3a bd
       -0.040087163 -0.051755194 0.0810043 -0.04561238
0002a0 42 0b 85 3b 22 24 59 bd fa af e6 3c cd 52 3e bd
       0.00406018 -0.053012975 0.028160084 -0.046465684
0002b0 85 58 22 3c b5 e5 2d 3d a4 71 de 3c 58 3b 3a 3c
       0.0099088 0.042455394 0.027153797 0.011366688
0002c0 86 d8 b2 bc fc b2 9a bd b9 6b b5 3d fd 01 e6 3c
       -0.021831762 -0.0755367 0.08858437 0.02807712
0002d0 56 97 cc 3c a4 02 31 bd 63 ca 7d 3d bc 33 2d 3d
       0.024974506 -0.04321541 0.06196059 0.042285666
0002e0 28 f3 6c bc 90 14 eb bc 1c 2b 1b bd 32 1c cc 3c
       -0.01446227 -0.028696328 -0.03788291 0.024915788
0002f0 4e 79 e4 bc f4 79 c9 bc 7c d3 82 bc b1 e4 31 bd
       -0.027889874 -0.024594285 -0.015969984 -0.043430988
000300 7c 49 00 bd 91 4c ef 3c 1d 47 f3 3c ee c2 76 bd
       -0.03132008 0.029211314 0.029696995 -0.060244493
000310 a9 f7 59 bd c4 17 04 3c 85 56 a2 bc 28 cd 53 3a
       -0.053214703 0.008062307 -0.019816646 0.0008079582
000320 ec da 63 bb 79 1b 9e bb a6 d9 66 bb 43 96 ff bc
       -0.0034767939 -0.0048250523 -0.0035224943 -0.03119958
000330 ae e4 e7 bb 70 8d db bb c5 7a 5c bd 49 ab 84 bb
       -0.0070768213 -0.0067002103 -0.05382802 -0.004048739
000340 ba b6 8a 3d 17 20 1c 3d 33 6a 2e bd af c5 2f bd
       0.067731336 0.03811654 -0.04258175 -0.042913135
000350 89 e0 6e bc c0 46 05 3d 69 22 2f bd db 78 55 3d
       -0.014579901 0.032538176 -0.042757425 0.05211721
000360 47 9f 82 3d e2 20 af 3c 6e c1 b9 3b 55 29 25 3d
       0.06378036 0.021377984 0.0056688106 0.04032262
000370 2f 5f 10 bd d4 40 79 3d ab ff 47 bd 03 45 2e bd
       -0.035247024 0.06085284 -0.04882781 -0.042546283
000380 db 55 e7 3b e0 6e 8b b9 be 09 1c bd de 31 26 3d
       0.0070597953 -0.00026594754 -0.03809523 0.0405749
000390 86 a8 6c ba 5a 5e 8c bd ea 20 57 3d 27 b1 8b 3c
       -0.00090277975 -0.06853934 0.052521624 0.017052246
0003a0 a8 96 38 3d 9c c3 94 bc d2 5c 1a 3b e2 21 56 bd
       0.045065552 -0.01815968 0.002355386 -0.052278407
0003b0 82 8c c2 bc 9f 87 3d bb 4d 44 7e bd 06 77 18 3c
       -0.02374864 -0.0028919948 -0.062076855 0.009305721
0003c0 be 6d 2f bd 18 73 33 bd 8d 90 23 3d 9b d4 03 bd
       -0.042829268 -0.043810934 0.039932776 -0.03218518
0003d0 08 57 6e bc 6a c0 dd 3c 33 94 81 3d 7c 00 69 3c
       -0.014547117 0.02706929 0.06327095 0.014221307
0003e0 af 68 8b bd b5 c3 92 bd 42 f3 1d 3c b3 f5 10 3d
       -0.06807076 -0.071662344 0.009640517 0.035390567
0003f0 39 b0 34 bd f1 68 b3 bc 4c 86 9f 3c 7b 24 09 3d
       -0.04411337 -0.021900626 0.019473217 0.033482056

fc.3.weight f4 [12, 256]
000000 d7 45 72 bd 75 ad b4 3b df 5f 84 3d aa f8 41 bd
       -0.059148636 0.0055138418 0.064635985 -0.047356285
000010 e0 fb d1 3d e9 dc d2 3c 9e 34 b0 bc 5c 6a 20 be
       0.102531195 0.025740104 -0.021509465 -0.15665573
000020 80 19 ce bc 40 85 52 3d f9 a4 2a 3c d2 7c 7b 3c
       -0.025158644 0.05139661 0.010415309 0.015349584
000030 8a 71 c4 3c 93 95 4a bd 45 2b 29 bc fd 28 8a 3c
       0.02397992 -0.04945905 -0.010325258 0.016865248
000040 be e6 64 bd 86 eb 87 bd ad 23 8c 3d 9d b9 36 3b
       -0.055884115 -0.066367194 0.06842742 0.002788163
000050 c6 83 0b bd 95 37 02 3d 79 28 39 be 4b 25 4c 3d
       -0.034061216 0.03179129 -0.18081845 0.049840253
000060 1c aa 73 3d 29 e3 6c 3d c9 1a e0 bb e9 93 a9 bc
       0.0594884 0.057833824 -0.0068391305 -0.020700412
000070 fe fc cb bc 4e 24 a3 3c d0 31 eb bc bf 0d 8b bd
       -0.02490091 0.019914772 -0.028710276 -0.06789731
000080 02 4c e5 3d 2a 66 52 3d cc 13 36 3d 70 c9 89 3d
       0.11196138 0.051366962 0.044452474 0.06727874
000090 29 0f e0 bc d6 50 9f bc ae bc 48 3d 98 0c 47 bd
       -0.027350979 -0.019447725 0.049008064 -0.048595995
0000a0 8e 4e 01 3c 61 53 22 3d 7d b1 f4 3c a7 2f 38 3c
       0.007892264 0.039630298 0.02986979 0.01124183
0000b0 95 e0 36 bd 9f f3 1a be 16 77 3f 3c 92 71 36 3c
       -0.044647772 -0.15131997 0.011686107 0.011135476
0000c0 83 39 08 3c 91 54 7d bd 0f 11 61 bd 42 c5 1a bc
       0.008314493 -0.061848227 -0.05494791 -0.009446444
0000d0 33 7e 8d bd c8 5a 8d 3b 53 45 bc 3b 6b 4e 5f 3d
       -0.06908836 0.0043138005 0.005745569 0.054518145
0000e0 f2 d8 4c 3c d8 01 72 3d b6 6a 5f bc 96 f2 48 3d
       0.012502896 0.05908379 -0.013636282 0.049059473
0000f0 27 d3 df 3c b5 37 f5 bc 56 35 62 bc 45 a2 34 bd
       0.027322365 -0.02993379 -0.013806662 -0.044100065
000100 a1 2f 30 3d 84 7d 3d bd f1 cc 59 3d fb a4 d8 3c
       0.043014172 -0.04626228 0.053173963 0.026445856
000110 07 43 37 3d 06 35 45 3d 25 c2 32 bd b0 5f 38 3d
       0.044741657 0.04814627 -0.043642182 0.04501313
000120 b9 d3 6d bd c4 88 21 bd c8 8c 86 bc d0 24 ff 3d
       -0.058063243 -0.03943707 -0.016424552 0.12458193
000130 f9 05 33 bd 56 a0 94 bc a2 43 92 3c cb 47 83 bd
       -0.043706868 -0.01814286 0.017854515 -0.06410178
000140 2c 52 87 bd 8f 51 72 bd d6 34 27 3d 02 8f 70 bb
       -0.0660747 -0.05915981 0.040821873 -0.0036706333
000150 a5 d4 cb 3d 3a cf f7 3c e4 8c cf bc 17 8d 1b bd
       0.09952668 0.03025018 -0.025335737 -0.03797635
000160 95 90 31 bb c4 34 bf 3d f5 25 4a 3b d1 44 d6 3c
       -0.0027094234 0.09336236 0.0030845378 0.026155861
000170 eb 77 4f 3d c9 48 43 3d 99 c5 8e bd ac 2b e7 3c
       0.050651472 0.047676835 -0.069712825 0.028219067
000180 4c 92 9e 3d 17 6d 05 3d 8e f8 c6 bc 67 8c b7 3c
       0.07742748 0.03257474 -0.024288442 0.022405816
000190 0a 94 3b bc 5f 26 20 bd c2 8a d3 3b d9 31 9d 3c
       -0.0114488695 -0.039099094 0.00645575 0.019188808
0001a0 7c 56 57 bc fa d6 89 bd cd d4 9e 3d a4 f3 b8 3c
       -0.013143178 -0.06730457 0.07755432 0.022577114
0001b0 c4 f6 04 bb ed fc 70 bd fc 6e 29 3d 30 62 38 bd
       -0.0020288685 -0.05883496 0.04136561 -0.045015514
0001c0 fb 34 95 3c 99 87 3b 3d 87 ad 12 bd b4 ad 11 bd
       0.01821374 0.045783613 -0.03581002 -0.035566047
0001d0 d7 9c 4c bd 8d a0 5b bd 70 24 03 3d d6 1b c7 3c
       -0.04995426 -0.05361991 0.03201717 0.024305265
0001e0 cf 30 46 bd 29 82 b6 bb 62 59 22 bd 92 1a 4b 3b
       -0.04838639 -0.0055697155 -0.039636023 0.003099118
0001f0 ac e3 7a bd b3 76 30 bc 9f 1c 5f 3d 97 bd 58 bd
       -0.06125228 -0.010770488 0.054470655 -0.052915182
000200 b8 4d 29 3c 71 8b 29 3d da 53 eb bc e2 9b 1f be
       0.010333471 0.041392747 -0.028726507 -0.15586808
000210 57 83 24 3d a6 ee aa 3c 9b b9 08 3d 1f f9 5f 3d
       0.040164318 0.02086575 0.033380132 0.05468094
000220 04 da 16 3d 61 af 3d b9 78 0d b3 3d d6 76 34 bb
       0.03682901 -0.00018089778 0.08742803 -0.0027536652
000230 d7 3a 35 3d 18 d4 39 bd 43 d0 b6 bc 54 26 0a bd
       0.044245567 -0.045368284 -0.022316104 -0.03372796
000240 3c c2 d8 bc af f8 28 3d e7 0a be bc d9 d1 3a 3c
       -0.026459806 0.04125279 -0.023198558 0.011402571
000250 8b 02 20 3c e0 fe b6 3c 2d 24 6b 3d 9f 25 e5 bb
       0.009766231 0.02233833 0.057407547 -0.00699301
000260 e1 bb 31 bc 94 62 15 bd de 0d 36 bd 82 fb d2 bd
       -0.0108480165 -0.036470965 -0.04444682 -0.103018776
000270 13 b7 99 be 38 d3 f8 3d 08 31 8f 3c 65 6d 8e 3d
       -0.30022487 0.12149662 0.017479435 0.06954459
000280 6d 70 10 bb fe d4 2a bd 8c dd 68 3c 72 e4 57 3c
       -0.0022039667 -0.04170703 0.014212977 0.013177024
000290 b4 d7 d0 bc 7f da 85 3d 08 71 cf 3c d5 25 67 3d
       -0.02549348 0.065358154 0.025322452 0.056432564
0002a0 ff 97 ab 3d 12 60 41 3d ee 89 79 3d ff 6d e9 bc
       0.083786 0.04721076 0.060922556 -0.028494833
0002b0 97 02 48 3c d6 02 33 bb 20 d0 c6 3d 18 ee 1f 3d
       0.012207649 -0.0027314923 0.097076654 0.039045423
0002c0 7a ca 1a 3d 0c 6e a4 bc 81 8a 8a bd fa b6 1d 3d
       0.037790753 -0.020072006 -0.06764699 0.03850458
0002d0 d1 3a 95 bb 9d 65 6b 3d cd 5c 2c 3e 60 eb 37 3d
       -0.0045541306 0.057469953 0.16832276 0.044902205
0002e0 5f 07 92 bc c5 3b 20 3c 55 c5 ae 3b 00 9a 30 3d
       -0.01782578 0.009779875 0.0053335824 0.043115616
0002f0 34 7f 90 bd ad a2 b5 bd e4 23 23 bd 68 9d 1f bc
       -0.07055512 -0.088689186 -0.03982915 -0.009742118
000300 ea 93 43 3d b2 92 0d 3c a5 36 55 bd e2 db 3c 3d
       0.047748484 0.008640932 -0.052054066 0.046108134
000310 fa 6e ad bc ee ed 99 bd a2 f4 a0 3d a1 04 6e bd
       -0.021171082 -0.075160846 0.0785916 -0.058109883
000320 7e 37 8f bd f7 0d 51 bd 95 99 a1 be 99 53 df 3c
       -0.06993006 -0.05103871 -0.31562486 0.027261542
000330 58 90 9b 3a ba ce 62 bd a1 44 d5 bb 02 97 30 3d
       0.0011868579 -0.05537293 -0.0065084253 0.043112762
000340 ec 9b 92 bc e5 10 4f bb 57 d9 31 3d 79 3d a3 bc
       -0.017896615 -0.0031595763 0.043420162 -0.019926773
000350 07 54 31 bd bd bc a5 3d 41 3e 0a 3d 24 87 d4 bc
       -0.043293025 0.080926396 0.033750776 -0.025943346
000360 0b 7a 24 3d 38 6e 87 3d 59 6f 9b 3d 14 3e cc bd
       0.04015545 0.066128194 0.07589597 -0.09972778
000370 82 f5 24 bd 3a 36 e8 3c 9f 56 13 3d fd 4c ab bc
       -0.040273197 0.02834617 0.03597128 -0.020910734
000380 ee cd 53 bd 69 0f cf 3c 1c 47 9c 3c 30 6b 45 bd
       -0.05171006 0.025275903 0.019076876 -0.048197925
000390 db 44 77 bd c6 e0 e5 bc e6 c4 a6 3c c6 f9 fd 3d
       -0.0603684 -0.028061282 0.02035756 0.12401156
0003a0 c3 eb cc bb 6a 56 7d bd 73 ff cc bd 7a 78 d5 3c
       -0.006253691 -0.06184999 -0.100096606 0.026058424
0003b0 f6 c3 54 3d 7b c3 94 3c 50 8c 33 bd c0 c1 bb bc
       0.051944695 0.018159619 -0.043834984 -0.022919536
0003c0 64 96 9d 3c 48 d7 2a bd 2b ec 6b 3c 4a c8 c4 39
       0.01923675 -0.041709214 0.014399569 0.0003753326
0003d0 7d 28 9e 3d 81 7d 32 bd 68 e8 18 bd e7 7f 62 3d
       0.07722566 -0.04357672 -0.037331015 0.05529776
0003e0 3a 87 1d 3d cd fe 5e ba f5 1b 5c bc b3 0a a2 3d
       0.03845904 -0.0008506596 -0.0134344 0.07912197
0003f0 e5 bf 0f bd 78 4a 88 bb 9c bf cb 3a e7 d0 4a 3d
       -0.035095114 -0.004159268 0.0015544775 0.04951563

fc.3.bias f4 [12]
000000 24 0e 20 bd 7b 61 d4 bc 84 12 39 3d 9a c0 87 bc
       -0.039075986 -0.025925389 0.045183674 -0.016571332
000010 f5 55 a7 bd 5d e0 17 bd 0f 37 0e bd 75 82 da 3c
       -0.08170692 -0.037079204 -0.034720477 0.026673535
000020 3c 90 25 bd 02 13 a8 3d 31 08 c8 bd f9 2d 40 bd
       -0.040420756 0.082067505 -0.097671874 -0.046918843
