cnn_fighting_agent_starter/outputs/checkpoints/winrate_baseline.pt (torch, 225947 bytes, 12 tensors)

state_cnn.0.weight f4 [32, 1, 3, 3]
0.45218843 -0.27064955 -0.55284494 0.10047848 0.0128846755 -0.40097675 -0.1828603 -0.5594728
-0.53739315 0.14786015 -0.19430324 -0.11982524 -0.04381859 0.2956395 0.17027965 0.081569746
-0.25081614 0.29322627 -0.016359506 0.13181531 0.093325295 0.054198045 0.34492233 0.1700437
0.23433006 0.19172403 0.2694339 -0.008815332 0.3726491 -0.30656084 -0.39676479 0.4564671
0.39566544 -0.14841452 -0.08858665 0.044597473 0.072601765 0.48828167 -0.04995167 0.6090287
0.19619848 -0.19240794 0.49450466 0.19085245 -0.5320051 -0.03596358 -0.08420409 0.11786646
0.21459036 -0.21535055 0.117716774 0.041235335 0.011015298 -0.22235374 0.043379433 0.023368457
0.10374784 -0.10208787 -0.1269257 0.4069123 0.01422462 0.019488262 0.08857615 0.03727413
0.070134096 0.07577798 -0.22989509 0.007859073 -0.269252 0.3014923 -0.20953612 0.09100768
0.044377193 -0.22303772 -0.32664478 0.31507283 -0.47024256 0.18687898 0.36950475 -0.60952634
-0.17252393 0.28089246 0.24001524 -0.23587494 -0.31213826 -0.30745637 0.28556737 0.127909
-0.21645384 -0.27842063 0.20886588 0.062704645 -0.0430008 -0.11579041 -0.17519985 0.19268772
0.12353519 -0.054161854 0.39658517 0.09961774 -0.12492182 -0.32512686 -0.10526707 -0.3149472
0.1913012 -0.029916093 -0.17640117 -0.24899217 0.20241106 0.29523975 -0.27182433 0.06184861
-0.25861737 0.12243162 0.00707392 -0.24016893 0.087233715 -0.12906608 0.12314471 0.2645665
-0.27824768 0.24167624 0.13555898 0.25907615 -0.047245573 0.22739592 0.43319574 -0.40644416
-0.059243664 -0.052234042 -0.37230617 -0.18145986 -0.14354318 -0.46161318 0.2080809 0.057723407
0.44681805 -0.2556159 0.47139883 0.035164952 -0.5546214 0.26187098 -0.06832107 -0.29586998
0.24880384 -0.25563475 -0.3547587 0.106372744 -0.24039683 0.069647506 0.19229534 0.2802303
-0.048428446 -0.13355517 0.33093357 0.06259283 -0.22656815 0.24111639 -0.013495264 -0.07808344
0.08549211 -0.06435885 0.29336163 -0.053170778 0.013333299 0.018782692 -0.19477682 0.32675403
0.18815023 -0.40028417 -0.094776034 0.15084404 -0.01722752 0.09235356 0.13928866 -0.13006552
0.29277277 -0.00743813 -0.222336 0.2309774 -0.11998837 0.263273 -0.18842839 -0.32820123
0.29092765 0.16077955 0.04713702 -0.07604963 0.039689 -0.009449032 0.0044850097 0.0775542
0.29976174 0.54373664 -0.2667777 -0.2265865 -0.19224183 0.20592931 0.27021098 -0.06017815
0.13532041 -0.072638914 0.24820983 -0.1374369 -0.20675133 -0.114578746 0.2506653 -0.36872113
-0.041156694 0.37389773 -0.4386445 -0.28588498 0.100717366 0.012622825 -0.12911572 0.25817624
-0.058496308 -0.07724991 -0.03885342 0.07913905 0.2294087 0.08119969 0.36549655 0.18066056
-0.009071321 -0.29085493 0.15266353 -0.19726515 -0.2865239 -0.30538067 0.06866937 0.011317056
0.056719273 0.04016523 0.48078504 0.15496504 -0.1348685 0.004697362 -0.13360329 -0.41947675
0.4543067 0.12313288 -0.13899723 0.0019654182 -0.20663288 -0.26986736 0.33749476 -0.19803077
-0.35838002 0.03382189 -0.6371644 -0.6133535 0.08817349 -0.26211515 0.26792488 -0.10380022
00000000: 3e85 e73e 9492 8abe 3f87 0dbf a9c7 cd3d
00000010: 3f1a 533c d34c cdbe bb3f 3bbe 9c39 0fbf
00000020: 9992 09bf a768 173e 6ef7 46be ef66 f5bd
00000030: 1f7b 33bd 0f5e 973e ca5d 2e3e 0a0e a73d
00000040: f96a 80be c121 963e 5f04 86bc 98fa 063e
00000050: 5521 bf3d c5fe 5d3d a999 b03e f01f 2e3e
00000060: 38f4 6f3e 4e53 443e 3df3 893e 2f6e 10bc
00000070: ddcb be3e 8bf5 9cbe c124 cbbe 0eb6 e93e
00000080: a994 ca3e faf9 17be eb6c b5bd d7ab 363d
00000090: 3cb0 943d 0e00 fa3e 1f9a 4cbd 4ee9 1b3f
000000a0: 41e8 483e 9606 45be b72f fd3e d36e 433e
000000b0: 7c31 08bf 8c4e 13bd 3273 acbd f863 f13d
000000c0: 93bd 5b3e db84 5cbe 7e15 f13d 62e6 283d
000000d0: 8279 343c b3b0 63be a2ae 313d 356f bf3c
000000e0: bf79 d43d 7213 d1bd d0f8 01be cf56 d03e
000000f0: 610e 693c d9a5 9f3c 6a67 b53d c2ac 183d
00000100: 77a2 8f3d 7c31 9b3d 9e69 6bbe 57c3 003c
00000110: 66db 89be 335d 9a3e a390 56be 3c62 ba3d
00000120: dcc4 353d 0064 64be fc3d a7be 3a51 a13e
00000130: a2c3 f0be 345d 3f3e ba2f bd3e eb09 1cbf
00000140: 1daa 30be 23d1 8f3e 8ec6 753e 3389 71be
00000150: 96d0 9fbe ec6a 9dbe e335 923e 94fa 023e
00000160: 13a6 5dbe 268d 8ebe f0e0 553e 4b6b 803d
00000170: 9b21 30bd 8623 edbd 9767 33be ee4f 453e
00000180: 0500 fd3d d2d8 5dbd 360d cb3e 6304 cc3d
00000190: 03d7 ffbd 0777 a6be 4396 d7bd c240 a1be
000001a0: 76e4 433e 9812 f5bc 82a2 34be cef7 7ebe
000001b0: d844 4f3e aa29 973e 8f2c 8bbe f854 7d3d
000001c0: 7f69 84be 6ebd fa3d 58cc e73b d8ee 75be
000001d0: 97a7 b23d e629 04be 4b33 fc3d 4375 873e
000001e0: 7b76 8ebe fa79 773e f9cf 0a3e a1a5 843e
000001f0: 9384 41bd 7ada 683e d5cb dd3e 7319 d0be
00000200: 7ca9 72bd 5df3 55bd ea9e bebe 9dd0 39be
00000210: fcfc 12be 9058 ecbe 2913 553e 616f 6c3d
00000220: 56c5 e43e 16e0 82be 305b f13e 2009 103d
00000230: abfb 0dbf f413 863e ebeb 8bbd 457c 97be
00000240: 6fc6 7e3e 8fe2 82be efa2 b5be f4d9 d93d
00000250: 962a 76be 5aa3 8e3d 12e9 443e 597a 8f3e
00000260: e85c 46bd b0c2 08be 2070 a93e ab30 803d
00000270: 7b01 68be 37e7 763e 3d1b 5dbc 36ea 9fbd
00000280: 7d16 af3d 93ce 83bd 7f33 963e 9ac9 59bd
00000290: e973 5a3c 29de 993c 9373 47be 4e4c a73e
000002a0: 74aa 403e 0cf2 ccbe f019 c2bd dc76 1a3e
000002b0: ba20 8dbc dd23 bd3d b0a1 0e3e e52f 05be
000002c0: 50e6 953e 8fbb f3bb 0cac 63be 5785 6c3e
000002d0: 76bc f5bd b8cb 863e 5ff3 40be fe09 a8be
000002e0: 78f4 943e 65a3 243e bf12 413d e9bf 9bbd
000002f0: ef90 223d 1dd0 1abc fdf6 923b bdd4 9e3d
00000300: 5f7a 993e 5332 0b3f 1697 88be 4b06 68be
00000310: 0bdb 44be 22df 523e 1859 8a3e 5d7d 76bd
00000320: 6f91 0a3e b6c3 94bd b82a 7e3e 42bc 0cbe
00000330: 9fb6 53be 43a8 eabd 3457 803e 04c9 bcbe
00000340: ec93 28bd 866f bf3e 0396 e0be 845f 92be
00000350: e844 ce3d f7cf 4e3c e936 04be ad2f 843e
00000360: d399 6fbd 3335 9ebd c424 1fbd a713 a23d
00000370: 1dea 6a3e 064c a63d 5d22 bb3e 15ff 383e
00000380: e19f 14bc f0ea 94be d453 1c3e e0ff 49be
00000390: 43b3 92be db5a 9cbe 87a2 8c3d 2c6b 393c
000003a0: 7852 683d 4c84 243d 7529 f63e 28af 1e3e
000003b0: f81a 0abe 54ec 993b 4dcf 08be a8c5 d6be
000003c0: e39a e83e 172d fc3d 4a55 0ebe 3fce 003b
000003d0: 9297 53be 0e2c 8abe 1dcc ac3e 94c8 4abe
000003e0: 967d b7be d288 0a3d 351d 23bf bc04 1dbf
000003f0: 4d94 b43d f533 86be 732d 893e 3695 d4bd

state_cnn.0.bias f4 [32]
0.15978892 -0.20216791 0.24328777 -0.1733982 -0.07906523 -0.2354208 0.056337725 -0.20861515
0.018076258 -0.25088084 0.055543173 -0.03376711 -0.23547399 -0.16826142 0.36076194 -0.06784993
0.25302124 0.20642427 0.35009947 0.15054338 0.21014816 -0.12106787 0.15128689 0.046970014
0.0069439067 -0.30240914 -0.12485441 0.18599592 0.2560363 -0.26432046 0.045689188 0.30545247
00000000: b59f 233e 1b05 4fbe 6e20 793e 4c8f 31be
00000010: f4ec a1bd 2612 71be 63c2 663d 369f 55be
00000020: a914 943c 7473 80be 3d81 633d 624f 0abd
00000030: 1820 71be b94c 2cbe cab5 b83e e7f4 8abd
00000040: 008c 813e e260 533e 3d40 b33e 0b28 1a3e
00000050: 1431 573e 6ef2 f7bd f3ea 1a3e a163 403d
00000060: b689 e33b 5fd5 9abe abb3 ffbd b775 3e3e
00000070: 3117 833e 0355 87be 9624 3b3d 4464 9c3e

state_cnn.2.weight f4 [64, 32, 3, 3]
0.0517669 -0.12406273 -0.2815764 -0.51244646 -0.17092726 -0.22342741 -0.2687475 -0.08108036
-0.21667533 0.34074882 0.3348413 0.26176307 0.36315158 0.2586303 0.30204883 0.3756516
0.39104077 0.41549653 0.045538615 0.05853776 0.006984983 0.06317789 0.07758768 0.059707645
0.0050739814 0.061349284 0.030152205 0.23160522 0.17637268 0.22903943 0.48496425 0.45696828
0.4872379 0.526517 0.5454365 0.48898393 -0.025906006 0.031986877 -0.05306315 -0.06564038
0.016849928 -0.02623377 -0.05995464 0.06786605 -0.037176643 0.0012608845 0.03548326 -0.04276758
-0.054317947 0.058223944 -0.037047483 0.011194007 0.0036220653 0.007015596 0.07406425 0.01749623
0.035696357 -0.0051062144 0.08621578 0.0053927503 0.00366222 0.086232044 0.036661137 -0.043912925
-0.027909456 -0.058675736 0.03073746 0.05434914 -0.0132255275 0.048679676 0.0072785085 0.025423262
0.080110036 -0.10989902 -0.19451948 0.17049776 -0.11889685 -0.17378132 -0.024498709 -0.23977561
-0.26958328 -0.016626926 0.043370716 -0.05600139 -0.025680723 0.050560515 -0.031598218 -0.02360433
0.045510072 -0.04503068 0.06713785 0.05799775 -0.0007646628 -0.021969818 0.0019871613 0.06714095
0.0041743563 0.03649365 0.027770553 -0.024646124 -0.0030044455 -0.054945193 0.051015534 -0.05617473
0.02674711 -0.018270288 0.0276148 -0.05028986 0.028124778 -0.04363925 -0.009581553 -0.0033169782
-0.012541997 -0.024772115 -0.04117657 -0.05685158 0.014826349 0.034257423 0.010841265 0.106199056
0.10871434 0.036155302 0.029421479 0.044900637 0.090055786 0.07974054 0.28390783 0.105528764
-0.11709032 0.3327584 0.07007295 -0.22044928 0.33782253 0.08499147 -0.22396438 -0.151962
0.028307054 -0.046485063 -0.2726075 0.018881246 -0.04467948 -0.2632021 -0.005505631 0.0022091425
0.0874719 0.054347783 -0.05529898 0.0007069918 -0.02351515 -0.05857647 0.021525698 0.055306476
-0.0047540744 0.05843111 0.042760164 0.07136527 0.053086054 -0.026497774 0.015778093 0.016449653
-0.010456449 0.07016878 -0.010437179 0.07861039 0.053730052 0.018605964 0.06027002 -0.056321323
0.08563421 0.060373034 0.021915551 0.056693472 0.06812522 0.04957754 0.033662952 0.04183347
-0.03664824 0.05424272 0.04011774 0.035445593 -0.017682334 0.06724056 0.103880554 0.04763978
0.0381793 0.08858232 -0.022925192 0.0655921 0.054019134 0.21950352 0.06846322 0.1437438
0.016274476 0.21734288 0.20237643 0.09143817 0.2433599 0.24893796 -0.010345134 -0.012903302
0.072842956 0.040422305 0.05760187 0.005142543 0.0015119058 -0.030765802 0.006309659 0.07540113
0.12781964 0.18114598 0.18040043 0.12810396 0.17815512 0.13378324 0.120028734 0.12992585
0.024710521 0.019254927 -0.045289125 -0.059957277 -0.028609699 0.054902945 -0.06407418 0.008141049
0.010065966 -0.026461719 0.014924734 -0.048456706 -0.017026844 -0.0057019773 -0.03480933 0.015723957
-0.020793471 -0.049084343 0.026383556 0.08042268 -0.018292163 -0.0680733 0.037878983 0.003005792
-0.12270075 0.015719278 -0.010120017 0.26322705 -0.10561261 -0.25682163 -0.31482697 -0.1483061
-0.2628579 -0.030855106 -0.19819638 -0.24730723 0.34511495 0.25275013 -0.06346504 0.2824611
00000000: 8709 543d 9a14 febd c82a 90be b12f 03bf
00000010: 8e07 2fbe 28ca 64be 4699 89be 760d a6bd
00000020: 23e0 5dbe a176 ae3e 5270 ab3e cf05 863e
00000030: 01ef b93e 316b 843e 25a6 9a3e 6855 c03e
00000040: 7f36 c83e f6bb d43e b386 3a3d 4ac5 6f3d
00000050: 49e2 e43b 6963 813d 4ae6 9e3d 0190 743d
00000060: a443 a63b 6349 7b3d c201 f73c eb29 6d3e
00000070: 0a9b 343e 5089 6a3e 3c4d f83e bff7 e93e
00000080: 3f77 f93e d1c9 063f baa1 0b3f 1a5c fa3e
00000090: d538 d4bc ac04 033d bf58 59bd 776e 86bd
000000a0: dc08 8a3c 34e8 d6bc ff92 75bd 5bfd 8a3d
000000b0: 8946 18bd 4344 a53a e556 113d 0f2d 2fbd
000000c0: 7f7c 5ebd 3b7c 6e3d 1abf 17bd 1167 373c
000000d0: 2c60 6d3b 16e3 e53b ffae 973d 4154 8f3c
000000e0: 5836 123d 0852 a7bb e691 b03d abb5 b03b
000000f0: db01 703b 6d9a b03d fd29 163d 0ade 33bd
00000100: 5fa2 e4bc f855 70bd 20cd fb3c 349d 5e3d
00000110: e2af 58bc 5764 473d 8e80 ee3b 7244 d03c
00000120: bb10 a43d bd12 e1bd 1d30 47be f796 2e3e
00000130: 3180 f3bd bbf3 31be 84b1 c8bc bd87 75be
00000140: d206 8abe 3135 88bc 7ea5 313d b761 65bd
00000150: 6160 d2bc 8b18 4f3d 226d 01bd de5d c1bc
00000160: c568 3a3d 1772 38bd 927f 893d 0c8f 6d3d
00000170: a773 48ba 0cfa b3bc 093b 023b 3281 893d
00000180: 0ac9 883b 5e7a 153d 127f e33c abe6 c9bc
00000190: 3be6 44bb 360e 61bd aaf5 503d 7917 66bd
000001a0: c11c db3c 92ab 95bc 6f38 e23c befc 4dbd
000001b0: ef65 e63c 12bf 32bd f2fb 1cbc a961 59bb
000001c0: f37c 4dbc e4ee cabc c3a8 28bd 34dd 68bd
000001d0: 37ea 723c 8351 0c3d 909f 313c e47e d93d
000001e0: a0a5 de3d 9517 143d 5005 f13c bbe9 373d
000001f0: 2b6f b83d 024f a33d 5e5c 913e 771f d83d
00000200: 0dcd efbd 4f5f aa3e 6882 8f3d 75bd 61be
00000210: 13f7 ac3e 0210 ae3d eb56 65be ed9b 1bbe
00000220: 32e4 e73c 1f67 3ebd 3693 8bbe d8ac 9a3c
00000230: d501 37bd 6dc2 86be 9568 b4bb 43c7 103b
00000240: 7824 b33d c89b 5e3d 2f81 62bd 6b55 393a
00000250: d8a2 c0bc e1ed 6fbd a956 b03c 0b89 623d
00000260: 11c8 9bbb 7655 6f3d 4825 2f3d f427 923d
00000270: c370 593d dc11 d9bc 0f41 813c 6cc1 863c
00000280: 8751 2bbc a6b4 8f3d b400 2bbc 7cfe a03d
00000290: 0b14 5c3d 896b 983c b2dd 763d 30b1 66bd
000002a0: fd60 af3d b749 773d 3e88 b33c 6a37 683d
000002b0: 3c85 8b3d d211 4b3d 2ae2 093d 9359 2b3d
000002c0: 771c 16bd 9d2d 5e3d 8052 243d 662f 113d
000002d0: 8bda 90bc 6bb5 893d 54bf d43d ee21 433d
000002e0: e661 1c3d a66a b53d 9dcd bbbc 2755 863d
000002f0: 2b43 5d3d 88c5 603e 7236 8c3d 9331 133e
00000300: 0d52 853c 228f 5e3e c43b 4f3e ef43 bb3d
00000310: 5633 793e 98e9 7e3e a37e 29bc 5f68 53bc
00000320: b02e 953d dc91 253d f0ef 6b3d c782 a83b
00000330: 242b c63a 9008 fcbc 42c1 ce3b e86b 9a3d
00000340: 27e3 023e 557e 393e e4ba 383e af2d 033e
00000350: 4c6e 363e 79fe 083e a0d1 f53d 480b 053e
00000360: b86d ca3c 82bc 9d3c 1781 39bd c395 75bd
00000370: e35e eabc e9e1 603d 5339 83bd 0962 053c
00000380: b9eb 243c 3fc6 d8bc df86 743c 8a7a 46bd
00000390: e17b 8bbc a7d7 babb 3a94 0ebd 87cf 803c
000003a0: 1257 aabc aa0c 49bd 5422 d83c a5b4 a43d
000003b0: 72d9 95bc 046a 8bbd fe26 1b3d d2fc 443b
000003c0: 884a fbbd b7c5 803c 6ece 25bc b2c5 863e
000003d0: 6d4b d8bd 207e 83be 0031 a1be 8edd 17be
000003e0: 5095 86be d9c3 fcbc fef3 4abe 1b3e 7dbe
000003f0: e8b2 b03e 7768 813e f5f9 81bd be9e 903e

state_cnn.2.bias f4 [64]
0.0056712544 0.095869206 -0.056362525 -0.06543372 -0.03163381 0.0010250094 0.0606085 -0.020425664
0.0031972462 0.03181357 0.04232598 -0.05649367 0.0077816877 -0.034418475 0.059045706 0.059363402
0.019901862 0.023740845 0.024666978 0.0677235 0.043859534 0.06328904 0.044461697 -0.040138364
-0.049038213 0.030950466 0.04290539 -0.045258682 0.037160516 0.07234505 0.052090626 -0.010197069
0.046187114 0.0063488074 0.012388027 0.0054009315 0.023748394 -0.040091854 0.004518361 0.021140425
-0.035119448 0.059205104 -0.05047075 -0.04554172 -0.003076026 -0.047527704 0.0071983496 0.08030753
-0.016416036 -0.032633036 0.010669737 -0.048226647 0.007067496 0.102536716 0.07839273 -0.003936465
0.014149185 -0.029244108 0.10415793 0.049611177 0.020460604 -0.041621912 -0.05033917 0.11062098
00000000: eed5 b93b 1357 c43d 64dc 66bd 1d02 86bd
00000010: 7492 01bd 9c59 863a 9e40 783d b953 a7bc
00000020: e488 513b f24e 023d 025e 2d3d e865 67bd
00000030: 87fd fe3b 63fa 0cbd e9d9 713d 0a27 733d
00000040: 3b09 a33c 297c c23c 6712 ca3c 9eb2 8a3d
00000050: 0ea6 333d af9d 813d 781d 363d 2068 24bd
00000060: 4bdc 48bd d58b fd3c 90bd 2f3d 2b61 39bd
00000070: a035 183d a429 943d fb5c 553d 9b11 27bc
00000080: b32e 3d3d a809 d03b 27f7 4a3c 4cfa b03b
00000090: fe8b c23c 5b37 24bd c20e 943b af2e ad3c
000000a0: 69d9 0fbd 0d81 723d 6bba 4ebd f489 3abd
000000b0: 2797 49bb 69ac 42bd 22e0 eb3b 4678 a43d
000000c0: ec7a 86bc 38aa 05bd 1fd0 2e3c 4e89 45bd
000000d0: 7496 e73b c5fe d13d 5e8c a03d 76fd 80bb
000000e0: fcd1 673c 5791 efbc c150 d53d 1735 4b3d
000000f0: ff9c a73c bd7b 2abd 7230 4ebd 418d e23d

buttons_cnn.0.weight f4 [32, 1, 3, 3]
-0.41107884 -0.102145664 -0.25438055 -0.19148934 0.1757079 -0.0053627277 0.5245663 0.2565256
-0.09123042 0.22350132 -0.43329751 0.21564855 0.35585544 -0.24117675 -0.2258352 0.31420994
-0.3505969 0.26851398 0.071772754 0.030695112 -0.10328069 0.16024184 0.028045116 0.3559039
-0.3195282 0.02765122 0.26673695 -0.25348932 0.24755837 -0.17519079 0.40276715 -0.29363716
-0.13776518 0.12537707 -0.19018781 -0.20292625 0.105864786 0.16758238 -0.059927847 -0.19437303
0.3138258 0.32453603 -0.4137834 0.1333971 0.031793542 0.21401206 0.113088906 0.23737766
0.3947001 -0.14321437 -0.115155615 0.18658799 -0.2758465 0.3551781 0.01383613 0.20859595
-0.28432673 0.02232074 0.21660529 0.32600892 -0.08157425 0.12079725 0.41150495 -0.045840237
0.08425927 0.0029937916 0.3049753 -0.2778574 -0.015923627 0.5308535 -0.10417214 -0.2318473
0.11952197 0.25681457 0.2989586 0.106869146 -0.20919827 0.16121794 0.23271306 0.14132535
-0.022512233 0.27722785 0.14165322 0.30329925 -0.28096917 0.26859796 0.35459146 -0.3913827
-0.09036687 -0.0064597814 0.29264823 -0.1643865 -0.16480263 0.35203922 -0.3093207 -0.43297237
0.0728519 0.23392242 -0.32255626 0.28223297 0.08221246 -0.14992794 0.28671813 0.07610337
-0.017518932 0.21159723 -0.08149621 0.35849866 0.14957723 0.19435811 0.19867797 0.41603047
-0.066672094 -0.3063943 0.17674264 -0.10443875 -0.15780197 -0.38307834 0.14612302 -0.0462786
0.2098463 0.30797443 -0.044690076 0.5131419 -0.25470558 -0.44350445 0.16858424 0.1291922
-0.013327923 -0.10376024 -0.11062905 0.12802677 0.3417555 0.27658358 0.44149983 -0.042065572
-0.5180032 -0.10626711 0.46266577 -0.36354092 -0.011314466 0.34624657 -0.12011533 -0.054733083
-0.14236179 0.09977886 0.36467865 -0.28610647 0.0984447 0.197344 0.5887791 -0.045816474
0.1336468 -0.06754845 -0.15490165 0.08597689 -0.1268355 -0.16572407 -0.085418396 0.12523423
0.18061939 -0.0542154 -0.072631866 0.16712439 -0.08075881 -0.34174767 0.12815103 -0.04997821
-0.33717957 0.28073797 -0.34158584 -0.0015031197 0.20780082 0.32406792 0.23766842 -0.040949427
0.12226456 -0.37703773 0.23998103 -0.047573574 -0.03441902 0.31493017 -0.096257396 -0.3218427
-0.045037948 0.26270932 -0.333105 -0.00024608333 -0.22489546 -0.061289478 0.13120542 0.23917638
0.12834646 0.09701869 0.37431067 -0.35579157 0.31593692 -0.006024151 -0.0046226303 0.28978896
-0.089931205 0.21408005 -0.13202558 0.077574715 0.24794202 0.12380534 -0.025932046 -0.115799546
0.2471715 0.31691933 0.19007508 -0.04399482 0.27588195 0.3318017 0.23822725 -0.2372758
-0.11683967 -0.3501159 -0.054223 0.101579726 -0.26023737 0.16035588 0.22815797 0.03610253
0.20394778 -0.06594174 -0.17482105 -0.20087671 -0.41556156 0.234638 -0.2967374 -0.4123378
-0.30648422 -0.41263893 -0.08411617 0.3215858 0.14862585 0.13520958 0.025348978 0.23377505
-0.28245172 -0.046290442 0.28804207 -0.04419989 0.33924505 -0.33953217 0.37410495 -0.057205986
0.16344449 0.21152589 0.10205893 0.16479036 0.21047355 0.12182314 0.15795523 0.17479992
00000000: ed78 d2be bf31 d1bd 2b3e 82be c815 44be
00000010: c6ec 333e d2b9 afbb fa49 063f 5357 833e
00000020: 04d7 babd 88dd 643e 2cd9 ddbe f9d2 5c3e
00000030: af32 b63e 0af7 76be 5841 67be 20e0 a03e
00000040: 7081 b3be aa7a 893e 98fd 923d 5174 fb3c
00000050: d484 d3bd 7016 243e dfbe e53c 0939 b63e
00000060: 3399 a3be d084 e23c bf91 883e 5ac9 81be
00000070: f17f 7d3e 3765 33be 7f37 ce3e 9c57 96be
00000080: 5112 0dbe d962 003e 98c0 42be e6cb 4fbe
00000090: a3cf d83d b79a 2b3e e776 75bd b909 47be
000000a0: c6ad a03e 9629 a63e 6bdb d3be 4099 083e
000000b0: f239 023d fa25 5b3e 289b e73d 2113 733e
000000c0: 2216 ca3e caa6 12be b5d6 ebbd ec10 3f3e
000000d0: c13b 8dbe e7d9 b53e efb0 623c 2d9a 553e
000000e0: 4693 91be fcd9 b63c c7cd 5d3e a4ea a63e
000000f0: 6610 a7bd 8c64 f73d c7b0 d23e f9c2 3bbd
00000100: 2090 ac3d 7d33 443b b925 9c3e 5343 8ebe
00000110: 4472 82bc 04e6 073f 3458 d5bd 6169 6dbe
00000120: efc7 f43d 337d 833e 1a11 993e 36de da3d
00000130: 1238 56be 5116 253e 554c 6e3e 98b7 103e
00000140: 936b b8bc cff0 8d3e 8b0d 113e 0a4a 9b3e
00000150: 31db 8fbe ac85 893e 038d b53e 5063 c8be
00000160: 4412 b9bd 93ac d3bb fdd5 953e ef54 28be
00000170: 05c2 28be 7c3e b43e 485f 9ebe 8eae ddbe
00000180: 6033 953d 5c89 6f3e 1826 a5be d780 903e
00000190: 025f a83d b686 19be b8cc 923e 15dc 9b3d
000001a0: dd83 8fbc f2ac 583e 7ce7 a6bd 238d b73e
000001b0: c62a 193e d005 473e 3d72 4b3e f201 d53e
000001c0: 618b 88bd b7df 9cbe 06fc 343e fce3 d5bd
000001d0: d796 21be d822 c4be 46a1 153e a18e 3dbd
000001e0: f3e1 563e d3ae 9d3e f10c 37bd 445d 033f
000001f0: c568 82be 0413 e3be 59a1 2c3e f64a 043e
00000200: 5c5d 5abc 4080 d4bd 7c91 e2bd 7319 033e
00000210: 94fa ae3e 5d9c 8d3e 440c e23e f34c 2cbd
00000220: dc9b 04bf 92a2 d9bd 87e2 ec3e 0922 babe
00000230: 4f60 39bc 3b47 b13e 07ff f5bd cc2f 60bd
00000240: 4ac7 11be dc58 cc3d 29b7 ba3e 8c7c 92be
00000250: 609d c93d 8c14 4a3e 3aba 163f 0eaa 3bbd
00000260: b5da 083e d756 8abd 8a9e 1ebe a714 b03d
00000270: 2ae1 01be 92b3 29be d7ef aebd 673d 003e
00000280: 4af4 383e f810 5ebd 04c0 94bd a822 2b3e
00000290: e064 a5bd 8df9 aebe 063a 033e f4b5 4cbd
000002a0: cda2 acbe e3bc 8f3e 57e4 aebe 5404 c5ba
000002b0: bdc9 543e 3bec a53e 5a5f 733e 96ba 27bd
000002c0: d765 fa3d 170b c1be 96bd 753e 82dc 42bd
000002d0: f5fa 0cbd 873e a13e 9922 c5bd 91c8 a4be
000002e0: b679 38bd d681 863e bd8c aabe bf04 81b9
000002f0: ff4a 66be ad0a 7bbd b75a 063e a7ea 743e
00000300: 416d 033e bcb1 c63d a6a5 bf3e 502a b6be
00000310: 7cc2 a13e 3e66 c5bb 6f79 97bb 385f 943e
00000320: da2d b8bd cd37 5b3e b731 07be 7edf 9e3d
00000330: 83e4 7d3e a78d fd3d 716f d4bc 5028 edbd
00000340: 871a 7d3e 4043 a23e 0ba3 423e ea33 34bd
00000350: 6640 8d3e eae1 a93e d8f1 733e 6df8 72be
00000360: a349 efbd 6442 b3be f018 5ebd 0809 d03d
00000370: d53d 85be 5534 243e 3ea2 693e 3fe0 133d
00000380: b0d7 503e 770c 87bd 4a04 33be a0b2 4dbe
00000390: 7cc4 d4be f244 703e f7ed 97be f11d d3be
000003a0: 80eb 9cbe 6945 d3be 1945 acbd e5a6 a43e
000003b0: 6031 183e 6174 0a3e a9a8 cf3c ba62 6f3e
000003c0: 839d 90be 0c9b 3dbd 407a 933e f20a 35bd
000003d0: 87b1 ad3e 29d7 adbe af8a bf3e d350 6abd
000003e0: fe5d 273e 3e9a 583e 4604 d13d cebe 283e
000003f0: 6186 573e 697e f93d 04bf 213e c0fe 323e

buttons_cnn.0.bias f4 [32]
0.014675454 -0.010126239 -0.004211378 0.19502005 -0.032448962 0.17933382 -0.01637733 0.0062267967
0.12046617 0.2749455 0.15702422 0.0019609598 0.15761022 0.04283166 -0.0020339228 0.012267576
-0.0022444353 -0.32460496 0.33608487 -0.0020441737 0.31910378 0.15666248 0.16882159 0.3176543
0.39437136 0.40729642 0.33787242 0.38039443 0.18657029 -0.0738238 -0.002599485 0.34776458
00000000: 5171 703c 86e8 25bc 99ff 89bb 56b3 473e
00000010: 34e9 04bd 49a3 373e c029 86bc 280a cc3b
00000020: f8b6 f63d a8c5 8c3e f5ca 203e 7283 003b
00000030: 9364 213e 4070 2f3d 904b 05bb f1fd 483c
00000040: 6017 13bb 9f32 a6be 5113 ac3e 8bf7 05bb
00000050: 9261 a33e 216c 203e 91df 2c3e 96a3 a23e
00000060: 0beb c93e 2889 d03e 9dfd ac3e 0fc3 c23e
00000070: 480c 3f3e ef30 97bd 1f5c 2abb 330e b23e

buttons_cnn.2.weight f4 [64, 32, 3, 3]
0.029003503 0.03510825 -0.04149279 -0.010460894 -0.029109135 -0.089241765 0.015274251 0.014943718
-0.041248124 0.027673677 0.06439955 0.0817843 -0.033388086 -0.004021568 0.036132384 0.051132884
0.046997253 0.054046452 -0.072039984 0.014901897 -0.031645685 -0.055658475 0.012654801 -0.0007074716
-0.058582097 0.01929824 -0.038408477 -0.08693404 0.009791072 -0.0019821217 -0.015672402 0.02283662
-0.008705218 -0.041872777 -0.0736099 -0.04087936 -0.029605655 0.031040601 -0.04756852 0.01909205
-0.0072807856 -0.058919646 0.04500246 0.0057067736 0.008163501 -0.06619405 -0.02425022 0.05206036
0.00020532003 0.023036283 -0.014262701 -0.014569586 0.044469442 -0.03987329 0.01595213 -0.012345341
-0.024436656 -0.08284114 0.006527948 -0.050370242 -0.03234742 0.022278387 -0.053200286 -0.027252996
-0.049144536 -0.0030302186 0.018014165 0.01900954 0.06241701 0.0041831825 0.011614995 -0.022445684
-0.06573206 0.019933522 0.0011807559 -0.031136794 0.032419555 -0.03351261 0.0030999798 0.0025209705
-0.052898232 -0.06787476 0.027546886 -0.035678282 -0.06524084 0.008865083 0.020300873 0.006960761
0.037593067 0.032904923 0.017690925 0.012191493 0.048988804 0.01540899 -0.0024923047 -0.007121598
0.026167879 -0.04951501 -0.0518333 -0.046280764 -0.034706417 -0.07649982 -0.05171596 0.009816594
0.032467693 -0.08844406 0.0213703 0.024840064 0.0009907148 0.04271565 0.05674626 -0.06591562
0.009160513 -0.06108394 0.0052888505 -0.021479392 -0.020135617 -0.036453977 -0.019743253 -0.011484645
-0.06973883 0.03544614 -0.052728083 -0.060068667 -0.017323213 -0.10016658 -0.077195086 -0.008462926
-0.060622305 -0.039040376 -0.04202695 -0.01497464 -0.023004407 -0.035269354 -0.0109717315 -0.06570027
0.070921354 0.07209574 -0.035586964 0.02719892 0.046815943 -0.007229143 0.047783677 -0.023691783
0.0047579804 -0.016213553 -0.052915655 -0.015002579 -0.0648139 -0.027034422 -0.037174825 0.021352096
-0.07019545 -0.0182636 -0.058677934 -0.03617838 -0.054229807 0.028855953 0.038356457 0.017819682
-0.04804864 0.007870461 0.009528161 -0.05365238 0.05523835 0.014353294 0.03670961 -0.039665923
0.0023399182 0.0082437005 0.033415776 -0.013330047 -0.003853587 -0.03534712 -0.014178233 0.03203266
0.021642746 -0.019149728 0.034834888 0.028639143 -0.0015576369 -0.03176201 0.014286904 0.038221948
0.030529598 0.016624594 -0.00029771548 -0.02373435 -0.0061071003 -0.002274864 0.051267635 0.02730707
-0.018385282 0.029888293 0.0022891737 0.042560417 -0.017051922 -0.06856752 0.031388447 -0.017258573
0.001900393 0.044047892 -0.05701792 0.012029643 -0.035884164 -0.05618638 -0.013749632 0.027176466
-0.019930566 -0.011046888 0.008520457 -0.028307792 0.037009858 -0.05806832 0.036774334 -0.025812209
0.029964251 -0.05004174 -0.04782396 -0.05777909 -0.001980875 0.013635341 -0.016496068 0.001175761
0.03711855 0.0017231902 0.010410411 0.042699322 0.051655486 0.03422616 0.034303613 -0.0444689
0.032619398 0.01407762 0.01423089 -0.027852975 0.014970239 0.0016619285 -0.046418663 0.01886121
0.04666051 0.020067912 -0.0044821003 -0.00048707062 0.00059001584 -0.007868289 -0.06662881 0.027318241
0.037416346 -0.03169047 0.032396574 0.0039283517 -0.032126155 0.013789162 0.050551973 0.018361272
00000000: c198 ed3c abcd 0f3d 58f4 29bd 2b64 2bbc
00000010: 4876 eebc 63c4 b6bd da40 7a3c 7fd6 743c
00000020: cbf3 28bd e8b3 e23c e9e3 833d 877e a73d
00000030: f2c1 08bd 5cc7 83bb 8dff 133d b770 513d
00000040: 3180 403d d05f 5d3d b389 93bd 1627 743c
00000050: e89e 01bd 24fa 63bd 1556 4f3c 9e75 39ba
00000060: c8f3 6fbd 5817 9e3c 3552 1dbd 790a b2bd
00000070: bc6a 203c 7ce6 01bb 6963 80bc dd13 bb3c
00000080: 55a0 0ebc ca82 2bbd cac0 96bd 1e71 27bd
00000090: 8f87 f2bc dc48 fe3c 35d7 42bd ee66 9c3c
000000a0: a893 eebb ba55 71bd 8054 383d e3ff ba3b
000000b0: 34c0 053c bf90 87bd 66a8 c6bc 3e3d 553d
000000c0: 2d4b 5739 96b6 bc3c 1bae 69bc 46b5 6ebc
000000d0: 9725 363d 2d52 23bd 0bae 823c 1d44 4abc
000000e0: 622f c8bc 9ea8 a9bd 66e8 d53b 0751 4ebd
000000f0: ba7e 04bd 2a81 b63c 8be8 59bd ad41 dfbc
00000100: c84b 49bd a296 46bb 7192 933c e5b9 9b3c
00000110: fba8 7f3d 1413 893b d24c 3e3c 03e0 b7bc
00000120: 889e 86bd a04b a33c 98c3 9a3a 9712 ffbc
00000130: 5eca 043d 8544 09bd 0829 4b3b de36 253b
00000140: d1ab 58bd ec01 8bbd 02aa e13c 6423 12bd
00000150: fd9c 85bd da3e 113c 044e a63c 1817 e43b
00000160: 30fb 193d 50c7 063d 8fec 903c d4be 473c
00000170: 7ca8 483d fd75 7c3c ef55 23bb 4b5c e9bb
00000180: 055e d63c 40d0 4abd 284f 54bd e690 3dbd
00000190: 5128 0ebd f0ab 9cbd 1dd4 53bd c8d5 203c
000001a0: d8fc 043d 2922 b5bd c410 af3c 647d cb3c
000001b0: dfda 813a 9bf6 2e3d c46e 683d c5fe 86bd
000001c0: fa15 163c 2733 7abd 184e ad3b 8df5 afbc
000001d0: 73f3 a4bc c450 15bd 9abc a1bc 182a 3cbc
000001e0: 3bd3 8ebd f92f 113d 67f9 57bd 900a 76bd
000001f0: 69e9 8dbc 2324 cdbd 7518 9ebd 16a8 0abc
00000200: 184f 78bd cde8 1fbd 7324 2cbd 3158 75bc
00000210: bd73 bcbc 9976 10bd c7c2 33bc dd8d 86bd
00000220: 373f 913d eea6 933d a3c3 11bd 45d0 de3c
00000230: 13c2 3f3d 72e2 ecbb d1b8 433d 4515 c2bc
00000240: d5e8 9b3b 49d2 84bc 16be 58bd 61cd 75bc
00000250: 26bd 84bd 4b77 ddbc a144 18bd 97ea ae3c
00000260: a2c2 8fbd 8c9d 95bc 4658 70bd c82f 14bd
00000270: 1320 5ebd 5263 ec3c a91b 1d3d 95fa 913c
00000280: a7ce 44bd 1bf3 003c 011c 1c3c 99c2 5bbd
00000290: 9c41 623d 142a 6b3c d15c 163d bc78 22bd
000002a0: 5059 193b 9610 073c fbde 083d 4566 5abc
000002b0: 768c 7cbb 24c8 10bd d24b 68bc ae34 033d
000002c0: 214c b13c e4df 9cbc 07af 0e3d a39c ea3c
000002d0: 9f29 ccba e218 02bd 9e13 6a3c 9e8e 1c3d
000002e0: 3519 fa3c 4d30 883c b216 9cb9 8a6e c2bc
000002f0: 121e c8bb e215 15bb 03fe 513d 14b3 df3c
00000300: bb9c 96bc 4bd8 f43c f605 163b d553 2e3d
00000310: 79b0 8bbc 216d 8cbd 2c91 003d da61 8dbc
00000320: 9c16 f93a 906b 343d 9f8b 69bd fb17 453c
00000330: 46fb 12bd b123 66bd 2346 61bc 2ea1 de3c
00000340: 6d45 a3bc 02fe 34bc 6399 0b3c bee5 e7bc
00000350: a697 173d 0cd9 6dbd afa0 163d 2074 d3bc
00000360: 9777 f53c 91f8 4cbd 0fe3 43bd c4a9 6cbd
00000370: 91d1 01bb c466 5f3c c322 87bc fe1b 9a3a
00000380: 9f09 183d abdc e13a 6e90 2a3c 7ce5 2e3d
00000390: b494 533d bb30 0c3d f281 0c3d 0525 36bd
000003a0: eb9b 053d d1a5 663c ae28 693c ec2b e4bc
000003b0: bc45 753c 11d5 d93a 7f21 3ebd d382 9a3c
000003c0: 171f 3f3d 7665 a43c 95de 92bb 835d ffb9
000003d0: 4bab 1a3a ffe9 00bc af74 88bd 81ca df3c
000003e0: e241 193d decd 01bd 45b2 043d 67b9 803b
000003f0: b796 03bd f0eb 613c 960f 4f3d 616a 963c

buttons_cnn.2.bias f4 [64]
-0.019435761 -0.035967905 -0.020787695 0.036147673 -0.03302911 0.06891078 0.046114482 -0.043246817
0.043782026 0.05663803 -0.009999229 0.07097716 0.060340036 -0.0046147443 -0.007517628 -0.015364519
0.035267226 0.039489634 0.042258076 0.041201066 0.033201054 0.06237905 0.033116017 -0.046893373
0.013183908 -0.02245592 -0.025499798 0.077924 0.041509897 0.043326642 0.055454277 -0.025609992
-0.027595406 -0.054713506 -0.0037341332 0.017902711 0.029547563 -0.018845385 0.046418663 -0.025533328
-0.051871322 0.05319035 0.06741513 -0.01740391 0.03732074 0.017298952 0.044919405 0.043394417
0.0060624313 0.040609468 0.05241788 0.0718719 0.0012062711 0.02519999 -0.017924346 0.02062604
-0.04985963 -0.005882401 0.055575702 0.04956336 -0.026809908 0.04328496 0.043653563 -0.036620248
00000000: bf37 9fbc 1553 13bd f54a aabc 950f 143d
00000010: 8849 07bd 1821 8d3d 8ae2 3c3d 9323 31bd
00000020: c854 333d 47fd 673d ced3 23bc 795c 913d
00000030: 1d27 773d 4837 97bb 6f56 f6bb 77bb 7bbc
00000040: 5e74 103d e2bf 213d ce16 2d3d 73c2 283d
00000050: d4fd 073d 2d81 7f3d a9a4 073d 4413 40bd
00000060: 5101 583c 7af5 b7bc f4e4 d0bc 9e96 9f3d
00000070: 4806 2a3d 4777 313d 0624 633d 0ccc d1bc
00000080: c30f e2bc 451b 60bd 5cb8 74bb b5a8 923c
00000090: bb0d f23c a361 9abc 7f21 3e3d 452b d1bc
000000a0: 0677 54bd 20de 593d f210 8a3d a592 8ebc
000000b0: a2dd 183d 88b6 8d3c 69fd 373d 58be 313d
000000c0: 5ca7 c63b 1d56 263d 22b4 563d 9331 933d
000000d0: be1b 9e3a 3670 ce3c 14d6 92bc f1f7 a83c
000000e0: 9d39 4cbd 28c1 c0bb 59a3 633d f302 4b3d
000000f0: 74a0 dbbc 924b 313d 14ce 323d 1dff 15bd

head.0.weight f4 [128, 128]
-0.030614717 0.07292214 0.07267754 0.07659731 -5.007386e-05 -0.01927195 -0.04132848 0.075835675
-0.045048665 -0.018337142 0.06381101 -0.056624502 0.02148329 0.041886985 -0.012209444 -0.054472283
-0.011380727 0.07846446 0.041599862 -0.08152831 0.04836123 -0.047103625 0.024348788 -0.04297056
-0.05794243 -0.00090788706 -0.055731673 -0.009564304 0.0048090573 0.024088426 -0.07711738 0.045347612
-0.06500221 0.067122236 0.059176452 0.054501943 -0.047507737 -0.07058022 0.06984661 0.020735087
0.009389953 0.03972733 0.038344733 0.0062957737 0.010743552 -0.057450484 -0.07728408 0.08407861
0.01021365 0.0034813264 0.07904479 0.0086568715 -0.037505463 -0.06458364 -0.081410326 -0.005119922
-0.07637048 0.040212113 0.07424196 0.02951498 0.067502655 -0.0821329 0.018258033 0.060613606
0.017128203 0.013013058 -0.081145294 0.0317338 0.052061524 -0.055793777 0.03221264 -0.011021436
0.013391558 0.012568682 -0.014188123 -0.04366514 -0.030849623 -0.029458398 -0.027235657 -0.007469911
0.04584267 -0.07827684 0.016735762 -0.05734829 0.014000243 0.04073211 -0.01858762 0.02526645
0.024280299 0.022894092 0.08744592 -0.011498559 -0.02804024 0.03996039 -0.06713148 -0.0150173195
-0.044577103 0.045828547 -0.04901238 -0.07628597 -0.019899 -0.02540874 -0.08766642 0.06508053
-0.036618505 0.0776046 0.05217977 0.045708135 -0.020346947 -0.045989823 -0.08834128 0.009653297
-0.008160762 -0.049185563 0.0057359086 0.03374782 -0.08741822 0.07354605 -0.07595744 0.037326783
-0.04980589 -0.046676785 -0.083849944 -0.005690801 -0.024481677 -0.038988758 -0.07991197 -0.08210201
0.012103729 0.06308872 -0.07255642 -0.07627679 -0.04604156 -6.7426045e-06 0.016069168 -0.08531262
-0.04228224 0.030411327 -0.00693217 0.0050468286 -0.070550084 -0.06369044 -0.029989058 -0.051075943
0.0139011135 -0.015745375 0.08626136 0.0036166916 -0.049800538 -0.04788334 0.07828427 -0.002030955
-0.003720615 -0.06768309 -0.007540486 0.026430694 0.040495668 -0.083216935 0.066903666 -0.024329253
-0.058894996 0.04370808 0.07530863 0.034397703 -0.028316133 0.05064713 -0.03653517 -0.0015035397
0.0067897136 -0.072963804 -0.0516209 -0.030289838 0.07380974 -0.013591439 -0.06207608 0.0091824215
0.06656618 0.043254726 -0.07462103 -0.08104164 -0.06497667 -0.05359583 -0.04460119 0.027338568
-0.04472543 0.07634007 0.07474764 -0.045086786 -0.012633294 -0.025164582 0.052855078 -0.06777204
0.08609006 0.066590115 0.03273879 -0.023652269 0.03524106 -0.034973525 -0.05916744 0.02264535
-0.006983526 -0.02593846 0.08360933 0.0061561726 0.000811866 -0.057667423 -0.04106292 0.025354253
-0.049239825 0.06208218 0.043535475 -0.016862003 0.012016643 0.030498022 -0.024456525 -0.009548962
-0.087268576 0.055867333 -0.010385335 -0.08607223 0.063525856 -0.047823556 -0.036221165 0.08043581
0.05865733 0.028760055 -0.031437214 -0.004251023 -0.008159887 -0.013095803 -0.045023672 -0.06600328
0.0052754018 -0.04845617 -0.032765206 -0.03190029 -0.084431924 -0.028402135 -0.05825633 -0.07778017
0.02093873 -0.06768372 -0.085699126 0.008027451 -0.011797406 -0.07632557 -0.059482172 -0.08434202
-0.041373134 0.0076298164 -0.08250453 -0.0746077 0.058354016 -0.07872137 -0.084635824 0.021780297
00000000: b7cb fabc 3458 953d f6d7 943d 0ddf 9c3d
00000010: 6606 52b8 35e0 9dbc 0d48 29bd bc4f 9b3d
00000020: f384 38bd c637 96bc 59af 823d 18ef 67bd
00000030: b9fd af3c b091 2b3d 1f0a 48bc 541e 5fbd
00000040: 3b76 3abc fab1 a03d 9e64 2a3d 51f8 a6bd
00000050: 6d16 463d bbef 40bd 1c77 c73c e601 30bd
00000060: 0b55 6dbd 45ff 6dba e546 64bd 99b3 1cbc
00000070: 4c95 9d3b 1755 c53c b8ef 9dbd 6bbe 393d
00000080: e11f 85bd 6277 893d 0263 723d 6e3d 5f3d
00000090: 7997 42bd 5d8c 90bd bd0b 8f3d a1dc a93c
000000a0: 51d8 193c 20b9 223d 5e0f 1d3d c74c ce3b
000000b0: b905 303c 3351 6bbd 1e47 9ebd 6831 ac3d
000000c0: 2757 273c f726 643b 3ce2 a13d 8dd5 0d3c
000000d0: 549f 19bd 6d44 84bd 75ba a6bd 05c5 a7bb
000000e0: 2068 9cbd 75b5 243d 2b0c 983d 66c9 f13c
000000f0: d53e 8a3d 4b35 a8bd df91 953c f945 783d
00000100: 7250 8c3c b934 553c 812f a6bd 4dfb 013d
00000110: 773e 553d 0488 64bd 67f1 033d 4193 34bc
00000120: 4468 5b3c e0ec 4d3c 4d75 68bc 38da 32bd
00000130: 59b8 fcbc bd52 f1bc 501d dfbc 28c6 f4bb
00000140: 86c5 3b3d 9c4f a0bd 7019 893c 0ae6 6abd
00000150: 4661 653c b7d6 263d 1145 98bc 96fb ce3c
00000160: 7ae7 c63c 648c bb3c d916 b33d 7464 3cbc
00000170: a5b4 e5bc 82ad 233d 3b7c 89bd 340b 76bc
00000180: 7b96 36bd b7b6 3b3d 35c1 48bd d23b 9cbd
00000190: 3a03 a3bc fd25 d0bc 748a b3bd f148 853d
000001a0: 49fd 15bd 29ef 9e3d 74ba 553d 7438 3b3d
000001b0: a4ae a6bc d35f 3cbd 46ec b4bd dd28 1e3c
000001c0: b7b4 05bc cd76 49bd 4af4 bb3b 273b 0a3d
000001d0: 5308 b3bd 509f 963d 938f 9bbd f8e3 183d
000001e0: 4301 4cbd 2830 3fbd 85b9 abbd e679 babb
000001f0: cc8d c8bc adb2 1fbd e3a8 a3bd 1925 a8bd
00000200: b84e 463c a934 813d 7698 94bd 0137 9cbd
00000210: 1396 3cbd 883e e2b6 7da3 833c 62b8 aebd
00000220: 2430 2dbd 2d21 f93c 4227 e3bb de5f a53b
00000230: 907c 90bd 2270 82bd 9dab f5bc 0235 51bd
00000240: 7fc1 633c 72fc 80bc cca9 b03d 0406 6d3b
00000250: a6fb 4bbd 5221 44bd 8153 a03d c519 05bb
00000260: 90d5 73bb 6f9d 8abd 2e16 f7bb 2f85 d83c
00000270: c9de 253d a46d aabd ca04 893d 244e c7bc
00000280: e13b 71bd 3e07 333d 693b 9a3d 9be4 0c3d
00000290: 3cf7 e7bc 5d73 4f3d e7a5 15bd 6c12 c5ba
000002a0: 3f7c de3b 0c6e 95bd 7070 53bd 6522 f8bc
000002b0: 9029 973d a1ae 5ebc 7d43 7ebd de71 163c
000002c0: d953 883d de2b 313d e9d2 98bd 29f9 a5bd
000002d0: 7d12 85bd 4d87 5bbd bdaf 36bd 22f5 df3c
000002e0: 0332 37bd 2f58 9c3d 4a15 993d ecac 38bd
000002f0: e0fb 4ebc f425 cebc 917e 583d 11cc 8abd
00000300: fc4f b03d 6660 883d 1c19 063d 67c2 c1bc
00000310: ee58 103d 6640 0fbd 8f59 72bd be82 b93c
00000320: 10d6 e4bb e57c d4bc 5e3b ab3d b8b9 c93b
00000330: 68d3 543a ad34 6cbd 9831 28bd b9b3 cf3c
00000340: b3af 49bd e249 7e3d 4152 323d 2f22 8abc
00000350: 74e1 443c fdd6 f93c 0d59 c8bc 4073 1cbc
00000360: deb9 b2bd 25d5 643d 4127 2abc a346 b0bd
00000370: d819 823d a2e2 43bd a55c 14bd 88bb a43d
00000380: ab42 703d 359a eb3c 4fc4 00bd 2a4c 8bbb
00000390: 0cb1 05bc c78f 56bc be6a 38bd ba2c 87bd
000003a0: 47dd ac3b fa79 46bd cf34 06bd e1a9 02bd
000003b0: a5ea acbd 98ab e8bc 319e 6ebd 364b 9fbd
000003c0: b387 ab3c c39d 8abd 0683 afbd 9285 033c
000003d0: e849 41bc 9550 9cbd 94a3 73bd 82bb acbd
000003e0: e076 29bd 8a03 fa3b 23f8 a8bd eccb 98bd
000003f0: 9f04 6f3d ab38 a1bd 8c55 adbd 986c b23c

head.0.bias f4 [128]
-0.0008112338 -0.0877972 -0.030901661 -0.09025214 0.026324103 -0.07973858 -0.047283307 0.0845168
0.10126959 0.05205833 -0.10335963 0.033141185 -0.0031604283 0.06576694 0.058701232 -0.08216596
-0.0010510973 -0.01871228 0.038940515 0.055814076 -0.03277071 -0.028458213 0.03793314 0.015139567
0.009497812 0.044386625 -0.056238327 -0.05968909 -0.036495958 -0.03635334 -0.07160376 0.026089592
0.041838855 0.09181833 -0.08545066 -0.04469538 -0.022379799 -0.049236916 -0.023336357 -0.014460842
0.006755924 -0.040023398 0.07857787 -0.018322663 0.024994906 -0.057962947 0.01691427 -0.0028193186
0.045725983 -0.06916009 0.061955854 0.023163626 0.050554965 -0.044331197 0.030065652 0.08399305
0.050575715 -0.08699795 0.03236218 -0.043485224 0.076618366 0.028779358 0.06900298 -0.0004387199
0.005694359 -0.08318276 0.08778718 -0.06375556 -0.057429656 -0.08324152 -0.028464627 -0.08922777
0.06761528 0.048624303 -0.08214162 0.01906102 -0.008997812 -0.02136605 0.09934707 -0.045325
0.070441276 -0.04039846 -0.06329098 0.079971276 -0.054453753 0.019760054 0.01589902 -0.016916024
0.03515255 0.04649891 0.11154268 0.100222155 -0.006629705 0.06915546 0.056496214 -0.05632639
-0.07643573 -0.0011887304 0.12155313 -0.085514024 -0.048074618 0.054258615 -0.0010961149 0.09234484
0.041206 -0.062229127 -0.10045517 0.020346915 0.04261589 -0.041148648 -0.08089875 -0.06815179
0.028109457 -0.0046577873 0.099024646 -0.002523252 -0.03870341 0.024894727 -0.05978679 -0.03693615
-0.078229815 0.048026603 -0.025637383 -0.023862937 -0.03154266 0.0038201555 -0.03235298 -0.07045659
00000000: fba8 54ba 05cf b3bd 7b25 fdbc 1dd6 b8bd
00000010: a5a5 d73c fb4d a3bd 24ac 41bd 2517 ad3d
00000020: 6e66 cf3d 1e3b 553d 37ae d3bd 0dbf 073d
00000030: 301f 4fbb d1b0 863d b470 703d a046 a8bd
00000040: f9c4 89ba 7f4a 99bc 1780 1f3d 4d9d 643d
00000050: 943a 06bd 3321 e9bc c85f 1b3d f20b 783c
00000060: b69c 1b3c c0ce 353d 295a 66bd 8c7c 74bd
00000070: c97c 15bd 3de7 14bd fea4 92bd d7b9 d53c
00000080: 385f 2b3d 400b bc3d c100 afbd 8112 37bd
00000090: d755 b7bc a6ac 49bd e32b bfbc 2bed 6cbc
000000a0: cc60 dd3b 93ef 23bd 6fed a03d 6919 96bc
000000b0: 1ec2 cc3c 8e6a 6dbd cc8f 8a3c 51c4 38bb
000000c0: 2b4b 3b3d cea3 8dbd 6cc5 7d3d a5c1 bd3c
000000d0: b912 4f3d a194 35bd 3e4c f63c 8c04 ac3d
000000e0: 7b28 4f3d fb2b b2bd 358e 043d 901d 32bd
000000f0: 17ea 9c3d b0c2 eb3c 6f51 8d3d fd03 e6b9
00000100: bf97 ba3b b95b aabd c4c9 b33d 4692 82bd
00000110: 5c3b 6bbd 887a aabd a62e e9bc 0dbd b6bd
00000120: e179 8a3d 472a 473d de39 a8bd db25 9c3c
00000130: 8f6b 13bc db07 afbc 7a76 cb3d b5a6 39bd
00000140: 8443 903d db78 25bd b49e 81bd fbc7 a33d
00000150: e60a 5fbd d6df a13c a93e 823c 7993 8abc
00000160: 1ffc 0f3d a475 3e3d 7d70 e43d 4641 cd3d
00000170: ff3d d9bb 61a1 8d3d 9368 673d 80b6 66bd
00000180: 568a 9cbd 2ccf 9bba d9f0 f83d fa21 afbd
00000190: e4e9 44bd 483e 5e3d 83ab 8fba 4b1f bd3d
000001a0: 9fc7 283d f8e3 7ebd 71bb cdbd 93ae a63c
000001b0: 008e 2e3d 7c8b 28bd 3eae a5bd 2a93 8bbd
000001c0: ce45 e63c 5aa0 98bb 6fcd ca3d 255d 25bb
000001d0: 7887 1ebd 07f0 cb3c fee2 74bd 5c4a 17bd
000001e0: f436 a0bd 8bb7 443d 7d05 d2bc 357c c3bc
000001f0: e032 01bd 935b 7a3b 8f84 04bd 8b4b 90bd

head.2.weight f4 [10, 128]
0.018649051 0.07753802 0.04566772 -0.05448069 -0.030961255 0.01166373 0.002476268 0.06557893
-0.015340111 -0.05443377 -0.0515337 -0.19242465 -0.0040241578 0.28991488 -0.032970328 -0.01529784
0.010533165 0.034202024 0.114516184 0.3333733 -0.08552059 0.083379656 0.04813702 0.06782451
0.0902105 -0.056024827 -0.032551646 -0.04399106 -0.082201645 -0.058223225 0.04006443 -0.08426189
-0.09559499 0.08376198 0.05752832 -0.04429751 -0.03958681 0.076262064 0.016382335 -0.019810362
-0.01905719 0.10087549 0.19639692 0.027289107 -0.02120261 -0.03744908 -0.09010771 0.02212013
0.0047562975 0.054930102 0.18986243 -0.051041294 0.12633944 -0.03823868 0.06244847 0.08111378
-0.102852605 0.08202061 -0.015996978 -0.059239794 0.009192531 0.0033810963 -0.046156425 0.08945043
-0.039624393 -0.014367542 0.013125362 0.2183131 -0.022895575 -0.0041302824 -0.03473888 0.0013037993
0.050018128 0.012176625 0.06379175 -0.16000374 0.08978477 -0.000246152 -0.035476785 0.012012492
0.053971205 0.13030845 -0.08012438 -0.013061949 -0.028800068 0.07368577 -0.012649612 -0.0025874625
0.008867081 -0.05374037 -0.11667547 0.16034679 0.2794563 0.01093085 0.06399722 0.090654045
-0.02408204 0.15707043 -0.031076139 0.06007821 -0.029653799 -0.005155449 -0.08740817 0.046588935
0.00217229 -0.070970505 0.0052828267 0.010148901 0.06291609 0.07378179 -0.045865986 -0.065868996
0.051438928 -0.017478308 -0.059505526 0.00728065 0.13299036 0.037991993 0.09278694 0.05096579
0.011777797 -0.083151445 -0.053458493 -0.026579993 0.07460075 0.075472265 0.071293406 0.006713461
0.058339857 -0.026820995 -0.11223866 0.013585977 -0.04362142 0.00760377 0.023706237 -0.02621028
-0.06432643 -0.0031815674 -0.03199127 -0.8701814 -0.04843538 -0.022450132 -0.04022893 0.021054571
-0.013567723 0.05303633 -0.050043974 0.0034959298 -0.173641 -0.13441944 0.047676556 -0.074995734
0.014429302 0.07603329 -0.03458542 0.07670948 0.031453133 -0.0142890755 0.07234568 0.011434397
-0.06097293 -0.10743821 -0.014468633 -0.03883235 0.055983678 0.0032496979 0.047891084 -0.047375593
7.907938e-05 -0.12343158 -0.026059128 -0.039122656 -0.11879588 -0.00033854763 0.0012053355 -0.08533657
0.026592793 0.05845391 -0.102960534 0.052540828 -0.1956334 0.04324914 0.01075334 -0.017808698
-0.016605191 0.034447346 -0.034107525 -0.14346237 0.05518636 -0.07056239 -0.04887217 -0.14360748
0.07998774 0.08719974 -0.08717847 -0.039964847 -0.06782385 -0.00069072976 0.0232115 0.058631036
0.043292724 -0.011786486 -0.07460746 -0.112961575 -0.15738568 -0.03200273 -0.030155545 -0.0121231275
-0.013341562 -0.03393246 0.027863061 -0.041910436 -0.043291613 0.06994514 -0.048425578 0.07429581
-0.017196152 -0.05157919 -0.118019365 -0.06470206 -0.07302808 0.044960152 0.066656105 -0.10785292
-0.039223157 -0.120414354 -0.11961345 0.05019507 -0.045531992 0.059983864 -0.06604366 -0.034900457
-0.18558787 -0.05762903 0.047006164 0.06533705 0.053532194 -0.051302206 0.0017823095 -0.0040533068
-0.089560926 0.016397038 -0.17292567 0.08184224 -0.13927354 -0.03053127 -0.07405583 0.00087057863
-0.08150257 0.045804936 0.06053388 -0.090348996 -0.028927837 0.0011476394 -0.051983196 -0.07392798
00000000: e5c5 983c 41cc 9e3d 130e 3b3d 2527 5fbd
00000010: 75a2 fdbc 3b19 3f3c e248 223b 3f4e 863d
00000020: 1755 7bbc f2f5 5ebd 0015 53bd f80a 45be
00000030: 15dd 83bb b96f 943e e50b 07bd cba3 7abc
00000040: 4c93 2c3c 6c17 0c3d 7687 ea3d e8af aa3e
00000050: 6b25 afbd f4c2 aa3d 532b 453d 94e7 8a3d
00000060: 48c0 b83d 4a7a 65bd e054 05bd f82f 34bd
00000070: 5659 a8bd 7a7b 6ebd 9a1a 243d 7f91 acbd
00000080: 4ec7 c3bd 678b ab3d d1a2 6b3d 4e71 35bd
00000090: c725 22bd 492f 9c3d 3f34 863c 5749 a2bc
000000a0: d31d 9cbc cf97 ce3d 461c 493e 688d df3c
000000b0: 19b1 adbc 3564 19bd 648a b8bd 4635 b53c
000000c0: b7da 9b3b 63fe 603d 4c6b 423e ad10 51bd
000000d0: 205f 013e 2aa0 1cbd f8c9 7f3d fb1e a63d
000000e0: 63a4 d2bd 6cfa a73d 180c 83bc 6da5 72bd
000000f0: 459c 163c 6295 5d3b 850e 3dbd c931 b73d
00000100: 304d 22bd d765 6bbc c20b 573c 788d 5f3e
00000110: 808f bbbc 5257 87bb 5b4a 0ebd 3fe4 aa3a
00000120: cfdf 4c3d 7880 473c 40a5 823d 05d8 23be
00000130: 14e1 b73d f60d 81b9 1b50 11bd 0bd0 443c
00000140: e910 5d3d 946f 053e 4018 a4bd c901 56bc
00000150: 1fee ebbc 91e8 963d 5140 4fbc 6b92 29bb
00000160: 3c47 113c dd1e 5cbd 8cf3 eebd f331 243e
00000170: e514 8f3e 4f17 333c f910 833d d4a8 b93d
00000180: b347 c5bc 12d7 203e 6393 febc 9214 763d
00000190: 86ec f2bc 0aef a8bb 0e03 b3bd 0ad4 3e3d
000001a0: fb5c 0e3b fc58 91bd 901b ad3b 9347 263c
000001b0: 27da 803d e81a 973d f9dd 3bbd 53e6 86bd
000001c0: a0b1 523d ab2e 8fbc 11bc 73bd 8592 ee3b
000001d0: a02e 083e 7e9d 1b3d 1407 be3d 81c1 503d
000001e0: a9f7 403c 4e4b aabd 4bf7 5abd 49be d9bc
000001f0: 47c8 983d 3491 9a3d 4702 923d 98fc db3b
00000200: c6f5 6e3d b4b7 dbbc 62dd e5bd b897 5e3c
00000210: 60ac 32bd 0c29 f93b 9533 c23c f1b6 d6bc
00000220: 93bd 83bd d881 50bb 4709 03bd 35c4 5ebf
00000230: 2d64 46bd 57e9 b7bc 17c7 24bd a37a ac3c
00000240: 284b 5ebc 9f3c 593d e9fa 4cbd f81b 653b
00000250: f2ce 31be 40a5 09be 7e48 433d 5d97 99bd
00000260: e168 6c3c 57b7 9b3d 71a9 0dbd dc19 9d3d
00000270: 00d5 003d ba1c 6abc f929 943d 5657 3b3c
00000280: c0be 79bd 9008 dcbd d80d 6dbc ac0e 1fbd
00000290: 244f 653d e2f8 543b 7129 443d e90c 42bd
000002a0: 6bd7 a538 b2c9 fcbd f479 d5bc 143f 20bd
000002b0: 414b f3bd 187f b1b9 59fc 9d3a f1c4 aebd
000002c0: 21d9 d93c 5e6d 6f3d f9dc d2bd 0d35 573d
000002d0: 1f54 48be 0326 313d c72e 303c 8ce3 91bc
000002e0: 9c07 88bc a918 0d3d 55b4 0bbd cde7 12be
000002f0: 180b 623d 0483 90bd 2f2e 48bd d70d 13be
00000300: 9dd0 a33d c795 b23d a08a b2bd 2eb2 23bd
00000310: 3be7 8abd 1712 35ba 0b26 be3c 1927 703d
00000320: b653 313d 1b1c 41bc cccb 98bd 6658 e7bd
00000330: b629 21be 4b15 03bd c308 f7bc 15a0 46bc
00000340: 9196 5abc c3fc 0abd 1341 e43c 47aa 2bbd
00000350: 8c52 31bd 663f 8f3d e659 46bd 6728 983d
00000360: f2de 8cbc b344 53bd 23b4 f1bd 8382 84bd
00000370: bf8f 95bd 2328 383d ff82 883d fee1 dcbd
00000380: 76a8 20bd cd9b f6bd e5f7 f4bd 5999 4d3d
00000390: c17f 3abd a4b1 753d e641 87bd c8f3 0ebd
000003a0: bf0a 3ebe 6b0c 6cbd 8989 403d 6ecf 853d
000003b0: 9344 5b3d 4322 52bd 629c e93a 9ad1 84bb
000003c0: b86b b7bd 1553 863c 6d13 31be e89c a73d
000003d0: b99d 0ebe b71c fabc 95aa 97bd 8b37 643a
000003e0: d2ea a6bd f59d 3b3d 60f2 773d e508 b9bd
000003f0: 12fa ecbc 636c 963a 55ec 54bd 8e67 97bd

head.2.bias f4 [10]
0.035022855 0.044432517 0.026616657 -0.05518514 0.03982885 -0.033898506 -0.018708766 -0.04526722
-0.053842098 0.086367704
00000000: 2074 0f3d dffe 353d 2d0b da3c d009 62bd
00000010: 9423 233d 29d9 0abd 2043 99bc 1f6a 39bd
00000020: 8889 5cbd 8de1 b03d
