cnn_fighting_agent_starter/outputs/20251017_193804/model.pt (torch, 287835 bytes, 12 tensors)

state_cnn.0.0.weight f4 [16, 1, 3, 3]
0	0xbe7c50eb	-0.24640243
1	0x3e84094c	0.25788343
2	0x3c66177b	0.014043684
3	0x3baf6b02	0.0053533325
4	0xbdfdcf4c	-0.12393054
5	0x3e65f824	0.2245794
6	0xbe4131c2	-0.18866637
7	0x3de7ee30	0.113247275
8	0x3e745edb	0.2386431
9	0xbd118cea	-0.035534777
10	0x3cf79df0	0.030226678
11	0xbe536c68	-0.20646822
12	0xbe34012b	-0.1757857
13	0xbe08110d	-0.13287754
14	0x3e05e725	0.13076456
15	0xbf02617e	-0.5093001
16	0xbe0972a5	-0.1342264
17	0x3e95414f	0.2915139
18	0x3d22abe5	0.039714713
19	0xbda4b8a9	-0.08043034
20	0x3d9e2b0f	0.077230565
21	0x3e6c276e	0.23061916
22	0xbe96cc77	-0.2945287
23	0x3ea19da6	0.3156559
24	0xbdf0bdb9	-0.11754937
25	0x3e9c5033	0.30529937
26	0x3e6141aa	0.21997705
27	0xbe9ab350	-0.3021493
28	0x3de26133	0.110536955
29	0x3ead3215	0.33827272
30	0xbd547846	-0.051872514
31	0xbe4bcfc4	-0.19903475
32	0x3eaa3b05	0.33248153
33	0xbe65eaf8	-0.22452915
34	0x3e5a3515	0.21309312
35	0xbdea6309	-0.11444671
36	0x3df902c2	0.12158729
37	0x3e77d207	0.24201213
38	0x3eb1fd98	0.3476379
39	0xbec83843	-0.39105424
40	0x3e6954c1	0.22786237
41	0x3da39c6a	0.07988818
42	0xbe8b064c	-0.27153242
43	0x3ad23b0e	0.0016039328
44	0x3db077ef	0.086166255
45	0x3d574423	0.052555215
46	0xbe92f06d	-0.28699055
47	0x3e1067f5	0.14102156
48	0x3e1f777f	0.15572928
49	0x3e279723	0.16366248
50	0x3e699a24	0.22812706
51	0x3e959e32	0.29222256
52	0x3e89c7ae	0.26910156
53	0xbe99f649	-0.30070713
54	0xbea0025a	-0.31251794
55	0x3dfe67c3	0.12422135
56	0x3dc3eab3	0.0956625
57	0xbe74680e	-0.23867819
58	0xbe40ae33	-0.18816452
59	0xbea61f30	-0.3244567
60	0x3dcca7a3	0.09992912
61	0xbe3e8f04	-0.18609244
62	0x3e5f6f40	0.21819782
63	0xbdec702b	-0.11544832
64	0xbe9df3b5	-0.30849996
65	0x3db9efd0	0.09078944
66	0xbd8f5fcb	-0.07000693
67	0xbd92da34	-0.07170525
68	0xbd212483	-0.03934146
69	0x3e8281a2	0.25489527
70	0xbe10856a	-0.14113393
71	0x3d3a6788	0.04550889
72	0xbbbfce5f	-0.005853459
73	0x3e45bc0b	0.19310014
74	0xbdca00de	-0.09863447
75	0xbddf4dc3	-0.10903504
76	0xbe202d5a	-0.156423
77	0x3d18c9b4	0.037301734
78	0xbcb840b4	-0.02249179
79	0xbe3c1522	-0.18367437
80	0xbe8cf457	-0.27530167
81	0xbea9a56d	-0.33134022
82	0xbe007256	-0.12543616
83	0xbe09fcba	-0.13475314
84	0x3e9cec9a	0.30649263
85	0x3e51dca9	0.20494331
86	0xbe8dd83b	-0.27704033
87	0x3e52af9f	0.20574807
88	0xbe4be43d	-0.19911285
89	0x3e750e93	0.23931341
90	0x3d23feb6	0.040037833
91	0x3e8727c7	0.26397535
92	0xbeaf68da	-0.34259683
93	0xbe012149	-0.12610354
94	0x3e8c4eae	0.27403778
95	0x3d3d0c79	0.046154473
96	0x3e0f66f0	0.14004111
97	0x3e8f205a	0.2795437
98	0xbebf5814	-0.37371886
99	0xbe2db4e6	-0.16963539
100	0x3e2eeec7	0.17083274
101	0xbec45ff5	-0.3835446
102	0x3d3ddede	0.04635512
103	0xbe949cdd	-0.29025927
104	0xbd7e361c	-0.06206332
105	0x3ebad8bc	0.3649348
106	0x3e3f6031	0.18689038
107	0xbf03420c	-0.51272655
108	0xbc0145b4	-0.007890154
109	0x3e8f9f86	0.28051394
110	0x3e1ec18c	0.1550352
111	0xbe354724	-0.17702919
112	0xbe3376cc	-0.17525786
113	0xbd52e5b3	-0.05148859
114	0x3e89f380	0.26943588
115	0xbd83d3b4	-0.064368635
116	0xbe816153	-0.25269565
117	0x3e65528b	0.22394769
118	0x3e99218b	0.29908404
119	0xbea6b65f	-0.32561013
120	0x3e72e888	0.23721516
121	0xbe3951f4	-0.18097669
122	0xbf0b8285	-0.5449603
123	0x3e885cbb	0.26633248
124	0xbe9cbd9c	-0.3061341
125	0xbe6facdc	-0.23405784
126	0x3e2a6a34	0.16642076
127	0xbed3515f	-0.4127302
128	0xbe5ec95d	-0.21756501
129	0xbefbc941	-0.49176982
130	0xbcfb1d8a	-0.030653734
131	0x3e1f9b52	0.15586594
132	0xbe186608	-0.14882672
133	0xbe3a3cfb	-0.18187325
134	0xbe82b253	-0.25526676
135	0x3e94a628	0.29033017
136	0xbec19f44	-0.37816823
137	0xbdaa0d39	-0.08303303
138	0x3d90adb9	0.07064385
139	0xbed42f85	-0.41442505
140	0x3ebdc1d0	0.3706193
141	0xbe94781c	-0.28997886
142	0xbe6e7424	-0.23286492
143	0x3c23b368	0.009991504

state_cnn.0.0.bias f4 [16]
0	0xbc5fefaf	-0.013667985
1	0x3db9f754	0.09080377
2	0xbea881ae	-0.32911438
3	0x3e17318e	0.14764997
4	0x3db9cccd	0.09072266
5	0x3df6ac35	0.12044565
6	0xbe49fa96	-0.19724497
7	0x3d1c89db	0.038217407
8	0xbe8df6fc	-0.27727497
9	0x3df49b4f	0.11943685
10	0x3d7a19c5	0.061059732
11	0x3e56764e	0.20943567
12	0xbe940552	-0.2891031
13	0x3d67b990	0.05657345
14	0x3ea37add	0.31929675
15	0x3e1e553c	0.15462202

state_cnn.1.0.weight f4 [32, 16, 3, 3]
0	0xbd090c64	-0.033459082
1	0x3c10687a	0.008813972
2	0xbe0c7064	-0.13714749
3	0xbd924af6	-0.07143204
4	0x3db6037a	0.08887382
5	0xbe3bcf60	-0.18340826
6	0x3dd1d0da	0.102449134
7	0x3e40cd7b	0.18828385
8	0xbe5e0821	-0.21682788
9	0x3d7c3bf3	0.06158061
10	0xbecdaca1	-0.40170768
11	0x3c3dc2a6	0.011582052
12	0x3de81427	0.11331969
13	0xbc285b44	-0.010275666
14	0xbd32d1ef	-0.04365724
15	0x3e354c10	0.17704797
16	0x3ea474e1	0.32120422
17	0xbcfb80ee	-0.030701127
18	0xbbf75113	-0.0075475066
19	0x3da4fcfd	0.08056066
20	0xbdc5dbca	-0.09661062
21	0xbd1ee02b	-0.038788002
22	0x3e5aeb67	0.21378861
23	0xbe4a5fd3	-0.19763117
24	0x3dfe385a	0.12413092
25	0x3e6d6f1e	0.23186919
26	0xbe1364e5	-0.14393957
27	0xbd126368	-0.035739332
28	0x3d60f029	0.054916535
29	0xbe114f78	-0.14190471
30	0x3d56e867	0.05246773
31	0x3baa834a	0.005203639
32	0xbdfdb37d	-0.1238775
33	0x3c5b1e21	0.0133738825
34	0x3e0b4037	0.13598715
35	0xbdda6729	-0.106642075
36	0x3cada385	0.021196136
37	0x3de1c195	0.11023251
38	0xbdeb116e	-0.11477934
39	0x3b458810	0.0030140914
40	0xbc845dd5	-0.016158024
41	0xbdf4928c	-0.11942014
42	0x3d8b0e75	0.06789867
43	0x3dc25dc1	0.094905384
44	0xbda7078e	-0.08155738
45	0xbd04c7d2	-0.032417126
46	0xbd340b08	-0.043955833
47	0xbd685235	-0.056719024
48	0x3d2d2d8d	0.04227977
49	0xbd94856f	-0.07252013
50	0xbe19283b	-0.14956753
51	0x3ca08a99	0.019597339
52	0xbd81117f	-0.06302165
53	0xbdccb5b4	-0.099955946
54	0xbce2fdb3	-0.027708864
55	0xbbe9cd7e	-0.0071350923
56	0x3d85869f	0.065198176
57	0xbd030af7	-0.03199288
58	0x3c35f59f	0.011105924
59	0xbd95e4e8	-0.07319051
60	0xbd9e3c53	-0.0772635
61	0xbc62df28	-0.01384715
62	0xbcf9f3c8	-0.030511752
63	0xbe5da732	-0.21645811
64	0x3dce2ab1	0.100667365
65	0xbd828b4e	-0.063742265
66	0xbd979db0	-0.074031234
67	0x3d863275	0.06552593
68	0xbd800470	-0.062508464
69	0x3e626b99	0.22111358
70	0x3e7bd014	0.24591094
71	0x3d387501	0.04503346
72	0xbd6c9488	-0.057758838
73	0x3d496d96	0.049176775
74	0x3c82720f	0.015923528
75	0xbd3e631a	-0.04648123
76	0x3d8b02e2	0.06787659
77	0xbd8c8294	-0.06860843
78	0xb9aa2d0a	-0.00032458483
79	0x3d58f796	0.05297049
80	0xbd9eac24	-0.07747677
81	0x3d617fd1	0.055053536
82	0x3d87c10c	0.06628618
83	0x3c0d3e56	0.008620819
84	0xbd4db7c3	-0.050224077
85	0xbcab50ac	-0.02091249
86	0xbd8f005e	-0.06982492
87	0x3df16334	0.117864996
88	0xbccef039	-0.025261031
89	0x3b837cbb	0.0040126718
90	0x3cc8a593	0.024493014
91	0xbd890e15	-0.06692139
92	0xbdab76d3	-0.08372273
93	0xbd8b371f	-0.06797623
94	0x3c4c30f5	0.012462844
95	0xbe02d06d	-0.1277482
96	0xbc9f2e24	-0.019431181
97	0x3cc106b3	0.023562765
98	0xbd0ae2a7	-0.03390756
99	0xbdd0f1d2	-0.102023736
100	0xbde2b89b	-0.11070367
101	0xbdb53341	-0.088476665
102	0x3d61f7fa	0.05516813
103	0xbd98a9a2	-0.0745423
104	0xbd00000e	-0.031250052
105	0x3c8225ae	0.015887108
106	0xbe1ab986	-0.15109834
107	0xbd015555	-0.03157552
108	0xbbaee55f	-0.0053374018
109	0xbd26c7ec	-0.040718004
110	0x3c833c84	0.016020067
111	0xbcc70d58	-0.024298355
112	0xbc26c49f	-0.010178714
113	0x3d72605b	0.059173923
114	0x3cd546e3	0.026034778
115	0x3d5c0dee	0.053724222
116	0xbd06095c	-0.03272377
117	0x3dfc02dd	0.12305234
118	0x3d09c5ce	0.033635907
119	0xbe07cfc7	-0.13262855
120	0x3dc47de9	0.09594328
121	0xbe3dc853	-0.18533449
122	0xbd191eab	-0.037382763
123	0x3d82c519	0.0638525
124	0xbeb8dff0	-0.3610835
125	0xbd3165e8	-0.043310076
126	0xbe29bf3e	-0.1657686
127	0xbdb01da0	-0.085994005
128	0x3d8e0fc6	0.06936602
129	0x3d5450b6	0.051834784
130	0xbddada60	-0.10686183
131	0x3d93e3c0	0.07221174
132	0x3d5cfc32	0.05395145
133	0x3ec312ac	0.38100183
134	0x3b9b5e81	0.0047414904
135	0xbe31b3b8	-0.17353714
136	0x3e6f50f9	0.23370732
137	0x3cab9e23	0.020949429
138	0x3ceefa0e	0.02917197
139	0x3db79f52	0.08965935
140	0xbd4919a3	-0.049096715
141	0x3b7b21fa	0.0038319812
142	0x3e96d400	0.29458618
143	0x3c7a6b2e	0.015284343
144	0x3d4eaa50	0.05045539
145	0x3e25bf4c	0.16186255
146	0x3d4b24f7	0.0495958
147	0x3dbc6154	0.09198251
148	0x3e69b10a	0.22821441
149	0x3c0c6911	0.008569972
150	0xbd483231	-0.04887599
151	0x3e259791	0.16171099
152	0xbcfb8139	-0.030701267
153	0x3d2e2222	0.04251302
154	0xbdcf3191	-0.10116876
155	0x3cc383a1	0.023866476
156	0x3e32dd5a	0.17467251
157	0x3ee51452	0.44742066
158	0xbd25b3b0	-0.040454566
159	0xbdc91833	-0.09819069
160	0xbd668c76	-0.056286298
161	0xbc07e079	-0.008293265
162	0xbd82765a	-0.0637023
163	0x3df360e7	0.11883717
164	0xbe7b6daa	-0.24553552
165	0x3e1e0d57	0.15434776
166	0x3e88f2d8	0.26747775
167	0xbe46ed71	-0.19426514
168	0xbdc5a31d	-0.09650252
169	0x3daddfa8	0.08489925
170	0xbd89dafc	-0.06731221
171	0x3dbe36d4	0.092878014
172	0x3d9dfe88	0.077145636
173	0x3cd7c465	0.026338765
174	0x3dd5ecd5	0.10445563
175	0x3c1d1a50	0.009588793
176	0xbdffce57	-0.12490528
177	0xbcb41264	-0.021981426
178	0xbc89633d	-0.016770953
179	0xbd94d4e3	-0.072671674
180	0x3d26fa49	0.040766034
181	0xbadf8c44	-0.0017055352
182	0x3d04e4d4	0.03244479
183	0x3d20366b	0.039114397
184	0x3b1e6b62	0.0024172892
185	0xbbcea9fc	-0.006306885
186	0xbcac0597	-0.02099876
187	0x3d775371	0.06038231
188	0xbdfaf6ac	-0.1225408
189	0x3d00ed15	0.0314761
190	0xbd9eeab2	-0.07759608
191	0xbe0d4779	-0.13796796
192	0x3cb0edd4	0.02159778
193	0xbda728c8	-0.08162075
194	0xbd476605	-0.048681278
195	0xbded14d9	-0.11576242
196	0xbdda6e11	-0.10665525
197	0xbe2583dc	-0.16163582
198	0xbd64282b	-0.05570237
199	0x3d9f245e	0.07770608
200	0x3cab583a	0.020916093
201	0x3cae4cfa	0.02127694
202	0xbc7a3513	-0.015271443
203	0xbd6ce1ce	-0.05783253
204	0xbd365a92	-0.04451997
205	0xbd2b7db4	-0.041867927
206	0x3d08d444	0.033405557
207	0x3db45e80	0.08807087
208	0x3e2485f8	0.1606673
209	0x3d4fdddb	0.050748687
210	0x3e09f48d	0.13472195
211	0x3e6aec7f	0.22941779
212	0xbe0413ad	-0.1289813
213	0xbca2fa2c	-0.019894682
214	0xbd96a83f	-0.07356309
215	0x3ca4b859	0.020107435
216	0xbd4a8486	-0.04944279
217	0x3d3621ac	0.044465706
218	0x3da3f2a4	0.080052644
219	0xbccf884e	-0.02533355
220	0xbc5969c8	-0.013269849
221	0x3d203d1a	0.03912077
222	0x3cc0213e	0.023453351
223	0xbcb8b354	-0.022546448
224	0xbd99b012	-0.07504286
225	0x3aa9b6aa	0.0012948115
226	0xbba589bb	-0.005051819
227	0x3ca24cb7	0.019811971
228	0x3d3ec925	0.046578545
229	0xbd89fe3c	-0.067379445
230	0x3bd27e52	0.00642375
231	0xbcd55fde	-0.02604669
232	0xbce7f763	-0.028316205
233	0xbe101746	-0.14071378
234	0x3d485ad5	0.04891475
235	0xbd18d077	-0.037308183
236	0xbd68ea32	-0.05686397
237	0x3dcb33f9	0.09922022
238	0x3d06372d	0.032767463
239	0xbdfa3fe6	-0.12219219
240	0xbdd84e02	-0.10561754
241	0xbdf1e2e5	-0.11810855
242	0xbe2f6b91	-0.17130877
243	0xbc0d53a0	-0.008625895
244	0xbddbef31	-0.107389815
245	0xbd1470ae	-0.036240272
246	0x3c86b744	0.01644481
247	0xbdf9fc38	-0.1220631
248	0xbca196c6	-0.019725215
249	0xbd94e0e7	-0.07269459
250	0xbd99bb9e	-0.07506488
251	0xbd8268b9	-0.063676305
252	0x3d2dfa72	0.04247517
253	0x3d0cec2f	0.03440493
254	0xbcc5dd48	-0.024153367
255	0xbc11ff14	-0.008910913

state_cnn.1.0.bias f4 [32]
0	0xbd492f6e	-0.049117498
1	0xbd6a514e	-0.057206444
2	0xbd32816e	-0.043580465
3	0x3d4823ad	0.048862148
4	0xbca30a8a	-0.019902486
5	0xbcab3de4	-0.020903535
6	0x3ce2d699	0.027690219
7	0xbd0d1fd1	-0.03445417
8	0x3d4e8bfa	0.05042646
9	0xbd7a6cf0	-0.061139047
10	0xbd9792e3	-0.07401063
11	0x3c6b7405	0.014370923
12	0xbce26cbc	-0.02763974
13	0x3b604ead	0.0034226582
14	0xbc883fcb	-0.016631981
15	0x3d54f744	0.051993623
16	0xbc919b35	-0.017774204
17	0xbc5b0d1d	-0.013369826
18	0x3c4034db	0.011731352
19	0xbd8a4f27	-0.06753378
20	0x3b876580	0.004131973
21	0xbd99197a	-0.074755624
22	0x3d4f3107	0.050583865
23	0x3bf7d534	0.0075632576
24	0xbd95083e	-0.07276963
25	0x3c9d50f3	0.019203639
26	0xbd9b2740	-0.07575846
27	0xbca014e7	-0.019541217
28	0xbd6424fc	-0.055699334
29	0x3dc7a102	0.09747507
30	0xbdace9d1	-0.084430344
31	0xbd39f6a5	-0.045401234

button_cnn.0.0.weight f4 [8, 1, 3, 3]
0	0xbe68ac65	-0.22722013
1	0x3e2c80b6	0.16845974
2	0x3ca50c33	0.020147419
3	0x3bbcb0b2	0.0057583684
4	0xbea99d6f	-0.33127925
5	0x3ece07a8	0.40240216
6	0x3d505c35	0.050869185
7	0x3d5cb611	0.05388457
8	0x3e7088a2	0.23489621
9	0xbe88b518	-0.26700664
10	0xbd84dbb5	-0.06487218
11	0xbe4f3a54	-0.20237094
12	0x3da43ae6	0.080190465
13	0xbe073e08	-0.13207257
14	0x3cadaf16	0.021201652
15	0x3d543f4e	0.051818185
16	0x3ee0b226	0.43885916
17	0xbe98451e	-0.29740232
18	0xbc420355	-0.011841615
19	0x3e7cad86	0.24675569
20	0xbdf2d8f1	-0.118577845
21	0xbe850ef5	-0.25987974
22	0x3ecdc080	0.40185928
23	0xbdcf9ea3	-0.101376794
24	0x3e4ba7bc	0.19888204
25	0xbe4af69c	-0.19820637
26	0xbe786ce0	-0.24260283
27	0x3e0925b1	0.13393284
28	0xbbdfa0bf	-0.0068245823
29	0xbc7151e8	-0.014729001
30	0xbe40b473	-0.18818836
31	0x3d0e5cb5	0.03475638
32	0x3ee7a5b4	0.4524361
33	0xbe581c5b	-0.21104567
34	0xbe9a7a8b	-0.30171618
35	0xbebb8990	-0.3662839
36	0xbda0bd7a	-0.0784864
37	0x3e9c5ac1	0.3053799
38	0x3e9a260f	0.3010716
39	0xbe003329	-0.12519516
40	0x3d2593c3	0.04042412
41	0x3e7a70c2	0.24457076
42	0x3ea7b7f7	0.32757542
43	0xbd6e4b74	-0.058177426
44	0x3ed9cb38	0.42537856
45	0xbe83f96c	-0.2577623
46	0xbc525809	-0.012838372
47	0xbe03f75f	-0.12887333
48	0xbce58986	-0.028019678
49	0x3e91acae	0.28452057
50	0x3e860f76	0.2618367
51	0x3e82ab9b	0.2552155
52	0x3eaa568a	0.3326915
53	0x3e26c7fe	0.16287228
54	0xbe8a2490	-0.2698102
55	0xbe742bc5	-0.23844822
56	0xbed41c3a	-0.41427785
57	0xbe9f6a1b	-0.3113564
58	0xbe92850b	-0.2861713
59	0x3e614f5c	0.2200293
60	0xbd2fb324	-0.04289545
61	0x3edcfd40	0.43161964
62	0x3c977fb9	0.01849352
63	0xbe1cfd9b	-0.15331118
64	0xbe04e56c	-0.12978142
65	0xbe0d2ad7	-0.13785873
66	0x3c9af19f	0.018914042
67	0xbe8a298d	-0.26984826
68	0xbe080a61	-0.13285209
69	0x3ee397f1	0.4445186
70	0xbe4bb95c	-0.19894928
71	0x3e64e87a	0.22354308

button_cnn.0.0.bias f4 [8]
0	0xbe1142a1	-0.14185573
1	0x3e8590e7	0.26087114
2	0x3bd10d16	0.006379734
3	0xbdafe25f	-0.08588099
4	0xbe87cb0d	-0.26522103
5	0xbcf7930d	-0.030221486
6	0x3e77d84c	0.24203604
7	0x3e2be32a	0.16785875

button_cnn.1.0.weight f4 [16, 8, 3, 3]
0	0xbd9f1aa9	-0.07768757
1	0xbddc22ef	-0.107488506
2	0xbc9873aa	-0.01860984
3	0xbc5e658f	-0.013574018
4	0x3c9c3a7f	0.019070862
5	0xbe6c16ec	-0.23055619
6	0x3c901090	0.017586023
7	0xbd89b578	-0.067240655
8	0xbd37c528	-0.044865757
9	0x3c695107	0.01424051
10	0xbdcd9490	-0.10038102
11	0xbe0d85be	-0.1382055
12	0x3d224d99	0.039624784
13	0x3d37d77b	0.044883233
14	0xbd1bf8bd	-0.038079012
15	0xbc84d98a	-0.016217012
16	0x3d669eac	0.056303665
17	0xbe01048c	-0.12599391
18	0xbdd3fe54	-0.103512436
19	0xbcfbe52d	-0.030748928
20	0xbe169feb	-0.14709441
21	0xbe0062ad	-0.12537642
22	0x3e528a01	0.20560457
23	0x3dbe1bc0	0.09282637
24	0xbe2abd55	-0.16673787
25	0xbc10b841	-0.008832992
26	0xbe2b47b7	-0.16726576
27	0xbcb10482	-0.021608595
28	0xbe5185ae	-0.20461151
29	0x3ce64b54	0.028112091
30	0xbe01a28c	-0.12659663
31	0x3e187b1a	0.1489071
32	0x3d18e1c9	0.0373247
33	0xbe498fb3	-0.19683723
34	0xbc28f6da	-0.01031276
35	0xbcd6bd45	-0.026213298
36	0x3c2446f9	0.010026687
37	0x3cc7889e	0.024357136
38	0x3db73f0b	0.08947571
39	0xbe26d168	-0.1629082
40	0x3d8ea4e7	0.069650464
41	0xbd0f7062	-0.035019286
42	0x3de09050	0.109650254
43	0x3dd86c50	0.10567534
44	0x3d464f22	0.04841531
45	0x3e3ee798	0.18643034
46	0xbd1a91d8	-0.037736744
47	0x3cf518c4	0.029919036
48	0xbe19f13b	-0.15033428
49	0x3e1bcb1b	0.15214197
50	0xbce2c660	-0.027682483
51	0xbca4a5c7	-0.02009858
52	0x3d08da3d	0.033411253
53	0xbd70ccea	-0.05878917
54	0xbda8d6d6	-0.08244102
55	0x3d80bb40	0.06285715
56	0xbe0decc8	-0.13859856
57	0x3e0ac367	0.13551103
58	0x3cfeafe2	0.031089727
59	0xbd43e4a3	-0.047825467
60	0xbdbe4c4b	-0.092918955
61	0x3d150cbd	0.0363891
62	0xbe006e12	-0.12541988
63	0xbd107e99	-0.035276983
64	0xbc77af8c	-0.015117537
65	0xbd33de67	-0.04391327
66	0xbdb4c179	-0.088259645
67	0xbcd76602	-0.026293758
68	0x3e2b2f76	0.16717324
69	0xbdf2c632	-0.11854209
70	0xbd9ce38c	-0.076605886
71	0xbdee8d55	-0.11648051
72	0xbd368e85	-0.04456951
73	0xbd2fe9b0	-0.04294747
74	0x3dd5a788	0.10432345
75	0xbdd7ef78	-0.10543722
76	0x3dd366e6	0.10322361
77	0xbe3d8698	-0.18508375
78	0xbd8d0bc5	-0.068870105
79	0xbcc44abb	-0.023961416
80	0xbcc95ba2	-0.024579827
81	0x3dc69081	0.09695531
82	0x3d4b604a	0.049652375
83	0x3d8e2f2b	0.0694259
84	0x3d5e9478	0.05434081
85	0xbe182970	-0.14859557
86	0xbdd7d63b	-0.10538908
87	0xbbe73432	-0.0070557827
88	0x3db915be	0.0903735
89	0x3d6a6b30	0.05723113
90	0xbe020617	-0.12697636
91	0x3d805113	0.06265464
92	0x3dcace23	0.09902599
93	0xbe0c4944	-0.13699824
94	0x3d211bb4	0.03933306
95	0x3e092f3d	0.13396926
96	0x3c0843f0	0.008316979
97	0xbdaf4b1c	-0.08559248
98	0xbde3b126	-0.11117773
99	0x3e2ca987	0.16861545
100	0xbcec3247	-0.028832568
101	0x3dba8dbd	0.09109066
102	0xbd92ba19	-0.071644016
103	0x3d7d9df1	0.061918203
104	0xbce472af	-0.027886717
105	0x3c1556d6	0.009114942
106	0x3d371b10	0.044703543
107	0xbe06871a	-0.13137475
108	0x3dd92766	0.10603218
109	0x3c3553bf	0.01106733
110	0xbe07a91a	-0.13248101
111	0xbb6f868e	-0.0036548707
112	0x3c38ab16	0.011271259
113	0x3c8cb928	0.017178133
114	0xbdc5ec27	-0.09664183
115	0xbcf1d24d	-0.029519225
116	0xbdcd8ea5	-0.10036973
117	0xbd428ad5	-0.04749568
118	0x3d8164d3	0.06318059
119	0xbd84ca2e	-0.06483875
120	0xbd6c92cf	-0.057757195
121	0x3c483901	0.012220622
122	0x3c1d5e6b	0.0096050305
123	0x3dd8586c	0.1056374
124	0xbcf8b993	-0.030361926
125	0xbd4fad78	-0.050702542
126	0xbdb7d610	-0.08976376
127	0x3de540a1	0.111939676
128	0x3da9b507	0.08286481
129	0x3b44d09d	0.003003157
130	0xbe0f219f	-0.13977669
131	0xbb186d3d	-0.002325847
132	0x3dbab70f	0.09116947
133	0xbdf64b74	-0.1202611
134	0xbdb8a003	-0.09014895
135	0x3d9bb4f8	0.076028764
136	0x3daa7c4c	0.08324489
137	0x3dac725a	0.08420248
138	0x3cb48a6a	0.022038657
139	0x3c449727	0.011998928
140	0xbd8281cd	-0.06372414
141	0x3d3c84ca	0.046025075
142	0xbe002fff	-0.12518309
143	0x3d85300b	0.06503304
144	0x3e30305e	0.1720595
145	0xbe0fcf23	-0.1404386
146	0x3b816e1e	0.0039498946
147	0xbdb4fb67	-0.08837014
148	0xbde1643e	-0.11005448
149	0x3da6b216	0.08139436
150	0xbe2443e5	-0.16041525
151	0x3e4d68ea	0.20059553
152	0xbd7fb2a6	-0.06242623
153	0x3dd7822e	0.10522877
154	0xbdcf2f76	-0.10116474
155	0xbd821664	-0.06351927
156	0x3d2d0215	0.042238314
157	0x3d6c6d75	0.057721574
158	0xbdd32530	-0.10309827
159	0x3da286fd	0.07935903
160	0xbcba000e	-0.022705104
161	0x3e0ed867	0.13949738
162	0xbcaf1f6e	-0.021377292
163	0xbd19f49a	-0.037586786
164	0xbdf0d2b5	-0.11758939
165	0xbdf77536	-0.12082903
166	0xbb255eb9	-0.002523346
167	0xbdbb3aef	-0.091421
168	0x3d29fc37	0.041500296
169	0x3d71a60c	0.058996245
170	0x3dc54bb0	0.09633577
171	0x3e501933	0.20322113
172	0xbc70a6e0	-0.014688224
173	0x3e1c5994	0.15268546
174	0x3db075ea	0.0861624
175	0x3d4f5942	0.050622232
176	0xbca309ba	-0.019902099
177	0xbd2b976c	-0.041892454
178	0x3e4a08f8	0.19729984
179	0xbda3ef8e	-0.08004676
180	0x3dbb73a3	0.09152915
181	0xbe49022d	-0.19629736
182	0x3dbd09f6	0.092304155
183	0x3d52e56e	0.051488332
184	0xbd84c90d	-0.0648366
185	0x3dce3960	0.10069537
186	0xbdcd67aa	-0.10029538
187	0x3d9fe653	0.07807603
188	0x3e0d443e	0.13795564
189	0x3ddb97d8	0.10722321
190	0xbd6b6b17	-0.057475176
191	0x3d30c85c	0.043159828
192	0xbbebda88	-0.007197682
193	0xbd542797	-0.05179557
194	0x3d190cff	0.03736591
195	0xbd894c9f	-0.067040674
196	0x3e3622fc	0.17786783
197	0xbbcf04bb	-0.0063177026
198	0xbdb77268	-0.08957368
199	0xbdb6fa9a	-0.08934517
200	0x3bcb9b4e	0.006213582
201	0xbc0d7c7a	-0.008635635
202	0x3d7930a8	0.060837418
203	0xbd58fa79	-0.052973244
204	0xbc96e866	-0.018421363
205	0x3d817a9d	0.06322215
206	0xbd9ee7ba	-0.07759042
207	0xbd7a80a5	-0.06115784
208	0xbca7b3d7	-0.020471497
209	0x3d314788	0.04328111
210	0x3c145553	0.009053546
211	0xbdaa421c	-0.083133906
212	0xbdf27b4e	-0.11839925
213	0x3dc56088	0.096375525
214	0xbd9301ed	-0.07178102
215	0xbc63df16	-0.013908168
216	0x3d867235	0.06564752
217	0xbd812a90	-0.06306946
218	0x3c94ef6b	0.01818057
219	0xbc863484	-0.016382463
220	0x3cd786cd	0.026309395
221	0xbcba2a73	-0.02272532
222	0xbddb21b3	-0.10699787
223	0x3e588463	0.21144252
224	0xbdebdd6b	-0.115168415
225	0xbd2fa76f	-0.042884286
226	0xbceb8d87	-0.028754009
227	0xbd864f77	-0.065581255
228	0x3dd2a121	0.10284639
229	0x3d994894	0.07484546
230	0x3c5ae618	0.013360523
231	0x3d9737e2	0.07383706
232	0x3e06426a	0.13111272
233	0xbcbb16fc	-0.022838108
234	0x3dc9d61d	0.09855292
235	0xbd3651ca	-0.044511594
236	0x3a24a2d0	0.00062803645
237	0xbd193735	-0.037406165
238	0x3d5171fa	0.051134087
239	0x3b99240a	0.0046734856
240	0x3e491ed6	0.19640669
241	0x3e483949	0.19553103
242	0x3c017dfc	0.007903572
243	0xbe1cb9cd	-0.15305252
244	0x3ae5db3d	0.0017536652
245	0x3dbce7c6	0.09223895
246	0xbd4c158b	-0.049825232
247	0xbdb692fb	-0.08914753
248	0xbdf36245	-0.11883978
249	0xbd924c98	-0.07143515
250	0x3e19e8bf	0.15030192
251	0xbdc104a2	-0.09424712
252	0x3e15c909	0.1462747
253	0x3d750ee4	0.059828654
254	0x3d2accec	0.041699335
255	0xbb1ba208	-0.0023747701

button_cnn.1.0.bias f4 [16]
0	0x3de4c866	0.111710355
1	0x3c8a1627	0.016856266
2	0x3cf4e362	0.02989358
3	0xbdcb29e1	-0.09920097
4	0x3d8b2106	0.06793408
5	0xbca4453b	-0.020052543
6	0x3e02a99a	0.1276001
7	0xbc20b2da	-0.009808267
8	0x3ca5f3a2	0.020257775
9	0x3bf94ba8	0.007607896
10	0xbdb4c16f	-0.08825957
11	0x3dbb797d	0.091540314
12	0x3db97ec9	0.090573855
13	0x3d2a4154	0.041566208
14	0x3d638cee	0.055554323
15	0xbc32e800	-0.010919571

fc.0.weight f4 [256, 240]
0	0xbcf8e238	-0.030381307
1	0x3d09bab2	0.033625312
2	0xbda67fa7	-0.081298165
3	0x3c8da1fa	0.01728915
4	0x3d1c66f0	0.038184106
5	0xbd3e993b	-0.04653285
6	0xbd555574	-0.052083448
7	0x3bdd6875	0.006756837
8	0xbd17249e	-0.036900155
9	0xbd9090a9	-0.07058842
10	0xbc2dea5c	-0.010614958
11	0x3d0040b3	0.031311702
12	0x3c0513fd	0.008122441
13	0x3b3816d0	0.002808977
14	0x3b1bd6eb	0.0023779224
15	0xbd3d5e75	-0.04623266
16	0xbc4d83ce	-0.012543632
17	0xbd53275b	-0.051551204
18	0xbc89b949	-0.016811984
19	0xbb1a21b2	-0.002351862
20	0x3d484655	0.0488952
21	0xbc3aafef	-0.011394485
22	0x3d3bb22a	0.045824207
23	0x3c66f2c1	0.014095963
24	0xbd41a11a	-0.04727278
25	0x3cf5db50	0.030011803
26	0xbd238727	-0.039923813
27	0xbbac0350	-0.0052494183
28	0x3d313b40	0.043269396
29	0xbc54be5a	-0.0129848365
30	0x3cc4cccf	0.024023442
31	0x3d579d49	0.052640233
32	0xbd00edc5	-0.031476755
33	0xbafa44fa	-0.0019094043
34	0xbc2f6783	-0.010705831
35	0x3d681d42	0.056668527
36	0x3cfa5b57	0.030561132
37	0x3d595fa2	0.05306972
38	0xbd865e5d	-0.06560967
39	0x3d5763d3	0.052585434
40	0xbc95e7b3	-0.01829896
41	0xbd19a5a9	-0.0375115
42	0xbc96a6e5	-0.018390128
43	0x3d524d49	0.051343236
44	0x3d6567df	0.056007262
45	0xbc4d38f1	-0.012525783
46	0xbd7a266f	-0.06107181
47	0xbc1a3649	-0.009412357
48	0x3d395adf	0.045252677
49	0x3ca75664	0.020426936
50	0xbd6b6749	-0.057471547
51	0xbccd67e4	-0.025073953
52	0x3c88343f	0.016626475
53	0x3d692578	0.0569205
54	0xbd85a1f7	-0.06525033
55	0xbc6efe3a	-0.0145869795
56	0xbd8c4782	-0.068495765
57	0x3d0ed8fd	0.034874905
58	0x3c1ffd47	0.009764976
59	0x3d0b41c0	0.03399825
60	0xbd610313	-0.054934572
61	0x3ccac439	0.02475177
62	0xbd76edff	-0.060285565
63	0xbd7a7f20	-0.061156392
64	0x3d0826de	0.03324019
65	0xbcb9c5d0	-0.022677332
66	0x3d2d7980	0.0423522
67	0x39fe7e9d	0.0004854099
68	0x3c456169	0.01204715
69	0xbcf13911	-0.029446157
70	0xbc00421b	-0.007828261
71	0x3cea8338	0.028627023
72	0x3cb98f6e	0.0226514
73	0xbd88f84f	-0.06687986
74	0xbc0391ea	-0.008030394
75	0xbd3540ca	-0.04425124
76	0xbd53f765	-0.051749606
77	0xbb46e1b1	-0.0030346925
78	0x3d5c1506	0.053730987
79	0xbd938eb7	-0.07204955
80	0xbc76e189	-0.01506842
81	0xbd8f3051	-0.069916375
82	0xbd180a6e	-0.03711932
83	0xbd8e34b4	-0.06943646
84	0xbc38d41c	-0.01128104
85	0xbca10d45	-0.019659648
86	0xbccc3f97	-0.024932666
87	0xbccfe12c	-0.025375925
88	0x3cf1a4d1	0.029497536
89	0xbc7a3e8d	-0.015273702
90	0xbca894a4	-0.02057869
91	0x3b9031a7	0.0044004503
92	0xbd201604	-0.039083496
93	0xbd6c6b43	-0.05771948
94	0xbd3360e7	-0.043793585
95	0xbc758ca9	-0.014987149
96	0xbd723279	-0.059130166
97	0x3d67964d	0.056539822
98	0x3d296313	0.04135425
99	0x3ac55984	0.0015056585
100	0x3c3065da	0.010766471
101	0xbc2e0f73	-0.010623801
102	0xbca8f5fb	-0.020625105
103	0xbd37721e	-0.044786565
104	0xbca01c90	-0.01954487
105	0x3c9db1e5	0.019249866
106	0xbd26d72f	-0.04073256
107	0x3c878938	0.016544923
108	0x3d100246	0.035158418
109	0x3d12d2b5	0.035845477
110	0x3c1eb021	0.009685547
111	0x3d5a4f5f	0.05329835
112	0x3c1dd447	0.00963313
113	0xbd41cfbd	-0.047317255
114	0x3d395462	0.04524649
115	0xbc95d1cf	-0.018288521
116	0x3cecb59f	0.028895197
117	0x3d10b032	0.035324283
118	0xbd96233c	-0.07330939
119	0x3c5da804	0.013528828
120	0x3bf5f893	0.007506439
121	0x3d1be095	0.038055975
122	0xbd596868	-0.053078085
123	0xbd95962b	-0.07304033
124	0xba8e4374	-0.0010853843
125	0xbd1e5223	-0.03865255
126	0x3d6033f4	0.054737046
127	0xb9cff99e	-0.00039668096
128	0x3d2985ec	0.041387483
129	0xbc9551ea	-0.018227536
130	0xbcd048e6	-0.025425386
131	0x3d400903	0.046883594
132	0xbd3960e1	-0.045258407
133	0xbaedcd88	-0.0018142918
134	0xbd59b35a	-0.05314956
135	0x3c7574eb	0.014981489
136	0xbc7e6314	-0.015526552
137	0x3c574b21	0.013140471
138	0xbcbb7cfd	-0.022886747
139	0xbd4f6190	-0.050630152
140	0xbd690e7a	-0.05689857
141	0x3d290475	0.041264016
142	0x3d2544df	0.040348884
143	0x3c3d0efd	0.011539218
144	0x3d214d6a	0.03938047
145	0xbd32e8a1	-0.043678883
146	0xbd06a745	-0.032874364
147	0xbd8ab4fe	-0.06772803
148	0xbd2d9f23	-0.042388093
149	0xbd5f5173	-0.054521035
150	0xbcfd821c	-0.03094583
151	0xbcff6ca1	-0.031179728
152	0xbc813361	-0.01577157
153	0x3be4290b	0.0069629005
154	0xbd4fca42	-0.050729997
155	0xbc7ba14a	-0.0153582785
156	0x3b1a18cd	0.0023513318
157	0xbd036835	-0.0320818
158	0x3d2b807e	0.041870587
159	0x3d4371b3	0.047715854
160	0xbd3ffd8f	-0.04687267
161	0xbc9d037e	-0.019166704
162	0xbd7d0d79	-0.061780427
163	0x3ca69624	0.020335265
164	0xbc2f53af	-0.010701104
165	0x3b4db7fd	0.0031390183
166	0xbd9ac8a1	-0.07557798
167	0x3d4a933c	0.04945682
168	0xbd11c3fb	-0.035587292
169	0x3d5a1d96	0.05325087
170	0xbcd1b9de	-0.025601324
171	0xbd159d41	-0.036526922
172	0x3d55e992	0.052224703
173	0x3c8eed67	0.017447187
174	0xbb50dbd8	-0.0031869318
175	0x3d0e4738	0.03473589
176	0xbd47e03c	-0.04879783
177	0xbd4742b9	-0.048647616
178	0x3d1bd2de	0.038042895
179	0x3b301fbd	0.0026874386
180	0x3abb51f3	0.001429139
181	0x3d29d884	0.04146625
182	0xbd2d6375	-0.042331178
183	0xbd7dc61a	-0.061956502
184	0x3d2ebba6	0.042659424
185	0x3b1d789d	0.002402819
186	0x3ce2618b	0.027634403
187	0x3c18e3c3	0.009331646
188	0xbd464810	-0.048408568
189	0xbd208266	-0.039186858
190	0xbd25a526	-0.0404407
191	0xbc3d6a84	-0.01156104
192	0xbd9207a0	-0.071303606
193	0xbd8dc24b	-0.06921824
194	0x3d0e3eba	0.03472779
195	0xbc760200	-0.015015125
196	0xbcef3dc5	-0.029204259
197	0xbc8334e5	-0.016016433
198	0xbc02d53c	-0.007985409
199	0xbce23a3a	-0.027615655
200	0xbcb225b1	-0.021746488
201	0x3d30aac0	0.04313159
202	0xbc49eed8	-0.012325011
203	0xbadd2e22	-0.001687471
204	0x3a979428	0.001156454
205	0x3c33501a	0.010944391
206	0xbd396763	-0.045264613
207	0x3cc537ad	0.0240744
208	0xbd6f91a0	-0.05848849
209	0x3d507eb7	0.050902095
210	0xbd52203e	-0.05130028
211	0xbd863cad	-0.06554542
212	0x3d13abe4	0.0360526
213	0xbd8406d0	-0.06446612
214	0xbc6d2aa0	-0.014475495
215	0x3d27f8b6	0.041008674
216	0xbd65c9f6	-0.056100808
217	0x3d26b967	0.040704157
218	0x3c0608b5	0.008180787
219	0x3d053a86	0.032526515
220	0x3c2154b4	0.009846855
221	0xbd085e82	-0.033293255
222	0x3d128389	0.035769973
223	0x3d3938d9	0.04522023
224	0x3cd60017	0.02612309
225	0xbd620886	-0.05518391
226	0x3cd1ab3a	0.025594342
227	0xbd320439	-0.04346106
228	0xbd200320	-0.03906548
229	0x3d058775	0.032599885
230	0xbd078a9c	-0.033091173
231	0x3c958500	0.018251896
232	0xbd8f039f	-0.069831125
233	0x3c9619b0	0.018322796
234	0x3cd815e2	0.026377622
235	0x3ce9d3dd	0.028543407
236	0x3cc5f13f	0.024162887
237	0x3cc5deb7	0.02415405
238	0x3d1e12c3	0.03859211
239	0xbc0704bb	-0.008240874
240	0xbd19ab93	-0.03751714
241	0x3cbcafa6	0.023032974
242	0x3c468083	0.0121156005
243	0xbcd2d92d	-0.025738323
244	0xbd80451a	-0.0626318
245	0x3ad3e79c	0.0016167047
246	0x3d4f28d9	0.050576065
247	0x3b26b8e3	0.002543979
248	0x3c09e23d	0.008415756
249	0xbc30be9b	-0.010787631
250	0xbd45a6d6	-0.04825481
251	0xbd955c08	-0.07292944
252	0x3d721624	0.059103146
253	0x3d315682	0.04329539
254	0x3d056a3b	0.032572012
255	0xbd78310d	-0.060593653

fc.0.bias f4 [256]
0	0xbd5e5f84	-0.05429031
1	0xbd8546ef	-0.0650767
2	0xbc8d3fd0	-0.017242342
3	0xba831767	-0.0010001481
4	0x3b0406f5	0.0020145748
5	0x3c2b6d25	0.010463034
6	0x3d73ef6d	0.059554506
7	0xbc6419a1	-0.013922126
8	0xbd26a5a1	-0.0406853
9	0x3c2bccb2	0.010485815
10	0x3c7d8f89	0.015476116
11	0x3d20c4bc	0.03925012
12	0xba2fcc7a	-0.00067061896
13	0x3d4199b4	0.047265723
14	0xbd69c174	-0.057069257
15	0xbd579b2a	-0.05263821
16	0xbd919224	-0.07107952
17	0xbd7d3127	-0.061814453
18	0x3d96a150	0.07354987
19	0xba91e784	-0.0011131619
20	0x3d3d60f7	0.04623505
21	0x3bc10c8c	0.0058913883
22	0xbd09e21c	-0.0336629
23	0x3d6b046a	0.057377256
24	0xbd691941	-0.05690885
25	0xbd4f5d9e	-0.05062639
26	0xbcabee1e	-0.020987567
27	0xbdd15a8e	-0.1022235
28	0x3d4da231	0.050203506
29	0xbd6f864f	-0.058477696
30	0xbd3d3344	-0.04619147
31	0xbbed2b88	-0.0072378553
32	0xbd551d3b	-0.05202983
33	0xb9c3cf6c	-0.0003734784
34	0x3b5e9629	0.0033964014
35	0x3d21c5e4	0.039495364
36	0xbb875c26	-0.004130858
37	0xbd420607	-0.04736903
38	0xbc1aa35d	-0.009438363
39	0xbcf49f60	-0.029861152
40	0xbd7487a6	-0.059699677
41	0xbc709ed5	-0.014686306
42	0x3ca5400c	0.020172141
43	0xbd1a48b5	-0.037666995
44	0xbcdb0e5b	-0.026740244
45	0x3d7e1c77	0.062038865
46	0xbada8d23	-0.0016674142
47	0x3c582004	0.013191227
48	0x3ce4197c	0.027844183
49	0x3ca62818	0.02028279
50	0xbd7b745c	-0.061390266
51	0xbb25138b	-0.002518865
52	0xbd7000d8	-0.058594555
53	0xbd1cba95	-0.038263876
54	0xbad74880	-0.0016424805
55	0xbc4ef1d3	-0.012630898
56	0xbc911440	-0.017709851
57	0x3d8c7aae	0.06859337
58	0x3b9b4c95	0.004739354
59	0x3d3e8ead	0.046522785
60	0x3d24774a	0.040152825
61	0x3db11c01	0.086479194
62	0xbb81f612	-0.0039661014
63	0x3b593bb5	0.003314716
64	0xbb32eeba	-0.0027302937
65	0x3cb49963	0.022045797
66	0x3c99baff	0.018765924
67	0xbd6fbbef	-0.058528837
68	0x3d3ae766	0.045630835
69	0xbd18bba8	-0.037288338
70	0xbc7c8ed9	-0.015414917
71	0xbc0bc847	-0.008531637
72	0xbd4d0965	-0.050057787
73	0x3d27726d	0.04088061
74	0xbcf34900	-0.029697895
75	0x3d55cebf	0.05219912
76	0xbb08e1da	-0.002088657
77	0x3d5d891e	0.054085843
78	0x3bde3a90	0.0067818835
79	0xbc58e3ee	-0.013237936
80	0xbb98e0e8	-0.004665483
81	0xbc818791	-0.015811713
82	0x3d022723	0.031775605
83	0xbd67858b	-0.05652384
84	0xbd644037	-0.055725303
85	0x3c946d3a	0.01811849
86	0x3bd1970e	0.006396181
87	0xbd77c994	-0.060494974
88	0x3d438792	0.04773671
89	0xbd1e8c3d	-0.03870796
90	0xbd98e614	-0.07465759
91	0x3c9f6586	0.01945759
92	0xbc20d6d9	-0.009816849
93	0xbd0e2d71	-0.034711305
94	0x3d67f688	0.056631595
95	0xbccc55d5	-0.024943272
96	0xbceaa677	-0.02864383
97	0x3d8b6aeb	0.06807502
98	0xbd93cddb	-0.07216998
99	0xbc504fe0	-0.012714356
100	0xbc0b5738	-0.008504681
101	0x3d2a2d2a	0.041546978
102	0xbbebfffa	-0.0072021456
103	0x3c465de2	0.012107344
104	0xbd81d7c6	-0.06339984
105	0x3d1a86a8	0.037726074
106	0x3d2215ae	0.039571457
107	0xbcbc1e85	-0.022963772
108	0x3d9b2539	0.07575459
109	0xbdaf9f75	-0.08575336
110	0x3bf2b711	0.007407077
111	0x3d9bb98d	0.076037504
112	0xbbec29cf	-0.0072071324
113	0x3c93807a	0.018005598
114	0xbd394e32	-0.04524059
115	0xbc662676	-0.014047256
116	0xbb98288d	-0.004643506
117	0x3d3e069b	0.04639302
118	0xbd11ec90	-0.035625994
119	0x3d583f5b	0.052794795
120	0x3d9aca8f	0.07558166
121	0xbbd13568	-0.0063845403
122	0x3b9dccd0	0.0048156753
123	0xbd0099cf	-0.031396683
124	0x3c811b54	0.015760101
125	0xbc848f1b	-0.01618152
126	0xbd53bcb9	-0.05169365
127	0x3d49ce8a	0.049269237
128	0xbd465a62	-0.04842604
129	0x3d390a91	0.045176093
130	0xbb53663a	-0.0032256977
131	0x3c53041a	0.012879396
132	0xbbedf359	-0.0072616753
133	0xbd8009fe	-0.06251906
134	0xbcd1f3b0	-0.025628895
135	0x3d3f5248	0.04670933
136	0x3be0318a	0.006841843
137	0xbd7db72b	-0.06194226
138	0xbc7b630f	-0.015343442
139	0xbd5fbe0d	-0.054624606
140	0x3d441a42	0.047876604
141	0x3d8edf58	0.06976193
142	0xbd3781ac	-0.0448014
143	0x3d3164ac	0.0433089
144	0xbd810c67	-0.06301194
145	0x3bc4b97f	0.006003558
146	0xbd92d6b4	-0.071698576
147	0x3ccb9079	0.024849163
148	0x3d34e66f	0.04416507
149	0xbb8130ec	-0.0039425995
150	0xbccf2a88	-0.025288835
151	0x3c816d72	0.015799258
152	0x3bbf7df5	0.0058438727
153	0xbda01d09	-0.07818038
154	0xbd3b12ae	-0.04567211
155	0x3d9048f1	0.070451625
156	0xbd03cb33	-0.032176208
157	0xbd366ccb	-0.044537347
158	0x3b656feb	0.0035009335
159	0xbca19f1a	-0.019729186
160	0xbd5c0d3d	-0.053723563
161	0x3b7c07ef	0.0038456877
162	0xbd4fbe44	-0.05071856
163	0x3c88daf9	0.016705977
164	0xbca92e8a	-0.020652074
165	0x3cba1477	0.022714837
166	0x3ca55cd3	0.020185864
167	0xbd38267c	-0.044958577
168	0x3d48870c	0.048956916
169	0xbcecb530	-0.02889499
170	0xbd815c06	-0.0631638
171	0xbb15addc	-0.0022839224
172	0x3d6ff2b6	0.058581077
173	0xbd08656f	-0.03329986
174	0xbd86bf98	-0.06579512
175	0xbd605d3c	-0.054776415
176	0x3d21eea2	0.03953422
177	0x3d735896	0.059410654
178	0x3d7500ce	0.05981522
179	0x3d0b3d04	0.033993736
180	0x3d7dc532	0.06195564
181	0x3c2bf144	0.010494534
182	0xbadc77f2	-0.0016820414
183	0x3c54844f	0.012970998
184	0xbd9766fb	-0.07392689
185	0xbcc520ea	-0.024063546
186	0x3bc850e8	0.0061131604
187	0xbd088e28	-0.033338696
188	0xbd5f618d	-0.05453639
189	0x3cb24428	0.021761015
190	0x3c747f3c	0.014922913
191	0xbda0d997	-0.07854002
192	0x3d50ef7e	0.051009648
193	0xbd915cfb	-0.07097813
194	0x3d34cb00	0.04413891
195	0x3d180b66	0.037120245
196	0x3cb072c0	0.021539092
197	0xbcf24fc0	-0.029579043
198	0x3c0d3db8	0.008620672
199	0x3cc11060	0.023567379
200	0x3d182452	0.037144013
201	0x3cc78b09	0.02435829
202	0xbba561f6	-0.0050470782
203	0xbd014113	-0.0315562
204	0xbd0a2cb1	-0.033734027
205	0x3c5db9a5	0.013533031
206	0x3c5e9063	0.013584229
207	0x3c983317	0.018579049
208	0x3da97652	0.08274521
209	0xbc94cf6e	-0.018165316
210	0x3d95e792	0.07319559
211	0xbd029683	-0.03188182
212	0xbd4e6515	-0.050389368
213	0x3c3da309	0.011574515
214	0xbd8cfee7	-0.06884556
215	0x3d38c186	0.045106433
216	0x3cf8fcd3	0.030393993
217	0xbc73c9ff	-0.014879703
218	0xbd055010	-0.032547057
219	0xbd8c05d0	-0.06837046
220	0xbd9ced25	-0.07662419
221	0x3c14add6	0.009074649
222	0x3c8fa2db	0.01753371
223	0x3d7a808c	0.061157748
224	0xbbcc0594	-0.006226251
225	0x3c042f56	0.008067926
226	0xbaf2076e	-0.0018465349
227	0xbceb01e9	-0.028687434
228	0x3d160d8c	0.036634013
229	0xbc86f44a	-0.016473908
230	0x3c18c65d	0.009324637
231	0x3d2bd044	0.041946664
232	0x3bea44b7	0.0071493047
233	0xbc044079	-0.008072012
234	0x3cf5e6ba	0.030017246
235	0xbd4ac642	-0.04950548
236	0xbd399e1d	-0.045316804
237	0xbd15f935	-0.036614615
238	0x3be60c1f	0.007020488
239	0xbd5919f7	-0.053003278
240	0x3c7fafbd	0.015605864
241	0x3cd43d8b	0.025908252
242	0xbc22db58	-0.009939991
243	0x3d41d42f	0.047321495
244	0x3c2aad78	0.010417335
245	0xbd2e4716	-0.04254826
246	0x3d68da87	0.05684903
247	0x3c9dd33f	0.019265769
248	0x3d6be1fa	0.057588555
249	0x3cab661c	0.020922713
250	0x3a0f517c	0.0005467159
251	0xbadbb37a	-0.0016761862
252	0x3d654383	0.055972587
253	0x3d0d23bc	0.034457907
254	0x3b9b779f	0.0047444846
255	0xbd038ac8	-0.032114774

fc.3.weight f4 [12, 256]
0	0xbd387062	-0.04502905
1	0x3d1b9652	0.037985153
2	0xbd580ba1	-0.052745465
3	0xbdba4dbd	-0.09096859
4	0xbd969202	-0.073520675
5	0xbdad51aa	-0.08462842
6	0xbd1128e1	-0.035439376
7	0x3c84b3ea	0.016199071
8	0xbdd8c283	-0.10583975
9	0xbcfdece0	-0.03099674
10	0xbe191cf9	-0.14952458
11	0x3cce4269	0.025178151
12	0xbcfbdc19	-0.0307446
13	0xbd062b9b	-0.03275643
14	0xbc83b9db	-0.016079834
15	0xbd1e4719	-0.038642023
16	0xbd56cfeb	-0.05244438
17	0x3cd73a06	0.026272785
18	0xbd51008c	-0.051025912
19	0xbd0406a6	-0.032232903
20	0xbf464987	-0.77455944
21	0xbdac9b2b	-0.084280334
22	0xbd7c97c2	-0.061668165
23	0xbc9ff146	-0.019524228
24	0x3ce7fe1b	0.02831941
25	0xbb391f26	-0.0028247326
26	0xbd0a4a3e	-0.03376221
27	0xbd0ef833	-0.03490467
28	0xbe0578c6	-0.13034353
29	0xbeb7a75b	-0.3586987
30	0xbcb5a14c	-0.022171639
31	0xbd7bc147	-0.06146362
32	0x3b556f5e	0.00325676
33	0xbd34900c	-0.044082686
34	0x3d5a119f	0.05323946
35	0xbe8a3f75	-0.2700154
36	0x3ca0cde2	0.019629423
37	0x3cda75b8	0.02666746
38	0xbd776bf1	-0.060405675
39	0xbc2f04df	-0.010682314
40	0xbd788c19	-0.060680483
41	0xbdbf2641	-0.09333468
42	0xbcb0261d	-0.021502549
43	0x3c2bec8f	0.010493412
44	0x3d41113f	0.047135588
45	0xbe648c5c	-0.22319168
46	0x3ab7c583	0.0014020655
47	0xbd887e8d	-0.06664763
48	0x3d3a22f4	0.04544349
49	0xbf22e1eb	-0.63625973
50	0xbd3b4e88	-0.04572919
51	0xbdc809c6	-0.09767489
52	0xbcfc25d4	-0.030779757
53	0x3d577814	0.05260475
54	0x3d572cdb	0.052533012
55	0xbd5f4eba	-0.05451844
56	0x3d2aede9	0.041730795
57	0xbe035e20	-0.12828875
58	0x3d054c22	0.03254331
59	0xbd846a91	-0.064656384
60	0xbc6aad4f	-0.014323547
61	0xbdbd2c8d	-0.09237013
62	0x3c52928a	0.01285232
63	0xbd7ee394	-0.062228754
64	0x3cf66f46	0.030082356
65	0x3980dc01	0.00024577978
66	0xbdfbfb3f	-0.12303781
67	0x3c423f8d	0.011855972
68	0xbc8f250d	-0.017473722
69	0xbbf60192	-0.0075075114
70	0x3c827026	0.015922617
71	0xbd7c4fd5	-0.06159957
72	0x3d2464a0	0.040135026
73	0xbdd9f9f5	-0.10643379
74	0x3ca2891c	0.01984077
75	0xbd2d99a2	-0.042382844
76	0xbda755c5	-0.08170656
77	0xbeaf3877	-0.34222767
78	0xbbd19241	-0.0063956087
79	0xbe914462	-0.28372484
80	0xbd8c1657	-0.068401985
81	0xbd8b4239	-0.0679974
82	0x3d44cdb3	0.048047733
83	0x3bd4a887	0.0064898166
84	0xbd1e09e2	-0.038583644
85	0xbce44b48	-0.027867928
86	0xbdce5c0c	-0.1007615
87	0x3d29872f	0.041388687
88	0x3cca9c30	0.02473268
89	0x3cc46599	0.023974227
90	0x3d1feef1	0.03904623
91	0xba7951b6	-0.0009510772
92	0xbd6f1964	-0.058373824
93	0xbd26fcb0	-0.040768325
94	0xbddab5d1	-0.1067921
95	0x3cb5bfa1	0.022186102
96	0xbc08be1c	-0.008346107
97	0xbe00d6ec	-0.12581986
98	0xbb2edef2	-0.0026683179
99	0xbe05d9c8	-0.13071358
100	0xbd03e085	-0.03219654
101	0xbdc46638	-0.09589809
102	0xbb7c286d	-0.0038476244
103	0x3c2114f5	0.009831657
104	0xbdbf896a	-0.093523815
105	0x3ccb6d76	0.024832468
106	0x3c09924c	0.008396696
107	0x3d3dd29d	0.046343435
108	0xbe143590	-0.14473557
109	0x3c7c8d2f	0.01541452
110	0x3ccb5154	0.024819054
111	0xbd70c537	-0.05878183
112	0xbda5d1b4	-0.08096638
113	0xbb1c4d9a	-0.0023849965
114	0xbd8364a0	-0.06415677
115	0x3caefb59	0.021360086
116	0xbda36e5c	-0.07980034
117	0xbe007908	-0.1254617
118	0x3d517b24	0.051142827
119	0xbd2768c6	-0.040871404
120	0xbf32e082	-0.6987382
121	0xbd8ab1a6	-0.06772165
122	0xbe17145a	-0.14753857
123	0xba531256	-0.00080517435
124	0xbdaf7091	-0.08566392
125	0xbde7b36e	-0.1131352
126	0xbc41cd85	-0.011828785
127	0xbcec3507	-0.02883388
128	0x3cc44eb8	0.023963317
129	0xbd06f982	-0.032952793
130	0xbc3f6a24	-0.011683021
131	0xbd19e8fa	-0.0375757
132	0x3c16ea6a	0.009211162
133	0xbda21edf	-0.079160444
134	0xbe246dc8	-0.16057503
135	0xbdaacdbc	-0.08340022
136	0xbf1e652c	-0.61873126
137	0xbcec3279	-0.028832661
138	0x3d003f8c	0.031310603
139	0xbbc732ce	-0.0060790544
140	0xbd019226	-0.03163352
141	0xbd61a5cd	-0.05508976
142	0xbdee8ab2	-0.11647548
143	0xbcada6dc	-0.021197729
144	0xbf0a36bf	-0.53989786
145	0xbcc33f09	-0.023833768
146	0xbd47c8b4	-0.04877539
147	0x3c80e8bd	0.015735978
148	0xbcbd4170	-0.023102492
149	0x3c8390f0	0.016060323
150	0xbd46ed38	-0.048566073
151	0xbd88f936	-0.06688158
152	0x3d517f10	0.051146567
153	0x3cfe284a	0.03102507
154	0xbd400573	-0.046880197
155	0xbd227d38	-0.0396702
156	0x3cb9fad5	0.022702614
157	0xbc7e3a27	-0.015516794
158	0xbde11145	-0.10989622
159	0xbe9a84c5	-0.3017942
160	0xbcf19de0	-0.029494226
161	0xbe1c67ac	-0.15273923
162	0xbe16d23e	-0.14728639
163	0xbc634f81	-0.013873936
164	0x3d3019c9	0.04299334
165	0xbd50d070	-0.05098003
166	0x3d27a670	0.04093021
167	0xbd068aa1	-0.03284705
168	0xbdf6ceec	-0.12051186
169	0x3d2c7466	0.042103194
170	0xbd886bd5	-0.06661192
171	0x3c9432e6	0.018090677
172	0xbdf396ee	-0.11894022
173	0xbc55f9d0	-0.013060048
174	0x3cf5099a	0.029911805
175	0xbbb9db42	-0.0056718895
176	0xbdb22052	-0.08697571
177	0xbdb32f49	-0.08749253
178	0xbdd6a9b5	-0.10481588
179	0x3c611ad8	0.01373931
180	0xbd4c8048	-0.049927026
181	0xbdb94d59	-0.09047956
182	0xbe07de3c	-0.1326837
183	0xbd0e8e23	-0.03480352
184	0x3d684fb4	0.056716636
185	0xbcb955ce	-0.022623923
186	0xbdf9068c	-0.12159452
187	0xbe1c0235	-0.15235217
188	0x3d1d2c68	0.038372427
189	0xbc561fd0	-0.013069108
190	0xbf555570	-0.8333349
191	0xbcdc6c14	-0.026907004
192	0xbd8ae46a	-0.06781848
193	0xbc8482be	-0.016175624
194	0xbe24f497	-0.16108929
195	0xbd320687	-0.043463256
196	0x3d1ed469	0.03877679
197	0xbd22b0c0	-0.039719343
198	0xbd1442c7	-0.036196496
199	0xbd83b6e4	-0.06431368
200	0x3c5e751c	0.013577726
201	0xbd28da5c	-0.04122387
202	0x3a276911	0.00063862005
203	0xbdf38e49	-0.11892373
204	0x3cea6d09	0.028616445
205	0xbd3821aa	-0.04495398
206	0xbcda020b	-0.026612302
207	0xbd52253a	-0.051305033
208	0xbe5ad314	-0.21369582
209	0xbd190306	-0.0373564
210	0xbda10f21	-0.07864214
211	0x3a73283f	0.00092757115
212	0x3c432afb	0.011912103
213	0xbcb1570f	-0.021647958
214	0x3cbe73be	0.02324855
215	0xbd6308dc	-0.05542837
216	0xbc8809fe	-0.016606327
217	0xbde70712	-0.112806454
218	0xbad7b328	-0.0016456591
219	0x3c4e8d8a	0.012606988
220	0x3d50c257	0.050966587
221	0x3d191294	0.037371233
222	0x3bc513d3	0.006014326
223	0x3b07bbf9	0.0020711406
224	0xbd64f5bc	-0.055898413
225	0xbd8c274f	-0.06843435
226	0xbd72f145	-0.059312124
227	0xbd13d777	-0.036094155
228	0xbde245a2	-0.11048438
229	0xbdb37718	-0.0876295
230	0xbd6c6f61	-0.057723407
231	0xbd894df6	-0.06704323
232	0xbdcd2ac2	-0.10017921
233	0xbbec614a	-0.007213746
234	0xbd3c3bf1	-0.045955602
235	0xbf210087	-0.6289143
236	0xbc010a03	-0.007875922
237	0xbd741bf4	-0.05959697
238	0xbd6b2573	-0.05740876
239	0xbedc6784	-0.43047726
240	0x3d10e7a7	0.03537717
241	0x3d27e1ce	0.04098683
242	0xbe85be7c	-0.2612189
243	0x3d49aa96	0.04923495
244	0xbd9fe716	-0.07807748
245	0x3d48071b	0.0488349
246	0xbecfe333	-0.40603027
247	0xbdbe0619	-0.09278507
248	0xbda5456c	-0.08069882
249	0x3d1ae45b	0.037815433
250	0x3d068aed	0.032847334
251	0x3d54b7f1	0.051933233
252	0xbdb7c410	-0.08972943
253	0xbcf76594	-0.030199803
254	0xbd65d710	-0.056113303
255	0xbdaa763a	-0.08323331

fc.3.bias f4 [12]
0	0xbbd16573	-0.0063902675
1	0xbd6e0a1d	-0.058115114
2	0x3d34fee1	0.044188384
3	0xbd864665	-0.065563954
4	0xbd861f63	-0.06548955
5	0x3c288c40	0.010287344
6	0xbcfe71c0	-0.0310601
7	0xbc23df13	-0.0100019155
8	0xbcb266ee	-0.021777596
9	0xbd4f7954	-0.050652817
10	0xbd2a099e	-0.041513078
11	0x3c815086	0.015785467
