cnn_fighting_agent_starter/outputs/20251017_202932/model.pt (torch, 287835 bytes, 12 tensors)

state_cnn.0.0.weight f4 [16, 1, 3, 3]
0	0x3e1ee619	0.15517463
1	0xbe7babc7	-0.24577247
2	0xbe28ef47	-0.16497527
3	0x3e331c90	0.17491364
4	0x3e46c0b1	0.19409443
5	0xbea13da5	-0.31492344
6	0xbdf4bcc1	-0.119500645
7	0xbd641e76	-0.055693112
8	0xbe60ead3	-0.21964578
9	0xbd7d9246	-0.061907075
10	0x3d2a55b4	0.04158564
11	0xbe8f0b99	-0.27938536
12	0xbe797da9	-0.24364342
13	0xbd4a97ed	-0.049461294
14	0xbe8fe5e9	-0.28105095
15	0x3e809adb	0.25118145
16	0xbdc1adc7	-0.094569735
17	0x3e6d2320	0.2315793
18	0xbe07e0d4	-0.13269359
19	0xbe936d32	-0.28794247
20	0x3dd7b859	0.105332084
21	0xbe6ba822	-0.23013356
22	0x3e0f97f7	0.14022814
23	0x3e989974	0.29804575
24	0x3d5aa49a	0.053379633
25	0x3e8327cd	0.25616303
26	0x3ea06dd9	0.31333807
27	0xbe5718c3	-0.2100554
28	0x3e839c3b	0.25705132
29	0xbeabb9b7	-0.33540127
30	0x3de9a218	0.1140787
31	0x3e05cd59	0.13066615
32	0xbea733f7	-0.32656834
33	0xbe574bb6	-0.21024975
34	0xbe816f27	-0.25280115
35	0x3db5f8c8	0.08885342
36	0xbc75b326	-0.014996326
37	0x3e41293e	0.18863389
38	0xbde192f8	-0.1101436
39	0x3e98c499	0.29837492
40	0xbe7da4af	-0.24769853
41	0x3e1b8c58	0.15190256
42	0x3da0a6b9	0.078443
43	0x3e893e4b	0.26805338
44	0x3e2f5160	0.17120886
45	0x3dd3eeb0	0.103482604
46	0x3d306d4b	0.04307298
47	0xbe982121	-0.29712775
48	0x3db68dab	0.0891374
49	0x3df5121d	0.119663455
50	0x3e846e66	0.25865477
51	0x3e95205d	0.29126254
52	0x3e46ca4b	0.19413106
53	0x3e6330ad	0.22186537
54	0x3c631a27	0.013861216
55	0xbda6a8d0	-0.08137667
56	0x3e7692af	0.24079393
57	0xbe92fc0e	-0.28707927
58	0xbceb37c9	-0.028713124
59	0x3eab6d2f	0.33481738
60	0xbe83245f	-0.25613686
61	0xbe861d84	-0.26194394
62	0x3e4b42c9	0.19849695
63	0xbde08a7e	-0.10963915
64	0xbbf8cd9b	-0.0075928695
65	0x3e9a5bae	0.3014807
66	0xbe4095f7	-0.18807207
67	0x3d36fc3e	0.04467415
68	0xbe1416cf	-0.14461826
69	0xbaa013c8	-0.0012212927
70	0x3e8bec45	0.27328697
71	0xbe89fba6	-0.26949805
72	0xbdc5438b	-0.096320234
73	0x3e8b66c4	0.2722684
74	0x3e3aa967	0.18228684
75	0x3e87f028	0.26550412
76	0xbea57582	-0.32316214
77	0x3d4fa2b5	0.05069228
78	0xbe82668f	-0.2546887
79	0x3ea8b200	0.32948303
80	0xbd0f990b	-0.035058063
81	0xbe890a79	-0.26765803
82	0xbe33150e	-0.174885
83	0xbe7850a6	-0.24249515
84	0xbe705c26	-0.23472652
85	0x3dc5e82c	0.09663424
86	0xbdd982e6	-0.1062067
87	0xbe98a9ee	-0.29817146
88	0xbe9fb7f3	-0.3119503
89	0x3e75046c	0.23927468
90	0x3e940090	0.2890668
91	0x3e9faa8b	0.311848
92	0x3e73f98f	0.23825668
93	0xbe8a77fc	-0.27044666
94	0x3d8cc6e2	0.068738714
95	0x3e6d0ef4	0.23150235
96	0xbe9aa285	-0.30202118
97	0xbe30b623	-0.1725698
98	0x3d685fa0	0.05673182
99	0xbe037a61	-0.12839653
100	0x3e8a63c0	0.27029228
101	0x3dc93e2d	0.09826312
102	0xbe646363	-0.22303538
103	0xbd16990e	-0.036767058
104	0x3d8791f1	0.06619633
105	0xbe8d9a4b	-0.2765678
106	0xbc87eca6	-0.016592335
107	0x3e24f8cc	0.16110533
108	0xbcbafde1	-0.022826137
109	0x3e2a5bd1	0.16636588
110	0xbcf33fd6	-0.029693525
111	0xbe9896bb	-0.29802498
112	0x3df310a5	0.11868409
113	0x3d452687	0.048132446
114	0x3d5c933c	0.05385135
115	0xbe18cbc6	-0.14921483
116	0xbe33cbd9	-0.1755823
117	0x3e7c7688	0.24654591
118	0xbe87b63a	-0.26506215
119	0x3db0e742	0.08637859
120	0x3e4d1577	0.2002772
121	0x3deaa7c1	0.11457778
122	0xbd208a74	-0.03919454
123	0xbd58da2d	-0.052942444
124	0xbe45fb76	-0.19334206
125	0x3d9363c7	0.071967654
126	0xbe8942d1	-0.2680879
127	0xbe242c51	-0.1603253
128	0x3e648797	0.22317348
129	0x3de922e8	0.11383611
130	0xbd9b1d5a	-0.07573958
131	0x3e66abf1	0.22526528
132	0xbe93fe14	-0.28904784
133	0xbea5fe4b	-0.32420573
134	0xbd5d79c6	-0.05407121
135	0x3de6e62b	0.1127437
136	0x3e49ff14	0.19726211
137	0x3e98259e	0.297162
138	0xbd13fb2e	-0.036128215
139	0x3ea86d50	0.328959
140	0x3e78dfd4	0.24304134
141	0x3e66e1ca	0.22547069
142	0x3e210577	0.15724741
143	0x3def3ae1	0.11681152

state_cnn.0.0.bias f4 [16]
0	0xbdd6271b	-0.104566775
1	0xbd520844	-0.051277414
2	0x3eaa1c08	0.3322451
3	0xbdde0d64	-0.10842398
4	0x3e96cee4	0.2945472
5	0x3e6b3cdb	0.22972433
6	0x3d8afda7	0.067866616
7	0xbe281eb3	-0.16417961
8	0xbe87957b	-0.26481232
9	0xbea058d7	-0.3131778
10	0x3e58b7bb	0.21163838
11	0x3df4b2a6	0.11948137
12	0xbe1adf51	-0.15124251
13	0xbe0156b8	-0.12630737
14	0xbdd48e0e	-0.10378657
15	0x3e23540a	0.15950027

state_cnn.1.0.weight f4 [32, 16, 3, 3]
0	0xbd9b6ae9	-0.07588751
1	0x3d8f99c4	0.0701175
2	0x3d93f037	0.07223552
3	0x3d0b565b	0.034017902
4	0xbc860ee8	-0.01636453
5	0xbcd1c716	-0.025607627
6	0x3d49d6b6	0.04927703
7	0x3d563831	0.052299682
8	0xbd926a00	-0.07149124
9	0xbd5e29be	-0.054239027
10	0x3db735cb	0.08945807
11	0x3c2139df	0.009840458
12	0xbca6f59e	-0.020380791
13	0x3c2afa26	0.010435617
14	0xbcf1f582	-0.029536013
15	0x3c936d59	0.017996477
16	0xbd79d0ab	-0.060990017
17	0x3acac531	0.0015470145
18	0x3bc8c89c	0.00612743
19	0x3dc1404b	0.09436091
20	0x3dc95b73	0.09831896
21	0x3caf1e1e	0.021376666
22	0x3db42914	0.087968975
23	0x3dac9869	0.084275074
24	0xbd4c916c	-0.049943373
25	0x3daba71c	0.08381483
26	0x3d1fb6a1	0.038992528
27	0x3bd6e25c	0.006557746
28	0x3c1a58de	0.009420602
29	0x3d857ca1	0.06517912
30	0xbd71b46c	-0.059009954
31	0xbce476d6	-0.027888697
32	0xbc4ab231	-0.012371586
33	0x3d2f12a3	0.042742383
34	0x3dc13870	0.09434593
35	0xbd3476cd	-0.04405861
36	0xbd638a99	-0.0555521
37	0xbc458661	-0.012055964
38	0x3d9354d0	0.07193911
39	0x3da12a51	0.07869399
40	0xbc49730c	-0.012295496
41	0x3dbebc9c	0.09313318
42	0x3c039843	0.0080319075
43	0x3c6bce72	0.014392482
44	0x3c95d5c8	0.018290415
45	0x3d926519	0.07148189
46	0x3d92d866	0.07170181
47	0xbcd84a78	-0.026402697
48	0x3d8d9229	0.069126435
49	0x3cced19b	0.025246432
50	0x3d342fdb	0.04399095
51	0xbda08df1	-0.07839573
52	0x3db28152	0.08716072
53	0xbd6b06c5	-0.057379503
54	0x3af163f1	0.0018416626
55	0xbcbd1eed	-0.023086036
56	0x3db24259	0.08704061
57	0xbd7286c6	-0.05921056
58	0x3b90581c	0.0044050347
59	0xbd70dc71	-0.05880398
60	0x3d95ab9f	0.07308125
61	0x3d675589	0.056478057
62	0x3cefc45b	0.029268434
63	0xbd0ee7e1	-0.034889106
64	0xbbfc782f	-0.0077047567
65	0xbde3224f	-0.11090528
66	0xbce6bb3c	-0.028165452
67	0x3ce175b6	0.02752195
68	0xbd679733	-0.05654068
69	0x3ade7ef1	0.0016975087
70	0xbc25ef83	-0.010127905
71	0xbd94c91c	-0.07264921
72	0xbd8aab8b	-0.067710005
73	0x3c8e0263	0.017335122
74	0x3b16aa9f	0.0022989882
75	0xbd367dd6	-0.0445536
76	0xbcee46dd	-0.029086525
77	0x3d83035b	0.063971244
78	0xbd987b7b	-0.07445427
79	0xba9b75eb	-0.0011860704
80	0xbb1ab6f3	-0.0023607581
81	0xbd9f1ba7	-0.07768946
82	0xbab6d723	-0.0013949614
83	0xbd536d86	-0.05161812
84	0xbd2529a9	-0.040322933
85	0xbc018fa3	-0.007907781
86	0x3d4d0fc1	0.050063852
87	0xbd38abbe	-0.04508566
88	0x3d301376	0.04298731
89	0x3c8005f9	0.015627848
90	0x3cab90e3	0.02094311
91	0xbd533974	-0.051568463
92	0x3d953341	0.072851665
93	0xbd82b2cf	-0.06381761
94	0x3db3d418	0.08780688
95	0x3d9b0099	0.07568473
96	0x3c6f519c	0.01460686
97	0xbd621d04	-0.055203453
98	0x3db00bc6	0.085959956
99	0x3af3a146	0.0018587492
100	0xbd2354d7	-0.03987583
101	0xbb599ff6	-0.0033206916
102	0xbd82d686	-0.06388573
103	0x3ca781b2	0.020447586
104	0xbd67d5d5	-0.05660041
105	0x3d384399	0.04498634
106	0x3c393e9a	0.011306429
107	0xbd6cd127	-0.05781665
108	0x3da60cca	0.08107908
109	0x3d38c3b3	0.04510851
110	0x3d8801f6	0.06640999
111	0xbcd75346	-0.026284825
112	0xbb07aef5	-0.0020703648
113	0xbbb53c41	-0.0055308645
114	0xbd7e8da1	-0.062146787
115	0xbc8e8d18	-0.017401263
116	0xbc949cca	-0.01814117
117	0xbd7f8b19	-0.062388513
118	0x3d7a459f	0.061101552
119	0xbcf9f35c	-0.03051155
120	0x3d29de9e	0.04147207
121	0x3d2486c6	0.040167592
122	0x3db868f7	0.090043955
123	0xbce4c5c1	-0.027926328
124	0x3da010e3	0.07815721
125	0xbd4432d2	-0.04790003
126	0xbd838ab6	-0.064229414
127	0x3c0c0c28	0.00854782
128	0x3adf8c9c	0.0017055455
129	0xbd7b5466	-0.061359785
130	0xbd5723af	-0.052524265
131	0xbd0f0d92	-0.03492505
132	0x3d780cdc	0.06055914
133	0x3d048551	0.032353703
134	0x3d80c1f3	0.06286993
135	0xbcc3798c	-0.023861669
136	0x3c94bfd4	0.018157877
137	0x3daa2507	0.08307844
138	0x3d7a2814	0.061073378
139	0xbd280ccc	-0.04102783
140	0x3c4206a3	0.011842403
141	0x3c1b5c63	0.009482476
142	0x3d87168a	0.06596096
143	0xbd239184	-0.039933696
144	0x3c342283	0.010994556
145	0xbd93b3a4	-0.07211998
146	0xbdae5f1f	-0.08514237
147	0xbd2a8999	-0.04163513
148	0x3dc38849	0.09547479
149	0xbd8a99ab	-0.06767591
150	0x3cf13941	0.029446246
151	0x3d221f3f	0.03958058
152	0xbcb8ad06	-0.022543442
153	0xbca46d59	-0.020071672
154	0x3d62e182	0.055390842
155	0x3d99dbfa	0.0751266
156	0xbd2b79a6	-0.04186406
157	0x3d7f4a7f	0.062326904
158	0xbcf518ce	-0.029919054
159	0x3d7deff4	0.061996415
160	0xbd8bc424	-0.0682452
161	0x3d7e486c	0.062080786
162	0xbc29bc20	-0.010359794
163	0x3e04f7ae	0.12985107
164	0x3e04e060	0.12976217
165	0x3bca4d76	0.006173785
166	0x3d4ad778	0.049521893
167	0x3da60611	0.08106626
168	0xbd6c8f8a	-0.057754077
169	0x3da3a59d	0.079905726
170	0x3c1972f3	0.009365785
171	0xbbe6bfdc	-0.0070419144
172	0xbc4b74b1	-0.012417958
173	0x3c6660e6	0.014061188
174	0x3b74fcc6	0.003738211
175	0x3cb452d2	0.022012148
176	0x3dc88e99	0.09792823
177	0x3c259e63	0.010108563
178	0x3dbfb1e2	0.093601
179	0x3e12db1d	0.14341398
180	0xbda614af	-0.08109414
181	0x3e614836	0.22000203
182	0x3df5d0a4	0.12002686
183	0xbd88af52	-0.06674065
184	0xbc8a83ed	-0.01690861
185	0x3c857f19	0.016295956
186	0xbd1ff7e7	-0.039054777
187	0xbc7ec014	-0.015548725
188	0x3c05e7bb	0.008172925
189	0xbc1484b5	-0.009064843
190	0x3e7c5ba1	0.24644329
191	0x3e68bea8	0.2272898
192	0xbd7e0fb4	-0.062026694
193	0xbd313e76	-0.043272458
194	0x3dd39eba	0.10333009
195	0x3d72d002	0.059280403
196	0x3d0f9d5a	0.03506217
197	0x3ca27931	0.01983318
198	0xbc98b652	-0.018641625
199	0x3e23bc63	0.15989833
200	0x3e3276bc	0.17428106
201	0x3d4ff4ed	0.05077069
202	0x3d77dc3d	0.06051277
203	0xbba9b2df	-0.005178794
204	0xbc8b1403	-0.016977316
205	0xbcfca496	-0.0308402
206	0x3d9946cb	0.07484206
207	0xbd1ba757	-0.038001385
208	0x3df794e8	0.120889485
209	0xbcb38899	-0.02191572
210	0xbd3f4191	-0.04669339
211	0x3b9e589c	0.0048323404
212	0xbd657550	-0.05602008
213	0x3cf9e335	0.030503849
214	0x3dc9363e	0.09824799
215	0x3ac410cd	0.001495862
216	0x3ccfa7b6	0.025348525
217	0x3e56f9dc	0.20993751
218	0x3dc86f27	0.097868256
219	0x3d226146	0.03964355
220	0xbc76e0e8	-0.01506827
221	0xbcf7a625	-0.030230591
222	0x3c40179e	0.011724381
223	0x3c49f978	0.012327544
224	0xbca3fb74	-0.020017363
225	0xbd3e3cf1	-0.046444837
226	0xbc2885c3	-0.0102857975
227	0xbaf8ff9c	-0.0018997076
228	0xbd9a5547	-0.075357966
229	0x3d5bf98c	0.053704783
230	0xbd6e570c	-0.058188483
231	0xbd83537f	-0.0641241
232	0x3cd3b801	0.025844576
233	0xbd8d8dc5	-0.06911806
234	0x3d16f928	0.036858708
235	0x3e00c737	0.12575994
236	0x3e3e3ce4	0.18577915
237	0x3ccdc147	0.025116576
238	0xbbf75ab8	-0.0075486563
239	0x3d6d4db3	0.057935428
240	0x3d400b5f	0.046885844
241	0x3bf2c0e3	0.007408248
242	0xbcdcd57b	-0.026957264
243	0xbab701ad	-0.0013962291
244	0x3e16ba6a	0.14719549
245	0x3e56be85	0.20971115
246	0x3d387ff1	0.04504389
247	0xbd360a1d	-0.04444324
248	0x3ce9d86d	0.028545583
249	0x3c364344	0.011124436
250	0xbd306bed	-0.043071676
251	0xbbfe9bb1	-0.0077700247
252	0xbc018ee3	-0.007907602
253	0x3d181f7e	0.03713941
254	0x3d7454b1	0.05965108
255	0x3d3d0103	0.046143543

state_cnn.1.0.bias f4 [32]
0	0x3c8e816d	0.0173957
1	0x3d2c8430	0.04211825
2	0xbd875106	-0.06607251
3	0xbb85ae0d	-0.0040795864
4	0xbd0e1ac8	-0.03469351
5	0x3dc83e0d	0.0977746
6	0x3cbcc5b9	0.0230435
7	0xbd1c4928	-0.038155705
8	0x3da9733b	0.082739316
9	0x3db6b6c9	0.08921582
10	0x3db68ea9	0.08913929
11	0xbc45a92f	-0.012064262
12	0xbd2596a6	-0.040426873
13	0x3bc8c5e6	0.006127107
14	0x3da8736c	0.0822514
15	0xbca16271	-0.01970026
16	0x3d58a542	0.052891977
17	0x3dc7fecb	0.09765395
18	0x3cec13d0	0.028818041
19	0xbd50a014	-0.050933912
20	0xbd904eb6	-0.07046263
21	0x3cfe6f07	0.031058801
22	0x3d826a1f	0.06367897
23	0x3c88bcb1	0.016691538
24	0x3d385ec3	0.045012247
25	0x3d16277d	0.036658753
26	0x3d165c70	0.03670925
27	0x3accaeaa	0.0015616019
28	0xbd1a22ce	-0.03763085
29	0xbc94c3a4	-0.018159695
30	0x3d504716	0.050849043
31	0xbd8e9885	-0.069626845

button_cnn.0.0.weight f4 [8, 1, 3, 3]
0	0x3e877bb8	0.26461577
1	0x3e017372	0.12641695
2	0x3e371e16	0.1788257
3	0xbe8d134c	-0.27553785
4	0x3e66c5ec	0.22536439
5	0x3e628abd	0.22123237
6	0x3e9c91e0	0.30580044
7	0x3ddc8f5b	0.107695304
8	0x3e57b422	0.21064809
9	0xbe86006b	-0.26172194
10	0x3d679a10	0.05654341
11	0xbdd48b26	-0.10378103
12	0xbc80491c	-0.015659861
13	0xbe2a58c6	-0.16635427
14	0x3d6c6e80	0.05772257
15	0xbe2e7199	-0.17035522
16	0x3df29701	0.11845208
17	0xbca0cbb9	-0.019628393
18	0x3e9db051	0.3079858
19	0x3d01292c	0.031533405
20	0xbcf2df40	-0.02964747
21	0x3da0baec	0.078481525
22	0x3d8dbbe0	0.069206
23	0x3e26b594	0.16280204
24	0xbea442a3	-0.3208209
25	0xbdcf0fcf	-0.10110437
26	0x3d1a8d90	0.03773266
27	0x3e7ab5a7	0.24483357
28	0x3e119583	0.1421719
29	0x3dcd4d32	0.100244895
30	0x3e80d793	0.2516447
31	0x3e651694	0.22371894
32	0xbe82b7a5	-0.25530735
33	0xbe942f71	-0.28942445
34	0x3e9e5fbd	0.30932418
35	0x3e8876d6	0.26653165
36	0xbe4a1b78	-0.19737041
37	0xbe2ad637	-0.16683279
38	0x3e09b679	0.13448514
39	0x3eab3c12	0.33444268
40	0xbdc05bc8	-0.09392506
41	0x3e9f86f1	0.3115764
42	0x3d783587	0.060597923
43	0xbe970f64	-0.2950393
44	0x3e10db41	0.14146139
45	0xbe3cb12b	-0.18426959
46	0x3e18a18d	0.14905377
47	0xbba48f58	-0.0050219707
48	0x3e5309c7	0.20609199
49	0xbe61a921	-0.22037174
50	0x3e415784	0.18881041
51	0x3ea82f87	0.3284876
52	0xbd00377a	-0.031302907
53	0x3e950a5f	0.29109475
54	0x3e73cf10	0.23809457
55	0xbe9e48e4	-0.30914986
56	0x3d834fec	0.06411728
57	0xbe946bb2	-0.28988415
58	0x3e94bebb	0.29051766
59	0x3e66d8f9	0.22543706
60	0xbc9cf37c	-0.019159071
61	0xbca462c1	-0.02006662
62	0xbe766d05	-0.24065025
63	0xbe1c61f5	-0.15271743
64	0x3e719ab2	0.23594168
65	0x3eaab0b4	0.3333794
66	0x3e23fd25	0.16014536
67	0xbd393b23	-0.045222413
68	0xbe41c68c	-0.18923396
69	0xbe0e609f	-0.13904046
70	0x3e6f193a	0.23349467
71	0x3ea6c96a	0.32575542

button_cnn.0.0.bias f4 [8]
0	0xbe019755	-0.12655385
1	0xbe4cef81	-0.20013238
2	0xbdd9737f	-0.10617732
3	0x3e9d86e6	0.30766982
4	0x3dcf2574	0.101145655
5	0xbe82d9fa	-0.25556928
6	0x3e59372e	0.21212456
7	0xbe65b5ed	-0.2243268

button_cnn.1.0.weight f4 [16, 8, 3, 3]
0	0x3d8e9e0e	0.0696374
1	0x3db53d3c	0.0884957
2	0xbd4360aa	-0.047699608
3	0xbd102233	-0.035188865
4	0x3d10bd67	0.03533688
5	0x3bd5401e	0.0065078875
6	0xbc07d741	-0.008291067
7	0x3e086273	0.13318805
8	0x3df5e95c	0.120074004
9	0xbc37387b	-0.0111829
10	0x3d937a35	0.072010435
11	0xbd7a5f76	-0.061126195
12	0xbdb62bd7	-0.088950805
13	0x3ded3025	0.115814485
14	0x3c051b03	0.008124116
15	0x3d0cfa4a	0.03441838
16	0xbd16584d	-0.036705304
17	0x3d8e3f9f	0.069457285
18	0x3b44d584	0.0030034492
19	0x3d2e2c8f	0.042522963
20	0x3d677cc1	0.05651546
21	0x3d82a98b	0.06379994
22	0xbd7fdc96	-0.062466227
23	0x3da96712	0.08271612
24	0xbd97c799	-0.07411117
25	0xbd9ba71a	-0.076002315
26	0xbd8a9a5c	-0.06767723
27	0x3b5cdcf8	0.0033701044
28	0x3e02b409	0.1276399
29	0xbca4e69c	-0.020129494
30	0x3c1c919b	0.009556199
31	0xbb0dedec	-0.0021656705
32	0x3dbd9c56	0.09258334
33	0x3bfbd5e1	0.0076854085
34	0x3d73f4c0	0.059559584
35	0xbdc65eb4	-0.09686032
36	0x3dc59bdb	0.09648868
37	0xbc44b323	-0.0120056
38	0x3dd6e444	0.10492757
39	0x3ce95268	0.028481677
40	0x3d5eab3b	0.054362517
41	0x3cf39294	0.02973298
42	0xbd491dbe	-0.04910063
43	0x3dc2e872	0.09516992
44	0xbd017af2	-0.03161139
45	0xbd6384fb	-0.055546742
46	0xbd86fee4	-0.06591585
47	0xbc880ce9	-0.016607719
48	0x3e02a335	0.12757571
49	0xbca6e87a	-0.020374525
50	0xbdbfcd11	-0.09365285
51	0x3dcc2bc6	0.099692866
52	0x3d0d5d52	0.034512825
53	0x3d4bec07	0.04978564
54	0x3c4ce148	0.012504883
55	0xbd81b561	-0.063334234
56	0xbb979550	-0.0046259537
57	0xbc7c8be7	-0.015414215
58	0x3de8bbf0	0.11363971
59	0xbd0af2aa	-0.03392283
60	0x3e07b7d2	0.13253716
61	0xbdb20962	-0.08693196
62	0xbce4e43e	-0.027940866
63	0x3cd1be1e	0.02560335
64	0x3dff6164	0.12469748
65	0x3da7a864	0.08186415
66	0x3dcf8065	0.10131911
67	0xbd7ab5fc	-0.06120871
68	0xbda65c18	-0.08123034
69	0xbbe7a05e	-0.007068678
70	0xbd1aebda	-0.03782258
71	0x3d915f24	0.07098225
72	0xbddb5b71	-0.107108004
73	0xbd8bf05f	-0.068329565
74	0x3bf8962f	0.0075862627
75	0x3d01a10f	0.031647738
76	0x3cdbe4fa	0.026842583
77	0x3d96e820	0.07368493
78	0x3d908a69	0.0705765
79	0xbdc8d9b2	-0.09807147
80	0xbd132be4	-0.03593053
81	0x3dc3b9b5	0.09556905
82	0x3d9913f2	0.074745074
83	0x3c823f62	0.015899364
84	0xbdc3624d	-0.09540234
85	0x3debdff8	0.11517328
86	0xbd6ece72	-0.05830235
87	0xbd084f36	-0.033278666
88	0xbc77d33c	-0.015126046
89	0xbd6950bd	-0.056961764
90	0x3c868115	0.016418973
91	0xbbbdb593	-0.0057894676
92	0x3db60c18	0.088890254
93	0x3dcc4579	0.09974188
94	0x3dd7bec6	0.10534434
95	0xbd62f1d8	-0.05540642
96	0x3d0db826	0.034599446
97	0xbda41336	-0.08011477
98	0xbd8db97f	-0.06920146
99	0xbda64579	-0.081187196
100	0xbb8c104b	-0.004274403
101	0x3d66763e	0.05626511
102	0xbd287bb5	-0.0411336
103	0xbcc97782	-0.024593119
104	0x3dc9c743	0.09852459
105	0x3d8bd32b	0.068273865
106	0x3d802e00	0.06258774
107	0xbd12f5c4	-0.03587891
108	0x3d6e5b88	0.05819276
109	0xbd9faec9	-0.077970095
110	0xbc8223ef	-0.015886275
111	0xbceb8a16	-0.028752368
112	0x3df67ef3	0.120359324
113	0xbb9c2224	-0.004764812
114	0x3dfa5f25	0.12225179
115	0xbdc7aa92	-0.097493306
116	0x3cd22804	0.025653847
117	0x3c6efae1	0.014586181
118	0x3cee4263	0.02908439
119	0xbda0485d	-0.07826302
120	0xbd03795e	-0.032098167
121	0x3ddc2162	0.10748555
122	0xbcec46aa	-0.028842289
123	0x3c76fc14	0.015074749
124	0x3db74e9b	0.0895054
125	0xbd9ffdbb	-0.07812067
126	0xbd86070e	-0.06544314
127	0xbda0e41e	-0.0785601
128	0x3dff75ed	0.124736644
129	0xbdac2597	-0.08405607
130	0x3d89ce9d	0.067288615
131	0xbd62094c	-0.055184647
132	0x3d482e7e	0.048872463
133	0xbd904737	-0.07044833
134	0xbdce702a	-0.10079987
135	0xbbf500aa	-0.007476886
136	0x3dd2aa7f	0.10286426
137	0x3e014e93	0.1262763
138	0x3df281fe	0.118412
139	0xbdb48a72	-0.08815469
140	0x3c96c66f	0.018405167
141	0x3c8989e2	0.01678938
142	0x3c9ab8a8	0.01888688
143	0xbdae8ae7	-0.08522587
144	0x3dbb8de2	0.091579214
145	0xbcdbf132	-0.02684841
146	0x3d85f38d	0.06540594
147	0xbd4b0a91	-0.049570624
148	0xbd34f8da	-0.044182636
149	0x3bd1ac59	0.0063987193
150	0x3b83a5a9	0.004017551
151	0xbd8ae75b	-0.06782409
152	0x3e0510dd	0.12994714
153	0x3d861722	0.06547381
154	0x3d5c30ac	0.053757355
155	0xbd83f274	-0.06442729
156	0x3d2304a6	0.039799355
157	0x3dbbc571	0.09168518
158	0xbd2f6898	-0.042824358
159	0xbd585fd6	-0.05282577
160	0x3df2e742	0.11860515
161	0xbb656e19	-0.003500825
162	0x3d60102c	0.054702923
163	0x3cfe00c2	0.03100622
164	0x3dd8b7de	0.10581945
165	0x3dd6da0a	0.104908064
166	0xbd2104b3	-0.039311122
167	0xbd277d09	-0.040890727
168	0xbd0c2d52	-0.03422291
169	0xba417f79	-0.00073813606
170	0x3d18b826	0.037284993
171	0x3ddf4b72	0.10903062
172	0x3def6d40	0.1169076
173	0x3c2a449d	0.010392335
174	0xbca1188d	-0.019665027
175	0x3ccb24e0	0.024797857
176	0xbd9cc603	-0.07654955
177	0x3de3e6e1	0.11128021
178	0xbd8df7ab	-0.069320045
179	0xbcf47800	-0.029842377
180	0x3df02cae	0.11727272
181	0x3c2f1164	0.010685299
182	0x3df49f32	0.119444266
183	0x3e00eb01	0.12589647
184	0x3d6d2222	0.05789388
185	0xbd9184bf	-0.071053974
186	0x3de09efe	0.10967825
187	0xbd8142c2	-0.06311561
188	0x3df5ee8b	0.12008389
189	0xbdbbdeae	-0.09173332
190	0xbcd2436d	-0.025666917
191	0xbd282fe5	-0.0410613
192	0xbd24a626	-0.040197514
193	0xbd532b63	-0.05155505
194	0xbd888128	-0.066652596
195	0xbd36e36a	-0.044650473
196	0x3dc9a8ee	0.09846674
197	0xbd1d91de	-0.038469188
198	0x3d8df2d6	0.06931083
199	0xbdbf100e	-0.09329234
200	0x3e02a7bd	0.127593
201	0xbdcc470d	-0.09974489
202	0x3db0e6a6	0.08637743
203	0x3df81c25	0.12114743
204	0x3d68e6c2	0.056860693
205	0x3da2ff35	0.07958833
206	0x3d07e219	0.033174608
207	0x3d6d43c8	0.05792597
208	0x3c959aea	0.018262345
209	0x3d901aa2	0.0703633
210	0xbccc2fd3	-0.024925148
211	0x3d30a0eb	0.043122213
212	0xbbb7d169	-0.0056096804
213	0x3d8ae233	0.06781425
214	0x3cc16db7	0.023611886
215	0xbc9774f3	-0.018488383
216	0xbb231f2b	-0.0024890404
217	0x3d5f8d42	0.054578073
218	0x3df9c58e	0.12195884
219	0xbd9dc500	-0.077035904
220	0xbde23886	-0.11045937
221	0x3de097be	0.109664425
222	0x3cf48ac7	0.02985133
223	0xbd3ec978	-0.046578854
224	0x3dcaba19	0.098987766
225	0x3b0c7a21	0.00214351
226	0xbc15a1c4	-0.009132806
227	0xbd965625	-0.073406495
228	0x3d0d3568	0.03447476
229	0x3d9a8055	0.07544009
230	0xbd84cd9e	-0.06484531
231	0xbdc8f12e	-0.098116264
232	0xbdafead9	-0.085897155
233	0xbde61fda	-0.11236544
234	0x3dcfa8f5	0.10139648
235	0x3ddbf596	0.10740201
236	0x3d7f04aa	0.062260307
237	0x3d8fd5a2	0.07023169
238	0x3c88908a	0.016670484
239	0xbddff452	-0.10935272
240	0x3daf0e47	0.08547645
241	0x3ccaf6fb	0.024775973
242	0xbdd9cd6e	-0.10634886
243	0xbdc414df	-0.09574293
244	0x3d6c8ccd	0.057751466
245	0x3df15ef0	0.11785686
246	0xbc421ec2	-0.011848154
247	0xbd25bb69	-0.04046193
248	0x3ccd8c2a	0.02509125
249	0xbc6f0906	-0.014589554
250	0xbd493d1a	-0.049130537
251	0xbd5d8b83	-0.054088127
252	0x3d93e7c6	0.07221942
253	0x3cb4f6c9	0.022090333
254	0xbd0f90fb	-0.035050374
255	0xbda6e46b	-0.08149036

button_cnn.1.0.bias f4 [16]
0	0xbd28bbec	-0.04119484
1	0x3dcac628	0.099010766
2	0x3d7f9340	0.062396288
3	0x3c03eed1	0.008052544
4	0x3de5825f	0.11206507
5	0x3e0096af	0.12557481
6	0xbd348ba5	-0.044078488
7	0x3da70791	0.0815574
8	0xbdd52f08	-0.10409361
9	0xbd562278	-0.052278966
10	0xbdd44e91	-0.10366548
11	0x3dba6a36	0.091022894
12	0x3d980744	0.07423261
13	0xbd22fc40	-0.039791346
14	0x3acbaccf	0.0015539172
15	0xbdb569da	-0.0885808

fc.0.weight f4 [256, 240]
0	0x3d3b6d83	0.045758735
1	0x3d57106e	0.052505903
2	0x3d31b02b	0.043380897
3	0x3d2e0643	0.04248644
4	0x3e664dd4	0.22490627
5	0x3e6e1a08	0.23252118
6	0xbcd37c09	-0.02581598
7	0x3d43721b	0.04771624
8	0x3d2f25eb	0.04276077
9	0x3c834473	0.01602385
10	0xbce9c59b	-0.028536608
11	0xbcff9c8d	-0.031202579
12	0x3d8e922d	0.069614746
13	0x3ccf1187	0.025276912
14	0x3d5e2b6c	0.05424063
15	0xbc2987bc	-0.010347303
16	0x3d11b89d	0.03557645
17	0x3d6dd7b2	0.05806703
18	0xbc97fd13	-0.018553292
19	0x3d751b3b	0.059840422
20	0xbc989af1	-0.01862857
21	0xbd2cf592	-0.04222638
22	0xbd12f4d9	-0.035878036
23	0xba94da01	-0.0011356474
24	0x3dad0c1f	0.084495775
25	0x3b99f850	0.0046987906
26	0x3cd201be	0.025635596
27	0xbcef97de	-0.02924722
28	0x3aef4a75	0.0018256443
29	0x3dacf649	0.08445413
30	0x3dc8a801	0.09797669
31	0x3dea5611	0.11442197
32	0x3e2f0e8c	0.17095393
33	0xbc8727c0	-0.016498446
34	0x3da28c99	0.07936973
35	0xbcfd8db1	-0.030951353
36	0xbcec8cc6	-0.02887572
37	0xbc0d974b	-0.008642028
38	0x3d0c68e6	0.034279726
39	0x3da71ab8	0.08159393
40	0xbccda960	-0.025105178
41	0x3d1aa9ca	0.03775958
42	0x3d6da784	0.058021083
43	0x3d8e10e4	0.069368154
44	0xbb749688	-0.003732117
45	0x3d365cef	0.044522222
46	0x3adaaba7	0.0016683236
47	0xbc8f5fab	-0.017501673
48	0x3d48c376	0.04901453
49	0x3c3abfbe	0.011398254
50	0x3dab4af5	0.08363906
51	0x3d53bbc9	0.051692758
52	0xbc7145b1	-0.014726088
53	0x3cb8f338	0.022576913
54	0x3b757ace	0.003745723
55	0xbcca23de	-0.024675306
56	0x3d543870	0.051811635
57	0x3d169c4f	0.03677016
58	0x3d469778	0.048484296
59	0xbd601e59	-0.05471644
60	0x3d2735ab	0.040822666
61	0x3d0d828a	0.03454832
62	0x3d6d55c5	0.057943124
63	0x3d0659f0	0.032800615
64	0x3d85a7e8	0.06526166
65	0x3d777c35	0.060421187
66	0x3cf16210	0.029465705
67	0x3d572dc1	0.05253387
68	0x3cb68312	0.022279296
69	0x3d819ce1	0.063287504
70	0xbc878dbe	-0.01654708
71	0x3c818d85	0.015814552
72	0x3d6692c0	0.056292295
73	0x3d2a8f76	0.04164072
74	0x3da5118b	0.08059987
75	0x3ca8592c	0.020550333
76	0x3d7c2140	0.061555147
77	0x3d101ccd	0.035183717
78	0x3d90a364	0.07062414
79	0xbcec4a07	-0.028843893
80	0xbc88adca	-0.016684432
81	0xbc24d9c4	-0.010061685
82	0x3c89bfd2	0.0168151
83	0xbd2b3ef5	-0.041808087
84	0xbc0f0cb7	-0.008731059
85	0x3b431167	0.0029765011
86	0x3d0f432f	0.03497618
87	0xbd0bdda7	-0.03414693
88	0x3c36ac48	0.0111494735
89	0x3c83f1c7	0.0161065
90	0x3c841d9a	0.016127396
91	0x3d5f4f38	0.05451891
92	0x3da9aa03	0.0828438
93	0xbd58c4ff	-0.052922245
94	0xbd48c734	-0.0490181
95	0x3d65a79c	0.056068048
96	0xbcc12f5f	-0.023582159
97	0xbd18d584	-0.037313
98	0xbd247f3b	-0.0401604
99	0x3a674032	0.00088215165
100	0x3d967503	0.07346537
101	0x3d2c9393	0.042132925
102	0x3d994649	0.07484109
103	0x3ca3d8c7	0.020000828
104	0x3c81e621	0.015856804
105	0xbd1a628e	-0.037691645
106	0xbd27db86	-0.04098084
107	0x3b459824	0.0030150497
108	0x3d222fdb	0.03959642
109	0x3b1abc2c	0.0023610694
110	0xbc57e853	-0.013177949
111	0xbcd5af7c	-0.026084654
112	0xbd0c72dd	-0.03428923
113	0xbcb66710	-0.02226594
114	0x3ca43f15	0.020049611
115	0x3cbba6ca	0.02290668
116	0x3daf7b91	0.0856849
117	0x3d41b48d	0.047291327
118	0x3d318efc	0.04334925
119	0x3da75878	0.08171171
120	0x3c47177d	0.012151596
121	0x3d551f7d	0.052031983
122	0x3d917106	0.07101636
123	0x3d50adc9	0.050946984
124	0xbd135e95	-0.035978872
125	0x3d911b8c	0.07085332
126	0x3daecdb4	0.085353285
127	0xbd16aa38	-0.036783427
128	0x3d645227	0.05574241
129	0x3d354926	0.044259213
130	0x3d606d75	0.054791886
131	0x3dac721d	0.08420203
132	0x3b4540c9	0.003009843
133	0xbc7b5db8	-0.0153421685
134	0x3dab8798	0.08375472
135	0xba0f11b6	-0.0005457656
136	0x3ce9bc10	0.028532058
137	0x3cdd7e86	0.02703787
138	0x3d8c66e5	0.06855563
139	0x3d7b8613	0.06140716
140	0x3d89cdaf	0.06728684
141	0x3d953449	0.07285363
142	0x3cc2cf98	0.023780629
143	0xbd05bd6d	-0.032651354
144	0x3d86219e	0.06549381
145	0xbbc60759	-0.0060433564
146	0x3ca04cb9	0.019567834
147	0xbc638142	-0.013885798
148	0xbcf61693	-0.030040061
149	0xbcc1503a	-0.023597825
150	0x3d15f0a6	0.036606453
151	0x3b83aaa2	0.0040181438
152	0x3d9133d8	0.070899665
153	0x3d3e0834	0.04639454
154	0x3d478973	0.048715066
155	0xbce643b5	-0.028108457
156	0x3d83e146	0.06439452
157	0x3d9bd0bb	0.076081716
158	0xbc8c57ca	-0.017131705
159	0x3c053dd4	0.008132417
160	0x3cd695a0	0.026194394
161	0x3d578235	0.05261441
162	0x3da9dcc9	0.082940646
163	0xbc12d9b4	-0.008963037
164	0xbc32d6f7	-0.010915509
165	0x3c24e50b	0.010064374
166	0xbb3405c8	-0.0027469266
167	0x3d83bb89	0.06432254
168	0x3d536cd6	0.051617466
169	0x3d76ae47	0.060224798
170	0x3b4f5fba	0.003164275
171	0x3d8f1797	0.06986921
172	0x3d1edbe7	0.038783934
173	0x3d7a1b5e	0.061061256
174	0x3d12e894	0.035866335
175	0xbca9f253	-0.020745432
176	0x3d5ab462	0.053394683
177	0x3da4c9b9	0.08046288
178	0xbcb9b257	-0.022668047
179	0x3d478700	0.04871273
180	0x3d2bded6	0.04196056
181	0x3d8f7c3c	0.07006118
182	0x3d4a1977	0.04934069
183	0x3caa280c	0.020771049
184	0x3d967b5d	0.073477484
185	0xbc820f91	-0.015876563
186	0xbcc42e2f	-0.023947803
187	0x3d24cdde	0.040235393
188	0x3a812048	0.000985154
189	0x3bfa26a7	0.0076340022
190	0xbd2ad8ff	-0.04171085
191	0xbc1f0e42	-0.009707989
192	0x3d5b7d66	0.053586386
193	0xbbfc70da	-0.0077038826
194	0x3b7550d3	0.0037432208
195	0x3ce3e371	0.027818413
196	0x3d52eeb9	0.051497195
197	0x3d57862f	0.0526182
198	0xbb84d4fb	-0.0040537096
199	0xbd052ad6	-0.032511555
200	0x3d483388	0.04887727
201	0x3b8b5d75	0.0042530843
202	0xbc2ad40a	-0.010426531
203	0xba20f5de	-0.00061401527
204	0x3d18147e	0.037128918
205	0x3d191522	0.03737367
206	0xbd1742ca	-0.03692893
207	0x3cfcaa12	0.030842815
208	0xbd1ab580	-0.03777075
209	0x3d3244df	0.04352271
210	0x3d828c34	0.06374398
211	0x3da4c8fc	0.08046147
212	0x3d027afd	0.031855572
213	0x3d8b513e	0.06802605
214	0x3d085ecc	0.03329353
215	0x3c8e228f	0.017350463
216	0x3d4e9774	0.050437406
217	0xbb0cbf11	-0.002147619
218	0xbbb60798	-0.0055551045
219	0x3da92daf	0.082606666
220	0xbc6a5a91	-0.014303819
221	0xbb90edda	-0.0044228854
222	0x3cf75576	0.030192118
223	0xbcea46f6	-0.02859829
224	0x3b8746b3	0.004128301
225	0xbd03e3d9	-0.032199714
226	0x3d8c3a12	0.068470135
227	0xbd29cc8b	-0.041454833
228	0x3d2ea0ad	0.0426337
229	0xbd0081b1	-0.031373683
230	0x3d2a88cd	0.04163437
231	0x3d3ff650	0.04686576
232	0xbd2f3826	-0.042778157
233	0x3cb97544	0.022638924
234	0x3ca3e538	0.020006761
235	0xbba802fb	-0.0051273084
236	0xbc6dabd6	-0.014506301
237	0xbbc88571	-0.006119423
238	0x3d6419c7	0.055688646
239	0x3d973cd2	0.073846474
240	0x3d5c3828	0.053764492
241	0xbc27fb09	-0.010252723
242	0xbcb442a3	-0.022004431
243	0x3c73b823	0.014875445
244	0xbd592a38	-0.05301878
245	0x3cf995d2	0.030466948
246	0xba7b09ca	-0.0009576349
247	0xbd5344f1	-0.05157942
248	0x3d190a81	0.037363533
249	0x3c7a902d	0.015293163
250	0x3d501246	0.050798677
251	0xbd617783	-0.055045616
252	0xbd1415dc	-0.03615366
253	0x3d214126	0.03936877
254	0xbd647c42	-0.055782564
255	0xbb619b2d	-0.0034424767

fc.0.bias f4 [256]
0	0xbd172223	-0.03689779
1	0xbd5ea867	-0.05435982
2	0xbcb6bd0e	-0.022306945
3	0x3c903328	0.017602518
4	0xbd0c257f	-0.034215447
5	0xbc17fcd8	-0.009276591
6	0xbca8ad3c	-0.020590417
7	0xbb8bcb94	-0.0042662118
8	0xbccfc001	-0.02536011
9	0x3d4b6c50	0.04966384
10	0xbc4d2d53	-0.012523013
11	0xbd3ec046	-0.046570085
12	0x3bedfa93	0.007262537
13	0x3d61b65b	0.05510555
14	0x3cce6304	0.025193699
15	0xbd346926	-0.04404559
16	0xbc97b2f9	-0.018517958
17	0x3da15e21	0.07879282
18	0xbd609f3d	-0.05483936
19	0xbc76562a	-0.015035192
20	0xbd87d7d7	-0.06632965
21	0xbd3fd251	-0.046831433
22	0x3d0520f3	0.032502126
23	0xbca323be	-0.019914504
24	0x3bb82a2c	0.0056202617
25	0xbd68d7aa	-0.0568463
26	0x3d0163f3	0.03158946
27	0xbc7cb48a	-0.015423903
28	0xbbbd7297	-0.0057814824
29	0x3cfc9639	0.03083335
30	0xbc7b9517	-0.01535537
31	0x3d40aa7b	0.047037583
32	0x3d09607c	0.03353928
33	0xbd811505	-0.06302837
34	0xbc8fe7f1	-0.017566653
35	0x3bd10aa5	0.0063794428
36	0xbd64904f	-0.055801686
37	0x3d0881fc	0.033327088
38	0x3da03c30	0.0782398
39	0x3c98f50f	0.01867154
40	0xbd254fea	-0.040359415
41	0xbd61ff3a	-0.055175044
42	0x3d82e9de	0.06392263
43	0x3d94f006	0.07272343
44	0x3d1100af	0.035401043
45	0xbd26977a	-0.040671803
46	0xbbf7e57a	-0.0075651975
47	0xbd4390ab	-0.047745388
48	0x3c8c1792	0.017101083
49	0x3cf8b31c	0.030358844
50	0xbc04c41f	-0.0081034
51	0x3d5f4ac6	0.05451467
52	0xbd100853	-0.03516419
53	0x3c40bdc3	0.011763993
54	0x39b0c295	0.0003371431
55	0x3d4990f2	0.049210496
56	0xbc260b10	-0.010134473
57	0x3d30554a	0.043050088
58	0xbc74d137	-0.014942459
59	0xbd0f5c39	-0.03500006
60	0x3d9bf2e9	0.07614691
61	0xbc7fed58	-0.015620552
62	0x3b7c0e30	0.0038460605
63	0xbccd0cab	-0.025030455
64	0xbd311ca8	-0.04324022
65	0xbd460fd0	-0.048354924
66	0xbd36f608	-0.044668227
67	0xbd0b4c81	-0.034008507
68	0x3d0722f5	0.032992322
69	0xbbf00126	-0.0073243557
70	0xbd02fe41	-0.031980757
71	0x3d2ca42e	0.04214876
72	0x3d1c07af	0.038093265
73	0xbd4309ea	-0.047616877
74	0xbcb3235a	-0.021867443
75	0x3d8b10d4	0.06790319
76	0x3d2d8404	0.042362228
77	0x3cf87582	0.03032947
78	0x3cc81f08	0.02442886
79	0xbd8ed382	-0.06973936
80	0xbd2a09cd	-0.041513253
81	0x3d27c1d6	0.04095634
82	0xbd126318	-0.035739034
83	0xbd59bb79	-0.053157303
84	0xbd6b565c	-0.057455406
85	0x3da4bddd	0.08044026
86	0x3d84b445	0.06479696
87	0x3d3d1fd4	0.04617293
88	0x3b6985fe	0.0035632844
89	0x3ce7a7b4	0.02827821
90	0xbd1ead20	-0.038739324
91	0xbd7a7fb6	-0.06115695
92	0x3d76b311	0.060229365
93	0x3d1cdb58	0.03829512
94	0x3c8de580	0.017321348
95	0xbd71a9df	-0.058999892
96	0x3cb3e1cc	0.021958254
97	0x3c6394d3	0.013890463
98	0x3c5cecea	0.013484219
99	0x3cef57bb	0.029216638
100	0x3d5e63eb	0.054294508
101	0x3b4896eb	0.0030607532
102	0xbb86b0b1	-0.0041104187
103	0x3cabe148	0.020981446
104	0x3d2a227e	0.0415368
105	0xbccf2c7a	-0.025289763
106	0xbd3d0dbf	-0.046155687
107	0xbc05115c	-0.008121815
108	0x3c1eb8c5	0.009687607
109	0xbc513eb3	-0.012771296
110	0x3c94f660	0.018183887
111	0x3b1576bf	0.0022806374
112	0x3c4eca7e	0.01262152
113	0xbd0c5903	-0.034264576
114	0xbd1b6c9e	-0.037945382
115	0xbc7dfb0b	-0.015501748
116	0xbc940f4d	-0.018073702
117	0x3d0b3066	0.033981703
118	0x3d536305	0.051608104
119	0x3c1fbb08	0.009749182
120	0xbb97bf24	-0.00463094
121	0x3c851946	0.016247403
122	0x3b4671e3	0.0030280284
123	0x3d237bde	0.03991305
124	0x3ccf47d0	0.025302798
125	0x3d7ddfc5	0.06198098
126	0xbd5f09c4	-0.054452673
127	0xbd7174b7	-0.0589492
128	0xba727c9c	-0.00092501356
129	0x3b883c97	0.0041576135
130	0x3b4d5ef2	0.003133711
131	0xbcf5cecb	-0.030005833
132	0xbc0870d8	-0.008327685
133	0x3cbe62d1	0.023240479
134	0x3c3a8266	0.0113836285
135	0xbcc14acc	-0.023595236
136	0x3caa954d	0.020823145
137	0xbc6357eb	-0.013875942
138	0x3b6c6dfd	0.00360763
139	0xbcf59955	-0.029980341
140	0xbd3ab6d2	-0.045584507
141	0x3d6de53d	0.058079947
142	0xbb63dab3	-0.0034767806
143	0x3c9cead5	0.019154945
144	0x3d2b937a	0.04188869
145	0xbc7cbd40	-0.01542598
146	0xbd017573	-0.03160615
147	0xbcc47edf	-0.023986278
148	0x3d2e5ba7	0.042567875
149	0x3d06aa32	0.032877155
150	0xbd9066f3	-0.07050886
151	0xbd5c76eb	-0.053824347
152	0x3cd5acd3	0.026083386
153	0x3da8e20b	0.08246239
154	0xba8a097a	-0.0010531389
155	0x3cd3056b	0.02575942
156	0x3d17423a	0.036928393
157	0xbd04ef88	-0.032454997
158	0xbc9c8843	-0.019107943
159	0xbcd3eaea	-0.025868852
160	0x3d3fa944	0.046792284
161	0xbc6257fa	-0.013814921
162	0x3c46009c	0.012085106
163	0x3d856edc	0.065152854
164	0xbc89448e	-0.016756322
165	0x3d3a954b	0.045552533
166	0xbced6d37	-0.028982742
167	0x399eaa9d	0.00030263225
168	0x3d37af97	0.04484519
169	0x3d958b9e	0.073020205
170	0xbd8424d9	-0.06452341
171	0xbbf85813	-0.0075788586
172	0xbd1280fb	-0.035767537
173	0x3d9a58ca	0.075364664
174	0x3ce2e704	0.027698047
175	0x3d0356a9	0.032065067
176	0x3cb874d9	0.022516655
177	0x3d3b854a	0.04578141
178	0x3d278cd2	0.04090578
179	0xbcc3e3f0	-0.0239124
180	0x3da6f22f	0.081516616
181	0x3d22dfee	0.039764337
182	0xbcd29666	-0.025706481
183	0x3cb50c8b	0.022100708
184	0xbd46afb9	-0.048507426
185	0xbc841ed3	-0.01612798
186	0xbd4278e8	-0.047478586
187	0x3cf723c7	0.030168427
188	0x3d304286	0.04303219
189	0x3ce6837d	0.02813887
190	0x3d8b54f5	0.06803314
191	0xbd51d25a	-0.051225998
192	0x3d4454ac	0.047932312
193	0xbd815116	-0.06314294
194	0xbcc36c4f	-0.023855356
195	0x3b965bc0	0.004588574
196	0xbb8f2285	-0.0043681287
197	0x3c9d8217	0.01922707
198	0x3be097d1	0.0068540354
199	0xbce374ca	-0.02776565
200	0x3cae017c	0.021240942
201	0x3d802c39	0.06258435
202	0xbd391945	-0.045190115
203	0xbd7a0618	-0.061040968
204	0xb9c0e75d	-0.00036793473
205	0xbd6242f4	-0.055239633
206	0x3d8954f7	0.06705659
207	0xbc08f5b5	-0.008359362
208	0xbd88a95b	-0.06672927
209	0x3d4c6193	0.04989774
210	0x3b8a643b	0.004223374
211	0x3c957fb1	0.018249365
212	0x3b59e095	0.0033245434
213	0xbc766235	-0.015038063
214	0xbce59865	-0.028026769
215	0xbd768312	-0.060183592
216	0xbcf31bbe	-0.029676314
217	0xbd47428c	-0.04864745
218	0x3d93b7f1	0.072128184
219	0x3d8d447c	0.06897828
220	0x3cf58517	0.029970689
221	0x3d3808f0	0.0449304
222	0x3cc515a7	0.024058176
223	0x3d9f41ae	0.07776199
224	0x3d99c4da	0.075082496
225	0xbd8002ee	-0.06250559
226	0xbd385537	-0.045003142
227	0x3c84de11	0.01621917
228	0xbce1650d	-0.027514005
229	0xbc0992f9	-0.008396857
230	0xbd8cb66f	-0.06870734
231	0x3c1bc8a1	0.009508283
232	0x3cfd875d	0.030948335
233	0x3d63a130	0.055573642
234	0x3d91aaaf	0.071126334
235	0xbd7ad722	-0.061240323
236	0xbd3c4f4e	-0.04597407
237	0x3cce122f	0.025155155
238	0x3d832b18	0.06404704
239	0x3c858b69	0.016301828
240	0xbd1cfb14	-0.038325384
241	0xbcf1c079	-0.029510723
242	0x3d934196	0.07190244
243	0xbd2bbd02	-0.0419283
244	0x3ccb34b0	0.024805397
245	0xbd99ae19	-0.075039096
246	0x3d6bb456	0.05754503
247	0x3d86acf9	0.06575961
248	0x3d7aaefb	0.06120203
249	0xbd31b33c	-0.04338382
250	0xbc8fc5e3	-0.017550414
251	0x3cf09dfb	0.029372206
252	0x3d1a808d	0.03772025
253	0x3d8fec65	0.070275106
254	0x3d181123	0.037125718
255	0xbcc49b56	-0.023999851

fc.3.weight f4 [12, 256]
0	0xbd6113e2	-0.054950602
1	0x3cd00d16	0.025396865
2	0x3c0177cd	0.007902098
3	0xbd18686b	-0.037208956
4	0x3d5e09b8	0.054208487
5	0xbd71ff5b	-0.059081417
6	0xbceb5b4f	-0.028730063
7	0xbd7a1b2f	-0.06106108
8	0x3b85121b	0.004060996
9	0xbd978231	-0.07397879
10	0xbd2e6c93	-0.042584013
11	0xbd715fc6	-0.058929227
12	0xbc063ee7	-0.008193708
13	0xbda67df9	-0.08129496
14	0xbbdd4c76	-0.0067534996
15	0xbd75af6b	-0.059981745
16	0xbca057f0	-0.019573182
17	0x3d180935	0.037118156
18	0xbd43e85e	-0.047829024
19	0xbdb0f4f9	-0.08640475
20	0x3d073410	0.033008635
21	0xbd3ba915	-0.045815546
22	0xbedea315	-0.43483797
23	0xbc62380e	-0.01380731
24	0xbd455382	-0.048175342
25	0x3d39e00f	0.045379695
26	0xbc2c066b	-0.010499577
27	0x3ca49f04	0.020095356
28	0xbd1a6d7d	-0.037702072
29	0xbd3b0fe7	-0.045669463
30	0x3d247d0b	0.040158313
31	0xbc8ba2b7	-0.017045362
32	0x3cd9321d	0.026513154
33	0xbc8fa4c3	-0.01753462
34	0xbd29ddc4	-0.041471258
35	0x3d2ede79	0.042692635
36	0x396a8846	0.00022366745
37	0xbc1398e5	-0.009008621
38	0xbdae0415	-0.08496872
39	0x3af8a0d3	0.0018968828
40	0x3d069b7a	0.032863118
41	0xbc1cd582	-0.009572389
42	0xbd0f29b4	-0.03495188
43	0x3ce3dead	0.027816141
44	0x3c484c71	0.012225256
45	0xbcbb1b85	-0.02284027
46	0xbcf61c72	-0.03004286
47	0xbd297bd2	-0.04137785
48	0x3cc70821	0.024295868
49	0x3adfba11	0.0017069002
50	0x3d1f32b5	0.038866717
51	0xbd815834	-0.063156515
52	0xbc45503c	-0.012043055
53	0xbb82f07b	-0.0039959527
54	0xbda66f5f	-0.08126711
55	0xbd54746f	-0.051868852
56	0x3cbe4a31	0.023228737
57	0x3b33d82c	0.002744208
58	0xbd74f214	-0.059801176
59	0xbd1f7299	-0.03892765
60	0x3c7f13c6	0.015568679
61	0x3d54dcf8	0.051968545
62	0xbd7034b1	-0.058644
63	0x3d2f3894	0.042778566
64	0xbd9b169e	-0.07572673
65	0x3d05f0b7	0.032700267
66	0x3c969a4a	0.018384118
67	0xbd8f8dfb	-0.070095025
68	0xbc73d323	-0.014881882
69	0xba8ede56	-0.0010900002
70	0xbda67e44	-0.08129552
71	0x3cc6a8f3	0.024250483
72	0x3d76115c	0.06007515
73	0xbd115273	-0.03547902
74	0x3d51a39b	0.051181417
75	0x3bdea620	0.006794706
76	0x3d5e63f6	0.05429455
77	0xbbe34015	-0.0069351294
78	0xbd21dcb7	-0.03951713
79	0xbc8f670c	-0.017505191
80	0xbc49b18b	-0.012310396
81	0xba548a0a	-0.00081077276
82	0xbd888d28	-0.066675484
83	0x3ab008a3	0.0013430308
84	0xbd2d6497	-0.042332258
85	0x3b90765f	0.004408642
86	0xbd07740c	-0.033069655
87	0x3d014c81	0.0315671
88	0x3d603fce	0.05474835
89	0x3c344416	0.011002561
90	0xbc5a9c3f	-0.013342916
91	0xbd064035	-0.032776076
92	0xbd01993f	-0.031640287
93	0x3d18aae7	0.03727236
94	0xbea88e7f	-0.32921216
95	0xbd1954b0	-0.03743428
96	0x3d3d9ed3	0.046294045
97	0xbd2369e9	-0.039895926
98	0xbd5a8304	-0.053347602
99	0x3d4b51c8	0.04963854
100	0x3d2e0365	0.042483706
101	0xbd2f7c34	-0.04284306
102	0x3c1c71ad	0.009548587
103	0x3c9ee578	0.019396529
104	0xbd157e73	-0.036497544
105	0x3ca0862a	0.019595224
106	0xbd846c0f	-0.06465923
107	0x3c458d7a	0.012057656
108	0xbd36a21d	-0.044588197
109	0xbd94f7cb	-0.07273825
110	0x3b9cd682	0.0047863135
111	0x3c97e9d9	0.018544124
112	0xbd8d55a0	-0.06901097
113	0x3ab6b544	0.0013939519
114	0xbcaa6d3b	-0.020804038
115	0xbd8e933e	-0.06961678
116	0xbd4255b0	-0.047445
117	0x3ca40604	0.0200224
118	0x3d1be027	0.038055565
119	0xbd87c8c9	-0.066300936
120	0xbbb653b1	-0.005564176
121	0x3d5d9775	0.05409952
122	0x3ca8649e	0.02055579
123	0x3d272caf	0.040814098
124	0xbd447e8b	-0.047972243
125	0xbda5c4d9	-0.08094186
126	0xbccb9b4b	-0.024854323
127	0xbc370da3	-0.011172685
128	0x3d55ec10	0.05222708
129	0xbc411c43	-0.011786523
130	0xbbc61a25	-0.006045597
131	0xbc99aafa	-0.018758286
132	0xbcbd1f87	-0.023086322
133	0xbcdd7a34	-0.02703581
134	0xbd7d2923	-0.06180681
135	0xbc15aee0	-0.009135932
136	0xbd736006	-0.059417747
137	0x3bb8ec40	0.0056433976
138	0xbd21521b	-0.039384943
139	0xbd8aa1ce	-0.06769143
140	0x3c8813e8	0.016611055
141	0x3bf1e77f	0.007382333
142	0x3d10d733	0.03536148
143	0xbd561313	-0.052264284
144	0xbcc534bb	-0.024072995
145	0xbd7c6fcf	-0.061630066
146	0xbd9a7c6c	-0.07543263
147	0xbd740de7	-0.05958357
148	0xbda56b07	-0.080770545
149	0xbccc96ff	-0.024974344
150	0x3d460ba6	0.048350953
151	0x3c8bbd3b	0.017058006
152	0x3cd994d1	0.026560219
153	0xbd82066d	-0.06348882
154	0x3cf8c136	0.030365568
155	0xbd907776	-0.07054035
156	0xbd62d442	-0.055378206
157	0xbcbc23d5	-0.022966305
158	0xbcf2cdeb	-0.029639205
159	0xbca1adbb	-0.019736161
160	0xbcd8aba4	-0.026449032
161	0x3c304ffc	0.010761257
162	0xbda04888	-0.07826334
163	0xbc625b55	-0.013815721
164	0xbd5db6e0	-0.05412948
165	0x3c21dc77	0.009879223
166	0x3cf8fbfa	0.03039359
167	0x3d066930	0.03281516
168	0xbd3c737e	-0.04600858
169	0xbd97b8c1	-0.07408286
170	0x3ccbd01e	0.024879511
171	0xbb6ef760	-0.0036463365
172	0x3d16875f	0.036750194
173	0x3c0a1d70	0.00842987
174	0x3cd8d87c	0.026470415
175	0x3a07d3a8	0.00051813805
176	0xbd7b2a70	-0.06131977
177	0xbd7d2515	-0.061802942
178	0xbcd7ee6f	-0.026358811
179	0x3cc1c52f	0.023653595
180	0x3c2b8bfc	0.010470387
181	0xbd486e79	-0.04893348
182	0x3d3d1827	0.04616561
183	0xbc9f5c96	-0.019453328
184	0x3d2a8c06	0.041637443
185	0xbd165db8	-0.03671047
186	0xbd00732f	-0.031359848
187	0x3d1d00db	0.038330894
188	0x3cbe0bbd	0.023198957
189	0xbcd9ce19	-0.026587533
190	0xbcf9d4c8	-0.03049697
191	0x3bbbfc30	0.00573685
192	0x3be4a8dd	0.006978138
193	0xbd8c67da	-0.068557456
194	0xbd3a9e3a	-0.045561053
195	0xbd73627a	-0.059420086
196	0xbd13c9a2	-0.036080964
197	0x3c82e3a4	0.015977688
198	0xbb4ebdbb	-0.0031546194
199	0xbc942f6b	-0.018089017
200	0xbc79c126	-0.015243804
201	0x3cbbc720	0.022922099
202	0x3cc4514a	0.023964543
203	0xbb6b01fe	-0.0035859342
204	0xbcc5b7a5	-0.02413542
205	0xbc2b1fc6	-0.010444587
206	0xbbb0e978	-0.0053989254
207	0xbba62fa3	-0.0050715967
208	0xbd4392e1	-0.047747497
209	0xbd9c90ae	-0.07644783
210	0x3d1df787	0.03856614
211	0xbda6b24c	-0.08139476
212	0xbc7c35f1	-0.01539372
213	0xbd0d6a7b	-0.034525376
214	0xbca848b1	-0.020542474
215	0x3c1361e0	0.008995503
216	0xbd5c4272	-0.053774305
217	0xbd2275d2	-0.039663143
218	0xbd84fe1f	-0.06493782
219	0xbcaa47f8	-0.02078627
220	0xbce2197f	-0.027600048
221	0x3d3f2105	0.04666235
222	0xbd8ae996	-0.06782834
223	0xbd5a2796	-0.05326041
224	0xbb834c0d	-0.0040068687
225	0x3d51abe5	0.051189322
226	0xbbb54645	-0.0055320584
227	0x3cef0343	0.02917636
228	0xbc0bbb53	-0.008528548
229	0xbda4d563	-0.08048513
230	0x3d0d68b0	0.034523666
231	0x3d0fb07c	0.035080418
232	0xbcb8b6f3	-0.022548174
233	0x3d5897b8	0.052879065
234	0x3cc5c173	0.024140095
235	0xbcc5d479	-0.024149166
236	0x3c42617e	0.011864064
237	0xbd270a03	-0.040781032
238	0x3c9395c3	0.018015748
239	0xbd781e01	-0.06057549
240	0x3ced6d0e	0.028982665
241	0xbd41eaef	-0.04734319
242	0xbdada1ea	-0.08478148
243	0x3c734519	0.014848017
244	0xbd62e354	-0.05539258
245	0x3c07b3cf	0.008282616
246	0xbd9d253b	-0.07673117
247	0x3b84092c	0.0040294137
248	0xbd5f8055	-0.054565746
249	0x3d25b77e	0.040458195
250	0xbd842781	-0.06452847
251	0x3d39b7b7	0.04534122
252	0xbd1b5e64	-0.037931815
253	0xbd4c915a	-0.049943306
254	0xbd956259	-0.07294149
255	0xbda34e64	-0.07973936

fc.3.bias f4 [12]
0	0xbd90e841	-0.07075549
1	0x3cb087bf	0.021549104
2	0xbb0c08ef	-0.002136763
3	0x3a22cd2e	0.0006210384
4	0x3cc045e5	0.023470828
5	0xbd6cb384	-0.057788387
6	0xbd3ee407	-0.046604183
7	0x3d10dc26	0.0353662
8	0xbd18a4fa	-0.03726671
9	0xbd0f60b4	-0.035004333
10	0xbb93ed16	-0.004514347
11	0xbd8d5653	-0.06901231
