cnn_fighting_agent_starter/outputs/20251017_191453/model.pt (torch, 287835 bytes, 12 tensors)

state_cnn.0.0.weight f4 [16, 1, 3, 3]
0	0xbda088cc	-0.07838592
1	0x3e2c9bba	0.1685628
2	0xbec91e3d	-0.39280882
3	0xbe5f3e3f	-0.21801089
4	0xbe9ea28e	-0.30983394
5	0xbe0af752	-0.13570908
6	0x3eb70a68	0.35750127
7	0x3e8d3cf1	0.27585557
8	0xbf0069ab	-0.50161237
9	0x3c8d358a	0.017237443
10	0xbe61d43f	-0.22053622
11	0xbdf809f5	-0.12111274
12	0x3e9723ee	0.295196
13	0xbe75d2e0	-0.24006224
14	0x3de727df	0.11286902
15	0xbea2ef31	-0.31823114
16	0x3c5413e5	0.012944196
17	0x3ed26547	0.41092893
18	0x3e902cca	0.2815917
19	0xbeb77196	-0.35828847
20	0x3e4796a8	0.19491065
21	0xbdf0bebb	-0.11755129
22	0x3e115594	0.14192802
23	0x3e6d28f2	0.2316015
24	0xbdfc8ed6	-0.12331931
25	0xbeaf5fd2	-0.34252793
26	0xbd8d5a6d	-0.06902013
27	0xbca4c2c5	-0.020112405
28	0xbdf6959e	-0.12040256
29	0xbe2c09bc	-0.16800588
30	0x3df69dec	0.1204184
31	0x3d36b8f0	0.044609964
32	0xbdcccd33	-0.10000076
33	0xbe75e172	-0.24011782
34	0x3ea07c87	0.31345007
35	0xbd8d168c	-0.06889066
36	0xbde52336	-0.111883566
37	0x3e50522d	0.20343848
38	0x3d7d01fd	0.061769474
39	0x3df3ff23	0.11913898
40	0x3dfdd346	0.12393813
41	0xbe9eeaca	-0.31038505
42	0xbd207afb	-0.039179783
43	0x3de658c8	0.112474024
44	0x3eb66f50	0.356318
45	0x3e3932bd	0.18085761
46	0xbe8d6efb	-0.27623734
47	0x3e5a9821	0.21347095
48	0x3e9fb2b4	0.31191027
49	0xbeb67ba1	-0.35641196
50	0x3d89faca	0.06737287
51	0xbdb5b1ee	-0.08871828
52	0x3c5e9dc4	0.013587419
53	0x3e9105c6	0.28324717
54	0x3e256f0b	0.16155641
55	0x3e723843	0.23654275
56	0x3e42c754	0.1902135
57	0x3df8c179	0.12146277
58	0x3dfdf0c1	0.12399436
59	0x3b889ddd	0.0041692094
60	0x3d12a702	0.035803802
61	0xbc0d03da	-0.008606875
62	0x3d4a2bd7	0.049358215
63	0x3d34b6a4	0.044119492
64	0x3d4d2311	0.05008227
65	0xbec55464	-0.38540947
66	0x3ebd39f5	0.3695828
67	0x3eaa9909	0.33319882
68	0xbe27bfdd	-0.16381784
69	0x3e0a1188	0.1348325
70	0xbd9125da	-0.07087298
71	0xbeb55a0a	-0.35420257
72	0x3e937f74	0.28808177
73	0xbdc7fae7	-0.09764653
74	0x3e44d367	0.19221269
75	0xbea1aef1	-0.31578782
76	0xbe1fd3e3	-0.15608172
77	0x3a0c6b26	0.00053565425
78	0xbe846713	-0.2585989
79	0x3e732518	0.23744619
80	0x3d02b60d	0.0319119
81	0xbe51edbc	-0.20500845
82	0x3dac5690	0.08414948
83	0xbe901ead	-0.28148404
84	0xbe91e5e8	-0.28495717
85	0xbda0e1ea	-0.0785559
86	0x3eb5f6dc	0.355399
87	0x3dbfba86	0.093617484
88	0xbdcc2ba2	-0.0996926
89	0xbe71e6da	-0.23623219
90	0x3e4500e2	0.19238618
91	0xbeb1a6e1	-0.3469763
92	0xbc84401e	-0.016143855
93	0xbdccb39b	-0.099951945
94	0x3ea22c02	0.316742
95	0xbd8ba8d8	-0.06819314
96	0x3e5d4a25	0.21610315
97	0x3ea3875e	0.31939214
98	0x3c837cc2	0.0160507
99	0xbdbb9c89	-0.09160716
100	0x3e9926b1	0.29912332
101	0xbe9a362f	-0.30119464
102	0x3e5bf342	0.21479514
103	0xbea768f9	-0.32697275
104	0x3e8954cd	0.2682251
105	0x3e2003d6	0.15626463
106	0x3e1fe2ab	0.1561381
107	0xbd8a9022	-0.067657724
108	0x3e9e4736	0.30913705
109	0xbe70ab64	-0.2350288
110	0xbe1ee7f0	-0.15518165
111	0x3e26054d	0.1621296
112	0xbe9eb7c1	-0.30999568
113	0xbe007212	-0.12543514
114	0xbdaebed8	-0.08532494
115	0x3ec0c11d	0.37647334
116	0x3d160f72	0.036635824
117	0xbdc11876	-0.09428494
118	0x3e44512f	0.19171594
119	0x3e82b209	0.25526455
120	0xbea7164e	-0.32634205
121	0x3d882673	0.066479586
122	0x3d631f7d	0.05544995
123	0x3e303a8e	0.17209837
124	0x3e6d3a96	0.2316688
125	0x3d198dad	0.03748863
126	0xbe4a607d	-0.1976337
127	0xbe942e46	-0.28941554
128	0xbe627117	-0.22113453
129	0xbe97e9aa	-0.2967046
130	0xbe77acc4	-0.24186999
131	0x3eb0ff1d	0.34569636
132	0xbc08fb0d	-0.008360636
133	0xbec85369	-0.39126137
134	0x3e70b6fd	0.23507304
135	0x3e100806	0.1406556
136	0xbcf1c82d	-0.029514397
137	0x3e878857	0.26471207
138	0x3cdac8a1	0.026706995
139	0xbd854467	-0.06507187
140	0xbd48bde1	-0.049009208
141	0xbeb103f6	-0.34573334
142	0x3e86ca86	0.26326388
143	0x3e1c7c28	0.15281737

state_cnn.0.0.bias f4 [16]
0	0x3e98e24e	0.29860157
1	0xbce8a3b2	-0.028398369
2	0x3e1d9c88	0.15391743
3	0xbe8847ac	-0.2661718
4	0xbe4dacfc	-0.2008552
5	0x3e05d74c	0.1307041
6	0xbdcef9f8	-0.101062715
7	0x3cbb7228	0.022881582
8	0x3dcb4e6e	0.09927069
9	0x3e7c936e	0.24665615
10	0xbe857370	-0.26064634
11	0xbdc642ff	-0.09680747
12	0xbe0cd35b	-0.137525
13	0x3c714079	0.014724844
14	0x3d48a136	0.048981868
15	0xbdcb12a8	-0.09915668

state_cnn.1.0.weight f4 [32, 16, 3, 3]
0	0x3d104b25	0.035227913
1	0xbcb82da6	-0.022482704
2	0x3d6ffdab	0.058591526
3	0xba97f889	-0.0011594455
4	0xbd33cdd2	-0.043897457
5	0x3e473f4f	0.19457744
6	0xbde9420e	-0.11389552
7	0xbe1b4d7a	-0.15166274
8	0x3e33c593	0.17555837
9	0xbd769ae4	-0.06020631
10	0xbd22b82b	-0.039726418
11	0xbe14914b	-0.1450855
12	0xbba32fda	-0.0049800696
13	0x3c9a6e88	0.018851534
14	0xbe823aac	-0.25435388
15	0x3d118be2	0.035533793
16	0xbe0d2385	-0.13783081
17	0xbeb341bd	-0.35011092
18	0x3c2d70a6	0.0105859395
19	0x3da47eb8	0.08031982
20	0x3cc6176e	0.024181094
21	0xbdadaa44	-0.08479741
22	0x3d63ed6e	0.055646352
23	0xbd714901	-0.058907513
24	0x3d3ba2e9	0.04580966
25	0x3d87c46f	0.066292636
26	0x3bf761de	0.0075495085
27	0xbd82c4de	-0.06385206
28	0xbcd4c99f	-0.025975047
29	0x3b48a7df	0.0030617637
30	0x3d409327	0.047015335
31	0xbd8658e8	-0.06559926
32	0xbc398d65	-0.011325215
33	0x3c24889a	0.010042334
34	0xbd8c3949	-0.06846864
35	0xbd8a61ac	-0.06756911
36	0xbd5f47ef	-0.05451196
37	0x3d95b762	0.07310368
38	0xbd14d225	-0.036333222
39	0xbc39f720	-0.011350423
40	0xbbc967d7	-0.006146412
41	0x3c595e8f	0.013267173
42	0xbdba7a16	-0.09105317
43	0x3daa4616	0.08314149
44	0xbcb3c527	-0.021944596
45	0xbdaa82a6	-0.083257005
46	0x3da287d2	0.07936062
47	0xbbedcb3b	-0.007256893
48	0xbddebb73	-0.10875597
49	0x3d0f6c26	0.035015248
50	0xbd8ad383	-0.06778624
51	0xbd37ffee	-0.044921808
52	0x3db22f40	0.087004185
53	0xbd25d56d	-0.04048674
54	0xbbb0fea5	-0.0054014497
55	0x3d342a72	0.04398579
56	0x3d8d3027	0.0689395
57	0xbdbcd878	-0.09220976
58	0x3d842d97	0.06454008
59	0x3c9bb88d	0.0190089
60	0xbd4db97d	-0.050225724
61	0x3d2f26b9	0.04276154
62	0x3d34bc8f	0.044125136
63	0xbc1c7f00	-0.009551764
64	0xbcc0df53	-0.02354399
65	0x38276608	3.9910927e-05
66	0x3d0dcfbf	0.03462195
67	0xbd79975d	-0.060935367
68	0x3e1c09f4	0.15238172
69	0xbc1ae823	-0.00945476
70	0xbd4e61a3	-0.050386082
71	0x3dcea243	0.10089543
72	0xbd03b324	-0.032153264
73	0xbd4a94c5	-0.049458284
74	0xbe1ec073	-0.15503101
75	0xbdfcbdc7	-0.12340885
76	0x3d73d340	0.059527636
77	0xbe0545cd	-0.13014908
78	0xbdcaf527	-0.0991004
79	0x3ceb9537	0.028757675
80	0xbdc39968	-0.09550744
81	0x3c378045	0.011200015
82	0xbdf2a3cd	-0.11847649
83	0x3e159c55	0.14610417
84	0x3d40d28c	0.047075793
85	0xbccc8019	-0.024963425
86	0xbba7d030	-0.0051212534
87	0x3d0fcc99	0.03510723
88	0x3d1a32a7	0.037645962
89	0xbe0fab9c	-0.14030308
90	0xbda6b63c	-0.08140227
91	0xbd3c6171	-0.045991365
92	0x3da5c2d2	0.080938
93	0xbd8feaa2	-0.070271745
94	0x3cba4374	0.022737242
95	0x3dd1890c	0.10231218
96	0xbd9f9fa4	-0.07794121
97	0xbd9c3ff5	-0.07629386
98	0x3d9d6a7b	0.07686325
99	0x3c3a09e7	0.0113549
100	0x3b45f203	0.0030204065
101	0xbd063f6f	-0.03277534
102	0xbd976ff2	-0.07394399
103	0x3d226922	0.039651044
104	0x3dc8eb65	0.09810523
105	0x3c3190fe	0.0108377915
106	0x3c1a8955	0.009432157
107	0x3c8484bf	0.01617658
108	0xbbd696f4	-0.0065487567
109	0xbdd4af2c	-0.10384974
110	0x3d4381d0	0.04773122
111	0xbb9cc1ff	-0.0047838683
112	0xbe3c7475	-0.184038
113	0xbe04aa39	-0.1295556
114	0xbd890cb1	-0.06691874
115	0xbe62a754	-0.22134143
116	0xbd35ec1b	-0.04441462
117	0xbd8622a5	-0.06549577
118	0xbd7b3e2d	-0.061338592
119	0xbda532ac	-0.080663055
120	0xbd512231	-0.051057998
121	0x3dab9c0e	0.083793744
122	0x3d74550e	0.059651427
123	0xbd92c4cb	-0.071664415
124	0x3b61aae6	0.0034434139
125	0x3d7d2c32	0.061809726
126	0x3c14441a	0.00904944
127	0xbd9c804a	-0.07641657
128	0xbda13dae	-0.078730926
129	0xbd6ec684	-0.058294788
130	0xbe073a0f	-0.13205741
131	0xbdeaa630	-0.11457479
132	0xbd8b3e9c	-0.06799051
133	0xbdfc4ac6	-0.123189494
134	0xbe209fbe	-0.15685937
135	0xbdb07bd4	-0.08617368
136	0x3cd74a3d	0.026280517
137	0xbd1b5cb0	-0.03793019
138	0xbd72b5cb	-0.059255403
139	0xbca2065f	-0.019778429
140	0x3cba0164	0.022705741
141	0x3d2ccc1b	0.042186838
142	0x3db45f32	0.088072196
143	0xbca275d8	-0.019831583
144	0xbd288e35	-0.041151244
145	0x3d56c744	0.05243613
146	0xbc1a48d9	-0.009416782
147	0xbd99e8e2	-0.07515122
148	0xbdb51f0d	-0.08843813
149	0xbd9d7bdb	-0.07689639
150	0xbd06aaca	-0.03287772
151	0x3d8bff01	0.068357475
152	0x3d99cbf8	0.07509607
153	0xbd8ba8d9	-0.068193145
154	0x3c5e90f1	0.013584361
155	0xbd39fbfd	-0.04540633
156	0x3d78bc74	0.060726598
157	0xbc69a5c7	-0.014260716
158	0x3abe81e3	0.0014534559
159	0xbd4c46cf	-0.049872216
160	0x3d3dfeac	0.046385452
161	0xbcb6ae4a	-0.022299904
162	0x3c014185	0.007889156
163	0xbd623382	-0.055224903
164	0xbd5059e4	-0.050866976
165	0xbcbb41ca	-0.02285852
166	0xbd22da8e	-0.03975921
167	0x3d05488e	0.032539897
168	0x3d7be357	0.061496105
169	0xbd62f8a0	-0.05541289
170	0xbd9d717f	-0.07687663
171	0xbd5e52a7	-0.054278042
172	0x3a123834	0.0005577833
173	0x3d8c17d8	0.06840485
174	0x3d969429	0.07352478
175	0x3cb84c91	0.022497447
176	0x3d9670d0	0.07345736
177	0xbda38b44	-0.07985547
178	0xbc6ec72a	-0.014573852
179	0x3d14638d	0.03622775
180	0x3cb8dca5	0.022566149
181	0x3cd6c001	0.026214601
182	0x3c63b7f1	0.0138988355
183	0xbd9981b9	-0.07495446
184	0xbb845f15	-0.004039655
185	0x3b9c6d86	0.0047737984
186	0x3cac4c30	0.021032423
187	0x3d040f28	0.032241017
188	0x3cebe44c	0.028795384
189	0x3d83565e	0.064129576
190	0xbda8dbd3	-0.08245053
191	0x3b990f0a	0.0046709822
192	0x3d68afa4	0.05680813
193	0xbdb9a58f	-0.09064781
194	0x3d840c5c	0.0644767
195	0x3d5df882	0.054192074
196	0xbcc48ff8	-0.02399443
197	0xbd4ef744	-0.05052878
198	0x3d833531	0.0640663
199	0xbd8a0bcc	-0.06740531
200	0xbd15d995	-0.036584456
201	0xbcb41af5	-0.02198551
202	0xbd96a6d1	-0.073560365
203	0x3d5fb719	0.054617975
204	0xbc243f90	-0.01002492
205	0xbb7c9245	-0.0038539332
206	0x3cf1dc78	0.029524073
207	0xbc22df25	-0.009940897
208	0xbd83a23e	-0.064274296
209	0xbd649d81	-0.05581427
210	0xbd8eae74	-0.06966868
211	0x3d20db0d	0.039271403
212	0xbd939c9e	-0.07207607
213	0x3ca93040	0.02065289
214	0xbd7a3fbb	-0.061095934
215	0x3b7b4254	0.0038339095
216	0x3b7638df	0.003757052
217	0xbbdaf86a	-0.0066824453
218	0xbd1ffa7d	-0.039057244
219	0xbcfd2f2f	-0.030906288
220	0xbda14ffa	-0.078765824
221	0xbda89a6a	-0.08232577
222	0x3bb4c69a	0.005516839
223	0x3c5b3156	0.013378462
224	0x3d613dde	0.05499064
225	0x3cc4cb5f	0.024022756
226	0xbd2f3c27	-0.042781975
227	0xbd9a1ac7	-0.075246386
228	0xbce6ca74	-0.028172709
229	0x3c7b6b99	0.0153454775
230	0xbd2e23c9	-0.042514596
231	0xbca1fc00	-0.019773483
232	0xbd49a325	-0.049227852
233	0x3d8e5097	0.06948965
234	0x3d3383b5	0.043826777
235	0x3d580826	0.052742146
236	0x3c1e4cfc	0.009661909
237	0x3d8695d4	0.06571546
238	0x3cbd4e89	0.023108738
239	0xbdb48f70	-0.08816421
240	0xbd81a4fc	-0.063302964
241	0x3cf5171d	0.029918248
242	0xbd7fb3f9	-0.062427495
243	0x3d69e004	0.057098404
244	0xba46eefe	-0.0007588713
245	0xbd75c002	-0.059997566
246	0x3d98a390	0.07453072
247	0xbdb40418	-0.08789843
248	0x3d4afec8	0.049559385
249	0xbd72d22f	-0.059282478
250	0xbd1fccf2	-0.03901381
251	0x3d2d7407	0.04234698
252	0xbd248da2	-0.040174134
253	0xbbedd05b	-0.007257504
254	0x3c0a0310	0.008423582
255	0x3ba4cd30	0.005029343

state_cnn.1.0.bias f4 [32]
0	0x3d2de0b6	0.04245063
1	0x3d8fa1a3	0.07013252
2	0xbceb356a	-0.028711993
3	0x3c7ef40d	0.015561116
4	0x3d4e2de6	0.05033674
5	0x3cd41769	0.02589007
6	0x3d2712e3	0.040789496
7	0x3d597892	0.0530935
8	0xbda890a9	-0.08230717
9	0x3d800ae7	0.062520795
10	0x3d616ad6	0.055033527
11	0xbd4b7977	-0.049676385
12	0xbd93259c	-0.07184908
13	0x3d98506b	0.074372135
14	0x3cabaaed	0.020955527
15	0xbdace1be	-0.084414944
16	0xbd55e35e	-0.052218787
17	0xbd2c40fd	-0.042054165
18	0x3d25ac42	0.04044748
19	0xbc2b3211	-0.0104489485
20	0xbcaa1827	-0.02076347
21	0xbc37ac8f	-0.011210575
22	0xbcdd91ac	-0.027047
23	0xbd6d0d17	-0.05787381
24	0x3c01534f	0.0078933975
25	0xbd89dd8a	-0.06731708
26	0xbceccdcb	-0.028906723
27	0x3c6ca6b9	0.014444047
28	0xbca0f3b8	-0.019647464
29	0xbd5e1343	-0.05421759
30	0xbdb7e68a	-0.08979519
31	0x3d1a3052	0.037643738

button_cnn.0.0.weight f4 [8, 1, 3, 3]
0	0x3eaf1e32	0.34202725
1	0x3e9a8011	0.30175832
2	0xbdda16ff	-0.106489174
3	0xbdb58e16	-0.08864991
4	0xbdac9f47	-0.08428817
5	0xbdfb4a32	-0.12270011
6	0xbcb6632a	-0.022264082
7	0xbe909aa7	-0.2824299
8	0x3cab3156	0.020897549
9	0xbe1fcbee	-0.15605137
10	0xbd3e2a33	-0.046426963
11	0xbe6a4d49	-0.22881044
12	0x3ebc9ad1	0.36836866
13	0x3e160865	0.1465164
14	0x3e90c3a9	0.28274277
15	0x3dff4fc2	0.124663845
16	0xbe8f228e	-0.2795605
17	0x3d484d9a	0.04890213
18	0xbe959342	-0.2921391
19	0x3d0881a7	0.03332677
20	0x3e839520	0.2569971
21	0xbe2466db	-0.16054861
22	0x3e183dcd	0.14867325
23	0x3ec486d7	0.38384125
24	0x3ee53d58	0.44773364
25	0x3e84145c	0.25796783
26	0xbda83196	-0.08212583
27	0xbd457dd5	-0.048215706
28	0x3e5ed25e	0.21759936
29	0xbe89e690	-0.26933718
30	0xbe82e189	-0.25562695
31	0x3ede0846	0.43365687
32	0x3e48513c	0.19562238
33	0xbdab88af	-0.0837568
34	0x3e99ee44	0.30064595
35	0x3cb8b429	0.022546845
36	0x3d9f52e2	0.077794805
37	0x3e1bc108	0.15210354
38	0x3d9fa9bd	0.07796047
39	0x3e7cc656	0.24685034
40	0x3e90db0f	0.28292128
41	0xbe9e0129	-0.3086026
42	0x3cacf038	0.021110639
43	0x3e19c8ec	0.15018052
44	0x3d1d57cf	0.03841382
45	0x3cd34330	0.025788873
46	0xbebe8c43	-0.37216386
47	0xbe289566	-0.16463241
48	0xbdb8d484	-0.09024909
49	0x3edc2ec3	0.43004426
50	0x3e1a1d6d	0.15050288
51	0x3d02e5f8	0.031957597
52	0xbc979ed5	-0.018508354
53	0x3ea4d868	0.32196355
54	0x3d2835f6	0.041067086
55	0x3de78427	0.11304503
56	0x3d691915	0.056908686
57	0xbd8dac39	-0.069176145
58	0x3d5ddd79	0.05416629
59	0xbcdca2be	-0.02693307
60	0x3ef8c055	0.48584238
61	0x3e963c78	0.2934301
62	0xbe77e852	-0.24209717
63	0xbd94e7c8	-0.07270771
64	0x3e099522	0.13435796
65	0x3dfb5d50	0.12273657
66	0xbdcc03fb	-0.09961697
67	0xbe9f7aad	-0.31148282
68	0x3e5324a1	0.20619442
69	0xbd47290b	-0.048623126
70	0x3d81edcd	0.06344185
71	0x3f03fb35	0.51555187

button_cnn.0.0.bias f4 [8]
0	0xbd3d896f	-0.046273645
1	0x3ac5a994	0.0015080445
2	0x3c71e572	0.014764177
3	0x3dbb7787	0.091536574
4	0x3e8ff79a	0.28118593
5	0xbd692dac	-0.05692832
6	0xbd8f6002	-0.07000734
7	0x3df6c92e	0.12050091

button_cnn.1.0.weight f4 [16, 8, 3, 3]
0	0xb8dbec3c	-0.00010486736
1	0x3c496a12	0.012293356
2	0x3d3a0bcb	0.045421403
3	0xbd076e33	-0.03306408
4	0xbe1d327b	-0.15351288
5	0xbe208424	-0.15675408
6	0xbccd573f	-0.025066016
7	0x3cb0c484	0.021578081
8	0xbd1a8eaa	-0.03773371
9	0xbd03f9a7	-0.03222051
10	0xbe097e09	-0.13426985
11	0x3b481f50	0.0030536242
12	0x3dbe84ed	0.09302697
13	0xbe5085a5	-0.20363481
14	0x3d92b87a	0.07164092
15	0xbe1f92cc	-0.15583342
16	0x3c5cdea0	0.013480812
17	0x3e248a3b	0.16068356
18	0xbded32cc	-0.11581954
19	0xbdc202ad	-0.094731666
20	0xbd1058bf	-0.035240885
21	0xbd9f23f9	-0.07770533
22	0x3db39c58	0.087700546
23	0x3da30924	0.07960728
24	0xbe05c739	-0.13064279
25	0x3e2923cf	0.16517566
26	0x3e1cc22d	0.15308447
27	0x3d949302	0.07254602
28	0x3c763af7	0.015028707
29	0x3b49dfcd	0.0030803562
30	0x3d1f3b18	0.038874716
31	0xbd5ad541	-0.05342603
32	0xbd639f27	-0.0555717
33	0xbd60f019	-0.054916475
34	0x3e3898b1	0.18026997
35	0x3d2dbb29	0.042414818
36	0x3b8b0fbb	0.0042438186
37	0x3dbb57e0	0.0914762
38	0xbe0fa535	-0.14027865
39	0xbd4baacd	-0.049723435
40	0x3d33be02	0.043882377
41	0xbdd31262	-0.103062406
42	0xbcbcb8bf	-0.023037313
43	0x3e0adf95	0.13561852
44	0x3c157919	0.00912311
45	0x3d7e741f	0.06212246
46	0xbe2223b3	-0.1583393
47	0xbd8bd102	-0.068269745
48	0xbde2cb1e	-0.11073898
49	0xbe033561	-0.12813331
50	0xbd87e7f5	-0.06636039
51	0xbd2f62b3	-0.042818736
52	0x3e005d16	0.1253551
53	0x3d6a79f0	0.057245195
54	0xbd05b2ba	-0.03264115
55	0x3c2df92e	0.010618491
56	0x3c0857d9	0.008321726
57	0xbce3fff6	-0.027832013
58	0x3d5cf577	0.05394503
59	0x398c8f5f	0.000268097
60	0x3d20b2c6	0.03923299
61	0x3e15c558	0.14626062
62	0x3e09695f	0.13419102
63	0xbdcc1d38	-0.099665105
64	0xbda2c599	-0.07947845
65	0x3c99d29b	0.018777182
66	0xbdb983ce	-0.09058343
67	0x3d001687	0.031271484
68	0x3d5ffc9e	0.054684274
69	0x3c49ae98	0.012309693
70	0x3e241137	0.16022192
71	0xbdf592e7	-0.1199091
72	0x3d4f13f8	0.050556153
73	0xbbedc89b	-0.00725658
74	0x3e3e1e8c	0.1856634
75	0xbd3079d1	-0.043084923
76	0xbd54a446	-0.051914476
77	0xbe11ee61	-0.1425109
78	0xb96a7159	-0.00022358204
79	0xbdbeef08	-0.09322935
80	0xbe3137a2	-0.17306378
81	0xbdb71463	-0.08939435
82	0x3def5de4	0.1168783
83	0xbcdd9afc	-0.027051441
84	0x3c1913a0	0.009343058
85	0x3c850cf7	0.016241534
86	0x3daa61a0	0.08319402
87	0xbe4410f8	-0.19147098
88	0xbd93112f	-0.07181012
89	0xbda12598	-0.078684986
90	0x3dfa1508	0.12211043
91	0xbd24f182	-0.040269382
92	0x3df0d707	0.11759763
93	0xbdaf69ff	-0.08565139
94	0xbdc452a1	-0.09586073
95	0x3d48d13e	0.049027674
96	0x3d0ce47f	0.0343976
97	0x3d42cd88	0.04755929
98	0x3e03c2c9	0.12867273
99	0x3df4b0f5	0.119478144
100	0x3d37b439	0.044849608
101	0x3dcc99e8	0.09990293
102	0xbda2d75e	-0.07951234
103	0xbdd9a02b	-0.10626253
104	0xbdf0a96d	-0.117510654
105	0xbd33c506	-0.043889068
106	0xbd6c0797	-0.057624426
107	0x3d259aaf	0.04043072
108	0x3b8ded95	0.0043313005
109	0xbdfe9da3	-0.124324106
110	0x3da40f76	0.080107614
111	0xbd6b51e6	-0.05745115
112	0xbcbf5190	-0.023354322
113	0xbc2bcc19	-0.010485672
114	0x3d84b199	0.064791866
115	0xbdebef37	-0.11520236
116	0xbd01704a	-0.031601228
117	0xbd423ddc	-0.047422275
118	0x3daffed1	0.08593524
119	0x3c6c20d2	0.014412122
120	0x3ded0a4d	0.1157423
121	0x3d8ece91	0.06972993
122	0x3df9f240	0.12204409
123	0xbdcba8c5	-0.099442996
124	0x3d97f4ca	0.07419737
125	0x3c05c3f6	0.0081643965
126	0xbda923b3	-0.08258762
127	0xbc9a16e9	-0.018809753
128	0x3d6c65df	0.05771434
129	0xbdeb8201	-0.11499406
130	0xbc4458ff	-0.011984109
131	0x3de4b6ab	0.11167654
132	0x3ceddfa1	0.029037299
133	0xbe2232f2	-0.15839747
134	0xbd95167e	-0.07279681
135	0xbdd9d967	-0.10637169
136	0x3c494b9f	0.012286096
137	0xba9ec7fd	-0.0012114045
138	0xbdc8f044	-0.09811452
139	0xbdde4128	-0.10852271
140	0x3ba43ca6	0.0050121127
141	0xbe31c357	-0.17359672
142	0xb9ff5b53	-0.00048705432
143	0x3cc0ab66	0.02351923
144	0xbdb24964	-0.087054044
145	0x3d7bb199	0.061448667
146	0x3d86d6d4	0.06583944
147	0x3da89428	0.082313836
148	0xbd4762fb	-0.04867838
149	0x3e12edfa	0.14348593
150	0xbd0fc140	-0.035096407
151	0xba8510a4	-0.0010152054
152	0xbca07e75	-0.01959155
153	0xbc4c6be1	-0.012476892
154	0xbd8f3adc	-0.069936484
155	0x3bd64953	0.0065395026
156	0xbd119cf1	-0.03555006
157	0x3d7ad2bd	0.061236132
158	0x3e1e0a90	0.15433717
159	0x3d932aa3	0.07185867
160	0xbb5bf062	-0.0033560027
161	0x3dc24fd8	0.09487885
162	0xbca9cc70	-0.020727366
163	0x3da4d024	0.08047512
164	0x3e1a4f97	0.15069424
165	0xbc41709d	-0.011806634
166	0x3d5c87b8	0.05384037
167	0x3e16b111	0.14715983
168	0xbdedc0ec	-0.116090626
169	0xbdc2883e	-0.094986424
170	0xbde8cb1e	-0.113668665
171	0xbcced9db	-0.025250366
172	0xbc0c660f	-0.008569255
173	0x3d498244	0.049196497
174	0x3db64378	0.088995874
175	0x3e297001	0.16546632
176	0xbdabfe9b	-0.083981715
177	0x3db43d66	0.08800773
178	0xbbd80663	-0.006592558
179	0xbd9cf86b	-0.076645695
180	0xbd1769e4	-0.03696622
181	0x3d9f0406	0.07764439
182	0xbd21f4b0	-0.039539993
183	0x3e0829ff	0.1329727
184	0x3db56056	0.08856265
185	0xbd611be5	-0.054958243
186	0xbe05b38e	-0.13056776
187	0xbdfb45c5	-0.12269167
188	0xbdaed1b2	-0.0853609
189	0xbd74de77	-0.05978247
190	0x3de1c84d	0.110245325
191	0xbcbd732b	-0.023126205
192	0x3dba35f8	0.09092325
193	0x3e7254fd	0.23665233
194	0xbe92b53d	-0.286539
195	0xbe17745c	-0.14790481
196	0xbc6a2bce	-0.01429267
197	0xbb9a201a	-0.004703534
198	0x3dbc77b5	0.0920252
199	0x3c07ef8d	0.008296859
200	0xbbea73e7	-0.00715493
201	0x3df3cbdd	0.11904118
202	0xbda207fd	-0.0791168
203	0x3e186e38	0.14885795
204	0xbc7c6c4c	-0.015406679
205	0x3d7f7ef3	0.062376928
206	0xbdf0e3b2	-0.117621794
207	0x3d5cf8d0	0.053948224
208	0x3d9194a4	0.07108429
209	0xbdb60306	-0.088872954
210	0xbe064ce7	-0.13115273
211	0x3d1a2cae	0.037640266
212	0xbe1e6346	-0.15467557
213	0xbc11ebf2	-0.008906351
214	0x3d5a227f	0.053255554
215	0xbe21b435	-0.157914
216	0x3ca26fd8	0.019828722
217	0xbdceff68	-0.101073086
218	0xbda5f5fb	-0.08103558
219	0xbdcf73f4	-0.10129538
220	0x3da73595	0.08164517
221	0xbda4075a	-0.08009215
222	0xbdb491cc	-0.08816871
223	0xbd06914a	-0.032853402
224	0xbdee3d1d	-0.1163275
225	0xbd87fab9	-0.066396184
226	0xbdf42b13	-0.11922278
227	0xbdb51f96	-0.08843915
228	0x3e36fa57	0.17868935
229	0x3d61fb70	0.05517143
230	0xbd91bca4	-0.071160585
231	0xbc4b4f92	-0.012409108
232	0xbd82929a	-0.06375618
233	0xbe407aa8	-0.1879679
234	0x3d5db973	0.054131936
235	0x3d440741	0.04785848
236	0x3c8ea2b0	0.01741156
237	0x3ddd677e	0.10810755
238	0xbdc7c53d	-0.09754417
239	0xbd898c26	-0.06716184
240	0x3d7a2554	0.061070755
241	0xbe500c67	-0.20317231
242	0xbe37c8f6	-0.17947754
243	0xbdabd50a	-0.08390243
244	0x3dcf2ec9	0.101163454
245	0xbcc93f7d	-0.024566406
246	0x3d9c90cf	0.076448075
247	0xbd3ca77c	-0.046058163
248	0xbd580509	-0.052739177
249	0x3d7eeef1	0.06223959
250	0xbd08751a	-0.0333148
251	0x3cf22c00	0.029561996
252	0x3dde97dc	0.108688086
253	0xbd9fe185	-0.07806686
254	0x3c1b5ca0	0.009482533
255	0x3d0a8392	0.03381688

button_cnn.1.0.bias f4 [16]
0	0x3d84a468	0.064766705
1	0x3d8a98de	0.06767438
2	0xbc45e151	-0.012077645
3	0x3dbd34ed	0.092386104
4	0xbca48f75	-0.020087937
5	0x3d9e443c	0.077278584
6	0xbd6dcf49	-0.05805901
7	0x3da7fe34	0.08202782
8	0xbd9a726b	-0.07541355
9	0x3ca18971	0.019718857
10	0xbd856701	-0.06513787
11	0x3dbcc6f5	0.092176355
12	0x3cd156a1	0.025554003
13	0xbd98b390	-0.07456124
14	0x3d908922	0.07057406
15	0x3d13adf4	0.036054567

fc.0.weight f4 [256, 240]
0	0xbd257df3	-0.040403318
1	0x3c23b5c3	0.009992066
2	0xbd599508	-0.053120643
3	0x3cc95f91	0.024581702
4	0xbd7b3fcf	-0.06134015
5	0x3d2acd64	0.041699782
6	0x3d70be89	0.05877546
7	0x3cc48ae4	0.02399201
8	0x3d143c41	0.036190275
9	0xbd355fbc	-0.044280753
10	0x3d2806d4	0.041022137
11	0x3d1cbe80	0.038267612
12	0xbadc2e33	-0.0016798436
13	0xbc9e74b0	-0.01934275
14	0x3cc0d34c	0.023538254
15	0x3bcf702e	0.0063305115
16	0x3cf5a6ce	0.029986765
17	0xbd4160ba	-0.047211386
18	0x3d267ea8	0.040648133
19	0x3cfddf8f	0.03099039
20	0xbd622f7c	-0.055221066
21	0xbc0bd8e7	-0.0085356
22	0xbc6c56ce	-0.014424993
23	0xbd6f90d3	-0.058487725
24	0xbd21089b	-0.039314847
25	0xbcfd68be	-0.030933734
26	0xbd55186b	-0.05202524
27	0xbd0b8ace	-0.03406792
28	0x3c2a083f	0.010377943
29	0xbc93b162	-0.018028919
30	0xbd30d035	-0.04316731
31	0x3c309d8b	0.010779749
32	0xbc119ff7	-0.008888236
33	0xbd2ba9ca	-0.04190997
34	0xbd651942	-0.05593229
35	0xbcd99e05	-0.026564607
36	0x3b3a2cfb	0.0028408158
37	0xbd7ef297	-0.06224307
38	0x3d5df86a	0.054191984
39	0x3cd6eb36	0.026235204
40	0xbd36f4e6	-0.044667147
41	0xbcc76f04	-0.024344929
42	0xbb841b63	-0.004031585
43	0x3cd7b98f	0.026333598
44	0xbd340d1b	-0.04395781
45	0x3c02af64	0.007976387
46	0xbcd6f581	-0.026240112
47	0xbcacc241	-0.021088721
48	0x3d444bcd	0.04792385
49	0xbd0a48e1	-0.03376091
50	0x3d73da7a	0.059534527
51	0x3c982549	0.018572466
52	0x3d526c29	0.05137268
53	0xbd1a56b7	-0.037680354
54	0x3b94fd1f	0.004546776
55	0xbc884feb	-0.01663967
56	0xbd0fd874	-0.035118535
57	0x3b824d36	0.0039764894
58	0x3c03fbfc	0.008055683
59	0x3cf6541b	0.030069401
60	0x3c43226a	0.01191006
61	0xba6f8daf	-0.0009138239
62	0xbc356937	-0.011072448
63	0xbce7ac4c	-0.0282804
64	0x3d04e016	0.032440268
65	0xbd58e0b2	-0.05294866
66	0xbd1c696f	-0.038186487
67	0xbc203121	-0.009777338
68	0xbbf1b522	-0.007376329
69	0x3d16094b	0.036629956
70	0x3d38d521	0.04512513
71	0x3b0a1f5a	0.0021075816
72	0xbcb7eac6	-0.022450816
73	0x3d18b514	0.037282065
74	0xbce2816e	-0.027649608
75	0xbd1af714	-0.03783329
76	0xbd694e48	-0.05695942
77	0x3ceef6f6	0.029170495
78	0xbd332e1f	-0.043745156
79	0xbd4a006a	-0.0493168
80	0x3d182fb7	0.03715488
81	0xbd34228c	-0.04397826
82	0xbc1f7108	-0.009731539
83	0xbd3eb66a	-0.046560682
84	0x3d8106f9	0.06300158
85	0x3cc6c286	0.024262678
86	0xbbaa880e	-0.0052042073
87	0xbb1b99cf	-0.00237428
88	0xbd559702	-0.052145965
89	0xbd2cc4a3	-0.042179715
90	0xbc50c696	-0.012742659
91	0x3d7f23cb	0.062289994
92	0x3cc9e2c8	0.02464427
93	0xbccc1aac	-0.024915062
94	0x3d798f53	0.0609277
95	0xbca5b6c9	-0.02022876
96	0xbce6981f	-0.028148709
97	0xb8666cfc	-5.4937773e-05
98	0x3d5ea96d	0.054360796
99	0x3d1c249b	0.038120847
100	0x3c09dd1f	0.008414536
101	0x3c9f1f8d	0.019424224
102	0xbcec936b	-0.028878888
103	0xbd6a56a7	-0.057211544
104	0xbd517750	-0.051139176
105	0xbd5184b9	-0.051151965
106	0xbc29bc3d	-0.010359821
107	0x3b7b0104	0.0038300166
108	0x3d50da18	0.05098924
109	0x3ce0f463	0.027460283
110	0xbd1f9663	-0.03896178
111	0x3d6f0f8e	0.058364443
112	0x3af52ca1	0.0018705317
113	0xbc54c3bb	-0.012986119
114	0x3d4a36e5	0.049368758
115	0xbd5a2701	-0.053259853
116	0xbc5dae45	-0.013530319
117	0x3d8415e3	0.06449487
118	0x3d4339a6	0.0476624
119	0x3d510844	0.051033273
120	0x3bdccf93	0.006738612
121	0xbd3e6aec	-0.046488687
122	0xbd37ced1	-0.04487497
123	0xbbeeb7c4	-0.00728509
124	0x3d213a19	0.039362047
125	0xbd17a911	-0.03702647
126	0x3d5cbcab	0.053890865
127	0x3be2a829	0.006917019
128	0xbd733cb3	-0.05938406
129	0xbd81f899	-0.06346244
130	0xbd536fe0	-0.051620364
131	0xbd0a888d	-0.03382163
132	0x3d7d0b29	0.06177822
133	0xbb2516f2	-0.0025190678
134	0x3d6612f6	0.056170426
135	0xbd1bdb92	-0.038051195
136	0xbd65d979	-0.0561156
137	0xbd441b78	-0.04787776
138	0xbb2b96c7	-0.00261824
139	0xbcfe10fd	-0.03101396
140	0x3d6fda06	0.058557533
141	0xbc80455c	-0.015658073
142	0x3c8173d3	0.0158023
143	0xbc509555	-0.012730916
144	0x3d45cc78	0.0482907
145	0xbc1c839c	-0.0095528625
146	0x3d09f164	0.033677474
147	0xbc899a06	-0.016797077
148	0x3c5756d9	0.013143265
149	0xbd28f4eb	-0.041249197
150	0x3c1aba80	0.009443879
151	0xbc4274ce	-0.011868669
152	0xbd687621	-0.05675328
153	0xbcff227d	-0.031144375
154	0xbd07c2bf	-0.03314471
155	0x3d6de0aa	0.058075584
156	0x3bbcd40b	0.005762582
157	0xbc45023e	-0.01202446
158	0xbbdedae1	-0.0068009947
159	0xbd20cd74	-0.039258435
160	0xbc68ad51	-0.014201478
161	0xbd12d6ae	-0.035849266
162	0x3d67c4db	0.05658422
163	0x3bc36b8c	0.0059637483
164	0x3b94201a	0.0045204284
165	0xbc6388e4	-0.013887618
166	0x3d751749	0.05983666
167	0x3ccefd34	0.025267221
168	0xbd135814	-0.03597267
169	0x3d3b80d3	0.045777153
170	0xbd645879	-0.055748437
171	0xbc94cb3e	-0.01816332
172	0x3cb57adf	0.022153316
173	0x3cbc4041	0.022979857
174	0xbd237e58	-0.039915413
175	0x3d73321d	0.059373964
176	0xbd5dc5a3	-0.05414356
177	0xbc5520bf	-0.013008296
178	0xbb596740	-0.0033173114
179	0xbc78b110	-0.015178934
180	0x3c4d9e3a	0.012549931
181	0x3c56eb3e	0.01311761
182	0x3c5f4c4b	0.0136290295
183	0x3cd6c1b4	0.026215412
184	0xbcfb7b04	-0.030698307
185	0xba41757b	-0.00073798717
186	0xbd1120c1	-0.035431627
187	0x3ca80f57	0.020515127
188	0x3d169dba	0.036771514
189	0x3d63ea77	0.055643525
190	0x3cf74fd1	0.030189427
191	0xbce29443	-0.027658587
192	0x3c1efe4b	0.009704183
193	0x3c441650	0.01196821
194	0x3cd3d6cd	0.025859261
195	0xbcd27b0e	-0.025693443
196	0x3d26c18b	0.04071192
197	0x3ac69732	0.0015151261
198	0xbd657495	-0.056019384
199	0xbd10a82c	-0.03531663
200	0x3c03b07e	0.0080376845
201	0xbc87454b	-0.016512534
202	0xbd0d2709	-0.034461055
203	0xbd23fa45	-0.040033597
204	0xbd3957cc	-0.045249745
205	0x3b91717d	0.0044385777
206	0xbce2dbd1	-0.027692707
207	0xbd265585	-0.0406089
208	0xbd0f70ac	-0.03501956
209	0xbd78a870	-0.06070751
210	0x3cd73f7f	0.026275394
211	0x3c08bec8	0.008346267
212	0xbd709014	-0.058731154
213	0x3d4651f1	0.04841799
214	0xb6c3b2ae	-5.832254e-06
215	0xbd21b399	-0.03947792
216	0xbcec9dc3	-0.02888382
217	0x3d4759ca	0.048669614
218	0x3d4983fd	0.04919814
219	0xbca99176	-0.020699244
220	0x3d250179	0.040284608
221	0x3bb327a8	0.005467374
222	0x3b84dfc0	0.0040549934
223	0xbd27f6ae	-0.041006736
224	0x3ccbfa97	0.024899764
225	0xbd81ac60	-0.06331706
226	0x3ad1ed9c	0.0016016248
227	0xbd4e9202	-0.050432213
228	0xbcf6d0fe	-0.030128952
229	0xbd29adb9	-0.04142544
230	0x3c4d361c	0.012525108
231	0x3ca6a316	0.020341437
232	0xbd311e10	-0.04324156
233	0x3d81d113	0.06338706
234	0xbbe7b4b4	-0.007071102
235	0xbba941a1	-0.0051652943
236	0x3d5ab6c1	0.053396944
237	0xbceba70d	-0.02876618
238	0xbce7e03e	-0.02830517
239	0xbd6eb60a	-0.058279075
240	0x3c63a684	0.013894681
241	0x3d15d0d2	0.0365761
242	0x3d95e0d0	0.0731827
243	0xbce6dbbd	-0.028180951
244	0x3c1384c4	0.009003822
245	0x3ca590bb	0.020210614
246	0x3d7d9d66	0.061917685
247	0x3c73e75a	0.0148867015
248	0x3d14ba4d	0.036310483
249	0x3c5770e2	0.013149472
250	0xbd2fee36	-0.042951785
251	0xbd77c9d1	-0.0604952
252	0x3d3c622d	0.045992065
253	0xbd5c283e	-0.053749315
254	0x3bad7fc0	0.00529477
255	0x3ce993ed	0.02851292

fc.0.bias f4 [256]
0	0xbd6c07a5	-0.057624478
1	0x3be60d4e	0.007020629
2	0x3d5dbd01	0.054135326
3	0xbd4255a9	-0.047444973
4	0xb97953c0	-0.0002377769
5	0xbd8a679b	-0.067580424
6	0x3d269b5e	0.040675513
7	0xbcd4dc9d	-0.025984103
8	0xbd0d6f10	-0.034529746
9	0x3c7709a3	0.015077981
10	0xbbf37a50	-0.0074303523
11	0x3cff04cf	0.031130223
12	0xbd089372	-0.03334374
13	0x3d19bf6c	0.03753607
14	0x3da42ee9	0.0801676
15	0xbc98da72	-0.01865885
16	0xbd849090	-0.064728856
17	0x3ca375d8	0.019953653
18	0xbd6d018d	-0.057862807
19	0x3cb66fc4	0.02227009
20	0xbb90ea45	-0.0044224584
21	0xbd111ea6	-0.03542962
22	0xbd8b88b7	-0.06813186
23	0x3c6fd2a3	0.014637622
24	0x3d22d9ea	0.0397586
25	0xbd3c2d73	-0.04594178
26	0xbd2f4c67	-0.042797472
27	0x3d3cc8ba	0.046089865
28	0xbbc75e27	-0.006084222
29	0xbd6aa2ac	-0.057284042
30	0x3c03b70c	0.008039247
31	0xbb92bd09	-0.004478101
32	0xbd195ed7	-0.037443962
33	0xbca1d9a8	-0.019757107
34	0x3d8a677e	0.06758021
35	0x3d1f32fd	0.038866986
36	0xbd0d05e0	-0.03442943
37	0x3c6f6e57	0.014613709
38	0x3cdc655c	0.0269038
39	0xbd2f2c37	-0.042766776
40	0xbc90566b	-0.017619332
41	0xbd789c17	-0.060695734
42	0x3cbf8d61	0.023382844
43	0x3ca15114	0.019691981
44	0x3c3678ea	0.011137227
45	0xbbba35aa	-0.005682667
46	0x3d440a45	0.047861356
47	0xbba63f42	-0.005073459
48	0x3cadab2f	0.02119979
49	0x3c8fe6e1	0.017566146
50	0x3d3de8da	0.046364643
51	0x3d00d0f6	0.03144928
52	0xbaf7c8a5	-0.0018904401
53	0xbd396ba1	-0.04526866
54	0xbd3c4ebf	-0.045973536
55	0x3d738b40	0.05945897
56	0x3d3b30bc	0.045700774
57	0x3ca70f8b	0.020393154
58	0xbbafc7df	-0.0053644027
59	0xbc060a32	-0.008181142
60	0x3b41bac8	0.0029560793
61	0xbbc119b8	-0.0058929585
62	0xbcee0376	-0.029054385
63	0x3b4d18d2	0.0031295312
64	0xbd0e5bbf	-0.034755465
65	0x3d7c7371	0.06163353
66	0xbd5c0d5a	-0.05372367
67	0x3d13027d	0.035891045
68	0x3d88e7ca	0.06684835
69	0x3ba175a2	0.004927353
70	0x3d3bb60c	0.04582791
71	0xbd512bf9	-0.051067326
72	0x3ce9848e	0.02850559
73	0x3b885158	0.0041600876
74	0x3cbfb21c	0.023400359
75	0x3bc762a7	0.0060847583
76	0xbb18565a	-0.002324483
77	0xbae6499e	-0.0017569547
78	0xbce722d5	-0.028214851
79	0x3d6ca3c8	0.05777338
80	0xbd4f2feb	-0.050582808
81	0xbc594cf2	-0.013262974
82	0xbceb1dd5	-0.028700748
83	0xbca60ad8	-0.020268843
84	0x3ba00851	0.004883804
85	0x3d1b920a	0.03798107
86	0xbd4ddb57	-0.050258007
87	0x3cf0434b	0.029328963
88	0x3ceef1d4	0.029168047
89	0xbb9bfd86	-0.004760447
90	0xbc1907a7	-0.009340203
91	0xbbd9d322	-0.0066474834
92	0x3d6263e5	0.055271048
93	0xbd8a46c4	-0.06751779
94	0xbd7fbd85	-0.0624366
95	0xbc9aefc1	-0.018913152
96	0xbd33a0f0	-0.043854654
97	0x3ca65405	0.020303736
98	0x3d054351	0.0325349
99	0x3d1b74c6	0.03795316
100	0xbd82dd58	-0.06389874
101	0x3da4d7ba	0.08048959
102	0x3d7a5dad	0.061124492
103	0x3d609c0f	0.05483633
104	0xbd16d7d2	-0.036826916
105	0x3d2bd7eb	0.041953962
106	0x3d83487e	0.06410311
107	0xbd552009	-0.052032504
108	0xbd416be1	-0.047222022
109	0x3d3718f8	0.044701546
110	0xbd2dea17	-0.042459574
111	0x3d6ba9ad	0.057534862
112	0xbd0cf3ee	-0.034412317
113	0xbb8e0ae5	-0.004334795
114	0xbd1e2a81	-0.038614754
115	0xbd622b34	-0.055216983
116	0x3ca8aac9	0.02058925
117	0x3c875dda	0.016524244
118	0x3a8ec629	0.0010892797
119	0x3d15aed9	0.0365437
120	0x3c4e0417	0.012574217
121	0x3da64d4b	0.08120211
122	0x3d921094	0.07132068
123	0xbcf4f964	-0.029904075
124	0x3c85c5cd	0.01632967
125	0xbd2a9cbb	-0.041653376
126	0x3d634330	0.055483997
127	0x3c81d47b	0.015848389
128	0xbd1fd263	-0.039019
129	0xbcbc9911	-0.023022207
130	0x3da5449c	0.08069727
131	0xbc161373	-0.0091599105
132	0x3be8718d	0.0070936144
133	0xbcd24167	-0.025665952
134	0x3d6507e3	0.055915724
135	0xbd22cd1a	-0.03974638
136	0x3d79e208	0.061006576
137	0x3d03664b	0.032079976
138	0x3cf0ddae	0.02940258
139	0xbd22cfc0	-0.039748907
140	0xbc899088	-0.01679255
141	0x3c95e851	0.018299254
142	0xbd7712a1	-0.0603205
143	0x3d0f16c4	0.03493382
144	0x3d57bb06	0.052668594
145	0xbd844227	-0.0645793
146	0x3d753cc5	0.059872407
147	0x3da94900	0.08265877
148	0x3c9d53ee	0.01920506
149	0x3cebb7cf	0.02877417
150	0x3d069683	0.032858383
151	0xbbe78280	-0.0070651174
152	0xbc6f38f5	-0.014600982
153	0x3d5e6988	0.05429986
154	0xbd3a075a	-0.045417167
155	0xbcad4913	-0.021153009
156	0x3cea9005	0.028633127
157	0x3d709424	0.058735028
158	0x3d0bd386	0.03413727
159	0x3c6b0700	0.014344931
160	0x3cec3ec3	0.02883852
161	0xbc9baee0	-0.019004285
162	0xbd36a8aa	-0.044594444
163	0xbbd89b3e	-0.006610303
164	0xbd3f32e0	-0.046679378
165	0x3d0e5684	0.034750476
166	0xbd170312	-0.036868162
167	0xbd93db31	-0.07219542
168	0x3c3f4a53	0.011675435
169	0x3d6d3b3c	0.05791782
170	0x3db0c933	0.08632126
171	0xb9bd2ae2	-0.0003608084
172	0x3bb469ae	0.005505762
173	0x3d344017	0.044006433
174	0xbc7cd30c	-0.015431177
175	0xbc958f0f	-0.018256692
176	0xbd0c4fed	-0.03425591
177	0xbc44a53a	-0.012002284
178	0xbd326242	-0.043550737
179	0xbd156304	-0.03647138
180	0x3bfc1471	0.0076928665
181	0x3bc01f41	0.0058631008
182	0x3d613587	0.05498269
183	0x3c8db83f	0.01729977
184	0x3cc545e9	0.024081187
185	0xbda1ff0a	-0.07909973
186	0x3d1296db	0.0357884
187	0x3ccefb0b	0.025266191
188	0x3db6296b	0.088946186
189	0x3a913176	0.0011077363
190	0x3d188654	0.03723748
191	0xbc367df4	-0.011138428
192	0xbd2b9a50	-0.04189521
193	0xbd115b8b	-0.035487693
194	0xbd80f7ce	-0.06297265
195	0x3cb49d6f	0.022047726
196	0xbd8ad8c8	-0.06779629
197	0x3d473237	0.048631873
198	0x3d39aa89	0.04532865
199	0xbd0f183b	-0.034935217
200	0x3caf644d	0.021410132
201	0xbc75285b	-0.014963235
202	0xbd2ff30b	-0.042956393
203	0xbd75d4b1	-0.06001729
204	0xbd022b6d	-0.031779695
205	0x3d573220	0.052538037
206	0xba463066	-0.00075603125
207	0x3d60f8b3	0.054924678
208	0x3d5e7db3	0.054319095
209	0x3d86e93f	0.06587457
210	0x3d565597	0.05232772
211	0xbd2d1628	-0.042257458
212	0xbd30e9c3	-0.043191683
213	0xbcdb2afc	-0.026753895
214	0x3d51aa5e	0.051187865
215	0xbd03c3f2	-0.03216929
216	0x3c39f61c	0.011350181
217	0x3c220845	0.009889667
218	0xbb966ecc	-0.0045908447
219	0x3cf889e9	0.030339198
220	0x3da37abb	0.07982393
221	0x3d3558d3	0.044274163
222	0xbd58fcd6	-0.0529755
223	0xbcff84ad	-0.031191194
224	0x3d328554	0.043584183
225	0x3c625b86	0.013815766
226	0xba8cd554	-0.0010744729
227	0xbccdfee4	-0.025145955
228	0x3d83f3da	0.06442995
229	0xbd7099d2	-0.058740444
230	0xbc38a95f	-0.01127085
231	0x3c14d865	0.009084796
232	0xbca9d407	-0.020730985
233	0xbd0db862	-0.03459967
234	0xbccb5c13	-0.024824178
235	0xbd38469a	-0.044989206
236	0x3ccdee8d	0.025138164
237	0xbd23d180	-0.039994717
238	0x3d330b19	0.043711755
239	0xbd8f2600	-0.0698967
240	0x3cd3571c	0.025798373
241	0xbba30a36	-0.0049755825
242	0xbd5e9b50	-0.054347336
243	0x3d59ca33	0.053171348
244	0xbd450a64	-0.048105612
245	0x3d6f6347	0.058444288
246	0x3cafa4de	0.02144092
247	0x3d167b20	0.036738515
248	0xbd4b9b3a	-0.049708582
249	0xbaf4ca69	-0.0018676046
250	0x3c54a347	0.0129783815
251	0xbcb7f118	-0.02245383
252	0x3d74b2b3	0.059740733
253	0x3d490325	0.049075264
254	0xbc4890c8	-0.01224155
255	0x3cbeaf1f	0.023276864

fc.3.weight f4 [12, 256]
0	0x3d4ea842	0.050453432
1	0xbd8f9c85	-0.070122756
2	0xbdfedf5e	-0.12444948
3	0x3c521dd4	0.012824494
4	0xbdf1915a	-0.11795302
5	0xbc84ce5c	-0.016211681
6	0xbd08a790	-0.033362925
7	0x3ce87679	0.028376805
8	0x3d26a30a	0.04068283
9	0xba6dc825	-0.00090706564
10	0xbea09769	-0.31365517
11	0xbbbd3c65	-0.005775022
12	0xbcb16972	-0.021656726
13	0xbcd657d9	-0.026164936
14	0xbe3f4cc8	-0.18681633
15	0x3d0834a2	0.03325332
16	0xbbc9dc98	-0.00616033
17	0xbdab1d33	-0.08355179
18	0xbd805778	-0.06266683
19	0xbbfcdb2d	-0.0077165575
20	0x3d60dd91	0.054898802
21	0xbd8efd00	-0.0698185
22	0xbdc16704	-0.09443477
23	0xbd2be1e8	-0.041963488
24	0xbd694cfb	-0.05695818
25	0xbde648b5	-0.112443365
26	0x3d49a7a6	0.049232148
27	0x3d2a8a70	0.04163593
28	0xbcd7c225	-0.026337693
29	0xbccd241e	-0.025041636
30	0xbd7d0489	-0.061771903
31	0xbc46bc10	-0.0121297985
32	0xbc3649cd	-0.011125994
33	0x3c3455b6	0.011006763
34	0xbdd06db4	-0.10177174
35	0xbe27aaa5	-0.1637369
36	0xbd429b3e	-0.04751133
37	0xbce61823	-0.028087681
38	0x3cc6115b	0.024178198
39	0x3c1901d7	0.009338818
40	0xbd88ce4e	-0.066799745
41	0x3d4b4bcf	0.049632844
42	0x3c4eae6c	0.012614828
43	0xbf00f014	-0.5036633
44	0xbdb7c945	-0.08973936
45	0x3c566766	0.013086176
46	0xbcd4b4ac	-0.025965057
47	0xbcbd3bdd	-0.023099834
48	0xbd96956a	-0.07352717
49	0x3d1d0c23	0.038341653
50	0xbd60b6ec	-0.054861948
51	0xbd3b0160	-0.04565561
52	0x3d18fbb3	0.037349414
53	0xbb30577a	-0.002690761
54	0x3c57d89c	0.013174202
55	0xbd7e39e9	-0.062066946
56	0xbdd634bc	-0.10459277
57	0x3c1ba385	0.009499435
58	0xbcf51851	-0.029918822
59	0xbdad3350	-0.08457053
60	0xba81e643	-0.0009910542
61	0xbc3c1f21	-0.011482031
62	0xbbdaaf3b	-0.006673721
63	0xbd31e1d9	-0.043428276
64	0xbdd814ba	-0.10550828
65	0xbe0b72e3	-0.13618045
66	0xbd351b3f	-0.044215437
67	0x3d084bd7	0.03327545
68	0xbd030fd1	-0.031997506
69	0xbc3ed743	-0.011648002
70	0xb9b253a3	-0.0003401312
71	0x3d2fcf3a	0.042922236
72	0x3b955c5d	0.0045581297
73	0x3cc3fbb4	0.023923732
74	0xbd14b5ba	-0.03630612
75	0xbe0905a5	-0.1338106
76	0xbd31044d	-0.043216992
77	0xbd47f857	-0.04882082
78	0xbde9088b	-0.113785826
79	0xbca1e4b4	-0.019762374
80	0xbd8f4209	-0.06995017
81	0xbe2c3a44	-0.16819102
82	0xbccc4f64	-0.0249402
83	0xbda7d6a2	-0.08195235
84	0xbdb0148d	-0.0859767
85	0x3ae47c71	0.0017432106
86	0xbd2789ac	-0.04090278
87	0xbe5884af	-0.21144365
88	0xbdbf0825	-0.09327725
89	0xbcea5ff4	-0.028610207
90	0xbd0c8ecd	-0.034315873
91	0xbcbbf72e	-0.022945013
92	0x3b299ed3	0.002588202
93	0x3bb743b4	0.0055927876
94	0xbd18c0aa	-0.037293114
95	0xbd64e353	-0.055880856
96	0xbe891fe2	-0.26782137
97	0xbda3d0ca	-0.07998808
98	0xbb9bd444	-0.0047555286
99	0xbcf00c12	-0.02930263
100	0x3d3046b8	0.043036193
101	0xbdc58636	-0.09644739
102	0xbdfd7cfc	-0.123773545
103	0xbdf76c90	-0.120812535
104	0x3d451bf8	0.048122376
105	0x3c9c7049	0.01909651
106	0xbcbee20e	-0.02330115
107	0x3cdd6275	0.027024487
108	0xbd595c6c	-0.053066656
109	0x3c36d38a	0.011158833
110	0xbd2d4d80	-0.042310238
111	0xbd88204c	-0.06646785
112	0xbdcaa65b	-0.09895011
113	0xbee2f441	-0.44326976
114	0xbd8b763c	-0.06809661
115	0xbd2082d8	-0.039187282
116	0x3b3ea33a	0.002908899
117	0xbd56cb49	-0.05243996
118	0xbd671d4f	-0.056424435
119	0x3cadea11	0.021229776
120	0xbdadb900	-0.084825516
121	0xbdef1342	-0.11673595
122	0x3c88076d	0.016605103
123	0x3d11dc0b	0.03561024
124	0xbbdb706f	-0.0066967527
125	0xbddba389	-0.10724551
126	0xbd983736	-0.07432406
127	0xbda5e721	-0.08100725
128	0x3d365c76	0.04452177
129	0xbe1e5850	-0.15463376
130	0xbd45f95e	-0.04833352
131	0xbd7b79c6	-0.06139543
132	0xbd1dfeca	-0.038573064
133	0xbd16cbdd	-0.036815513
134	0xbc2d0d80	-0.010562301
135	0xbdf59a73	-0.119923495
136	0xbd14d76d	-0.03633826
137	0xbcdee1d9	-0.027207302
138	0xbdcc0378	-0.09961599
139	0x3d5eff7b	0.054442864
140	0x3b358b72	0.0027701524
141	0xbc3ea899	-0.0116368765
142	0x3d25e369	0.04050008
143	0x3d2d2b55	0.042277653
144	0xbdac057b	-0.08399483
145	0xbd10c909	-0.035347972
146	0xbc2a857e	-0.010407804
147	0xbd1f14ef	-0.038838323
148	0x3ab1eaa2	0.0013573954
149	0xbd06dd4e	-0.032925896
150	0xbdb5b89a	-0.088731006
151	0xbf01fba6	-0.5077461
152	0x3b271eee	0.0025500613
153	0xbc89628a	-0.01677062
154	0x3c06d764	0.008230064
155	0xbe6e9620	-0.23299456
156	0xbda3f6fa	-0.080060914
157	0xbde4abc2	-0.11165573
158	0xbdcd511b	-0.10025235
159	0xbcb8bcd1	-0.022550972
160	0x3c112e7d	0.008861181
161	0xbde660c9	-0.11248929
162	0xbc054bf4	-0.008135784
163	0xbda67f55	-0.081297554
164	0x3c238e92	0.009982722
165	0xbcc55d67	-0.02409239
166	0x3c587658	0.013211809
167	0xbb78b933	-0.0037952184
168	0xbd9827a6	-0.07429437
169	0xbdc44df0	-0.09585178
170	0xbdda5546	-0.10660796
171	0xbbe53362	-0.0069946507
172	0xbce3e12f	-0.027817337
173	0xbdde1142	-0.108431354
174	0xbc0c15c7	-0.008550114
175	0xbd8bd8de	-0.068284735
176	0xbde205ea	-0.11036284
177	0xbd2cfd8a	-0.04223398
178	0xbda40987	-0.0800963
179	0xbd881902	-0.06645395
180	0xbe3ef8de	-0.18649623
181	0x3ab59b08	0.0013855407
182	0xbdf10469	-0.11768419
183	0xbd2ea9fc	-0.04264258
184	0xbd50392d	-0.050835777
185	0x3d558b3a	0.05213473
186	0xbe4de2e6	-0.20106086
187	0xbdb74a44	-0.08949712
188	0xbe1de9e5	-0.15421255
189	0xbbae47b0	-0.0053186044
190	0xbd889716	-0.06669442
191	0xbe8c1963	-0.2736312
192	0x3d4c6229	0.0498983
193	0x3d58b024	0.052902356
194	0x3c812c8b	0.01576831
195	0x3b23d0a2	0.002499618
196	0x3d0da289	0.034578834
197	0xbd870b72	-0.0659398
198	0x3c5cae62	0.0134693105
199	0xbc219b68	-0.009863712
200	0x3ca754fe	0.02042627
201	0xbe0d78cf	-0.13815616
202	0xbc44070a	-0.011964569
203	0xbc907c32	-0.017637346
204	0xbdc6aece	-0.0970131
205	0xbd5571be	-0.052110426
206	0x3c67f33d	0.014157114
207	0xbd16dea3	-0.036833417
208	0xbda7d842	-0.08195545
209	0xbd194741	-0.03742147
210	0xbc37ea59	-0.011225306
211	0xbd68a6d7	-0.056799736
212	0xbcb385ca	-0.021914382
213	0xbd8c589c	-0.068528384
214	0xbc53d448	-0.01292903
215	0xbaf2b4c7	-0.0018517011
216	0xbcc35ad5	-0.023847023
217	0xbd27882e	-0.040901355
218	0x3ba2d32a	0.0049690204
219	0xbbb587dd	-0.005539878
220	0xbe89878b	-0.26861224
221	0xbd444762	-0.04791964
222	0xbd86fa34	-0.06590691
223	0xbd74b816	-0.05974587
224	0xbd01a75e	-0.031653754
225	0x3b7b3316	0.003833001
226	0xbd9db61a	-0.07700749
227	0xbd837b89	-0.06420047
228	0xbc622dd9	-0.013804876
229	0xbd254363	-0.040347468
230	0x3d561eff	0.052275654
231	0xbca72048	-0.020401135
232	0xbd3ece5a	-0.04658351
233	0xbd47fbf3	-0.048824262
234	0xbd2e02bc	-0.042483076
235	0xbd7d9c72	-0.061916776
236	0xbde5c310	-0.11218846
237	0xbc8e704a	-0.017387528
238	0xbd0c98dc	-0.034325466
239	0x3cc5f317	0.024163766
240	0x3ca569cd	0.020192051
241	0x396b9908	0.00022468355
242	0x3d0fa438	0.03506872
243	0xbd19b2ff	-0.03752422
244	0xbca5c0e2	-0.020233575
245	0xbd512de4	-0.051069155
246	0xbe6e7f4b	-0.23290746
247	0xbcdd8fdb	-0.027046135
248	0xbcb00430	-0.021486372
249	0xbe18a045	-0.14904888
250	0xbc6d40a7	-0.014480746
251	0xbd31800b	-0.043335002
252	0xbd2300f1	-0.03979582
253	0xbdb66936	-0.08906786
254	0x3c8f5027	0.017494274
255	0xbd96ea61	-0.07368923

fc.3.bias f4 [12]
0	0xbcb5bed8	-0.022185728
1	0xbc0a5074	-0.008442033
2	0x3d239029	0.039932404
3	0xbcd9c5d2	-0.026583586
4	0xbd6d8b42	-0.057994135
5	0x3d7568c5	0.05991437
6	0xbbbfab06	-0.005849245
7	0x3d1afafe	0.03783702
8	0x3d866ae7	0.06563359
9	0x3bd0860a	0.006363635
10	0xbd95d193	-0.07315364
11	0x3d0baa7d	0.034098137
